…
I1006 00:18:42.382710  8968 net.cpp:289] The NetState phase (0) differed from the phase (1) specified by a rule in layer accuracy
I1006 00:18:42.382851  8968 net.cpp:44] Initializing net from parameters: 
name: "CaffeNet"
state {
  phase: TRAIN
}
layer {
  name: "data"
  type: "Data"
  top: "data"
  top: "label"
  include {
    phase: TRAIN
  }
  transform_param {
    mirror: true
    crop_size: 227
    mean_file: "data/acFrontLight/imagenet_mean.binaryproto"
  }
  data_param {
    source: "acFrontLight/imagenet_train_leveldb"
    batch_size: 50
    backend: LMDB
  }
}
layer {
  name: "conv1"
  type: "Convolution"
  bottom: "data"
  top: "conv1"
  param {
    lr_mult: 1
    decay_mult: 1
  }
  param {
    lr_mult: 2
    decay_mult: 0
  }
  convolution_param {
    num_output: 96
    kernel_size: 11
    stride: 4
    weight_filler {
      type: "gaussian"
      std: 0.01
    }
    bias_filler {
      type: "constant"
      value: 0
    }
  }
}
layer {
  name: "relu1"
  type: "ReLU"
  bottom: "conv1"
  top: "conv1"
}
layer {
  name: "pool1"
  type: "Pooling"
  bottom: "conv1"
  top: "pool1"
  pooling_param {
    pool: MAX
    kernel_size: 3
    stride: 2
  }
}
layer {
  name: "norm1"
  type: "LRN"
  bottom: "pool1"
  top: "norm1"
  lrn_param {
    local_size: 5
    alpha: 0.0001
    beta: 0.75
  }
}
layer {
  name: "conv2"
  type: "Convolution"
  bottom: "norm1"
  top: "conv2"
  param {
    lr_mult: 1
    decay_mult: 1
  }
  param {
    lr_mult: 2
    decay_mult: 0
  }
  convolution_param {
    num_output: 256
    pad: 2
    kernel_size: 5
    group: 2
    weight_filler {
      type: "gaussian"
      std: 0.01
    }
    bias_filler {
      type: "constant"
      value: 1
    }
  }
}
layer {
  name: "relu2"
  type: "ReLU"
  bottom: "conv2"
  top: "conv2"
}
layer {
  name: "pool2"
  type: "Pooling"
  bottom: "conv2"
  top: "pool2"
  pooling_param {
    pool: MAX
    kernel_size: 3
    stride: 2
  }
}
layer {
  name: "norm2"
  type: "LRN"
  bottom: "pool2"
  top: "norm2"
  lrn_param {
    local_size: 5
    alpha: 0.0001
    beta: 0.75
  }
}
layer {
  name: "conv3"
  type: "Convolution"
  bottom: "norm2"
  top: "conv3"
  param {
    lr_mult: 1
    decay_mult: 1
  }
  param {
    lr_mult: 2
    decay_mult: 0
  }
  convolution_param {
    num_output: 384
    pad: 1
    kernel_size: 3
    weight_filler {
      type: "gaussian"
      std: 0.01
    }
    bias_filler {
      type: "constant"
      value: 0
    }
  }
}
layer {
  name: "relu3"
  type: "ReLU"
  bottom: "conv3"
  top: "conv3"
}
layer {
  name: "conv4"
  type: "Convolution"
  bottom: "conv3"
  top: "conv4"
  param {
    lr_mult: 1
    decay_mult: 1
  }
  param {
    lr_mult: 2
    decay_mult: 0
  }
  convolution_param {
    num_output: 384
    pad: 1
    kernel_size: 3
    group: 2
    weight_filler {
      type: "gaussian"
      std: 0.01
    }
    bias_filler {
      type: "constant"
      value: 1
    }
  }
}
layer {
  name: "relu4"
  type: "ReLU"
  bottom: "conv4"
  top: "conv4"
}
layer {
  name: "conv5"
  type: "Convolution"
  bottom: "conv4"
  top: "conv5"
  param {
    lr_mult: 1
    decay_mult: 1
  }
  param {
    lr_mult: 2
    decay_mult: 0
  }
  convolution_param {
    num_output: 256
    pad: 1
    kernel_size: 3
    group: 2
    weight_filler {
      type: "gaussian"
      std: 0.01
    }
    bias_filler {
      type: "constant"
      value: 1
    }
  }
}
layer {
  name: "relu5"
  type: "ReLU"
  bottom: "conv5"
  top: "conv5"
}
layer {
  name: "pool5"
  type: "Pooling"
  bottom: "conv5"
  top: "pool5"
  pooling_param {
    pool: MAX
    kernel_size: 3
    stride: 2
  }
}
layer {
  name: "fc6"
  type: "InnerProduct"
  bottom: "pool5"
  top: "fc6"
  param {
    lr_mult: 1
    decay_mult: 1
  }
  param {
    lr_mult: 2
    decay_mult: 0
  }
  inner_product_param {
    num_output: 4096
    weight_filler {
      type: "gaussian"
      std: 0.005
    }
    bias_filler {
      type: "constant"
      value: 1
    }
  }
}
layer {
  name: "relu6"
  type: "ReLU"
  bottom: "fc6"
  top: "fc6"
}
layer {
  name: "drop6"
  type: "Dropout"
  bottom: "fc6"
  top: "fc6"
  dropout_param {
    dropout_ratio: 0.5
  }
}
layer {
  name: "fc7"
  type: "InnerProduct"
  bottom: "fc6"
  top: "fc7"
  param {
    lr_mult: 1
    decay_mult: 1
  }
  param {
    lr_mult: 2
    decay_mult: 0
  }
  inner_product_param {
    num_output: 4096
    weight_filler {
      type: "gaussian"
      std: 0.005
    }
    bias_filler {
      type: "constant"
      value: 1
    }
  }
}
layer {
  name: "relu7"
  type: "ReLU"
  bottom: "fc7"
  top: "fc7"
}
layer {
  name: "drop7"
  type: "Dropout"
  bottom: "fc7"
  top: "fc7"
  dropout_param {
    dropout_ratio: 0.5
  }
}
layer {
  name: "fc8"
  type: "InnerProduct"
  bottom: "fc7"
  top: "fc8"
  param {
    lr_mult: 1
    decay_mult: 1
  }
  param {
    lr_mult: 2
    decay_mult: 0
  }
  inner_product_param {
    num_output: 2
    weight_filler {
      type: "gaussian"
      std: 0.01
    }
    bias_filler {
      type: "constant"
      value: 0
    }
  }
}
layer {
  name: "loss"
  type: "SoftmaxWithLoss"
  bottom: "fc8"
  bottom: "label"
  top: "loss"
}
I1006 00:18:42.382956  8968 layer_factory.hpp:74] Creating layer data
I1006 00:18:42.382978  8968 net.cpp:92] Creating Layer data
I1006 00:18:42.382987  8968 net.cpp:370] data -> data
I1006 00:18:42.383008  8968 net.cpp:370] data -> label
I1006 00:18:42.383018  8968 net.cpp:122] Setting up data
I1006 00:18:42.383025  8968 data_transformer.cpp:22] Loading mean file from: data/acFrontLight/imagenet_mean.binaryproto
I1006 00:18:42.384567  8968 db_lmdb.cpp:22] Opened lmdb acFrontLight/imagenet_train_leveldb
I1006 00:18:42.384637  8968 data_layer.cpp:52] output data size: 50,3,227,227
I1006 00:18:42.388525  8968 net.cpp:129] Top shape: 50 3 227 227 (7729350)
I1006 00:18:42.388562  8968 net.cpp:129] Top shape: 50 (50)
I1006 00:18:42.388572  8968 layer_factory.hpp:74] Creating layer conv1
I1006 00:18:42.388592  8968 net.cpp:92] Creating Layer conv1
I1006 00:18:42.388599  8968 net.cpp:412] conv1 <- data
I1006 00:18:42.388612  8968 net.cpp:370] conv1 -> conv1
I1006 00:18:42.388628  8968 net.cpp:122] Setting up conv1
I1006 00:18:42.389480  8968 net.cpp:129] Top shape: 50 96 55 55 (14520000)
I1006 00:18:42.389499  8968 layer_factory.hpp:74] Creating layer relu1
I1006 00:18:42.389508  8968 net.cpp:92] Creating Layer relu1
I1006 00:18:42.389514  8968 net.cpp:412] relu1 <- conv1
I1006 00:18:42.389520  8968 net.cpp:359] relu1 -> conv1 (in-place)
I1006 00:18:42.389528  8968 net.cpp:122] Setting up relu1
I1006 00:18:42.389533  8968 net.cpp:129] Top shape: 50 96 55 55 (14520000)
I1006 00:18:42.389539  8968 layer_factory.hpp:74] Creating layer pool1
I1006 00:18:42.389546  8968 net.cpp:92] Creating Layer pool1
I1006 00:18:42.389551  8968 net.cpp:412] pool1 <- conv1
I1006 00:18:42.389559  8968 net.cpp:370] pool1 -> pool1
I1006 00:18:42.389566  8968 net.cpp:122] Setting up pool1
I1006 00:18:42.389580  8968 net.cpp:129] Top shape: 50 96 27 27 (3499200)
I1006 00:18:42.389586  8968 layer_factory.hpp:74] Creating layer norm1
I1006 00:18:42.389595  8968 net.cpp:92] Creating Layer norm1
I1006 00:18:42.389600  8968 net.cpp:412] norm1 <- pool1
I1006 00:18:42.389607  8968 net.cpp:370] norm1 -> norm1
I1006 00:18:42.389616  8968 net.cpp:122] Setting up norm1
I1006 00:18:42.389624  8968 net.cpp:129] Top shape: 50 96 27 27 (3499200)
I1006 00:18:42.389629  8968 layer_factory.hpp:74] Creating layer conv2
I1006 00:18:42.389637  8968 net.cpp:92] Creating Layer conv2
I1006 00:18:42.389654  8968 net.cpp:412] conv2 <- norm1
I1006 00:18:42.389670  8968 net.cpp:370] conv2 -> conv2
I1006 00:18:42.389678  8968 net.cpp:122] Setting up conv2
I1006 00:18:42.397006  8968 net.cpp:129] Top shape: 50 256 27 27 (9331200)
I1006 00:18:42.397043  8968 layer_factory.hpp:74] Creating layer relu2
I1006 00:18:42.397054  8968 net.cpp:92] Creating Layer relu2
I1006 00:18:42.397061  8968 net.cpp:412] relu2 <- conv2
I1006 00:18:42.397070  8968 net.cpp:359] relu2 -> conv2 (in-place)
I1006 00:18:42.397079  8968 net.cpp:122] Setting up relu2
I1006 00:18:42.397086  8968 net.cpp:129] Top shape: 50 256 27 27 (9331200)
I1006 00:18:42.397092  8968 layer_factory.hpp:74] Creating layer pool2
I1006 00:18:42.397099  8968 net.cpp:92] Creating Layer pool2
I1006 00:18:42.397104  8968 net.cpp:412] pool2 <- conv2
I1006 00:18:42.397111  8968 net.cpp:370] pool2 -> pool2
I1006 00:18:42.397119  8968 net.cpp:122] Setting up pool2
I1006 00:18:42.397128  8968 net.cpp:129] Top shape: 50 256 13 13 (2163200)
I1006 00:18:42.397135  8968 layer_factory.hpp:74] Creating layer norm2
I1006 00:18:42.397145  8968 net.cpp:92] Creating Layer norm2
I1006 00:18:42.397150  8968 net.cpp:412] norm2 <- pool2
I1006 00:18:42.397157  8968 net.cpp:370] norm2 -> norm2
I1006 00:18:42.397166  8968 net.cpp:122] Setting up norm2
I1006 00:18:42.397172  8968 net.cpp:129] Top shape: 50 256 13 13 (2163200)
I1006 00:18:42.397178  8968 layer_factory.hpp:74] Creating layer conv3
I1006 00:18:42.397187  8968 net.cpp:92] Creating Layer conv3
I1006 00:18:42.397192  8968 net.cpp:412] conv3 <- norm2
I1006 00:18:42.397202  8968 net.cpp:370] conv3 -> conv3
I1006 00:18:42.397210  8968 net.cpp:122] Setting up conv3
I1006 00:18:42.418400  8968 net.cpp:129] Top shape: 50 384 13 13 (3244800)
I1006 00:18:42.418434  8968 layer_factory.hpp:74] Creating layer relu3
I1006 00:18:42.418447  8968 net.cpp:92] Creating Layer relu3
I1006 00:18:42.418452  8968 net.cpp:412] relu3 <- conv3
I1006 00:18:42.418462  8968 net.cpp:359] relu3 -> conv3 (in-place)
I1006 00:18:42.418469  8968 net.cpp:122] Setting up relu3
I1006 00:18:42.418475  8968 net.cpp:129] Top shape: 50 384 13 13 (3244800)
I1006 00:18:42.418481  8968 layer_factory.hpp:74] Creating layer conv4
I1006 00:18:42.418490  8968 net.cpp:92] Creating Layer conv4
I1006 00:18:42.418496  8968 net.cpp:412] conv4 <- conv3
I1006 00:18:42.418503  8968 net.cpp:370] conv4 -> conv4
I1006 00:18:42.418511  8968 net.cpp:122] Setting up conv4
I1006 00:18:42.433615  8968 net.cpp:129] Top shape: 50 384 13 13 (3244800)
I1006 00:18:42.433626  8968 layer_factory.hpp:74] Creating layer relu4
I1006 00:18:42.433632  8968 net.cpp:92] Creating Layer relu4
I1006 00:18:42.433639  8968 net.cpp:412] relu4 <- conv4
I1006 00:18:42.433645  8968 net.cpp:359] relu4 -> conv4 (in-place)
I1006 00:18:42.433650  8968 net.cpp:122] Setting up relu4
I1006 00:18:42.433656  8968 net.cpp:129] Top shape: 50 384 13 13 (3244800)
I1006 00:18:42.433661  8968 layer_factory.hpp:74] Creating layer conv5
I1006 00:18:42.433676  8968 net.cpp:92] Creating Layer conv5
I1006 00:18:42.433681  8968 net.cpp:412] conv5 <- conv4
I1006 00:18:42.433688  8968 net.cpp:370] conv5 -> conv5
I1006 00:18:42.433696  8968 net.cpp:122] Setting up conv5
I1006 00:18:42.443919  8968 net.cpp:129] Top shape: 50 256 13 13 (2163200)
I1006 00:18:42.443935  8968 layer_factory.hpp:74] Creating layer relu5
I1006 00:18:42.443943  8968 net.cpp:92] Creating Layer relu5
I1006 00:18:42.443948  8968 net.cpp:412] relu5 <- conv5
I1006 00:18:42.443954  8968 net.cpp:359] relu5 -> conv5 (in-place)
I1006 00:18:42.443961  8968 net.cpp:122] Setting up relu5
I1006 00:18:42.443967  8968 net.cpp:129] Top shape: 50 256 13 13 (2163200)
I1006 00:18:42.443972  8968 layer_factory.hpp:74] Creating layer pool5
I1006 00:18:42.443979  8968 net.cpp:92] Creating Layer pool5
I1006 00:18:42.443984  8968 net.cpp:412] pool5 <- conv5
I1006 00:18:42.443991  8968 net.cpp:370] pool5 -> pool5
I1006 00:18:42.443999  8968 net.cpp:122] Setting up pool5
I1006 00:18:42.444007  8968 net.cpp:129] Top shape: 50 256 6 6 (460800)
I1006 00:18:42.444021  8968 layer_factory.hpp:74] Creating layer fc6
I1006 00:18:42.444036  8968 net.cpp:92] Creating Layer fc6
I1006 00:18:42.444049  8968 net.cpp:412] fc6 <- pool5
I1006 00:18:42.444057  8968 net.cpp:370] fc6 -> fc6
I1006 00:18:42.444067  8968 net.cpp:122] Setting up fc6
I1006 00:18:43.300818  8968 net.cpp:129] Top shape: 50 4096 (204800)
I1006 00:18:43.300863  8968 layer_factory.hpp:74] Creating layer relu6
I1006 00:18:43.300873  8968 net.cpp:92] Creating Layer relu6
I1006 00:18:43.300879  8968 net.cpp:412] relu6 <- fc6
I1006 00:18:43.300889  8968 net.cpp:359] relu6 -> fc6 (in-place)
I1006 00:18:43.300899  8968 net.cpp:122] Setting up relu6
I1006 00:18:43.300905  8968 net.cpp:129] Top shape: 50 4096 (204800)
I1006 00:18:43.300910  8968 layer_factory.hpp:74] Creating layer drop6
I1006 00:18:43.300925  8968 net.cpp:92] Creating Layer drop6
I1006 00:18:43.300930  8968 net.cpp:412] drop6 <- fc6
I1006 00:18:43.300938  8968 net.cpp:359] drop6 -> fc6 (in-place)
I1006 00:18:43.300948  8968 net.cpp:122] Setting up drop6
I1006 00:18:43.300958  8968 net.cpp:129] Top shape: 50 4096 (204800)
I1006 00:18:43.300963  8968 layer_factory.hpp:74] Creating layer fc7
I1006 00:18:43.300971  8968 net.cpp:92] Creating Layer fc7
I1006 00:18:43.300976  8968 net.cpp:412] fc7 <- fc6
I1006 00:18:43.300983  8968 net.cpp:370] fc7 -> fc7
I1006 00:18:43.300992  8968 net.cpp:122] Setting up fc7
I1006 00:18:43.681668  8968 net.cpp:129] Top shape: 50 4096 (204800)
I1006 00:18:43.681709  8968 layer_factory.hpp:74] Creating layer relu7
I1006 00:18:43.681720  8968 net.cpp:92] Creating Layer relu7
I1006 00:18:43.681726  8968 net.cpp:412] relu7 <- fc7
I1006 00:18:43.681735  8968 net.cpp:359] relu7 -> fc7 (in-place)
I1006 00:18:43.681743  8968 net.cpp:122] Setting up relu7
I1006 00:18:43.681751  8968 net.cpp:129] Top shape: 50 4096 (204800)
I1006 00:18:43.681756  8968 layer_factory.hpp:74] Creating layer drop7
I1006 00:18:43.681763  8968 net.cpp:92] Creating Layer drop7
I1006 00:18:43.681768  8968 net.cpp:412] drop7 <- fc7
I1006 00:18:43.681774  8968 net.cpp:359] drop7 -> fc7 (in-place)
I1006 00:18:43.681782  8968 net.cpp:122] Setting up drop7
I1006 00:18:43.681788  8968 net.cpp:129] Top shape: 50 4096 (204800)
I1006 00:18:43.681793  8968 layer_factory.hpp:74] Creating layer fc8
I1006 00:18:43.681802  8968 net.cpp:92] Creating Layer fc8
I1006 00:18:43.681807  8968 net.cpp:412] fc8 <- fc7
I1006 00:18:43.681815  8968 net.cpp:370] fc8 -> fc8
I1006 00:18:43.681824  8968 net.cpp:122] Setting up fc8
I1006 00:18:43.682027  8968 net.cpp:129] Top shape: 50 2 (100)
I1006 00:18:43.682036  8968 layer_factory.hpp:74] Creating layer loss
I1006 00:18:43.682044  8968 net.cpp:92] Creating Layer loss
I1006 00:18:43.682049  8968 net.cpp:412] loss <- fc8
I1006 00:18:43.682054  8968 net.cpp:412] loss <- label
I1006 00:18:43.682063  8968 net.cpp:370] loss -> loss
I1006 00:18:43.682080  8968 net.cpp:122] Setting up loss
I1006 00:18:43.682088  8968 layer_factory.hpp:74] Creating layer loss
…
I1006 00:18:43.682937  8968 net.cpp:289] The NetState phase (1) differed from the phase (0) specified by a rule in layer data
I1006 00:18:43.683094  8968 net.cpp:44] Initializing net from parameters: 
name: "CaffeNet"
state {
  phase: TEST
}
layer {
  name: "data"
  type: "Data"
  top: "data"
  top: "label"
  include {
    phase: TEST
  }
  transform_param {
    mirror: true
    crop_size: 227
    mean_file: "data/acFrontLight/imagenet_mean.binaryproto"
  }
  data_param {
    source: "acFrontLight/imagenet_val_leveldb"
    mean_file: "data/acFrontLight/imagenet_mean.binartproto"
    batch_size: 10
    crop_size: 227
    mirror: false
    backend: LMDB
  }
}
layer {
  name: "conv1"
  type: "Convolution"
  bottom: "data"
  top: "conv1"
  param {
    lr_mult: 1
    decay_mult: 1
  }
  param {
    lr_mult: 2
    decay_mult: 0
  }
  convolution_param {
    num_output: 96
    kernel_size: 11
    stride: 4
    weight_filler {
      type: "gaussian"
      std: 0.01
    }
    bias_filler {
      type: "constant"
      value: 0
    }
  }
}
layer {
  name: "relu1"
  type: "ReLU"
  bottom: "conv1"
  top: "conv1"
}
layer {
  name: "pool1"
  type: "Pooling"
  bottom: "conv1"
  top: "pool1"
  pooling_param {
    pool: MAX
    kernel_size: 3
    stride: 2
  }
}
layer {
  name: "norm1"
  type: "LRN"
  bottom: "pool1"
  top: "norm1"
  lrn_param {
    local_size: 5
    alpha: 0.0001
    beta: 0.75
  }
}
layer {
  name: "conv2"
  type: "Convolution"
  bottom: "norm1"
  top: "conv2"
  param {
    lr_mult: 1
    decay_mult: 1
  }
  param {
    lr_mult: 2
    decay_mult: 0
  }
  convolution_param {
    num_output: 256
    pad: 2
    kernel_size: 5
    group: 2
    weight_filler {
      type: "gaussian"
      std: 0.01
    }
    bias_filler {
      type: "constant"
      value: 1
    }
  }
}
layer {
  name: "relu2"
  type: "ReLU"
  bottom: "conv2"
  top: "conv2"
}
layer {
  name: "pool2"
  type: "Pooling"
  bottom: "conv2"
  top: "pool2"
  pooling_param {
    pool: MAX
    kernel_size: 3
    stride: 2
  }
}
layer {
  name: "norm2"
  type: "LRN"
  bottom: "pool2"
  top: "norm2"
  lrn_param {
    local_size: 5
    alpha: 0.0001
    beta: 0.75
  }
}
layer {
  name: "conv3"
  type: "Convolution"
  bottom: "norm2"
  top: "conv3"
  param {
    lr_mult: 1
    decay_mult: 1
  }
  param {
    lr_mult: 2
    decay_mult: 0
  }
  convolution_param {
    num_output: 384
    pad: 1
    kernel_size: 3
    weight_filler {
      type: "gaussian"
      std: 0.01
    }
    bias_filler {
      type: "constant"
      value: 0
    }
  }
}
layer {
  name: "relu3"
  type: "ReLU"
  bottom: "conv3"
  top: "conv3"
}
layer {
  name: "conv4"
  type: "Convolution"
  bottom: "conv3"
  top: "conv4"
  param {
    lr_mult: 1
    decay_mult: 1
  }
  param {
    lr_mult: 2
    decay_mult: 0
  }
  convolution_param {
    num_output: 384
    pad: 1
    kernel_size: 3
    group: 2
    weight_filler {
      type: "gaussian"
      std: 0.01
    }
    bias_filler {
      type: "constant"
      value: 1
    }
  }
}
layer {
  name: "relu4"
  type: "ReLU"
  bottom: "conv4"
  top: "conv4"
}
layer {
  name: "conv5"
  type: "Convolution"
  bottom: "conv4"
  top: "conv5"
  param {
    lr_mult: 1
    decay_mult: 1
  }
  param {
    lr_mult: 2
    decay_mult: 0
  }
  convolution_param {
    num_output: 256
    pad: 1
    kernel_size: 3
    group: 2
    weight_filler {
      type: "gaussian"
      std: 0.01
    }
    bias_filler {
      type: "constant"
      value: 1
    }
  }
}
layer {
  name: "relu5"
  type: "ReLU"
  bottom: "conv5"
  top: "conv5"
}
layer {
  name: "pool5"
  type: "Pooling"
  bottom: "conv5"
  top: "pool5"
  pooling_param {
    pool: MAX
    kernel_size: 3
    stride: 2
  }
}
layer {
  name: "fc6"
  type: "InnerProduct"
  bottom: "pool5"
  top: "fc6"
  param {
    lr_mult: 1
    decay_mult: 1
  }
  param {
    lr_mult: 2
    decay_mult: 0
  }
  inner_product_param {
    num_output: 4096
    weight_filler {
      type: "gaussian"
      std: 0.005
    }
    bias_filler {
      type: "constant"
      value: 1
    }
  }
}
layer {
  name: "relu6"
  type: "ReLU"
  bottom: "fc6"
  top: "fc6"
}
layer {
  name: "drop6"
  type: "Dropout"
  bottom: "fc6"
  top: "fc6"
  dropout_param {
    dropout_ratio: 0.5
  }
}
layer {
  name: "fc7"
  type: "InnerProduct"
  bottom: "fc6"
  top: "fc7"
  param {
    lr_mult: 1
    decay_mult: 1
  }
  param {
    lr_mult: 2
    decay_mult: 0
  }
  inner_product_param {
    num_output: 4096
    weight_filler {
      type: "gaussian"
      std: 0.005
    }
    bias_filler {
      type: "constant"
      value: 1
    }
  }
}
layer {
  name: "relu7"
  type: "ReLU"
  bottom: "fc7"
  top: "fc7"
}
layer {
  name: "drop7"
  type: "Dropout"
  bottom: "fc7"
  top: "fc7"
  dropout_param {
    dropout_ratio: 0.5
  }
}
layer {
  name: "fc8"
  type: "InnerProduct"
  bottom: "fc7"
  top: "fc8"
  param {
    lr_mult: 1
    decay_mult: 1
  }
  param {
    lr_mult: 2
    decay_mult: 0
  }
  inner_product_param {
    num_output: 2
    weight_filler {
      type: "gaussian"
      std: 0.01
    }
    bias_filler {
      type: "constant"
      value: 0
    }
  }
}
layer {
  name: "accuracy"
  type: "Accuracy"
  bottom: "fc8"
  bottom: "label"
  top: "accuracy"
  include {
    phase: TEST
  }
}
layer {
  name: "loss"
  type: "SoftmaxWithLoss"
  bottom: "fc8"
  bottom: "label"
  top: "loss"
}
I1006 00:18:43.683199  8968 layer_factory.hpp:74] Creating layer data
I1006 00:18:43.683212  8968 net.cpp:92] Creating Layer data
I1006 00:18:43.683218  8968 net.cpp:370] data -> data
I1006 00:18:43.683228  8968 net.cpp:370] data -> label
I1006 00:18:43.683236  8968 net.cpp:122] Setting up data
I1006 00:18:43.683241  8968 data_transformer.cpp:22] Loading mean file from: data/acFrontLight/imagenet_mean.binaryproto
I1006 00:18:43.684538  8968 db_lmdb.cpp:22] Opened lmdb acFrontLight/imagenet_val_leveldb
I1006 00:18:43.684605  8968 data_layer.cpp:52] output data size: 10,3,227,227
I1006 00:18:43.685552  8968 net.cpp:129] Top shape: 10 3 227 227 (1545870)
I1006 00:18:43.685577  8968 net.cpp:129] Top shape: 10 (10)
I1006 00:18:43.685585  8968 layer_factory.hpp:74] Creating layer label_data_1_split
I1006 00:18:43.685597  8968 net.cpp:92] Creating Layer label_data_1_split
I1006 00:18:43.685606  8968 net.cpp:412] label_data_1_split <- label
I1006 00:18:43.685616  8968 net.cpp:370] label_data_1_split -> label_data_1_split_0
I1006 00:18:43.685629  8968 net.cpp:370] label_data_1_split -> label_data_1_split_1
I1006 00:18:43.685637  8968 net.cpp:122] Setting up label_data_1_split
I1006 00:18:43.685645  8968 net.cpp:129] Top shape: 10 (10)
I1006 00:18:43.685652  8968 net.cpp:129] Top shape: 10 (10)
I1006 00:18:43.685657  8968 layer_factory.hpp:74] Creating layer conv1
I1006 00:18:43.685667  8968 net.cpp:92] Creating Layer conv1
I1006 00:18:43.685673  8968 net.cpp:412] conv1 <- data
I1006 00:18:43.685681  8968 net.cpp:370] conv1 -> conv1
I1006 00:18:43.685689  8968 net.cpp:122] Setting up conv1
I1006 00:18:43.686537  8968 net.cpp:129] Top shape: 10 96 55 55 (2904000)
I1006 00:18:43.686553  8968 layer_factory.hpp:74] Creating layer relu1
I1006 00:18:43.686568  8968 net.cpp:92] Creating Layer relu1
I1006 00:18:43.686581  8968 net.cpp:412] relu1 <- conv1
I1006 00:18:43.686589  8968 net.cpp:359] relu1 -> conv1 (in-place)
I1006 00:18:43.686595  8968 net.cpp:122] Setting up relu1
I1006 00:18:43.686601  8968 net.cpp:129] Top shape: 10 96 55 55 (2904000)
I1006 00:18:43.686607  8968 layer_factory.hpp:74] Creating layer pool1
I1006 00:18:43.686615  8968 net.cpp:92] Creating Layer pool1
I1006 00:18:43.686620  8968 net.cpp:412] pool1 <- conv1
I1006 00:18:43.686626  8968 net.cpp:370] pool1 -> pool1
I1006 00:18:43.686633  8968 net.cpp:122] Setting up pool1
I1006 00:18:43.686643  8968 net.cpp:129] Top shape: 10 96 27 27 (699840)
I1006 00:18:43.686648  8968 layer_factory.hpp:74] Creating layer norm1
I1006 00:18:43.686655  8968 net.cpp:92] Creating Layer norm1
I1006 00:18:43.686661  8968 net.cpp:412] norm1 <- pool1
I1006 00:18:43.686667  8968 net.cpp:370] norm1 -> norm1
I1006 00:18:43.686674  8968 net.cpp:122] Setting up norm1
I1006 00:18:43.686681  8968 net.cpp:129] Top shape: 10 96 27 27 (699840)
I1006 00:18:43.686687  8968 layer_factory.hpp:74] Creating layer conv2
I1006 00:18:43.686694  8968 net.cpp:92] Creating Layer conv2
I1006 00:18:43.686699  8968 net.cpp:412] conv2 <- norm1
I1006 00:18:43.686707  8968 net.cpp:370] conv2 -> conv2
I1006 00:18:43.686714  8968 net.cpp:122] Setting up conv2
I1006 00:18:43.693902  8968 net.cpp:129] Top shape: 10 256 27 27 (1866240)
I1006 00:18:43.693930  8968 layer_factory.hpp:74] Creating layer relu2
I1006 00:18:43.693940  8968 net.cpp:92] Creating Layer relu2
I1006 00:18:43.693946  8968 net.cpp:412] relu2 <- conv2
I1006 00:18:43.693953  8968 net.cpp:359] relu2 -> conv2 (in-place)
I1006 00:18:43.693961  8968 net.cpp:122] Setting up relu2
I1006 00:18:43.693969  8968 net.cpp:129] Top shape: 10 256 27 27 (1866240)
I1006 00:18:43.693974  8968 layer_factory.hpp:74] Creating layer pool2
I1006 00:18:43.693982  8968 net.cpp:92] Creating Layer pool2
I1006 00:18:43.693989  8968 net.cpp:412] pool2 <- conv2
I1006 00:18:43.693994  8968 net.cpp:370] pool2 -> pool2
I1006 00:18:43.694003  8968 net.cpp:122] Setting up pool2
I1006 00:18:43.694013  8968 net.cpp:129] Top shape: 10 256 13 13 (432640)
I1006 00:18:43.694020  8968 layer_factory.hpp:74] Creating layer norm2
I1006 00:18:43.694026  8968 net.cpp:92] Creating Layer norm2
I1006 00:18:43.694031  8968 net.cpp:412] norm2 <- pool2
I1006 00:18:43.694037  8968 net.cpp:370] norm2 -> norm2
I1006 00:18:43.694044  8968 net.cpp:122] Setting up norm2
I1006 00:18:43.694051  8968 net.cpp:129] Top shape: 10 256 13 13 (432640)
I1006 00:18:43.694057  8968 layer_factory.hpp:74] Creating layer conv3
I1006 00:18:43.694067  8968 net.cpp:92] Creating Layer conv3
I1006 00:18:43.694072  8968 net.cpp:412] conv3 <- norm2
I1006 00:18:43.694079  8968 net.cpp:370] conv3 -> conv3
I1006 00:18:43.694087  8968 net.cpp:122] Setting up conv3
I1006 00:18:43.714371  8968 net.cpp:129] Top shape: 10 384 13 13 (648960)
I1006 00:18:43.714387  8968 layer_factory.hpp:74] Creating layer relu3
I1006 00:18:43.714395  8968 net.cpp:92] Creating Layer relu3
I1006 00:18:43.714400  8968 net.cpp:412] relu3 <- conv3
I1006 00:18:43.714406  8968 net.cpp:359] relu3 -> conv3 (in-place)
I1006 00:18:43.714412  8968 net.cpp:122] Setting up relu3
I1006 00:18:43.714418  8968 net.cpp:129] Top shape: 10 384 13 13 (648960)
I1006 00:18:43.714423  8968 layer_factory.hpp:74] Creating layer conv4
I1006 00:18:43.714432  8968 net.cpp:92] Creating Layer conv4
I1006 00:18:43.714437  8968 net.cpp:412] conv4 <- conv3
I1006 00:18:43.714443  8968 net.cpp:370] conv4 -> conv4
I1006 00:18:43.714452  8968 net.cpp:122] Setting up conv4
I1006 00:18:43.729789  8968 net.cpp:129] Top shape: 10 384 13 13 (648960)
I1006 00:18:43.729804  8968 layer_factory.hpp:74] Creating layer relu4
I1006 00:18:43.729815  8968 net.cpp:92] Creating Layer relu4
I1006 00:18:43.729821  8968 net.cpp:412] relu4 <- conv4
I1006 00:18:43.729828  8968 net.cpp:359] relu4 -> conv4 (in-place)
I1006 00:18:43.729835  8968 net.cpp:122] Setting up relu4
I1006 00:18:43.729850  8968 net.cpp:129] Top shape: 10 384 13 13 (648960)
I1006 00:18:43.729854  8968 layer_factory.hpp:74] Creating layer conv5
I1006 00:18:43.729872  8968 net.cpp:92] Creating Layer conv5
I1006 00:18:43.729877  8968 net.cpp:412] conv5 <- conv4
I1006 00:18:43.729884  8968 net.cpp:370] conv5 -> conv5
I1006 00:18:43.729892  8968 net.cpp:122] Setting up conv5
I1006 00:18:43.740183  8968 net.cpp:129] Top shape: 10 256 13 13 (432640)
I1006 00:18:43.740200  8968 layer_factory.hpp:74] Creating layer relu5
I1006 00:18:43.740207  8968 net.cpp:92] Creating Layer relu5
I1006 00:18:43.740212  8968 net.cpp:412] relu5 <- conv5
I1006 00:18:43.740218  8968 net.cpp:359] relu5 -> conv5 (in-place)
I1006 00:18:43.740226  8968 net.cpp:122] Setting up relu5
I1006 00:18:43.740231  8968 net.cpp:129] Top shape: 10 256 13 13 (432640)
I1006 00:18:43.740236  8968 layer_factory.hpp:74] Creating layer pool5
I1006 00:18:43.740247  8968 net.cpp:92] Creating Layer pool5
I1006 00:18:43.740252  8968 net.cpp:412] pool5 <- conv5
I1006 00:18:43.740258  8968 net.cpp:370] pool5 -> pool5
I1006 00:18:43.740267  8968 net.cpp:122] Setting up pool5
I1006 00:18:43.740278  8968 net.cpp:129] Top shape: 10 256 6 6 (92160)
I1006 00:18:43.740283  8968 layer_factory.hpp:74] Creating layer fc6
I1006 00:18:43.740291  8968 net.cpp:92] Creating Layer fc6
I1006 00:18:43.740296  8968 net.cpp:412] fc6 <- pool5
I1006 00:18:43.740303  8968 net.cpp:370] fc6 -> fc6
I1006 00:18:43.740310  8968 net.cpp:122] Setting up fc6
I1006 00:18:44.597394  8968 net.cpp:129] Top shape: 10 4096 (40960)
I1006 00:18:44.597437  8968 layer_factory.hpp:74] Creating layer relu6
I1006 00:18:44.597448  8968 net.cpp:92] Creating Layer relu6
I1006 00:18:44.597455  8968 net.cpp:412] relu6 <- fc6
I1006 00:18:44.597465  8968 net.cpp:359] relu6 -> fc6 (in-place)
I1006 00:18:44.597473  8968 net.cpp:122] Setting up relu6
I1006 00:18:44.597481  8968 net.cpp:129] Top shape: 10 4096 (40960)
I1006 00:18:44.597486  8968 layer_factory.hpp:74] Creating layer drop6
I1006 00:18:44.597493  8968 net.cpp:92] Creating Layer drop6
I1006 00:18:44.597498  8968 net.cpp:412] drop6 <- fc6
I1006 00:18:44.597504  8968 net.cpp:359] drop6 -> fc6 (in-place)
I1006 00:18:44.597512  8968 net.cpp:122] Setting up drop6
I1006 00:18:44.597519  8968 net.cpp:129] Top shape: 10 4096 (40960)
I1006 00:18:44.597524  8968 layer_factory.hpp:74] Creating layer fc7
I1006 00:18:44.597532  8968 net.cpp:92] Creating Layer fc7
I1006 00:18:44.597537  8968 net.cpp:412] fc7 <- fc6
I1006 00:18:44.597548  8968 net.cpp:370] fc7 -> fc7
I1006 00:18:44.597556  8968 net.cpp:122] Setting up fc7
I1006 00:18:44.978421  8968 net.cpp:129] Top shape: 10 4096 (40960)
I1006 00:18:44.978462  8968 layer_factory.hpp:74] Creating layer relu7
I1006 00:18:44.978473  8968 net.cpp:92] Creating Layer relu7
I1006 00:18:44.978480  8968 net.cpp:412] relu7 <- fc7
I1006 00:18:44.978488  8968 net.cpp:359] relu7 -> fc7 (in-place)
I1006 00:18:44.978497  8968 net.cpp:122] Setting up relu7
I1006 00:18:44.978503  8968 net.cpp:129] Top shape: 10 4096 (40960)
I1006 00:18:44.978508  8968 layer_factory.hpp:74] Creating layer drop7
I1006 00:18:44.978516  8968 net.cpp:92] Creating Layer drop7
I1006 00:18:44.978521  8968 net.cpp:412] drop7 <- fc7
I1006 00:18:44.978528  8968 net.cpp:359] drop7 -> fc7 (in-place)
I1006 00:18:44.978535  8968 net.cpp:122] Setting up drop7
I1006 00:18:44.978543  8968 net.cpp:129] Top shape: 10 4096 (40960)
I1006 00:18:44.978549  8968 layer_factory.hpp:74] Creating layer fc8
I1006 00:18:44.978557  8968 net.cpp:92] Creating Layer fc8
I1006 00:18:44.978562  8968 net.cpp:412] fc8 <- fc7
I1006 00:18:44.978570  8968 net.cpp:370] fc8 -> fc8
I1006 00:18:44.978582  8968 net.cpp:122] Setting up fc8
I1006 00:18:44.978783  8968 net.cpp:129] Top shape: 10 2 (20)
I1006 00:18:44.978792  8968 layer_factory.hpp:74] Creating layer fc8_fc8_0_split
I1006 00:18:44.978801  8968 net.cpp:92] Creating Layer fc8_fc8_0_split
I1006 00:18:44.978806  8968 net.cpp:412] fc8_fc8_0_split <- fc8
I1006 00:18:44.978813  8968 net.cpp:370] fc8_fc8_0_split -> fc8_fc8_0_split_0
I1006 00:18:44.978821  8968 net.cpp:370] fc8_fc8_0_split -> fc8_fc8_0_split_1
I1006 00:18:44.978838  8968 net.cpp:122] Setting up fc8_fc8_0_split
I1006 00:18:44.978857  8968 net.cpp:129] Top shape: 10 2 (20)
I1006 00:18:44.978863  8968 net.cpp:129] Top shape: 10 2 (20)
I1006 00:18:44.978868  8968 layer_factory.hpp:74] Creating layer accuracy
I1006 00:18:44.978876  8968 net.cpp:92] Creating Layer accuracy
I1006 00:18:44.978881  8968 net.cpp:412] accuracy <- fc8_fc8_0_split_0
I1006 00:18:44.978888  8968 net.cpp:412] accuracy <- label_data_1_split_0
I1006 00:18:44.978893  8968 net.cpp:370] accuracy -> accuracy
I1006 00:18:44.978900  8968 net.cpp:122] Setting up accuracy
…
