…
I1009 22:39:35.192533 29178 net.cpp:289] The NetState phase (0) differed from the phase (1) specified by a rule in layer accuracy
I1009 22:39:35.192679 29178 net.cpp:44] Initializing net from parameters: 
name: "CaffeNet"
state {
  phase: TRAIN
}
layer {
  name: "data"
  type: "Data"
  top: "data"
  top: "label"
  include {
    phase: TRAIN
  }
  transform_param {
    mirror: true
    crop_size: 227
    mean_file: "data/whole_s/imagenet_mean.binaryproto"
  }
  data_param {
    source: "whole_s/imagenet_train_leveldb"
    batch_size: 10
    backend: LMDB
  }
}
layer {
  name: "conv1"
  type: "Convolution"
  bottom: "data"
  top: "conv1"
  param {
    lr_mult: 1
    decay_mult: 1
  }
  param {
    lr_mult: 2
    decay_mult: 0
  }
  convolution_param {
    num_output: 96
    kernel_size: 11
    stride: 4
    weight_filler {
      type: "gaussian"
      std: 0.01
    }
    bias_filler {
      type: "constant"
      value: 0
    }
  }
}
layer {
  name: "relu1"
  type: "ReLU"
  bottom: "conv1"
  top: "conv1"
}
layer {
  name: "pool1"
  type: "Pooling"
  bottom: "conv1"
  top: "pool1"
  pooling_param {
    pool: MAX
    kernel_size: 3
    stride: 2
  }
}
layer {
  name: "norm1"
  type: "LRN"
  bottom: "pool1"
  top: "norm1"
  lrn_param {
    local_size: 5
    alpha: 0.0001
    beta: 0.75
  }
}
layer {
  name: "conv2"
  type: "Convolution"
  bottom: "norm1"
  top: "conv2"
  param {
    lr_mult: 1
    decay_mult: 1
  }
  param {
    lr_mult: 2
    decay_mult: 0
  }
  convolution_param {
    num_output: 256
    pad: 2
    kernel_size: 5
    group: 2
    weight_filler {
      type: "gaussian"
      std: 0.01
    }
    bias_filler {
      type: "constant"
      value: 1
    }
  }
}
layer {
  name: "relu2"
  type: "ReLU"
  bottom: "conv2"
  top: "conv2"
}
layer {
  name: "pool2"
  type: "Pooling"
  bottom: "conv2"
  top: "pool2"
  pooling_param {
    pool: MAX
    kernel_size: 3
    stride: 2
  }
}
layer {
  name: "norm2"
  type: "LRN"
  bottom: "pool2"
  top: "norm2"
  lrn_param {
    local_size: 5
    alpha: 0.0001
    beta: 0.75
  }
}
layer {
  name: "conv3"
  type: "Convolution"
  bottom: "norm2"
  top: "conv3"
  param {
    lr_mult: 1
    decay_mult: 1
  }
  param {
    lr_mult: 2
    decay_mult: 0
  }
  convolution_param {
    num_output: 384
    pad: 1
    kernel_size: 3
    weight_filler {
      type: "gaussian"
      std: 0.01
    }
    bias_filler {
      type: "constant"
      value: 0
    }
  }
}
layer {
  name: "relu3"
  type: "ReLU"
  bottom: "conv3"
  top: "conv3"
}
layer {
  name: "conv4"
  type: "Convolution"
  bottom: "conv3"
  top: "conv4"
  param {
    lr_mult: 1
    decay_mult: 1
  }
  param {
    lr_mult: 2
    decay_mult: 0
  }
  convolution_param {
    num_output: 384
    pad: 1
    kernel_size: 3
    group: 2
    weight_filler {
      type: "gaussian"
      std: 0.01
    }
    bias_filler {
      type: "constant"
      value: 1
    }
  }
}
layer {
  name: "relu4"
  type: "ReLU"
  bottom: "conv4"
  top: "conv4"
}
layer {
  name: "conv5"
  type: "Convolution"
  bottom: "conv4"
  top: "conv5"
  param {
    lr_mult: 1
    decay_mult: 1
  }
  param {
    lr_mult: 2
    decay_mult: 0
  }
  convolution_param {
    num_output: 256
    pad: 1
    kernel_size: 3
    group: 2
    weight_filler {
      type: "gaussian"
      std: 0.01
    }
    bias_filler {
      type: "constant"
      value: 1
    }
  }
}
layer {
  name: "relu5"
  type: "ReLU"
  bottom: "conv5"
  top: "conv5"
}
layer {
  name: "pool5"
  type: "Pooling"
  bottom: "conv5"
  top: "pool5"
  pooling_param {
    pool: MAX
    kernel_size: 3
    stride: 2
  }
}
layer {
  name: "fc6"
  type: "InnerProduct"
  bottom: "pool5"
  top: "fc6"
  param {
    lr_mult: 1
    decay_mult: 1
  }
  param {
    lr_mult: 2
    decay_mult: 0
  }
  inner_product_param {
    num_output: 4096
    weight_filler {
      type: "gaussian"
      std: 0.005
    }
    bias_filler {
      type: "constant"
      value: 1
    }
  }
}
layer {
  name: "relu6"
  type: "ReLU"
  bottom: "fc6"
  top: "fc6"
}
layer {
  name: "drop6"
  type: "Dropout"
  bottom: "fc6"
  top: "fc6"
  dropout_param {
    dropout_ratio: 0.5
  }
}
layer {
  name: "fc7"
  type: "InnerProduct"
  bottom: "fc6"
  top: "fc7"
  param {
    lr_mult: 1
    decay_mult: 1
  }
  param {
    lr_mult: 2
    decay_mult: 0
  }
  inner_product_param {
    num_output: 4096
    weight_filler {
      type: "gaussian"
      std: 0.005
    }
    bias_filler {
      type: "constant"
      value: 1
    }
  }
}
layer {
  name: "relu7"
  type: "ReLU"
  bottom: "fc7"
  top: "fc7"
}
layer {
  name: "drop7"
  type: "Dropout"
  bottom: "fc7"
  top: "fc7"
  dropout_param {
    dropout_ratio: 0.5
  }
}
layer {
  name: "fc8"
  type: "InnerProduct"
  bottom: "fc7"
  top: "fc8"
  param {
    lr_mult: 1
    decay_mult: 1
  }
  param {
    lr_mult: 2
    decay_mult: 0
  }
  inner_product_param {
    num_output: 2
    weight_filler {
      type: "gaussian"
      std: 0.01
    }
    bias_filler {
      type: "constant"
      value: 0
    }
  }
}
layer {
  name: "loss"
  type: "SoftmaxWithLoss"
  bottom: "fc8"
  bottom: "label"
  top: "loss"
}
I1009 22:39:35.192793 29178 layer_factory.hpp:74] Creating layer data
I1009 22:39:35.192816 29178 net.cpp:92] Creating Layer data
I1009 22:39:35.192823 29178 net.cpp:370] data -> data
I1009 22:39:35.192844 29178 net.cpp:370] data -> label
I1009 22:39:35.192854 29178 net.cpp:122] Setting up data
I1009 22:39:35.192862 29178 data_transformer.cpp:22] Loading mean file from: data/whole_s/imagenet_mean.binaryproto
I1009 22:39:35.194375 29178 db_lmdb.cpp:22] Opened lmdb whole_s/imagenet_train_leveldb
I1009 22:39:35.194443 29178 data_layer.cpp:52] output data size: 10,3,227,227
I1009 22:39:35.195343 29178 net.cpp:129] Top shape: 10 3 227 227 (1545870)
I1009 22:39:35.195363 29178 net.cpp:129] Top shape: 10 (10)
I1009 22:39:35.195372 29178 layer_factory.hpp:74] Creating layer conv1
I1009 22:39:35.195389 29178 net.cpp:92] Creating Layer conv1
I1009 22:39:35.195395 29178 net.cpp:412] conv1 <- data
I1009 22:39:35.195407 29178 net.cpp:370] conv1 -> conv1
I1009 22:39:35.195420 29178 net.cpp:122] Setting up conv1
I1009 22:39:35.196264 29178 net.cpp:129] Top shape: 10 96 55 55 (2904000)
I1009 22:39:35.196282 29178 layer_factory.hpp:74] Creating layer relu1
I1009 22:39:35.196290 29178 net.cpp:92] Creating Layer relu1
I1009 22:39:35.196295 29178 net.cpp:412] relu1 <- conv1
I1009 22:39:35.196302 29178 net.cpp:359] relu1 -> conv1 (in-place)
I1009 22:39:35.196308 29178 net.cpp:122] Setting up relu1
I1009 22:39:35.196315 29178 net.cpp:129] Top shape: 10 96 55 55 (2904000)
I1009 22:39:35.196319 29178 layer_factory.hpp:74] Creating layer pool1
I1009 22:39:35.196326 29178 net.cpp:92] Creating Layer pool1
I1009 22:39:35.196331 29178 net.cpp:412] pool1 <- conv1
I1009 22:39:35.196337 29178 net.cpp:370] pool1 -> pool1
I1009 22:39:35.196346 29178 net.cpp:122] Setting up pool1
I1009 22:39:35.196358 29178 net.cpp:129] Top shape: 10 96 27 27 (699840)
I1009 22:39:35.196364 29178 layer_factory.hpp:74] Creating layer norm1
I1009 22:39:35.196372 29178 net.cpp:92] Creating Layer norm1
I1009 22:39:35.196377 29178 net.cpp:412] norm1 <- pool1
I1009 22:39:35.196383 29178 net.cpp:370] norm1 -> norm1
I1009 22:39:35.196391 29178 net.cpp:122] Setting up norm1
I1009 22:39:35.196399 29178 net.cpp:129] Top shape: 10 96 27 27 (699840)
I1009 22:39:35.196404 29178 layer_factory.hpp:74] Creating layer conv2
I1009 22:39:35.196411 29178 net.cpp:92] Creating Layer conv2
I1009 22:39:35.196416 29178 net.cpp:412] conv2 <- norm1
I1009 22:39:35.196431 29178 net.cpp:370] conv2 -> conv2
I1009 22:39:35.196446 29178 net.cpp:122] Setting up conv2
I1009 22:39:35.203776 29178 net.cpp:129] Top shape: 10 256 27 27 (1866240)
I1009 22:39:35.203814 29178 layer_factory.hpp:74] Creating layer relu2
I1009 22:39:35.203824 29178 net.cpp:92] Creating Layer relu2
I1009 22:39:35.203830 29178 net.cpp:412] relu2 <- conv2
I1009 22:39:35.203840 29178 net.cpp:359] relu2 -> conv2 (in-place)
I1009 22:39:35.203847 29178 net.cpp:122] Setting up relu2
I1009 22:39:35.203855 29178 net.cpp:129] Top shape: 10 256 27 27 (1866240)
I1009 22:39:35.203860 29178 layer_factory.hpp:74] Creating layer pool2
I1009 22:39:35.203866 29178 net.cpp:92] Creating Layer pool2
I1009 22:39:35.203871 29178 net.cpp:412] pool2 <- conv2
I1009 22:39:35.203877 29178 net.cpp:370] pool2 -> pool2
I1009 22:39:35.203886 29178 net.cpp:122] Setting up pool2
I1009 22:39:35.203894 29178 net.cpp:129] Top shape: 10 256 13 13 (432640)
I1009 22:39:35.203899 29178 layer_factory.hpp:74] Creating layer norm2
I1009 22:39:35.203909 29178 net.cpp:92] Creating Layer norm2
I1009 22:39:35.203914 29178 net.cpp:412] norm2 <- pool2
I1009 22:39:35.203922 29178 net.cpp:370] norm2 -> norm2
I1009 22:39:35.203928 29178 net.cpp:122] Setting up norm2
I1009 22:39:35.203937 29178 net.cpp:129] Top shape: 10 256 13 13 (432640)
I1009 22:39:35.203940 29178 layer_factory.hpp:74] Creating layer conv3
I1009 22:39:35.203949 29178 net.cpp:92] Creating Layer conv3
I1009 22:39:35.203954 29178 net.cpp:412] conv3 <- norm2
I1009 22:39:35.203961 29178 net.cpp:370] conv3 -> conv3
I1009 22:39:35.203970 29178 net.cpp:122] Setting up conv3
I1009 22:39:35.224361 29178 net.cpp:129] Top shape: 10 384 13 13 (648960)
I1009 22:39:35.224376 29178 layer_factory.hpp:74] Creating layer relu3
I1009 22:39:35.224385 29178 net.cpp:92] Creating Layer relu3
I1009 22:39:35.224390 29178 net.cpp:412] relu3 <- conv3
I1009 22:39:35.224396 29178 net.cpp:359] relu3 -> conv3 (in-place)
I1009 22:39:35.224402 29178 net.cpp:122] Setting up relu3
I1009 22:39:35.224408 29178 net.cpp:129] Top shape: 10 384 13 13 (648960)
I1009 22:39:35.224413 29178 layer_factory.hpp:74] Creating layer conv4
I1009 22:39:35.224421 29178 net.cpp:92] Creating Layer conv4
I1009 22:39:35.224426 29178 net.cpp:412] conv4 <- conv3
I1009 22:39:35.224432 29178 net.cpp:370] conv4 -> conv4
I1009 22:39:35.224441 29178 net.cpp:122] Setting up conv4
I1009 22:39:35.239820 29178 net.cpp:129] Top shape: 10 384 13 13 (648960)
I1009 22:39:35.239835 29178 layer_factory.hpp:74] Creating layer relu4
I1009 22:39:35.239841 29178 net.cpp:92] Creating Layer relu4
I1009 22:39:35.239846 29178 net.cpp:412] relu4 <- conv4
I1009 22:39:35.239853 29178 net.cpp:359] relu4 -> conv4 (in-place)
I1009 22:39:35.239859 29178 net.cpp:122] Setting up relu4
I1009 22:39:35.239866 29178 net.cpp:129] Top shape: 10 384 13 13 (648960)
I1009 22:39:35.239871 29178 layer_factory.hpp:74] Creating layer conv5
I1009 22:39:35.239882 29178 net.cpp:92] Creating Layer conv5
I1009 22:39:35.239887 29178 net.cpp:412] conv5 <- conv4
I1009 22:39:35.239894 29178 net.cpp:370] conv5 -> conv5
I1009 22:39:35.239902 29178 net.cpp:122] Setting up conv5
I1009 22:39:35.250089 29178 net.cpp:129] Top shape: 10 256 13 13 (432640)
I1009 22:39:35.250103 29178 layer_factory.hpp:74] Creating layer relu5
I1009 22:39:35.250110 29178 net.cpp:92] Creating Layer relu5
I1009 22:39:35.250115 29178 net.cpp:412] relu5 <- conv5
I1009 22:39:35.250123 29178 net.cpp:359] relu5 -> conv5 (in-place)
I1009 22:39:35.250128 29178 net.cpp:122] Setting up relu5
I1009 22:39:35.250134 29178 net.cpp:129] Top shape: 10 256 13 13 (432640)
I1009 22:39:35.250138 29178 layer_factory.hpp:74] Creating layer pool5
I1009 22:39:35.250145 29178 net.cpp:92] Creating Layer pool5
I1009 22:39:35.250150 29178 net.cpp:412] pool5 <- conv5
I1009 22:39:35.250156 29178 net.cpp:370] pool5 -> pool5
I1009 22:39:35.250164 29178 net.cpp:122] Setting up pool5
I1009 22:39:35.250172 29178 net.cpp:129] Top shape: 10 256 6 6 (92160)
I1009 22:39:35.250177 29178 layer_factory.hpp:74] Creating layer fc6
I1009 22:39:35.250196 29178 net.cpp:92] Creating Layer fc6
I1009 22:39:35.250202 29178 net.cpp:412] fc6 <- pool5
I1009 22:39:35.250217 29178 net.cpp:370] fc6 -> fc6
I1009 22:39:35.250227 29178 net.cpp:122] Setting up fc6
I1009 22:39:36.106812 29178 net.cpp:129] Top shape: 10 4096 (40960)
I1009 22:39:36.106853 29178 layer_factory.hpp:74] Creating layer relu6
I1009 22:39:36.106865 29178 net.cpp:92] Creating Layer relu6
I1009 22:39:36.106871 29178 net.cpp:412] relu6 <- fc6
I1009 22:39:36.106880 29178 net.cpp:359] relu6 -> fc6 (in-place)
I1009 22:39:36.106889 29178 net.cpp:122] Setting up relu6
I1009 22:39:36.106895 29178 net.cpp:129] Top shape: 10 4096 (40960)
I1009 22:39:36.106900 29178 layer_factory.hpp:74] Creating layer drop6
I1009 22:39:36.106914 29178 net.cpp:92] Creating Layer drop6
I1009 22:39:36.106919 29178 net.cpp:412] drop6 <- fc6
I1009 22:39:36.106925 29178 net.cpp:359] drop6 -> fc6 (in-place)
I1009 22:39:36.106935 29178 net.cpp:122] Setting up drop6
I1009 22:39:36.106943 29178 net.cpp:129] Top shape: 10 4096 (40960)
I1009 22:39:36.106948 29178 layer_factory.hpp:74] Creating layer fc7
I1009 22:39:36.106961 29178 net.cpp:92] Creating Layer fc7
I1009 22:39:36.106966 29178 net.cpp:412] fc7 <- fc6
I1009 22:39:36.106971 29178 net.cpp:370] fc7 -> fc7
I1009 22:39:36.106981 29178 net.cpp:122] Setting up fc7
I1009 22:39:36.488240 29178 net.cpp:129] Top shape: 10 4096 (40960)
I1009 22:39:36.488282 29178 layer_factory.hpp:74] Creating layer relu7
I1009 22:39:36.488293 29178 net.cpp:92] Creating Layer relu7
I1009 22:39:36.488299 29178 net.cpp:412] relu7 <- fc7
I1009 22:39:36.488308 29178 net.cpp:359] relu7 -> fc7 (in-place)
I1009 22:39:36.488317 29178 net.cpp:122] Setting up relu7
I1009 22:39:36.488323 29178 net.cpp:129] Top shape: 10 4096 (40960)
I1009 22:39:36.488328 29178 layer_factory.hpp:74] Creating layer drop7
I1009 22:39:36.488335 29178 net.cpp:92] Creating Layer drop7
I1009 22:39:36.488340 29178 net.cpp:412] drop7 <- fc7
I1009 22:39:36.488347 29178 net.cpp:359] drop7 -> fc7 (in-place)
I1009 22:39:36.488353 29178 net.cpp:122] Setting up drop7
I1009 22:39:36.488360 29178 net.cpp:129] Top shape: 10 4096 (40960)
I1009 22:39:36.488364 29178 layer_factory.hpp:74] Creating layer fc8
I1009 22:39:36.488373 29178 net.cpp:92] Creating Layer fc8
I1009 22:39:36.488379 29178 net.cpp:412] fc8 <- fc7
I1009 22:39:36.488385 29178 net.cpp:370] fc8 -> fc8
I1009 22:39:36.488394 29178 net.cpp:122] Setting up fc8
I1009 22:39:36.488595 29178 net.cpp:129] Top shape: 10 2 (20)
I1009 22:39:36.488602 29178 layer_factory.hpp:74] Creating layer loss
I1009 22:39:36.488610 29178 net.cpp:92] Creating Layer loss
I1009 22:39:36.488615 29178 net.cpp:412] loss <- fc8
I1009 22:39:36.488620 29178 net.cpp:412] loss <- label
I1009 22:39:36.488629 29178 net.cpp:370] loss -> loss
I1009 22:39:36.488643 29178 net.cpp:122] Setting up loss
I1009 22:39:36.488651 29178 layer_factory.hpp:74] Creating layer loss
…
I1009 22:39:36.489490 29178 net.cpp:289] The NetState phase (1) differed from the phase (0) specified by a rule in layer data
I1009 22:39:36.489645 29178 net.cpp:44] Initializing net from parameters: 
name: "CaffeNet"
state {
  phase: TEST
}
layer {
  name: "data"
  type: "Data"
  top: "data"
  top: "label"
  include {
    phase: TEST
  }
  transform_param {
    mirror: true
    crop_size: 227
    mean_file: "data/whole_s/imagenet_mean.binaryproto"
  }
  data_param {
    source: "whole_s/imagenet_val_leveldb"
    mean_file: "data/whole_s/imagenet_mean.binartproto"
    batch_size: 10
    crop_size: 227
    mirror: false
    backend: LMDB
  }
}
layer {
  name: "conv1"
  type: "Convolution"
  bottom: "data"
  top: "conv1"
  param {
    lr_mult: 1
    decay_mult: 1
  }
  param {
    lr_mult: 2
    decay_mult: 0
  }
  convolution_param {
    num_output: 96
    kernel_size: 11
    stride: 4
    weight_filler {
      type: "gaussian"
      std: 0.01
    }
    bias_filler {
      type: "constant"
      value: 0
    }
  }
}
layer {
  name: "relu1"
  type: "ReLU"
  bottom: "conv1"
  top: "conv1"
}
layer {
  name: "pool1"
  type: "Pooling"
  bottom: "conv1"
  top: "pool1"
  pooling_param {
    pool: MAX
    kernel_size: 3
    stride: 2
  }
}
layer {
  name: "norm1"
  type: "LRN"
  bottom: "pool1"
  top: "norm1"
  lrn_param {
    local_size: 5
    alpha: 0.0001
    beta: 0.75
  }
}
layer {
  name: "conv2"
  type: "Convolution"
  bottom: "norm1"
  top: "conv2"
  param {
    lr_mult: 1
    decay_mult: 1
  }
  param {
    lr_mult: 2
    decay_mult: 0
  }
  convolution_param {
    num_output: 256
    pad: 2
    kernel_size: 5
    group: 2
    weight_filler {
      type: "gaussian"
      std: 0.01
    }
    bias_filler {
      type: "constant"
      value: 1
    }
  }
}
layer {
  name: "relu2"
  type: "ReLU"
  bottom: "conv2"
  top: "conv2"
}
layer {
  name: "pool2"
  type: "Pooling"
  bottom: "conv2"
  top: "pool2"
  pooling_param {
    pool: MAX
    kernel_size: 3
    stride: 2
  }
}
layer {
  name: "norm2"
  type: "LRN"
  bottom: "pool2"
  top: "norm2"
  lrn_param {
    local_size: 5
    alpha: 0.0001
    beta: 0.75
  }
}
layer {
  name: "conv3"
  type: "Convolution"
  bottom: "norm2"
  top: "conv3"
  param {
    lr_mult: 1
    decay_mult: 1
  }
  param {
    lr_mult: 2
    decay_mult: 0
  }
  convolution_param {
    num_output: 384
    pad: 1
    kernel_size: 3
    weight_filler {
      type: "gaussian"
      std: 0.01
    }
    bias_filler {
      type: "constant"
      value: 0
    }
  }
}
layer {
  name: "relu3"
  type: "ReLU"
  bottom: "conv3"
  top: "conv3"
}
layer {
  name: "conv4"
  type: "Convolution"
  bottom: "conv3"
  top: "conv4"
  param {
    lr_mult: 1
    decay_mult: 1
  }
  param {
    lr_mult: 2
    decay_mult: 0
  }
  convolution_param {
    num_output: 384
    pad: 1
    kernel_size: 3
    group: 2
    weight_filler {
      type: "gaussian"
      std: 0.01
    }
    bias_filler {
      type: "constant"
      value: 1
    }
  }
}
layer {
  name: "relu4"
  type: "ReLU"
  bottom: "conv4"
  top: "conv4"
}
layer {
  name: "conv5"
  type: "Convolution"
  bottom: "conv4"
  top: "conv5"
  param {
    lr_mult: 1
    decay_mult: 1
  }
  param {
    lr_mult: 2
    decay_mult: 0
  }
  convolution_param {
    num_output: 256
    pad: 1
    kernel_size: 3
    group: 2
    weight_filler {
      type: "gaussian"
      std: 0.01
    }
    bias_filler {
      type: "constant"
      value: 1
    }
  }
}
layer {
  name: "relu5"
  type: "ReLU"
  bottom: "conv5"
  top: "conv5"
}
layer {
  name: "pool5"
  type: "Pooling"
  bottom: "conv5"
  top: "pool5"
  pooling_param {
    pool: MAX
    kernel_size: 3
    stride: 2
  }
}
layer {
  name: "fc6"
  type: "InnerProduct"
  bottom: "pool5"
  top: "fc6"
  param {
    lr_mult: 1
    decay_mult: 1
  }
  param {
    lr_mult: 2
    decay_mult: 0
  }
  inner_product_param {
    num_output: 4096
    weight_filler {
      type: "gaussian"
      std: 0.005
    }
    bias_filler {
      type: "constant"
      value: 1
    }
  }
}
layer {
  name: "relu6"
  type: "ReLU"
  bottom: "fc6"
  top: "fc6"
}
layer {
  name: "drop6"
  type: "Dropout"
  bottom: "fc6"
  top: "fc6"
  dropout_param {
    dropout_ratio: 0.5
  }
}
layer {
  name: "fc7"
  type: "InnerProduct"
  bottom: "fc6"
  top: "fc7"
  param {
    lr_mult: 1
    decay_mult: 1
  }
  param {
    lr_mult: 2
    decay_mult: 0
  }
  inner_product_param {
    num_output: 4096
    weight_filler {
      type: "gaussian"
      std: 0.005
    }
    bias_filler {
      type: "constant"
      value: 1
    }
  }
}
layer {
  name: "relu7"
  type: "ReLU"
  bottom: "fc7"
  top: "fc7"
}
layer {
  name: "drop7"
  type: "Dropout"
  bottom: "fc7"
  top: "fc7"
  dropout_param {
    dropout_ratio: 0.5
  }
}
layer {
  name: "fc8"
  type: "InnerProduct"
  bottom: "fc7"
  top: "fc8"
  param {
    lr_mult: 1
    decay_mult: 1
  }
  param {
    lr_mult: 2
    decay_mult: 0
  }
  inner_product_param {
    num_output: 2
    weight_filler {
      type: "gaussian"
      std: 0.01
    }
    bias_filler {
      type: "constant"
      value: 0
    }
  }
}
layer {
  name: "accuracy"
  type: "Accuracy"
  bottom: "fc8"
  bottom: "label"
  top: "accuracy"
  include {
    phase: TEST
  }
}
layer {
  name: "loss"
  type: "SoftmaxWithLoss"
  bottom: "fc8"
  bottom: "label"
  top: "loss"
}
I1009 22:39:36.489751 29178 layer_factory.hpp:74] Creating layer data
I1009 22:39:36.489763 29178 net.cpp:92] Creating Layer data
I1009 22:39:36.489769 29178 net.cpp:370] data -> data
I1009 22:39:36.489778 29178 net.cpp:370] data -> label
I1009 22:39:36.489786 29178 net.cpp:122] Setting up data
I1009 22:39:36.489792 29178 data_transformer.cpp:22] Loading mean file from: data/whole_s/imagenet_mean.binaryproto
I1009 22:39:36.491044 29178 db_lmdb.cpp:22] Opened lmdb whole_s/imagenet_val_leveldb
I1009 22:39:36.491107 29178 data_layer.cpp:52] output data size: 10,3,227,227
I1009 22:39:36.492019 29178 net.cpp:129] Top shape: 10 3 227 227 (1545870)
I1009 22:39:36.492044 29178 net.cpp:129] Top shape: 10 (10)
I1009 22:39:36.492051 29178 layer_factory.hpp:74] Creating layer label_data_1_split
I1009 22:39:36.492064 29178 net.cpp:92] Creating Layer label_data_1_split
I1009 22:39:36.492070 29178 net.cpp:412] label_data_1_split <- label
I1009 22:39:36.492080 29178 net.cpp:370] label_data_1_split -> label_data_1_split_0
I1009 22:39:36.492094 29178 net.cpp:370] label_data_1_split -> label_data_1_split_1
I1009 22:39:36.492101 29178 net.cpp:122] Setting up label_data_1_split
I1009 22:39:36.492110 29178 net.cpp:129] Top shape: 10 (10)
I1009 22:39:36.492116 29178 net.cpp:129] Top shape: 10 (10)
I1009 22:39:36.492120 29178 layer_factory.hpp:74] Creating layer conv1
I1009 22:39:36.492131 29178 net.cpp:92] Creating Layer conv1
I1009 22:39:36.492136 29178 net.cpp:412] conv1 <- data
I1009 22:39:36.492143 29178 net.cpp:370] conv1 -> conv1
I1009 22:39:36.492151 29178 net.cpp:122] Setting up conv1
I1009 22:39:36.492993 29178 net.cpp:129] Top shape: 10 96 55 55 (2904000)
I1009 22:39:36.493008 29178 layer_factory.hpp:74] Creating layer relu1
I1009 22:39:36.493016 29178 net.cpp:92] Creating Layer relu1
I1009 22:39:36.493031 29178 net.cpp:412] relu1 <- conv1
I1009 22:39:36.493036 29178 net.cpp:359] relu1 -> conv1 (in-place)
I1009 22:39:36.493052 29178 net.cpp:122] Setting up relu1
I1009 22:39:36.493057 29178 net.cpp:129] Top shape: 10 96 55 55 (2904000)
I1009 22:39:36.493062 29178 layer_factory.hpp:74] Creating layer pool1
I1009 22:39:36.493070 29178 net.cpp:92] Creating Layer pool1
I1009 22:39:36.493075 29178 net.cpp:412] pool1 <- conv1
I1009 22:39:36.493082 29178 net.cpp:370] pool1 -> pool1
I1009 22:39:36.493088 29178 net.cpp:122] Setting up pool1
I1009 22:39:36.493098 29178 net.cpp:129] Top shape: 10 96 27 27 (699840)
I1009 22:39:36.493103 29178 layer_factory.hpp:74] Creating layer norm1
I1009 22:39:36.493109 29178 net.cpp:92] Creating Layer norm1
I1009 22:39:36.493114 29178 net.cpp:412] norm1 <- pool1
I1009 22:39:36.493120 29178 net.cpp:370] norm1 -> norm1
I1009 22:39:36.493127 29178 net.cpp:122] Setting up norm1
I1009 22:39:36.493134 29178 net.cpp:129] Top shape: 10 96 27 27 (699840)
I1009 22:39:36.493139 29178 layer_factory.hpp:74] Creating layer conv2
I1009 22:39:36.493146 29178 net.cpp:92] Creating Layer conv2
I1009 22:39:36.493151 29178 net.cpp:412] conv2 <- norm1
I1009 22:39:36.493157 29178 net.cpp:370] conv2 -> conv2
I1009 22:39:36.493166 29178 net.cpp:122] Setting up conv2
I1009 22:39:36.500329 29178 net.cpp:129] Top shape: 10 256 27 27 (1866240)
I1009 22:39:36.500357 29178 layer_factory.hpp:74] Creating layer relu2
I1009 22:39:36.500367 29178 net.cpp:92] Creating Layer relu2
I1009 22:39:36.500373 29178 net.cpp:412] relu2 <- conv2
I1009 22:39:36.500381 29178 net.cpp:359] relu2 -> conv2 (in-place)
I1009 22:39:36.500388 29178 net.cpp:122] Setting up relu2
I1009 22:39:36.500396 29178 net.cpp:129] Top shape: 10 256 27 27 (1866240)
I1009 22:39:36.500401 29178 layer_factory.hpp:74] Creating layer pool2
I1009 22:39:36.500408 29178 net.cpp:92] Creating Layer pool2
I1009 22:39:36.500412 29178 net.cpp:412] pool2 <- conv2
I1009 22:39:36.500419 29178 net.cpp:370] pool2 -> pool2
I1009 22:39:36.500428 29178 net.cpp:122] Setting up pool2
I1009 22:39:36.500437 29178 net.cpp:129] Top shape: 10 256 13 13 (432640)
I1009 22:39:36.500442 29178 layer_factory.hpp:74] Creating layer norm2
I1009 22:39:36.500450 29178 net.cpp:92] Creating Layer norm2
I1009 22:39:36.500455 29178 net.cpp:412] norm2 <- pool2
I1009 22:39:36.500461 29178 net.cpp:370] norm2 -> norm2
I1009 22:39:36.500468 29178 net.cpp:122] Setting up norm2
I1009 22:39:36.500475 29178 net.cpp:129] Top shape: 10 256 13 13 (432640)
I1009 22:39:36.500480 29178 layer_factory.hpp:74] Creating layer conv3
I1009 22:39:36.500489 29178 net.cpp:92] Creating Layer conv3
I1009 22:39:36.500494 29178 net.cpp:412] conv3 <- norm2
I1009 22:39:36.500500 29178 net.cpp:370] conv3 -> conv3
I1009 22:39:36.500507 29178 net.cpp:122] Setting up conv3
I1009 22:39:36.520961 29178 net.cpp:129] Top shape: 10 384 13 13 (648960)
I1009 22:39:36.520974 29178 layer_factory.hpp:74] Creating layer relu3
I1009 22:39:36.520982 29178 net.cpp:92] Creating Layer relu3
I1009 22:39:36.520987 29178 net.cpp:412] relu3 <- conv3
I1009 22:39:36.520993 29178 net.cpp:359] relu3 -> conv3 (in-place)
I1009 22:39:36.520999 29178 net.cpp:122] Setting up relu3
I1009 22:39:36.521005 29178 net.cpp:129] Top shape: 10 384 13 13 (648960)
I1009 22:39:36.521010 29178 layer_factory.hpp:74] Creating layer conv4
I1009 22:39:36.521018 29178 net.cpp:92] Creating Layer conv4
I1009 22:39:36.521023 29178 net.cpp:412] conv4 <- conv3
I1009 22:39:36.521030 29178 net.cpp:370] conv4 -> conv4
I1009 22:39:36.521037 29178 net.cpp:122] Setting up conv4
I1009 22:39:36.536325 29178 net.cpp:129] Top shape: 10 384 13 13 (648960)
I1009 22:39:36.536339 29178 layer_factory.hpp:74] Creating layer relu4
I1009 22:39:36.536346 29178 net.cpp:92] Creating Layer relu4
I1009 22:39:36.536351 29178 net.cpp:412] relu4 <- conv4
I1009 22:39:36.536361 29178 net.cpp:359] relu4 -> conv4 (in-place)
I1009 22:39:36.536368 29178 net.cpp:122] Setting up relu4
I1009 22:39:36.536375 29178 net.cpp:129] Top shape: 10 384 13 13 (648960)
I1009 22:39:36.536380 29178 layer_factory.hpp:74] Creating layer conv5
I1009 22:39:36.536396 29178 net.cpp:92] Creating Layer conv5
I1009 22:39:36.536407 29178 net.cpp:412] conv5 <- conv4
I1009 22:39:36.536416 29178 net.cpp:370] conv5 -> conv5
I1009 22:39:36.536423 29178 net.cpp:122] Setting up conv5
I1009 22:39:36.546653 29178 net.cpp:129] Top shape: 10 256 13 13 (432640)
I1009 22:39:36.546669 29178 layer_factory.hpp:74] Creating layer relu5
I1009 22:39:36.546676 29178 net.cpp:92] Creating Layer relu5
I1009 22:39:36.546681 29178 net.cpp:412] relu5 <- conv5
I1009 22:39:36.546687 29178 net.cpp:359] relu5 -> conv5 (in-place)
I1009 22:39:36.546694 29178 net.cpp:122] Setting up relu5
I1009 22:39:36.546700 29178 net.cpp:129] Top shape: 10 256 13 13 (432640)
I1009 22:39:36.546705 29178 layer_factory.hpp:74] Creating layer pool5
I1009 22:39:36.546715 29178 net.cpp:92] Creating Layer pool5
I1009 22:39:36.546720 29178 net.cpp:412] pool5 <- conv5
I1009 22:39:36.546725 29178 net.cpp:370] pool5 -> pool5
I1009 22:39:36.546732 29178 net.cpp:122] Setting up pool5
I1009 22:39:36.546741 29178 net.cpp:129] Top shape: 10 256 6 6 (92160)
I1009 22:39:36.546748 29178 layer_factory.hpp:74] Creating layer fc6
I1009 22:39:36.546757 29178 net.cpp:92] Creating Layer fc6
I1009 22:39:36.546762 29178 net.cpp:412] fc6 <- pool5
I1009 22:39:36.546768 29178 net.cpp:370] fc6 -> fc6
I1009 22:39:36.546777 29178 net.cpp:122] Setting up fc6
I1009 22:39:37.403985 29178 net.cpp:129] Top shape: 10 4096 (40960)
I1009 22:39:37.404027 29178 layer_factory.hpp:74] Creating layer relu6
I1009 22:39:37.404042 29178 net.cpp:92] Creating Layer relu6
I1009 22:39:37.404047 29178 net.cpp:412] relu6 <- fc6
I1009 22:39:37.404055 29178 net.cpp:359] relu6 -> fc6 (in-place)
I1009 22:39:37.404064 29178 net.cpp:122] Setting up relu6
I1009 22:39:37.404072 29178 net.cpp:129] Top shape: 10 4096 (40960)
I1009 22:39:37.404075 29178 layer_factory.hpp:74] Creating layer drop6
I1009 22:39:37.404083 29178 net.cpp:92] Creating Layer drop6
I1009 22:39:37.404088 29178 net.cpp:412] drop6 <- fc6
I1009 22:39:37.404094 29178 net.cpp:359] drop6 -> fc6 (in-place)
I1009 22:39:37.404101 29178 net.cpp:122] Setting up drop6
I1009 22:39:37.404109 29178 net.cpp:129] Top shape: 10 4096 (40960)
I1009 22:39:37.404114 29178 layer_factory.hpp:74] Creating layer fc7
I1009 22:39:37.404122 29178 net.cpp:92] Creating Layer fc7
I1009 22:39:37.404126 29178 net.cpp:412] fc7 <- fc6
I1009 22:39:37.404134 29178 net.cpp:370] fc7 -> fc7
I1009 22:39:37.404144 29178 net.cpp:122] Setting up fc7
I1009 22:39:37.784771 29178 net.cpp:129] Top shape: 10 4096 (40960)
I1009 22:39:37.784811 29178 layer_factory.hpp:74] Creating layer relu7
I1009 22:39:37.784823 29178 net.cpp:92] Creating Layer relu7
I1009 22:39:37.784829 29178 net.cpp:412] relu7 <- fc7
I1009 22:39:37.784838 29178 net.cpp:359] relu7 -> fc7 (in-place)
I1009 22:39:37.784847 29178 net.cpp:122] Setting up relu7
I1009 22:39:37.784853 29178 net.cpp:129] Top shape: 10 4096 (40960)
I1009 22:39:37.784857 29178 layer_factory.hpp:74] Creating layer drop7
I1009 22:39:37.784865 29178 net.cpp:92] Creating Layer drop7
I1009 22:39:37.784869 29178 net.cpp:412] drop7 <- fc7
I1009 22:39:37.784875 29178 net.cpp:359] drop7 -> fc7 (in-place)
I1009 22:39:37.784881 29178 net.cpp:122] Setting up drop7
I1009 22:39:37.784889 29178 net.cpp:129] Top shape: 10 4096 (40960)
I1009 22:39:37.784894 29178 layer_factory.hpp:74] Creating layer fc8
I1009 22:39:37.784904 29178 net.cpp:92] Creating Layer fc8
I1009 22:39:37.784909 29178 net.cpp:412] fc8 <- fc7
I1009 22:39:37.784915 29178 net.cpp:370] fc8 -> fc8
I1009 22:39:37.784926 29178 net.cpp:122] Setting up fc8
I1009 22:39:37.785126 29178 net.cpp:129] Top shape: 10 2 (20)
I1009 22:39:37.785135 29178 layer_factory.hpp:74] Creating layer fc8_fc8_0_split
I1009 22:39:37.785141 29178 net.cpp:92] Creating Layer fc8_fc8_0_split
I1009 22:39:37.785146 29178 net.cpp:412] fc8_fc8_0_split <- fc8
I1009 22:39:37.785153 29178 net.cpp:370] fc8_fc8_0_split -> fc8_fc8_0_split_0
I1009 22:39:37.785161 29178 net.cpp:370] fc8_fc8_0_split -> fc8_fc8_0_split_1
I1009 22:39:37.785168 29178 net.cpp:122] Setting up fc8_fc8_0_split
I1009 22:39:37.785183 29178 net.cpp:129] Top shape: 10 2 (20)
I1009 22:39:37.785198 29178 net.cpp:129] Top shape: 10 2 (20)
I1009 22:39:37.785203 29178 layer_factory.hpp:74] Creating layer accuracy
I1009 22:39:37.785210 29178 net.cpp:92] Creating Layer accuracy
I1009 22:39:37.785215 29178 net.cpp:412] accuracy <- fc8_fc8_0_split_0
I1009 22:39:37.785220 29178 net.cpp:412] accuracy <- label_data_1_split_0
I1009 22:39:37.785229 29178 net.cpp:370] accuracy -> accuracy
I1009 22:39:37.785236 29178 net.cpp:122] Setting up accuracy
…
