…
I0923 13:37:37.418370 11257 net.cpp:289] The NetState phase (0) differed from the phase (1) specified by a rule in layer accuracy
I0923 13:37:37.418510 11257 net.cpp:44] Initializing net from parameters: 
name: "CaffeNet"
state {
  phase: TRAIN
}
layer {
  name: "data"
  type: "Data"
  top: "data"
  top: "label"
  include {
    phase: TRAIN
  }
  transform_param {
    mirror: true
    crop_size: 227
    mean_file: "data/test/imagenet_mean.binaryproto"
  }
  data_param {
    source: "test/imagenet_train_leveldb"
    batch_size: 32
    backend: LMDB
  }
}
layer {
  name: "conv1"
  type: "Convolution"
  bottom: "data"
  top: "conv1"
  param {
    lr_mult: 1
    decay_mult: 1
  }
  param {
    lr_mult: 2
    decay_mult: 0
  }
  convolution_param {
    num_output: 96
    kernel_size: 11
    stride: 4
    weight_filler {
      type: "gaussian"
      std: 0.01
    }
    bias_filler {
      type: "constant"
      value: 0
    }
  }
}
layer {
  name: "relu1"
  type: "ReLU"
  bottom: "conv1"
  top: "conv1"
}
layer {
  name: "pool1"
  type: "Pooling"
  bottom: "conv1"
  top: "pool1"
  pooling_param {
    pool: MAX
    kernel_size: 3
    stride: 2
  }
}
layer {
  name: "norm1"
  type: "LRN"
  bottom: "pool1"
  top: "norm1"
  lrn_param {
    local_size: 5
    alpha: 0.0001
    beta: 0.75
  }
}
layer {
  name: "conv2"
  type: "Convolution"
  bottom: "norm1"
  top: "conv2"
  param {
    lr_mult: 1
    decay_mult: 1
  }
  param {
    lr_mult: 2
    decay_mult: 0
  }
  convolution_param {
    num_output: 256
    pad: 2
    kernel_size: 5
    group: 2
    weight_filler {
      type: "gaussian"
      std: 0.01
    }
    bias_filler {
      type: "constant"
      value: 1
    }
  }
}
layer {
  name: "relu2"
  type: "ReLU"
  bottom: "conv2"
  top: "conv2"
}
layer {
  name: "pool2"
  type: "Pooling"
  bottom: "conv2"
  top: "pool2"
  pooling_param {
    pool: MAX
    kernel_size: 3
    stride: 2
  }
}
layer {
  name: "norm2"
  type: "LRN"
  bottom: "pool2"
  top: "norm2"
  lrn_param {
    local_size: 5
    alpha: 0.0001
    beta: 0.75
  }
}
layer {
  name: "conv3"
  type: "Convolution"
  bottom: "norm2"
  top: "conv3"
  param {
    lr_mult: 1
    decay_mult: 1
  }
  param {
    lr_mult: 2
    decay_mult: 0
  }
  convolution_param {
    num_output: 384
    pad: 1
    kernel_size: 3
    weight_filler {
      type: "gaussian"
      std: 0.01
    }
    bias_filler {
      type: "constant"
      value: 0
    }
  }
}
layer {
  name: "relu3"
  type: "ReLU"
  bottom: "conv3"
  top: "conv3"
}
layer {
  name: "conv4"
  type: "Convolution"
  bottom: "conv3"
  top: "conv4"
  param {
    lr_mult: 1
    decay_mult: 1
  }
  param {
    lr_mult: 2
    decay_mult: 0
  }
  convolution_param {
    num_output: 384
    pad: 1
    kernel_size: 3
    group: 2
    weight_filler {
      type: "gaussian"
      std: 0.01
    }
    bias_filler {
      type: "constant"
      value: 1
    }
  }
}
layer {
  name: "relu4"
  type: "ReLU"
  bottom: "conv4"
  top: "conv4"
}
layer {
  name: "conv5"
  type: "Convolution"
  bottom: "conv4"
  top: "conv5"
  param {
    lr_mult: 1
    decay_mult: 1
  }
  param {
    lr_mult: 2
    decay_mult: 0
  }
  convolution_param {
    num_output: 256
    pad: 1
    kernel_size: 3
    group: 2
    weight_filler {
      type: "gaussian"
      std: 0.01
    }
    bias_filler {
      type: "constant"
      value: 1
    }
  }
}
layer {
  name: "relu5"
  type: "ReLU"
  bottom: "conv5"
  top: "conv5"
}
layer {
  name: "pool5"
  type: "Pooling"
  bottom: "conv5"
  top: "pool5"
  pooling_param {
    pool: MAX
    kernel_size: 3
    stride: 2
  }
}
layer {
  name: "fc6"
  type: "InnerProduct"
  bottom: "pool5"
  top: "fc6"
  param {
    lr_mult: 1
    decay_mult: 1
  }
  param {
    lr_mult: 2
    decay_mult: 0
  }
  inner_product_param {
    num_output: 4096
    weight_filler {
      type: "gaussian"
      std: 0.005
    }
    bias_filler {
      type: "constant"
      value: 1
    }
  }
}
layer {
  name: "relu6"
  type: "ReLU"
  bottom: "fc6"
  top: "fc6"
}
layer {
  name: "drop6"
  type: "Dropout"
  bottom: "fc6"
  top: "fc6"
  dropout_param {
    dropout_ratio: 0.5
  }
}
layer {
  name: "fc7"
  type: "InnerProduct"
  bottom: "fc6"
  top: "fc7"
  param {
    lr_mult: 1
    decay_mult: 1
  }
  param {
    lr_mult: 2
    decay_mult: 0
  }
  inner_product_param {
    num_output: 4096
    weight_filler {
      type: "gaussian"
      std: 0.005
    }
    bias_filler {
      type: "constant"
      value: 1
    }
  }
}
layer {
  name: "relu7"
  type: "ReLU"
  bottom: "fc7"
  top: "fc7"
}
layer {
  name: "drop7"
  type: "Dropout"
  bottom: "fc7"
  top: "fc7"
  dropout_param {
    dropout_ratio: 0.5
  }
}
layer {
  name: "fc8"
  type: "InnerProduct"
  bottom: "fc7"
  top: "fc8"
  param {
    lr_mult: 1
    decay_mult: 1
  }
  param {
    lr_mult: 2
    decay_mult: 0
  }
  inner_product_param {
    num_output: 2
    weight_filler {
      type: "gaussian"
      std: 0.01
    }
    bias_filler {
      type: "constant"
      value: 0
    }
  }
}
layer {
  name: "loss"
  type: "SoftmaxWithLoss"
  bottom: "fc8"
  bottom: "label"
  top: "loss"
}
I0923 13:37:37.418613 11257 layer_factory.hpp:74] Creating layer data
I0923 13:37:37.418637 11257 net.cpp:92] Creating Layer data
I0923 13:37:37.418645 11257 net.cpp:370] data -> data
I0923 13:37:37.418668 11257 net.cpp:370] data -> label
I0923 13:37:37.418678 11257 net.cpp:122] Setting up data
I0923 13:37:37.418685 11257 data_transformer.cpp:22] Loading mean file from: data/test/imagenet_mean.binaryproto
I0923 13:37:37.420281 11257 db_lmdb.cpp:22] Opened lmdb test/imagenet_train_leveldb
I0923 13:37:37.420351 11257 data_layer.cpp:52] output data size: 32,3,227,227
I0923 13:37:37.422932 11257 net.cpp:129] Top shape: 32 3 227 227 (4946784)
I0923 13:37:37.422972 11257 net.cpp:129] Top shape: 32 (32)
I0923 13:37:37.422982 11257 layer_factory.hpp:74] Creating layer conv1
I0923 13:37:37.423002 11257 net.cpp:92] Creating Layer conv1
I0923 13:37:37.423009 11257 net.cpp:412] conv1 <- data
I0923 13:37:37.423023 11257 net.cpp:370] conv1 -> conv1
I0923 13:37:37.423038 11257 net.cpp:122] Setting up conv1
I0923 13:37:37.423895 11257 net.cpp:129] Top shape: 32 96 55 55 (9292800)
I0923 13:37:37.423913 11257 layer_factory.hpp:74] Creating layer relu1
I0923 13:37:37.423923 11257 net.cpp:92] Creating Layer relu1
I0923 13:37:37.423928 11257 net.cpp:412] relu1 <- conv1
I0923 13:37:37.423934 11257 net.cpp:359] relu1 -> conv1 (in-place)
I0923 13:37:37.423941 11257 net.cpp:122] Setting up relu1
I0923 13:37:37.423948 11257 net.cpp:129] Top shape: 32 96 55 55 (9292800)
I0923 13:37:37.423952 11257 layer_factory.hpp:74] Creating layer pool1
I0923 13:37:37.423959 11257 net.cpp:92] Creating Layer pool1
I0923 13:37:37.423964 11257 net.cpp:412] pool1 <- conv1
I0923 13:37:37.423971 11257 net.cpp:370] pool1 -> pool1
I0923 13:37:37.423979 11257 net.cpp:122] Setting up pool1
I0923 13:37:37.423992 11257 net.cpp:129] Top shape: 32 96 27 27 (2239488)
I0923 13:37:37.423998 11257 layer_factory.hpp:74] Creating layer norm1
I0923 13:37:37.424006 11257 net.cpp:92] Creating Layer norm1
I0923 13:37:37.424011 11257 net.cpp:412] norm1 <- pool1
I0923 13:37:37.424017 11257 net.cpp:370] norm1 -> norm1
I0923 13:37:37.424027 11257 net.cpp:122] Setting up norm1
I0923 13:37:37.424036 11257 net.cpp:129] Top shape: 32 96 27 27 (2239488)
I0923 13:37:37.424041 11257 layer_factory.hpp:74] Creating layer conv2
I0923 13:37:37.424047 11257 net.cpp:92] Creating Layer conv2
I0923 13:37:37.424052 11257 net.cpp:412] conv2 <- norm1
I0923 13:37:37.424068 11257 net.cpp:370] conv2 -> conv2
I0923 13:37:37.424077 11257 net.cpp:122] Setting up conv2
I0923 13:37:37.431430 11257 net.cpp:129] Top shape: 32 256 27 27 (5971968)
I0923 13:37:37.431468 11257 layer_factory.hpp:74] Creating layer relu2
I0923 13:37:37.431478 11257 net.cpp:92] Creating Layer relu2
I0923 13:37:37.431484 11257 net.cpp:412] relu2 <- conv2
I0923 13:37:37.431493 11257 net.cpp:359] relu2 -> conv2 (in-place)
I0923 13:37:37.431501 11257 net.cpp:122] Setting up relu2
I0923 13:37:37.431509 11257 net.cpp:129] Top shape: 32 256 27 27 (5971968)
I0923 13:37:37.431514 11257 layer_factory.hpp:74] Creating layer pool2
I0923 13:37:37.431521 11257 net.cpp:92] Creating Layer pool2
I0923 13:37:37.431526 11257 net.cpp:412] pool2 <- conv2
I0923 13:37:37.431535 11257 net.cpp:370] pool2 -> pool2
I0923 13:37:37.431542 11257 net.cpp:122] Setting up pool2
I0923 13:37:37.431551 11257 net.cpp:129] Top shape: 32 256 13 13 (1384448)
I0923 13:37:37.431556 11257 layer_factory.hpp:74] Creating layer norm2
I0923 13:37:37.431566 11257 net.cpp:92] Creating Layer norm2
I0923 13:37:37.431572 11257 net.cpp:412] norm2 <- pool2
I0923 13:37:37.431578 11257 net.cpp:370] norm2 -> norm2
I0923 13:37:37.431586 11257 net.cpp:122] Setting up norm2
I0923 13:37:37.431592 11257 net.cpp:129] Top shape: 32 256 13 13 (1384448)
I0923 13:37:37.431597 11257 layer_factory.hpp:74] Creating layer conv3
I0923 13:37:37.431607 11257 net.cpp:92] Creating Layer conv3
I0923 13:37:37.431612 11257 net.cpp:412] conv3 <- norm2
I0923 13:37:37.431620 11257 net.cpp:370] conv3 -> conv3
I0923 13:37:37.431629 11257 net.cpp:122] Setting up conv3
I0923 13:37:37.452543 11257 net.cpp:129] Top shape: 32 384 13 13 (2076672)
I0923 13:37:37.452579 11257 layer_factory.hpp:74] Creating layer relu3
I0923 13:37:37.452590 11257 net.cpp:92] Creating Layer relu3
I0923 13:37:37.452596 11257 net.cpp:412] relu3 <- conv3
I0923 13:37:37.452603 11257 net.cpp:359] relu3 -> conv3 (in-place)
I0923 13:37:37.452611 11257 net.cpp:122] Setting up relu3
I0923 13:37:37.452618 11257 net.cpp:129] Top shape: 32 384 13 13 (2076672)
I0923 13:37:37.452623 11257 layer_factory.hpp:74] Creating layer conv4
I0923 13:37:37.452631 11257 net.cpp:92] Creating Layer conv4
I0923 13:37:37.452636 11257 net.cpp:412] conv4 <- conv3
I0923 13:37:37.452644 11257 net.cpp:370] conv4 -> conv4
I0923 13:37:37.452652 11257 net.cpp:122] Setting up conv4
I0923 13:37:37.467994 11257 net.cpp:129] Top shape: 32 384 13 13 (2076672)
I0923 13:37:37.468005 11257 layer_factory.hpp:74] Creating layer relu4
I0923 13:37:37.468016 11257 net.cpp:92] Creating Layer relu4
I0923 13:37:37.468022 11257 net.cpp:412] relu4 <- conv4
I0923 13:37:37.468029 11257 net.cpp:359] relu4 -> conv4 (in-place)
I0923 13:37:37.468034 11257 net.cpp:122] Setting up relu4
I0923 13:37:37.468040 11257 net.cpp:129] Top shape: 32 384 13 13 (2076672)
I0923 13:37:37.468045 11257 layer_factory.hpp:74] Creating layer conv5
I0923 13:37:37.468056 11257 net.cpp:92] Creating Layer conv5
I0923 13:37:37.468061 11257 net.cpp:412] conv5 <- conv4
I0923 13:37:37.468067 11257 net.cpp:370] conv5 -> conv5
I0923 13:37:37.468075 11257 net.cpp:122] Setting up conv5
I0923 13:37:37.478345 11257 net.cpp:129] Top shape: 32 256 13 13 (1384448)
I0923 13:37:37.478360 11257 layer_factory.hpp:74] Creating layer relu5
I0923 13:37:37.478368 11257 net.cpp:92] Creating Layer relu5
I0923 13:37:37.478373 11257 net.cpp:412] relu5 <- conv5
I0923 13:37:37.478379 11257 net.cpp:359] relu5 -> conv5 (in-place)
I0923 13:37:37.478384 11257 net.cpp:122] Setting up relu5
I0923 13:37:37.478390 11257 net.cpp:129] Top shape: 32 256 13 13 (1384448)
I0923 13:37:37.478394 11257 layer_factory.hpp:74] Creating layer pool5
I0923 13:37:37.478404 11257 net.cpp:92] Creating Layer pool5
I0923 13:37:37.478409 11257 net.cpp:412] pool5 <- conv5
I0923 13:37:37.478415 11257 net.cpp:370] pool5 -> pool5
I0923 13:37:37.478422 11257 net.cpp:122] Setting up pool5
I0923 13:37:37.478431 11257 net.cpp:129] Top shape: 32 256 6 6 (294912)
I0923 13:37:37.478436 11257 layer_factory.hpp:74] Creating layer fc6
I0923 13:37:37.478449 11257 net.cpp:92] Creating Layer fc6
I0923 13:37:37.478463 11257 net.cpp:412] fc6 <- pool5
I0923 13:37:37.478477 11257 net.cpp:370] fc6 -> fc6
I0923 13:37:37.478488 11257 net.cpp:122] Setting up fc6
I0923 13:37:38.389487 11257 net.cpp:129] Top shape: 32 4096 (131072)
I0923 13:37:38.389530 11257 layer_factory.hpp:74] Creating layer relu6
I0923 13:37:38.389541 11257 net.cpp:92] Creating Layer relu6
I0923 13:37:38.389549 11257 net.cpp:412] relu6 <- fc6
I0923 13:37:38.389556 11257 net.cpp:359] relu6 -> fc6 (in-place)
I0923 13:37:38.389566 11257 net.cpp:122] Setting up relu6
I0923 13:37:38.389574 11257 net.cpp:129] Top shape: 32 4096 (131072)
I0923 13:37:38.389578 11257 layer_factory.hpp:74] Creating layer drop6
I0923 13:37:38.389592 11257 net.cpp:92] Creating Layer drop6
I0923 13:37:38.389597 11257 net.cpp:412] drop6 <- fc6
I0923 13:37:38.389603 11257 net.cpp:359] drop6 -> fc6 (in-place)
I0923 13:37:38.389613 11257 net.cpp:122] Setting up drop6
I0923 13:37:38.389623 11257 net.cpp:129] Top shape: 32 4096 (131072)
I0923 13:37:38.389628 11257 layer_factory.hpp:74] Creating layer fc7
I0923 13:37:38.389636 11257 net.cpp:92] Creating Layer fc7
I0923 13:37:38.389642 11257 net.cpp:412] fc7 <- fc6
I0923 13:37:38.389649 11257 net.cpp:370] fc7 -> fc7
I0923 13:37:38.389658 11257 net.cpp:122] Setting up fc7
I0923 13:37:38.800751 11257 net.cpp:129] Top shape: 32 4096 (131072)
I0923 13:37:38.800793 11257 layer_factory.hpp:74] Creating layer relu7
I0923 13:37:38.800804 11257 net.cpp:92] Creating Layer relu7
I0923 13:37:38.800811 11257 net.cpp:412] relu7 <- fc7
I0923 13:37:38.800818 11257 net.cpp:359] relu7 -> fc7 (in-place)
I0923 13:37:38.800832 11257 net.cpp:122] Setting up relu7
I0923 13:37:38.800838 11257 net.cpp:129] Top shape: 32 4096 (131072)
I0923 13:37:38.800843 11257 layer_factory.hpp:74] Creating layer drop7
I0923 13:37:38.800851 11257 net.cpp:92] Creating Layer drop7
I0923 13:37:38.800855 11257 net.cpp:412] drop7 <- fc7
I0923 13:37:38.800863 11257 net.cpp:359] drop7 -> fc7 (in-place)
I0923 13:37:38.800870 11257 net.cpp:122] Setting up drop7
I0923 13:37:38.800878 11257 net.cpp:129] Top shape: 32 4096 (131072)
I0923 13:37:38.800882 11257 layer_factory.hpp:74] Creating layer fc8
I0923 13:37:38.800891 11257 net.cpp:92] Creating Layer fc8
I0923 13:37:38.800896 11257 net.cpp:412] fc8 <- fc7
I0923 13:37:38.800902 11257 net.cpp:370] fc8 -> fc8
I0923 13:37:38.800910 11257 net.cpp:122] Setting up fc8
I0923 13:37:38.801111 11257 net.cpp:129] Top shape: 32 2 (64)
I0923 13:37:38.801120 11257 layer_factory.hpp:74] Creating layer loss
I0923 13:37:38.801128 11257 net.cpp:92] Creating Layer loss
I0923 13:37:38.801133 11257 net.cpp:412] loss <- fc8
I0923 13:37:38.801139 11257 net.cpp:412] loss <- label
I0923 13:37:38.801148 11257 net.cpp:370] loss -> loss
I0923 13:37:38.801164 11257 net.cpp:122] Setting up loss
I0923 13:37:38.801173 11257 layer_factory.hpp:74] Creating layer loss
…
I0923 13:37:38.802016 11257 net.cpp:289] The NetState phase (1) differed from the phase (0) specified by a rule in layer data
I0923 13:37:38.802173 11257 net.cpp:44] Initializing net from parameters: 
name: "CaffeNet"
state {
  phase: TEST
}
layer {
  name: "data"
  type: "Data"
  top: "data"
  top: "label"
  include {
    phase: TEST
  }
  transform_param {
    mirror: true
    crop_size: 227
    mean_file: "data/test/imagenet_mean.binaryproto"
  }
  data_param {
    source: "test/imagenet_val_leveldb"
    mean_file: "data/test/imagenet_mean.binartproto"
    batch_size: 10
    crop_size: 227
    mirror: false
    backend: LMDB
  }
}
layer {
  name: "conv1"
  type: "Convolution"
  bottom: "data"
  top: "conv1"
  param {
    lr_mult: 1
    decay_mult: 1
  }
  param {
    lr_mult: 2
    decay_mult: 0
  }
  convolution_param {
    num_output: 96
    kernel_size: 11
    stride: 4
    weight_filler {
      type: "gaussian"
      std: 0.01
    }
    bias_filler {
      type: "constant"
      value: 0
    }
  }
}
layer {
  name: "relu1"
  type: "ReLU"
  bottom: "conv1"
  top: "conv1"
}
layer {
  name: "pool1"
  type: "Pooling"
  bottom: "conv1"
  top: "pool1"
  pooling_param {
    pool: MAX
    kernel_size: 3
    stride: 2
  }
}
layer {
  name: "norm1"
  type: "LRN"
  bottom: "pool1"
  top: "norm1"
  lrn_param {
    local_size: 5
    alpha: 0.0001
    beta: 0.75
  }
}
layer {
  name: "conv2"
  type: "Convolution"
  bottom: "norm1"
  top: "conv2"
  param {
    lr_mult: 1
    decay_mult: 1
  }
  param {
    lr_mult: 2
    decay_mult: 0
  }
  convolution_param {
    num_output: 256
    pad: 2
    kernel_size: 5
    group: 2
    weight_filler {
      type: "gaussian"
      std: 0.01
    }
    bias_filler {
      type: "constant"
      value: 1
    }
  }
}
layer {
  name: "relu2"
  type: "ReLU"
  bottom: "conv2"
  top: "conv2"
}
layer {
  name: "pool2"
  type: "Pooling"
  bottom: "conv2"
  top: "pool2"
  pooling_param {
    pool: MAX
    kernel_size: 3
    stride: 2
  }
}
layer {
  name: "norm2"
  type: "LRN"
  bottom: "pool2"
  top: "norm2"
  lrn_param {
    local_size: 5
    alpha: 0.0001
    beta: 0.75
  }
}
layer {
  name: "conv3"
  type: "Convolution"
  bottom: "norm2"
  top: "conv3"
  param {
    lr_mult: 1
    decay_mult: 1
  }
  param {
    lr_mult: 2
    decay_mult: 0
  }
  convolution_param {
    num_output: 384
    pad: 1
    kernel_size: 3
    weight_filler {
      type: "gaussian"
      std: 0.01
    }
    bias_filler {
      type: "constant"
      value: 0
    }
  }
}
layer {
  name: "relu3"
  type: "ReLU"
  bottom: "conv3"
  top: "conv3"
}
layer {
  name: "conv4"
  type: "Convolution"
  bottom: "conv3"
  top: "conv4"
  param {
    lr_mult: 1
    decay_mult: 1
  }
  param {
    lr_mult: 2
    decay_mult: 0
  }
  convolution_param {
    num_output: 384
    pad: 1
    kernel_size: 3
    group: 2
    weight_filler {
      type: "gaussian"
      std: 0.01
    }
    bias_filler {
      type: "constant"
      value: 1
    }
  }
}
layer {
  name: "relu4"
  type: "ReLU"
  bottom: "conv4"
  top: "conv4"
}
layer {
  name: "conv5"
  type: "Convolution"
  bottom: "conv4"
  top: "conv5"
  param {
    lr_mult: 1
    decay_mult: 1
  }
  param {
    lr_mult: 2
    decay_mult: 0
  }
  convolution_param {
    num_output: 256
    pad: 1
    kernel_size: 3
    group: 2
    weight_filler {
      type: "gaussian"
      std: 0.01
    }
    bias_filler {
      type: "constant"
      value: 1
    }
  }
}
layer {
  name: "relu5"
  type: "ReLU"
  bottom: "conv5"
  top: "conv5"
}
layer {
  name: "pool5"
  type: "Pooling"
  bottom: "conv5"
  top: "pool5"
  pooling_param {
    pool: MAX
    kernel_size: 3
    stride: 2
  }
}
layer {
  name: "fc6"
  type: "InnerProduct"
  bottom: "pool5"
  top: "fc6"
  param {
    lr_mult: 1
    decay_mult: 1
  }
  param {
    lr_mult: 2
    decay_mult: 0
  }
  inner_product_param {
    num_output: 4096
    weight_filler {
      type: "gaussian"
      std: 0.005
    }
    bias_filler {
      type: "constant"
      value: 1
    }
  }
}
layer {
  name: "relu6"
  type: "ReLU"
  bottom: "fc6"
  top: "fc6"
}
layer {
  name: "drop6"
  type: "Dropout"
  bottom: "fc6"
  top: "fc6"
  dropout_param {
    dropout_ratio: 0.5
  }
}
layer {
  name: "fc7"
  type: "InnerProduct"
  bottom: "fc6"
  top: "fc7"
  param {
    lr_mult: 1
    decay_mult: 1
  }
  param {
    lr_mult: 2
    decay_mult: 0
  }
  inner_product_param {
    num_output: 4096
    weight_filler {
      type: "gaussian"
      std: 0.005
    }
    bias_filler {
      type: "constant"
      value: 1
    }
  }
}
layer {
  name: "relu7"
  type: "ReLU"
  bottom: "fc7"
  top: "fc7"
}
layer {
  name: "drop7"
  type: "Dropout"
  bottom: "fc7"
  top: "fc7"
  dropout_param {
    dropout_ratio: 0.5
  }
}
layer {
  name: "fc8"
  type: "InnerProduct"
  bottom: "fc7"
  top: "fc8"
  param {
    lr_mult: 1
    decay_mult: 1
  }
  param {
    lr_mult: 2
    decay_mult: 0
  }
  inner_product_param {
    num_output: 2
    weight_filler {
      type: "gaussian"
      std: 0.01
    }
    bias_filler {
      type: "constant"
      value: 0
    }
  }
}
layer {
  name: "accuracy"
  type: "Accuracy"
  bottom: "fc8"
  bottom: "label"
  top: "accuracy"
  include {
    phase: TEST
  }
}
layer {
  name: "loss"
  type: "SoftmaxWithLoss"
  bottom: "fc8"
  bottom: "label"
  top: "loss"
}
I0923 13:37:38.802279 11257 layer_factory.hpp:74] Creating layer data
I0923 13:37:38.802291 11257 net.cpp:92] Creating Layer data
I0923 13:37:38.802299 11257 net.cpp:370] data -> data
I0923 13:37:38.802307 11257 net.cpp:370] data -> label
I0923 13:37:38.802315 11257 net.cpp:122] Setting up data
I0923 13:37:38.802321 11257 data_transformer.cpp:22] Loading mean file from: data/test/imagenet_mean.binaryproto
I0923 13:37:38.803601 11257 db_lmdb.cpp:22] Opened lmdb test/imagenet_val_leveldb
I0923 13:37:38.803671 11257 data_layer.cpp:52] output data size: 10,3,227,227
I0923 13:37:38.806674 11257 net.cpp:129] Top shape: 10 3 227 227 (1545870)
I0923 13:37:38.806700 11257 net.cpp:129] Top shape: 10 (10)
I0923 13:37:38.806709 11257 layer_factory.hpp:74] Creating layer label_data_1_split
I0923 13:37:38.806723 11257 net.cpp:92] Creating Layer label_data_1_split
I0923 13:37:38.806730 11257 net.cpp:412] label_data_1_split <- label
I0923 13:37:38.806740 11257 net.cpp:370] label_data_1_split -> label_data_1_split_0
I0923 13:37:38.806753 11257 net.cpp:370] label_data_1_split -> label_data_1_split_1
I0923 13:37:38.806761 11257 net.cpp:122] Setting up label_data_1_split
I0923 13:37:38.806768 11257 net.cpp:129] Top shape: 10 (10)
I0923 13:37:38.806774 11257 net.cpp:129] Top shape: 10 (10)
I0923 13:37:38.806779 11257 layer_factory.hpp:74] Creating layer conv1
I0923 13:37:38.806790 11257 net.cpp:92] Creating Layer conv1
I0923 13:37:38.806795 11257 net.cpp:412] conv1 <- data
I0923 13:37:38.806802 11257 net.cpp:370] conv1 -> conv1
I0923 13:37:38.806810 11257 net.cpp:122] Setting up conv1
I0923 13:37:38.807639 11257 net.cpp:129] Top shape: 10 96 55 55 (2904000)
I0923 13:37:38.807654 11257 layer_factory.hpp:74] Creating layer relu1
I0923 13:37:38.807662 11257 net.cpp:92] Creating Layer relu1
I0923 13:37:38.807668 11257 net.cpp:412] relu1 <- conv1
I0923 13:37:38.807683 11257 net.cpp:359] relu1 -> conv1 (in-place)
I0923 13:37:38.807698 11257 net.cpp:122] Setting up relu1
I0923 13:37:38.807704 11257 net.cpp:129] Top shape: 10 96 55 55 (2904000)
I0923 13:37:38.807709 11257 layer_factory.hpp:74] Creating layer pool1
I0923 13:37:38.807718 11257 net.cpp:92] Creating Layer pool1
I0923 13:37:38.807723 11257 net.cpp:412] pool1 <- conv1
I0923 13:37:38.807729 11257 net.cpp:370] pool1 -> pool1
I0923 13:37:38.807736 11257 net.cpp:122] Setting up pool1
I0923 13:37:38.807745 11257 net.cpp:129] Top shape: 10 96 27 27 (699840)
I0923 13:37:38.807750 11257 layer_factory.hpp:74] Creating layer norm1
I0923 13:37:38.807759 11257 net.cpp:92] Creating Layer norm1
I0923 13:37:38.807764 11257 net.cpp:412] norm1 <- pool1
I0923 13:37:38.807770 11257 net.cpp:370] norm1 -> norm1
I0923 13:37:38.807776 11257 net.cpp:122] Setting up norm1
I0923 13:37:38.807783 11257 net.cpp:129] Top shape: 10 96 27 27 (699840)
I0923 13:37:38.807788 11257 layer_factory.hpp:74] Creating layer conv2
I0923 13:37:38.807796 11257 net.cpp:92] Creating Layer conv2
I0923 13:37:38.807801 11257 net.cpp:412] conv2 <- norm1
I0923 13:37:38.807807 11257 net.cpp:370] conv2 -> conv2
I0923 13:37:38.807814 11257 net.cpp:122] Setting up conv2
I0923 13:37:38.814996 11257 net.cpp:129] Top shape: 10 256 27 27 (1866240)
I0923 13:37:38.815022 11257 layer_factory.hpp:74] Creating layer relu2
I0923 13:37:38.815032 11257 net.cpp:92] Creating Layer relu2
I0923 13:37:38.815038 11257 net.cpp:412] relu2 <- conv2
I0923 13:37:38.815047 11257 net.cpp:359] relu2 -> conv2 (in-place)
I0923 13:37:38.815055 11257 net.cpp:122] Setting up relu2
I0923 13:37:38.815062 11257 net.cpp:129] Top shape: 10 256 27 27 (1866240)
I0923 13:37:38.815068 11257 layer_factory.hpp:74] Creating layer pool2
I0923 13:37:38.815075 11257 net.cpp:92] Creating Layer pool2
I0923 13:37:38.815080 11257 net.cpp:412] pool2 <- conv2
I0923 13:37:38.815088 11257 net.cpp:370] pool2 -> pool2
I0923 13:37:38.815096 11257 net.cpp:122] Setting up pool2
I0923 13:37:38.815105 11257 net.cpp:129] Top shape: 10 256 13 13 (432640)
I0923 13:37:38.815110 11257 layer_factory.hpp:74] Creating layer norm2
I0923 13:37:38.815117 11257 net.cpp:92] Creating Layer norm2
I0923 13:37:38.815122 11257 net.cpp:412] norm2 <- pool2
I0923 13:37:38.815130 11257 net.cpp:370] norm2 -> norm2
I0923 13:37:38.815137 11257 net.cpp:122] Setting up norm2
I0923 13:37:38.815145 11257 net.cpp:129] Top shape: 10 256 13 13 (432640)
I0923 13:37:38.815150 11257 layer_factory.hpp:74] Creating layer conv3
I0923 13:37:38.815158 11257 net.cpp:92] Creating Layer conv3
I0923 13:37:38.815163 11257 net.cpp:412] conv3 <- norm2
I0923 13:37:38.815171 11257 net.cpp:370] conv3 -> conv3
I0923 13:37:38.815177 11257 net.cpp:122] Setting up conv3
I0923 13:37:38.836446 11257 net.cpp:129] Top shape: 10 384 13 13 (648960)
I0923 13:37:38.836464 11257 layer_factory.hpp:74] Creating layer relu3
I0923 13:37:38.836472 11257 net.cpp:92] Creating Layer relu3
I0923 13:37:38.836477 11257 net.cpp:412] relu3 <- conv3
I0923 13:37:38.836483 11257 net.cpp:359] relu3 -> conv3 (in-place)
I0923 13:37:38.836489 11257 net.cpp:122] Setting up relu3
I0923 13:37:38.836496 11257 net.cpp:129] Top shape: 10 384 13 13 (648960)
I0923 13:37:38.836500 11257 layer_factory.hpp:74] Creating layer conv4
I0923 13:37:38.836510 11257 net.cpp:92] Creating Layer conv4
I0923 13:37:38.836515 11257 net.cpp:412] conv4 <- conv3
I0923 13:37:38.836524 11257 net.cpp:370] conv4 -> conv4
I0923 13:37:38.836530 11257 net.cpp:122] Setting up conv4
I0923 13:37:38.851867 11257 net.cpp:129] Top shape: 10 384 13 13 (648960)
I0923 13:37:38.851883 11257 layer_factory.hpp:74] Creating layer relu4
I0923 13:37:38.851891 11257 net.cpp:92] Creating Layer relu4
I0923 13:37:38.851897 11257 net.cpp:412] relu4 <- conv4
I0923 13:37:38.851903 11257 net.cpp:359] relu4 -> conv4 (in-place)
I0923 13:37:38.851910 11257 net.cpp:122] Setting up relu4
I0923 13:37:38.851917 11257 net.cpp:129] Top shape: 10 384 13 13 (648960)
I0923 13:37:38.851922 11257 layer_factory.hpp:74] Creating layer conv5
I0923 13:37:38.851938 11257 net.cpp:92] Creating Layer conv5
I0923 13:37:38.851949 11257 net.cpp:412] conv5 <- conv4
I0923 13:37:38.851958 11257 net.cpp:370] conv5 -> conv5
I0923 13:37:38.851965 11257 net.cpp:122] Setting up conv5
I0923 13:37:38.862184 11257 net.cpp:129] Top shape: 10 256 13 13 (432640)
I0923 13:37:38.862198 11257 layer_factory.hpp:74] Creating layer relu5
I0923 13:37:38.862205 11257 net.cpp:92] Creating Layer relu5
I0923 13:37:38.862210 11257 net.cpp:412] relu5 <- conv5
I0923 13:37:38.862217 11257 net.cpp:359] relu5 -> conv5 (in-place)
I0923 13:37:38.862224 11257 net.cpp:122] Setting up relu5
I0923 13:37:38.862231 11257 net.cpp:129] Top shape: 10 256 13 13 (432640)
I0923 13:37:38.862236 11257 layer_factory.hpp:74] Creating layer pool5
I0923 13:37:38.862244 11257 net.cpp:92] Creating Layer pool5
I0923 13:37:38.862249 11257 net.cpp:412] pool5 <- conv5
I0923 13:37:38.862257 11257 net.cpp:370] pool5 -> pool5
I0923 13:37:38.862263 11257 net.cpp:122] Setting up pool5
I0923 13:37:38.862272 11257 net.cpp:129] Top shape: 10 256 6 6 (92160)
I0923 13:37:38.862277 11257 layer_factory.hpp:74] Creating layer fc6
I0923 13:37:38.862285 11257 net.cpp:92] Creating Layer fc6
I0923 13:37:38.862290 11257 net.cpp:412] fc6 <- pool5
I0923 13:37:38.862298 11257 net.cpp:370] fc6 -> fc6
I0923 13:37:38.862306 11257 net.cpp:122] Setting up fc6
I0923 13:37:39.787199 11257 net.cpp:129] Top shape: 10 4096 (40960)
I0923 13:37:39.787241 11257 layer_factory.hpp:74] Creating layer relu6
I0923 13:37:39.787255 11257 net.cpp:92] Creating Layer relu6
I0923 13:37:39.787261 11257 net.cpp:412] relu6 <- fc6
I0923 13:37:39.787268 11257 net.cpp:359] relu6 -> fc6 (in-place)
I0923 13:37:39.787277 11257 net.cpp:122] Setting up relu6
I0923 13:37:39.787284 11257 net.cpp:129] Top shape: 10 4096 (40960)
I0923 13:37:39.787289 11257 layer_factory.hpp:74] Creating layer drop6
I0923 13:37:39.787297 11257 net.cpp:92] Creating Layer drop6
I0923 13:37:39.787302 11257 net.cpp:412] drop6 <- fc6
I0923 13:37:39.787307 11257 net.cpp:359] drop6 -> fc6 (in-place)
I0923 13:37:39.787313 11257 net.cpp:122] Setting up drop6
I0923 13:37:39.787322 11257 net.cpp:129] Top shape: 10 4096 (40960)
I0923 13:37:39.787327 11257 layer_factory.hpp:74] Creating layer fc7
I0923 13:37:39.787335 11257 net.cpp:92] Creating Layer fc7
I0923 13:37:39.787340 11257 net.cpp:412] fc7 <- fc6
I0923 13:37:39.787348 11257 net.cpp:370] fc7 -> fc7
I0923 13:37:39.787356 11257 net.cpp:122] Setting up fc7
I0923 13:37:40.198387 11257 net.cpp:129] Top shape: 10 4096 (40960)
I0923 13:37:40.198429 11257 layer_factory.hpp:74] Creating layer relu7
I0923 13:37:40.198441 11257 net.cpp:92] Creating Layer relu7
I0923 13:37:40.198447 11257 net.cpp:412] relu7 <- fc7
I0923 13:37:40.198456 11257 net.cpp:359] relu7 -> fc7 (in-place)
I0923 13:37:40.198464 11257 net.cpp:122] Setting up relu7
I0923 13:37:40.198472 11257 net.cpp:129] Top shape: 10 4096 (40960)
I0923 13:37:40.198477 11257 layer_factory.hpp:74] Creating layer drop7
I0923 13:37:40.198485 11257 net.cpp:92] Creating Layer drop7
I0923 13:37:40.198490 11257 net.cpp:412] drop7 <- fc7
I0923 13:37:40.198496 11257 net.cpp:359] drop7 -> fc7 (in-place)
I0923 13:37:40.198503 11257 net.cpp:122] Setting up drop7
I0923 13:37:40.198510 11257 net.cpp:129] Top shape: 10 4096 (40960)
I0923 13:37:40.198515 11257 layer_factory.hpp:74] Creating layer fc8
I0923 13:37:40.198528 11257 net.cpp:92] Creating Layer fc8
I0923 13:37:40.198532 11257 net.cpp:412] fc8 <- fc7
I0923 13:37:40.198539 11257 net.cpp:370] fc8 -> fc8
I0923 13:37:40.198550 11257 net.cpp:122] Setting up fc8
I0923 13:37:40.198751 11257 net.cpp:129] Top shape: 10 2 (20)
I0923 13:37:40.198760 11257 layer_factory.hpp:74] Creating layer fc8_fc8_0_split
I0923 13:37:40.198767 11257 net.cpp:92] Creating Layer fc8_fc8_0_split
I0923 13:37:40.198772 11257 net.cpp:412] fc8_fc8_0_split <- fc8
I0923 13:37:40.198779 11257 net.cpp:370] fc8_fc8_0_split -> fc8_fc8_0_split_0
I0923 13:37:40.198787 11257 net.cpp:370] fc8_fc8_0_split -> fc8_fc8_0_split_1
I0923 13:37:40.198794 11257 net.cpp:122] Setting up fc8_fc8_0_split
I0923 13:37:40.198801 11257 net.cpp:129] Top shape: 10 2 (20)
I0923 13:37:40.198814 11257 net.cpp:129] Top shape: 10 2 (20)
I0923 13:37:40.198827 11257 layer_factory.hpp:74] Creating layer accuracy
I0923 13:37:40.198835 11257 net.cpp:92] Creating Layer accuracy
I0923 13:37:40.198840 11257 net.cpp:412] accuracy <- fc8_fc8_0_split_0
I0923 13:37:40.198845 11257 net.cpp:412] accuracy <- label_data_1_split_0
I0923 13:37:40.198851 11257 net.cpp:370] accuracy -> accuracy
I0923 13:37:40.198858 11257 net.cpp:122] Setting up accuracy
…
