…
I1009 18:39:50.226907 25408 net.cpp:289] The NetState phase (0) differed from the phase (1) specified by a rule in layer accuracy
I1009 18:39:50.227046 25408 net.cpp:44] Initializing net from parameters: 
name: "CaffeNet"
state {
  phase: TRAIN
}
layer {
  name: "data"
  type: "Data"
  top: "data"
  top: "label"
  include {
    phase: TRAIN
  }
  transform_param {
    mirror: true
    crop_size: 227
    mean_file: "data/whole_bs/imagenet_mean.binaryproto"
  }
  data_param {
    source: "whole_bs/imagenet_train_leveldb"
    batch_size: 10
    backend: LMDB
  }
}
layer {
  name: "conv1"
  type: "Convolution"
  bottom: "data"
  top: "conv1"
  param {
    lr_mult: 1
    decay_mult: 1
  }
  param {
    lr_mult: 2
    decay_mult: 0
  }
  convolution_param {
    num_output: 96
    kernel_size: 11
    stride: 4
    weight_filler {
      type: "gaussian"
      std: 0.01
    }
    bias_filler {
      type: "constant"
      value: 0
    }
  }
}
layer {
  name: "relu1"
  type: "ReLU"
  bottom: "conv1"
  top: "conv1"
}
layer {
  name: "pool1"
  type: "Pooling"
  bottom: "conv1"
  top: "pool1"
  pooling_param {
    pool: MAX
    kernel_size: 3
    stride: 2
  }
}
layer {
  name: "norm1"
  type: "LRN"
  bottom: "pool1"
  top: "norm1"
  lrn_param {
    local_size: 5
    alpha: 0.0001
    beta: 0.75
  }
}
layer {
  name: "conv2"
  type: "Convolution"
  bottom: "norm1"
  top: "conv2"
  param {
    lr_mult: 1
    decay_mult: 1
  }
  param {
    lr_mult: 2
    decay_mult: 0
  }
  convolution_param {
    num_output: 256
    pad: 2
    kernel_size: 5
    group: 2
    weight_filler {
      type: "gaussian"
      std: 0.01
    }
    bias_filler {
      type: "constant"
      value: 1
    }
  }
}
layer {
  name: "relu2"
  type: "ReLU"
  bottom: "conv2"
  top: "conv2"
}
layer {
  name: "pool2"
  type: "Pooling"
  bottom: "conv2"
  top: "pool2"
  pooling_param {
    pool: MAX
    kernel_size: 3
    stride: 2
  }
}
layer {
  name: "norm2"
  type: "LRN"
  bottom: "pool2"
  top: "norm2"
  lrn_param {
    local_size: 5
    alpha: 0.0001
    beta: 0.75
  }
}
layer {
  name: "conv3"
  type: "Convolution"
  bottom: "norm2"
  top: "conv3"
  param {
    lr_mult: 1
    decay_mult: 1
  }
  param {
    lr_mult: 2
    decay_mult: 0
  }
  convolution_param {
    num_output: 384
    pad: 1
    kernel_size: 3
    weight_filler {
      type: "gaussian"
      std: 0.01
    }
    bias_filler {
      type: "constant"
      value: 0
    }
  }
}
layer {
  name: "relu3"
  type: "ReLU"
  bottom: "conv3"
  top: "conv3"
}
layer {
  name: "conv4"
  type: "Convolution"
  bottom: "conv3"
  top: "conv4"
  param {
    lr_mult: 1
    decay_mult: 1
  }
  param {
    lr_mult: 2
    decay_mult: 0
  }
  convolution_param {
    num_output: 384
    pad: 1
    kernel_size: 3
    group: 2
    weight_filler {
      type: "gaussian"
      std: 0.01
    }
    bias_filler {
      type: "constant"
      value: 1
    }
  }
}
layer {
  name: "relu4"
  type: "ReLU"
  bottom: "conv4"
  top: "conv4"
}
layer {
  name: "conv5"
  type: "Convolution"
  bottom: "conv4"
  top: "conv5"
  param {
    lr_mult: 1
    decay_mult: 1
  }
  param {
    lr_mult: 2
    decay_mult: 0
  }
  convolution_param {
    num_output: 256
    pad: 1
    kernel_size: 3
    group: 2
    weight_filler {
      type: "gaussian"
      std: 0.01
    }
    bias_filler {
      type: "constant"
      value: 1
    }
  }
}
layer {
  name: "relu5"
  type: "ReLU"
  bottom: "conv5"
  top: "conv5"
}
layer {
  name: "pool5"
  type: "Pooling"
  bottom: "conv5"
  top: "pool5"
  pooling_param {
    pool: MAX
    kernel_size: 3
    stride: 2
  }
}
layer {
  name: "fc6"
  type: "InnerProduct"
  bottom: "pool5"
  top: "fc6"
  param {
    lr_mult: 1
    decay_mult: 1
  }
  param {
    lr_mult: 2
    decay_mult: 0
  }
  inner_product_param {
    num_output: 4096
    weight_filler {
      type: "gaussian"
      std: 0.005
    }
    bias_filler {
      type: "constant"
      value: 1
    }
  }
}
layer {
  name: "relu6"
  type: "ReLU"
  bottom: "fc6"
  top: "fc6"
}
layer {
  name: "drop6"
  type: "Dropout"
  bottom: "fc6"
  top: "fc6"
  dropout_param {
    dropout_ratio: 0.5
  }
}
layer {
  name: "fc7"
  type: "InnerProduct"
  bottom: "fc6"
  top: "fc7"
  param {
    lr_mult: 1
    decay_mult: 1
  }
  param {
    lr_mult: 2
    decay_mult: 0
  }
  inner_product_param {
    num_output: 4096
    weight_filler {
      type: "gaussian"
      std: 0.005
    }
    bias_filler {
      type: "constant"
      value: 1
    }
  }
}
layer {
  name: "relu7"
  type: "ReLU"
  bottom: "fc7"
  top: "fc7"
}
layer {
  name: "drop7"
  type: "Dropout"
  bottom: "fc7"
  top: "fc7"
  dropout_param {
    dropout_ratio: 0.5
  }
}
layer {
  name: "fc8"
  type: "InnerProduct"
  bottom: "fc7"
  top: "fc8"
  param {
    lr_mult: 1
    decay_mult: 1
  }
  param {
    lr_mult: 2
    decay_mult: 0
  }
  inner_product_param {
    num_output: 2
    weight_filler {
      type: "gaussian"
      std: 0.01
    }
    bias_filler {
      type: "constant"
      value: 0
    }
  }
}
layer {
  name: "loss"
  type: "SoftmaxWithLoss"
  bottom: "fc8"
  bottom: "label"
  top: "loss"
}
I1009 18:39:50.227144 25408 layer_factory.hpp:74] Creating layer data
I1009 18:39:50.227166 25408 net.cpp:92] Creating Layer data
I1009 18:39:50.227174 25408 net.cpp:370] data -> data
I1009 18:39:50.227200 25408 net.cpp:370] data -> label
I1009 18:39:50.227211 25408 net.cpp:122] Setting up data
I1009 18:39:50.227218 25408 data_transformer.cpp:22] Loading mean file from: data/whole_bs/imagenet_mean.binaryproto
I1009 18:39:50.228745 25408 db_lmdb.cpp:22] Opened lmdb whole_bs/imagenet_train_leveldb
I1009 18:39:50.228826 25408 data_layer.cpp:52] output data size: 10,3,227,227
I1009 18:39:50.229760 25408 net.cpp:129] Top shape: 10 3 227 227 (1545870)
I1009 18:39:50.229785 25408 net.cpp:129] Top shape: 10 (10)
I1009 18:39:50.229795 25408 layer_factory.hpp:74] Creating layer conv1
I1009 18:39:50.229814 25408 net.cpp:92] Creating Layer conv1
I1009 18:39:50.229820 25408 net.cpp:412] conv1 <- data
I1009 18:39:50.229833 25408 net.cpp:370] conv1 -> conv1
I1009 18:39:50.229847 25408 net.cpp:122] Setting up conv1
I1009 18:39:50.230695 25408 net.cpp:129] Top shape: 10 96 55 55 (2904000)
I1009 18:39:50.230713 25408 layer_factory.hpp:74] Creating layer relu1
I1009 18:39:50.230721 25408 net.cpp:92] Creating Layer relu1
I1009 18:39:50.230727 25408 net.cpp:412] relu1 <- conv1
I1009 18:39:50.230733 25408 net.cpp:359] relu1 -> conv1 (in-place)
I1009 18:39:50.230741 25408 net.cpp:122] Setting up relu1
I1009 18:39:50.230747 25408 net.cpp:129] Top shape: 10 96 55 55 (2904000)
I1009 18:39:50.230752 25408 layer_factory.hpp:74] Creating layer pool1
I1009 18:39:50.230761 25408 net.cpp:92] Creating Layer pool1
I1009 18:39:50.230765 25408 net.cpp:412] pool1 <- conv1
I1009 18:39:50.230772 25408 net.cpp:370] pool1 -> pool1
I1009 18:39:50.230780 25408 net.cpp:122] Setting up pool1
I1009 18:39:50.230795 25408 net.cpp:129] Top shape: 10 96 27 27 (699840)
I1009 18:39:50.230801 25408 layer_factory.hpp:74] Creating layer norm1
I1009 18:39:50.230810 25408 net.cpp:92] Creating Layer norm1
I1009 18:39:50.230815 25408 net.cpp:412] norm1 <- pool1
I1009 18:39:50.230823 25408 net.cpp:370] norm1 -> norm1
I1009 18:39:50.230831 25408 net.cpp:122] Setting up norm1
I1009 18:39:50.230839 25408 net.cpp:129] Top shape: 10 96 27 27 (699840)
I1009 18:39:50.230844 25408 layer_factory.hpp:74] Creating layer conv2
I1009 18:39:50.230852 25408 net.cpp:92] Creating Layer conv2
I1009 18:39:50.230857 25408 net.cpp:412] conv2 <- norm1
I1009 18:39:50.230865 25408 net.cpp:370] conv2 -> conv2
I1009 18:39:50.230885 25408 net.cpp:122] Setting up conv2
I1009 18:39:50.238181 25408 net.cpp:129] Top shape: 10 256 27 27 (1866240)
I1009 18:39:50.238219 25408 layer_factory.hpp:74] Creating layer relu2
I1009 18:39:50.238231 25408 net.cpp:92] Creating Layer relu2
I1009 18:39:50.238237 25408 net.cpp:412] relu2 <- conv2
I1009 18:39:50.238248 25408 net.cpp:359] relu2 -> conv2 (in-place)
I1009 18:39:50.238266 25408 net.cpp:122] Setting up relu2
I1009 18:39:50.238273 25408 net.cpp:129] Top shape: 10 256 27 27 (1866240)
I1009 18:39:50.238278 25408 layer_factory.hpp:74] Creating layer pool2
I1009 18:39:50.238286 25408 net.cpp:92] Creating Layer pool2
I1009 18:39:50.238291 25408 net.cpp:412] pool2 <- conv2
I1009 18:39:50.238297 25408 net.cpp:370] pool2 -> pool2
I1009 18:39:50.238306 25408 net.cpp:122] Setting up pool2
I1009 18:39:50.238315 25408 net.cpp:129] Top shape: 10 256 13 13 (432640)
I1009 18:39:50.238320 25408 layer_factory.hpp:74] Creating layer norm2
I1009 18:39:50.238330 25408 net.cpp:92] Creating Layer norm2
I1009 18:39:50.238337 25408 net.cpp:412] norm2 <- pool2
I1009 18:39:50.238343 25408 net.cpp:370] norm2 -> norm2
I1009 18:39:50.238351 25408 net.cpp:122] Setting up norm2
I1009 18:39:50.238359 25408 net.cpp:129] Top shape: 10 256 13 13 (432640)
I1009 18:39:50.238364 25408 layer_factory.hpp:74] Creating layer conv3
I1009 18:39:50.238373 25408 net.cpp:92] Creating Layer conv3
I1009 18:39:50.238379 25408 net.cpp:412] conv3 <- norm2
I1009 18:39:50.238385 25408 net.cpp:370] conv3 -> conv3
I1009 18:39:50.238394 25408 net.cpp:122] Setting up conv3
I1009 18:39:50.258674 25408 net.cpp:129] Top shape: 10 384 13 13 (648960)
I1009 18:39:50.258689 25408 layer_factory.hpp:74] Creating layer relu3
I1009 18:39:50.258697 25408 net.cpp:92] Creating Layer relu3
I1009 18:39:50.258702 25408 net.cpp:412] relu3 <- conv3
I1009 18:39:50.258708 25408 net.cpp:359] relu3 -> conv3 (in-place)
I1009 18:39:50.258715 25408 net.cpp:122] Setting up relu3
I1009 18:39:50.258721 25408 net.cpp:129] Top shape: 10 384 13 13 (648960)
I1009 18:39:50.258726 25408 layer_factory.hpp:74] Creating layer conv4
I1009 18:39:50.258734 25408 net.cpp:92] Creating Layer conv4
I1009 18:39:50.258740 25408 net.cpp:412] conv4 <- conv3
I1009 18:39:50.258746 25408 net.cpp:370] conv4 -> conv4
I1009 18:39:50.258754 25408 net.cpp:122] Setting up conv4
I1009 18:39:50.274044 25408 net.cpp:129] Top shape: 10 384 13 13 (648960)
I1009 18:39:50.274060 25408 layer_factory.hpp:74] Creating layer relu4
I1009 18:39:50.274068 25408 net.cpp:92] Creating Layer relu4
I1009 18:39:50.274073 25408 net.cpp:412] relu4 <- conv4
I1009 18:39:50.274085 25408 net.cpp:359] relu4 -> conv4 (in-place)
I1009 18:39:50.274091 25408 net.cpp:122] Setting up relu4
I1009 18:39:50.274098 25408 net.cpp:129] Top shape: 10 384 13 13 (648960)
I1009 18:39:50.274103 25408 layer_factory.hpp:74] Creating layer conv5
I1009 18:39:50.274111 25408 net.cpp:92] Creating Layer conv5
I1009 18:39:50.274116 25408 net.cpp:412] conv5 <- conv4
I1009 18:39:50.274124 25408 net.cpp:370] conv5 -> conv5
I1009 18:39:50.274132 25408 net.cpp:122] Setting up conv5
I1009 18:39:50.284317 25408 net.cpp:129] Top shape: 10 256 13 13 (432640)
I1009 18:39:50.284332 25408 layer_factory.hpp:74] Creating layer relu5
I1009 18:39:50.284340 25408 net.cpp:92] Creating Layer relu5
I1009 18:39:50.284345 25408 net.cpp:412] relu5 <- conv5
I1009 18:39:50.284351 25408 net.cpp:359] relu5 -> conv5 (in-place)
I1009 18:39:50.284358 25408 net.cpp:122] Setting up relu5
I1009 18:39:50.284364 25408 net.cpp:129] Top shape: 10 256 13 13 (432640)
I1009 18:39:50.284369 25408 layer_factory.hpp:74] Creating layer pool5
I1009 18:39:50.284376 25408 net.cpp:92] Creating Layer pool5
I1009 18:39:50.284381 25408 net.cpp:412] pool5 <- conv5
I1009 18:39:50.284387 25408 net.cpp:370] pool5 -> pool5
I1009 18:39:50.284394 25408 net.cpp:122] Setting up pool5
I1009 18:39:50.284404 25408 net.cpp:129] Top shape: 10 256 6 6 (92160)
I1009 18:39:50.284409 25408 layer_factory.hpp:74] Creating layer fc6
I1009 18:39:50.284420 25408 net.cpp:92] Creating Layer fc6
I1009 18:39:50.284425 25408 net.cpp:412] fc6 <- pool5
I1009 18:39:50.284446 25408 net.cpp:370] fc6 -> fc6
I1009 18:39:50.284458 25408 net.cpp:122] Setting up fc6
I1009 18:39:51.141047 25408 net.cpp:129] Top shape: 10 4096 (40960)
I1009 18:39:51.141089 25408 layer_factory.hpp:74] Creating layer relu6
I1009 18:39:51.141101 25408 net.cpp:92] Creating Layer relu6
I1009 18:39:51.141108 25408 net.cpp:412] relu6 <- fc6
I1009 18:39:51.141126 25408 net.cpp:359] relu6 -> fc6 (in-place)
I1009 18:39:51.141135 25408 net.cpp:122] Setting up relu6
I1009 18:39:51.141142 25408 net.cpp:129] Top shape: 10 4096 (40960)
I1009 18:39:51.141147 25408 layer_factory.hpp:74] Creating layer drop6
I1009 18:39:51.141155 25408 net.cpp:92] Creating Layer drop6
I1009 18:39:51.141160 25408 net.cpp:412] drop6 <- fc6
I1009 18:39:51.141166 25408 net.cpp:359] drop6 -> fc6 (in-place)
I1009 18:39:51.141177 25408 net.cpp:122] Setting up drop6
I1009 18:39:51.141187 25408 net.cpp:129] Top shape: 10 4096 (40960)
I1009 18:39:51.141192 25408 layer_factory.hpp:74] Creating layer fc7
I1009 18:39:51.141201 25408 net.cpp:92] Creating Layer fc7
I1009 18:39:51.141206 25408 net.cpp:412] fc7 <- fc6
I1009 18:39:51.141213 25408 net.cpp:370] fc7 -> fc7
I1009 18:39:51.141223 25408 net.cpp:122] Setting up fc7
I1009 18:39:51.521951 25408 net.cpp:129] Top shape: 10 4096 (40960)
I1009 18:39:51.521993 25408 layer_factory.hpp:74] Creating layer relu7
I1009 18:39:51.522006 25408 net.cpp:92] Creating Layer relu7
I1009 18:39:51.522011 25408 net.cpp:412] relu7 <- fc7
I1009 18:39:51.522022 25408 net.cpp:359] relu7 -> fc7 (in-place)
I1009 18:39:51.522030 25408 net.cpp:122] Setting up relu7
I1009 18:39:51.522037 25408 net.cpp:129] Top shape: 10 4096 (40960)
I1009 18:39:51.522042 25408 layer_factory.hpp:74] Creating layer drop7
I1009 18:39:51.522049 25408 net.cpp:92] Creating Layer drop7
I1009 18:39:51.522054 25408 net.cpp:412] drop7 <- fc7
I1009 18:39:51.522060 25408 net.cpp:359] drop7 -> fc7 (in-place)
I1009 18:39:51.522068 25408 net.cpp:122] Setting up drop7
I1009 18:39:51.522075 25408 net.cpp:129] Top shape: 10 4096 (40960)
I1009 18:39:51.522080 25408 layer_factory.hpp:74] Creating layer fc8
I1009 18:39:51.522090 25408 net.cpp:92] Creating Layer fc8
I1009 18:39:51.522095 25408 net.cpp:412] fc8 <- fc7
I1009 18:39:51.522102 25408 net.cpp:370] fc8 -> fc8
I1009 18:39:51.522110 25408 net.cpp:122] Setting up fc8
I1009 18:39:51.522312 25408 net.cpp:129] Top shape: 10 2 (20)
I1009 18:39:51.522320 25408 layer_factory.hpp:74] Creating layer loss
I1009 18:39:51.522335 25408 net.cpp:92] Creating Layer loss
I1009 18:39:51.522339 25408 net.cpp:412] loss <- fc8
I1009 18:39:51.522346 25408 net.cpp:412] loss <- label
I1009 18:39:51.522354 25408 net.cpp:370] loss -> loss
I1009 18:39:51.522364 25408 net.cpp:122] Setting up loss
I1009 18:39:51.522372 25408 layer_factory.hpp:74] Creating layer loss
…
I1009 18:39:51.523214 25408 net.cpp:289] The NetState phase (1) differed from the phase (0) specified by a rule in layer data
I1009 18:39:51.523368 25408 net.cpp:44] Initializing net from parameters: 
name: "CaffeNet"
state {
  phase: TEST
}
layer {
  name: "data"
  type: "Data"
  top: "data"
  top: "label"
  include {
    phase: TEST
  }
  transform_param {
    mirror: true
    crop_size: 227
    mean_file: "data/whole_bs/imagenet_mean.binaryproto"
  }
  data_param {
    source: "whole_bs/imagenet_val_leveldb"
    mean_file: "data/whole_bs/imagenet_mean.binartproto"
    batch_size: 10
    crop_size: 227
    mirror: false
    backend: LMDB
  }
}
layer {
  name: "conv1"
  type: "Convolution"
  bottom: "data"
  top: "conv1"
  param {
    lr_mult: 1
    decay_mult: 1
  }
  param {
    lr_mult: 2
    decay_mult: 0
  }
  convolution_param {
    num_output: 96
    kernel_size: 11
    stride: 4
    weight_filler {
      type: "gaussian"
      std: 0.01
    }
    bias_filler {
      type: "constant"
      value: 0
    }
  }
}
layer {
  name: "relu1"
  type: "ReLU"
  bottom: "conv1"
  top: "conv1"
}
layer {
  name: "pool1"
  type: "Pooling"
  bottom: "conv1"
  top: "pool1"
  pooling_param {
    pool: MAX
    kernel_size: 3
    stride: 2
  }
}
layer {
  name: "norm1"
  type: "LRN"
  bottom: "pool1"
  top: "norm1"
  lrn_param {
    local_size: 5
    alpha: 0.0001
    beta: 0.75
  }
}
layer {
  name: "conv2"
  type: "Convolution"
  bottom: "norm1"
  top: "conv2"
  param {
    lr_mult: 1
    decay_mult: 1
  }
  param {
    lr_mult: 2
    decay_mult: 0
  }
  convolution_param {
    num_output: 256
    pad: 2
    kernel_size: 5
    group: 2
    weight_filler {
      type: "gaussian"
      std: 0.01
    }
    bias_filler {
      type: "constant"
      value: 1
    }
  }
}
layer {
  name: "relu2"
  type: "ReLU"
  bottom: "conv2"
  top: "conv2"
}
layer {
  name: "pool2"
  type: "Pooling"
  bottom: "conv2"
  top: "pool2"
  pooling_param {
    pool: MAX
    kernel_size: 3
    stride: 2
  }
}
layer {
  name: "norm2"
  type: "LRN"
  bottom: "pool2"
  top: "norm2"
  lrn_param {
    local_size: 5
    alpha: 0.0001
    beta: 0.75
  }
}
layer {
  name: "conv3"
  type: "Convolution"
  bottom: "norm2"
  top: "conv3"
  param {
    lr_mult: 1
    decay_mult: 1
  }
  param {
    lr_mult: 2
    decay_mult: 0
  }
  convolution_param {
    num_output: 384
    pad: 1
    kernel_size: 3
    weight_filler {
      type: "gaussian"
      std: 0.01
    }
    bias_filler {
      type: "constant"
      value: 0
    }
  }
}
layer {
  name: "relu3"
  type: "ReLU"
  bottom: "conv3"
  top: "conv3"
}
layer {
  name: "conv4"
  type: "Convolution"
  bottom: "conv3"
  top: "conv4"
  param {
    lr_mult: 1
    decay_mult: 1
  }
  param {
    lr_mult: 2
    decay_mult: 0
  }
  convolution_param {
    num_output: 384
    pad: 1
    kernel_size: 3
    group: 2
    weight_filler {
      type: "gaussian"
      std: 0.01
    }
    bias_filler {
      type: "constant"
      value: 1
    }
  }
}
layer {
  name: "relu4"
  type: "ReLU"
  bottom: "conv4"
  top: "conv4"
}
layer {
  name: "conv5"
  type: "Convolution"
  bottom: "conv4"
  top: "conv5"
  param {
    lr_mult: 1
    decay_mult: 1
  }
  param {
    lr_mult: 2
    decay_mult: 0
  }
  convolution_param {
    num_output: 256
    pad: 1
    kernel_size: 3
    group: 2
    weight_filler {
      type: "gaussian"
      std: 0.01
    }
    bias_filler {
      type: "constant"
      value: 1
    }
  }
}
layer {
  name: "relu5"
  type: "ReLU"
  bottom: "conv5"
  top: "conv5"
}
layer {
  name: "pool5"
  type: "Pooling"
  bottom: "conv5"
  top: "pool5"
  pooling_param {
    pool: MAX
    kernel_size: 3
    stride: 2
  }
}
layer {
  name: "fc6"
  type: "InnerProduct"
  bottom: "pool5"
  top: "fc6"
  param {
    lr_mult: 1
    decay_mult: 1
  }
  param {
    lr_mult: 2
    decay_mult: 0
  }
  inner_product_param {
    num_output: 4096
    weight_filler {
      type: "gaussian"
      std: 0.005
    }
    bias_filler {
      type: "constant"
      value: 1
    }
  }
}
layer {
  name: "relu6"
  type: "ReLU"
  bottom: "fc6"
  top: "fc6"
}
layer {
  name: "drop6"
  type: "Dropout"
  bottom: "fc6"
  top: "fc6"
  dropout_param {
    dropout_ratio: 0.5
  }
}
layer {
  name: "fc7"
  type: "InnerProduct"
  bottom: "fc6"
  top: "fc7"
  param {
    lr_mult: 1
    decay_mult: 1
  }
  param {
    lr_mult: 2
    decay_mult: 0
  }
  inner_product_param {
    num_output: 4096
    weight_filler {
      type: "gaussian"
      std: 0.005
    }
    bias_filler {
      type: "constant"
      value: 1
    }
  }
}
layer {
  name: "relu7"
  type: "ReLU"
  bottom: "fc7"
  top: "fc7"
}
layer {
  name: "drop7"
  type: "Dropout"
  bottom: "fc7"
  top: "fc7"
  dropout_param {
    dropout_ratio: 0.5
  }
}
layer {
  name: "fc8"
  type: "InnerProduct"
  bottom: "fc7"
  top: "fc8"
  param {
    lr_mult: 1
    decay_mult: 1
  }
  param {
    lr_mult: 2
    decay_mult: 0
  }
  inner_product_param {
    num_output: 2
    weight_filler {
      type: "gaussian"
      std: 0.01
    }
    bias_filler {
      type: "constant"
      value: 0
    }
  }
}
layer {
  name: "accuracy"
  type: "Accuracy"
  bottom: "fc8"
  bottom: "label"
  top: "accuracy"
  include {
    phase: TEST
  }
}
layer {
  name: "loss"
  type: "SoftmaxWithLoss"
  bottom: "fc8"
  bottom: "label"
  top: "loss"
}
I1009 18:39:51.523475 25408 layer_factory.hpp:74] Creating layer data
I1009 18:39:51.523488 25408 net.cpp:92] Creating Layer data
I1009 18:39:51.523494 25408 net.cpp:370] data -> data
I1009 18:39:51.523504 25408 net.cpp:370] data -> label
I1009 18:39:51.523512 25408 net.cpp:122] Setting up data
I1009 18:39:51.523517 25408 data_transformer.cpp:22] Loading mean file from: data/whole_bs/imagenet_mean.binaryproto
I1009 18:39:51.524787 25408 db_lmdb.cpp:22] Opened lmdb whole_bs/imagenet_val_leveldb
I1009 18:39:51.524853 25408 data_layer.cpp:52] output data size: 10,3,227,227
I1009 18:39:51.525785 25408 net.cpp:129] Top shape: 10 3 227 227 (1545870)
I1009 18:39:51.525810 25408 net.cpp:129] Top shape: 10 (10)
I1009 18:39:51.525818 25408 layer_factory.hpp:74] Creating layer label_data_1_split
I1009 18:39:51.525832 25408 net.cpp:92] Creating Layer label_data_1_split
I1009 18:39:51.525840 25408 net.cpp:412] label_data_1_split <- label
I1009 18:39:51.525849 25408 net.cpp:370] label_data_1_split -> label_data_1_split_0
I1009 18:39:51.525862 25408 net.cpp:370] label_data_1_split -> label_data_1_split_1
I1009 18:39:51.525869 25408 net.cpp:122] Setting up label_data_1_split
I1009 18:39:51.525878 25408 net.cpp:129] Top shape: 10 (10)
I1009 18:39:51.525883 25408 net.cpp:129] Top shape: 10 (10)
I1009 18:39:51.525888 25408 layer_factory.hpp:74] Creating layer conv1
I1009 18:39:51.525899 25408 net.cpp:92] Creating Layer conv1
I1009 18:39:51.525904 25408 net.cpp:412] conv1 <- data
I1009 18:39:51.525912 25408 net.cpp:370] conv1 -> conv1
I1009 18:39:51.525920 25408 net.cpp:122] Setting up conv1
I1009 18:39:51.526751 25408 net.cpp:129] Top shape: 10 96 55 55 (2904000)
I1009 18:39:51.526765 25408 layer_factory.hpp:74] Creating layer relu1
I1009 18:39:51.526773 25408 net.cpp:92] Creating Layer relu1
I1009 18:39:51.526778 25408 net.cpp:412] relu1 <- conv1
I1009 18:39:51.526798 25408 net.cpp:359] relu1 -> conv1 (in-place)
I1009 18:39:51.526804 25408 net.cpp:122] Setting up relu1
I1009 18:39:51.526811 25408 net.cpp:129] Top shape: 10 96 55 55 (2904000)
I1009 18:39:51.526816 25408 layer_factory.hpp:74] Creating layer pool1
I1009 18:39:51.526824 25408 net.cpp:92] Creating Layer pool1
I1009 18:39:51.526829 25408 net.cpp:412] pool1 <- conv1
I1009 18:39:51.526841 25408 net.cpp:370] pool1 -> pool1
I1009 18:39:51.526849 25408 net.cpp:122] Setting up pool1
I1009 18:39:51.526859 25408 net.cpp:129] Top shape: 10 96 27 27 (699840)
I1009 18:39:51.526865 25408 layer_factory.hpp:74] Creating layer norm1
I1009 18:39:51.526871 25408 net.cpp:92] Creating Layer norm1
I1009 18:39:51.526876 25408 net.cpp:412] norm1 <- pool1
I1009 18:39:51.526883 25408 net.cpp:370] norm1 -> norm1
I1009 18:39:51.526890 25408 net.cpp:122] Setting up norm1
I1009 18:39:51.526897 25408 net.cpp:129] Top shape: 10 96 27 27 (699840)
I1009 18:39:51.526902 25408 layer_factory.hpp:74] Creating layer conv2
I1009 18:39:51.526911 25408 net.cpp:92] Creating Layer conv2
I1009 18:39:51.526916 25408 net.cpp:412] conv2 <- norm1
I1009 18:39:51.526922 25408 net.cpp:370] conv2 -> conv2
I1009 18:39:51.526929 25408 net.cpp:122] Setting up conv2
I1009 18:39:51.534124 25408 net.cpp:129] Top shape: 10 256 27 27 (1866240)
I1009 18:39:51.534153 25408 layer_factory.hpp:74] Creating layer relu2
I1009 18:39:51.534162 25408 net.cpp:92] Creating Layer relu2
I1009 18:39:51.534168 25408 net.cpp:412] relu2 <- conv2
I1009 18:39:51.534175 25408 net.cpp:359] relu2 -> conv2 (in-place)
I1009 18:39:51.534183 25408 net.cpp:122] Setting up relu2
I1009 18:39:51.534190 25408 net.cpp:129] Top shape: 10 256 27 27 (1866240)
I1009 18:39:51.534195 25408 layer_factory.hpp:74] Creating layer pool2
I1009 18:39:51.534205 25408 net.cpp:92] Creating Layer pool2
I1009 18:39:51.534210 25408 net.cpp:412] pool2 <- conv2
I1009 18:39:51.534217 25408 net.cpp:370] pool2 -> pool2
I1009 18:39:51.534225 25408 net.cpp:122] Setting up pool2
I1009 18:39:51.534235 25408 net.cpp:129] Top shape: 10 256 13 13 (432640)
I1009 18:39:51.534240 25408 layer_factory.hpp:74] Creating layer norm2
I1009 18:39:51.534250 25408 net.cpp:92] Creating Layer norm2
I1009 18:39:51.534255 25408 net.cpp:412] norm2 <- pool2
I1009 18:39:51.534260 25408 net.cpp:370] norm2 -> norm2
I1009 18:39:51.534267 25408 net.cpp:122] Setting up norm2
I1009 18:39:51.534276 25408 net.cpp:129] Top shape: 10 256 13 13 (432640)
I1009 18:39:51.534281 25408 layer_factory.hpp:74] Creating layer conv3
I1009 18:39:51.534291 25408 net.cpp:92] Creating Layer conv3
I1009 18:39:51.534296 25408 net.cpp:412] conv3 <- norm2
I1009 18:39:51.534303 25408 net.cpp:370] conv3 -> conv3
I1009 18:39:51.534310 25408 net.cpp:122] Setting up conv3
I1009 18:39:51.554561 25408 net.cpp:129] Top shape: 10 384 13 13 (648960)
I1009 18:39:51.554575 25408 layer_factory.hpp:74] Creating layer relu3
I1009 18:39:51.554582 25408 net.cpp:92] Creating Layer relu3
I1009 18:39:51.554587 25408 net.cpp:412] relu3 <- conv3
I1009 18:39:51.554594 25408 net.cpp:359] relu3 -> conv3 (in-place)
I1009 18:39:51.554601 25408 net.cpp:122] Setting up relu3
I1009 18:39:51.554607 25408 net.cpp:129] Top shape: 10 384 13 13 (648960)
I1009 18:39:51.554612 25408 layer_factory.hpp:74] Creating layer conv4
I1009 18:39:51.554620 25408 net.cpp:92] Creating Layer conv4
I1009 18:39:51.554625 25408 net.cpp:412] conv4 <- conv3
I1009 18:39:51.554632 25408 net.cpp:370] conv4 -> conv4
I1009 18:39:51.554639 25408 net.cpp:122] Setting up conv4
I1009 18:39:51.569931 25408 net.cpp:129] Top shape: 10 384 13 13 (648960)
I1009 18:39:51.569944 25408 layer_factory.hpp:74] Creating layer relu4
I1009 18:39:51.569952 25408 net.cpp:92] Creating Layer relu4
I1009 18:39:51.569957 25408 net.cpp:412] relu4 <- conv4
I1009 18:39:51.569967 25408 net.cpp:359] relu4 -> conv4 (in-place)
I1009 18:39:51.569974 25408 net.cpp:122] Setting up relu4
I1009 18:39:51.569982 25408 net.cpp:129] Top shape: 10 384 13 13 (648960)
I1009 18:39:51.569986 25408 layer_factory.hpp:74] Creating layer conv5
I1009 18:39:51.569994 25408 net.cpp:92] Creating Layer conv5
I1009 18:39:51.570013 25408 net.cpp:412] conv5 <- conv4
I1009 18:39:51.570019 25408 net.cpp:370] conv5 -> conv5
I1009 18:39:51.570026 25408 net.cpp:122] Setting up conv5
I1009 18:39:51.580288 25408 net.cpp:129] Top shape: 10 256 13 13 (432640)
I1009 18:39:51.580304 25408 layer_factory.hpp:74] Creating layer relu5
I1009 18:39:51.580312 25408 net.cpp:92] Creating Layer relu5
I1009 18:39:51.580322 25408 net.cpp:412] relu5 <- conv5
I1009 18:39:51.580328 25408 net.cpp:359] relu5 -> conv5 (in-place)
I1009 18:39:51.580335 25408 net.cpp:122] Setting up relu5
I1009 18:39:51.580341 25408 net.cpp:129] Top shape: 10 256 13 13 (432640)
I1009 18:39:51.580346 25408 layer_factory.hpp:74] Creating layer pool5
I1009 18:39:51.580356 25408 net.cpp:92] Creating Layer pool5
I1009 18:39:51.580363 25408 net.cpp:412] pool5 <- conv5
I1009 18:39:51.580368 25408 net.cpp:370] pool5 -> pool5
I1009 18:39:51.580376 25408 net.cpp:122] Setting up pool5
I1009 18:39:51.580385 25408 net.cpp:129] Top shape: 10 256 6 6 (92160)
I1009 18:39:51.580390 25408 layer_factory.hpp:74] Creating layer fc6
I1009 18:39:51.580400 25408 net.cpp:92] Creating Layer fc6
I1009 18:39:51.580405 25408 net.cpp:412] fc6 <- pool5
I1009 18:39:51.580412 25408 net.cpp:370] fc6 -> fc6
I1009 18:39:51.580420 25408 net.cpp:122] Setting up fc6
I1009 18:39:52.437166 25408 net.cpp:129] Top shape: 10 4096 (40960)
I1009 18:39:52.437209 25408 layer_factory.hpp:74] Creating layer relu6
I1009 18:39:52.437223 25408 net.cpp:92] Creating Layer relu6
I1009 18:39:52.437230 25408 net.cpp:412] relu6 <- fc6
I1009 18:39:52.437238 25408 net.cpp:359] relu6 -> fc6 (in-place)
I1009 18:39:52.437247 25408 net.cpp:122] Setting up relu6
I1009 18:39:52.437253 25408 net.cpp:129] Top shape: 10 4096 (40960)
I1009 18:39:52.437258 25408 layer_factory.hpp:74] Creating layer drop6
I1009 18:39:52.437268 25408 net.cpp:92] Creating Layer drop6
I1009 18:39:52.437273 25408 net.cpp:412] drop6 <- fc6
I1009 18:39:52.437278 25408 net.cpp:359] drop6 -> fc6 (in-place)
I1009 18:39:52.437285 25408 net.cpp:122] Setting up drop6
I1009 18:39:52.437294 25408 net.cpp:129] Top shape: 10 4096 (40960)
I1009 18:39:52.437299 25408 layer_factory.hpp:74] Creating layer fc7
I1009 18:39:52.437307 25408 net.cpp:92] Creating Layer fc7
I1009 18:39:52.437312 25408 net.cpp:412] fc7 <- fc6
I1009 18:39:52.437320 25408 net.cpp:370] fc7 -> fc7
I1009 18:39:52.437330 25408 net.cpp:122] Setting up fc7
I1009 18:39:52.818024 25408 net.cpp:129] Top shape: 10 4096 (40960)
I1009 18:39:52.818066 25408 layer_factory.hpp:74] Creating layer relu7
I1009 18:39:52.818078 25408 net.cpp:92] Creating Layer relu7
I1009 18:39:52.818085 25408 net.cpp:412] relu7 <- fc7
I1009 18:39:52.818094 25408 net.cpp:359] relu7 -> fc7 (in-place)
I1009 18:39:52.818102 25408 net.cpp:122] Setting up relu7
I1009 18:39:52.818109 25408 net.cpp:129] Top shape: 10 4096 (40960)
I1009 18:39:52.818114 25408 layer_factory.hpp:74] Creating layer drop7
I1009 18:39:52.818121 25408 net.cpp:92] Creating Layer drop7
I1009 18:39:52.818126 25408 net.cpp:412] drop7 <- fc7
I1009 18:39:52.818131 25408 net.cpp:359] drop7 -> fc7 (in-place)
I1009 18:39:52.818138 25408 net.cpp:122] Setting up drop7
I1009 18:39:52.818146 25408 net.cpp:129] Top shape: 10 4096 (40960)
I1009 18:39:52.818151 25408 layer_factory.hpp:74] Creating layer fc8
I1009 18:39:52.818161 25408 net.cpp:92] Creating Layer fc8
I1009 18:39:52.818166 25408 net.cpp:412] fc8 <- fc7
I1009 18:39:52.818173 25408 net.cpp:370] fc8 -> fc8
I1009 18:39:52.818184 25408 net.cpp:122] Setting up fc8
I1009 18:39:52.818387 25408 net.cpp:129] Top shape: 10 2 (20)
I1009 18:39:52.818397 25408 layer_factory.hpp:74] Creating layer fc8_fc8_0_split
I1009 18:39:52.818404 25408 net.cpp:92] Creating Layer fc8_fc8_0_split
I1009 18:39:52.818409 25408 net.cpp:412] fc8_fc8_0_split <- fc8
I1009 18:39:52.818416 25408 net.cpp:370] fc8_fc8_0_split -> fc8_fc8_0_split_0
I1009 18:39:52.818424 25408 net.cpp:370] fc8_fc8_0_split -> fc8_fc8_0_split_1
I1009 18:39:52.818431 25408 net.cpp:122] Setting up fc8_fc8_0_split
I1009 18:39:52.818439 25408 net.cpp:129] Top shape: 10 2 (20)
I1009 18:39:52.818459 25408 net.cpp:129] Top shape: 10 2 (20)
I1009 18:39:52.818464 25408 layer_factory.hpp:74] Creating layer accuracy
I1009 18:39:52.818471 25408 net.cpp:92] Creating Layer accuracy
I1009 18:39:52.818477 25408 net.cpp:412] accuracy <- fc8_fc8_0_split_0
I1009 18:39:52.818482 25408 net.cpp:412] accuracy <- label_data_1_split_0
I1009 18:39:52.818493 25408 net.cpp:370] accuracy -> accuracy
I1009 18:39:52.818501 25408 net.cpp:122] Setting up accuracy
…
