…
I1007 11:14:04.728935 14607 net.cpp:289] The NetState phase (0) differed from the phase (1) specified by a rule in layer accuracy
I1007 11:14:04.729079 14607 net.cpp:44] Initializing net from parameters: 
name: "CaffeNet"
state {
  phase: TRAIN
}
layer {
  name: "data"
  type: "Data"
  top: "data"
  top: "label"
  include {
    phase: TRAIN
  }
  transform_param {
    mirror: true
    crop_size: 227
    mean_file: "data/acLogo/imagenet_mean.binaryproto"
  }
  data_param {
    source: "acWhole/imagenet_train_leveldb"
    batch_size: 10
    backend: LMDB
  }
}
layer {
  name: "conv1"
  type: "Convolution"
  bottom: "data"
  top: "conv1"
  param {
    lr_mult: 1
    decay_mult: 1
  }
  param {
    lr_mult: 2
    decay_mult: 0
  }
  convolution_param {
    num_output: 96
    kernel_size: 11
    stride: 4
    weight_filler {
      type: "gaussian"
      std: 0.01
    }
    bias_filler {
      type: "constant"
      value: 0
    }
  }
}
layer {
  name: "relu1"
  type: "ReLU"
  bottom: "conv1"
  top: "conv1"
}
layer {
  name: "pool1"
  type: "Pooling"
  bottom: "conv1"
  top: "pool1"
  pooling_param {
    pool: MAX
    kernel_size: 3
    stride: 2
  }
}
layer {
  name: "norm1"
  type: "LRN"
  bottom: "pool1"
  top: "norm1"
  lrn_param {
    local_size: 5
    alpha: 0.0001
    beta: 0.75
  }
}
layer {
  name: "conv2"
  type: "Convolution"
  bottom: "norm1"
  top: "conv2"
  param {
    lr_mult: 1
    decay_mult: 1
  }
  param {
    lr_mult: 2
    decay_mult: 0
  }
  convolution_param {
    num_output: 256
    pad: 2
    kernel_size: 5
    group: 2
    weight_filler {
      type: "gaussian"
      std: 0.01
    }
    bias_filler {
      type: "constant"
      value: 1
    }
  }
}
layer {
  name: "relu2"
  type: "ReLU"
  bottom: "conv2"
  top: "conv2"
}
layer {
  name: "pool2"
  type: "Pooling"
  bottom: "conv2"
  top: "pool2"
  pooling_param {
    pool: MAX
    kernel_size: 3
    stride: 2
  }
}
layer {
  name: "norm2"
  type: "LRN"
  bottom: "pool2"
  top: "norm2"
  lrn_param {
    local_size: 5
    alpha: 0.0001
    beta: 0.75
  }
}
layer {
  name: "conv3"
  type: "Convolution"
  bottom: "norm2"
  top: "conv3"
  param {
    lr_mult: 1
    decay_mult: 1
  }
  param {
    lr_mult: 2
    decay_mult: 0
  }
  convolution_param {
    num_output: 384
    pad: 1
    kernel_size: 3
    weight_filler {
      type: "gaussian"
      std: 0.01
    }
    bias_filler {
      type: "constant"
      value: 0
    }
  }
}
layer {
  name: "relu3"
  type: "ReLU"
  bottom: "conv3"
  top: "conv3"
}
layer {
  name: "conv4"
  type: "Convolution"
  bottom: "conv3"
  top: "conv4"
  param {
    lr_mult: 1
    decay_mult: 1
  }
  param {
    lr_mult: 2
    decay_mult: 0
  }
  convolution_param {
    num_output: 384
    pad: 1
    kernel_size: 3
    group: 2
    weight_filler {
      type: "gaussian"
      std: 0.01
    }
    bias_filler {
      type: "constant"
      value: 1
    }
  }
}
layer {
  name: "relu4"
  type: "ReLU"
  bottom: "conv4"
  top: "conv4"
}
layer {
  name: "conv5"
  type: "Convolution"
  bottom: "conv4"
  top: "conv5"
  param {
    lr_mult: 1
    decay_mult: 1
  }
  param {
    lr_mult: 2
    decay_mult: 0
  }
  convolution_param {
    num_output: 256
    pad: 1
    kernel_size: 3
    group: 2
    weight_filler {
      type: "gaussian"
      std: 0.01
    }
    bias_filler {
      type: "constant"
      value: 1
    }
  }
}
layer {
  name: "relu5"
  type: "ReLU"
  bottom: "conv5"
  top: "conv5"
}
layer {
  name: "pool5"
  type: "Pooling"
  bottom: "conv5"
  top: "pool5"
  pooling_param {
    pool: MAX
    kernel_size: 3
    stride: 2
  }
}
layer {
  name: "fc6"
  type: "InnerProduct"
  bottom: "pool5"
  top: "fc6"
  param {
    lr_mult: 1
    decay_mult: 1
  }
  param {
    lr_mult: 2
    decay_mult: 0
  }
  inner_product_param {
    num_output: 4096
    weight_filler {
      type: "gaussian"
      std: 0.005
    }
    bias_filler {
      type: "constant"
      value: 1
    }
  }
}
layer {
  name: "relu6"
  type: "ReLU"
  bottom: "fc6"
  top: "fc6"
}
layer {
  name: "drop6"
  type: "Dropout"
  bottom: "fc6"
  top: "fc6"
  dropout_param {
    dropout_ratio: 0.5
  }
}
layer {
  name: "fc7"
  type: "InnerProduct"
  bottom: "fc6"
  top: "fc7"
  param {
    lr_mult: 1
    decay_mult: 1
  }
  param {
    lr_mult: 2
    decay_mult: 0
  }
  inner_product_param {
    num_output: 4096
    weight_filler {
      type: "gaussian"
      std: 0.005
    }
    bias_filler {
      type: "constant"
      value: 1
    }
  }
}
layer {
  name: "relu7"
  type: "ReLU"
  bottom: "fc7"
  top: "fc7"
}
layer {
  name: "drop7"
  type: "Dropout"
  bottom: "fc7"
  top: "fc7"
  dropout_param {
    dropout_ratio: 0.5
  }
}
layer {
  name: "fc8"
  type: "InnerProduct"
  bottom: "fc7"
  top: "fc8"
  param {
    lr_mult: 1
    decay_mult: 1
  }
  param {
    lr_mult: 2
    decay_mult: 0
  }
  inner_product_param {
    num_output: 2
    weight_filler {
      type: "gaussian"
      std: 0.01
    }
    bias_filler {
      type: "constant"
      value: 0
    }
  }
}
layer {
  name: "loss"
  type: "SoftmaxWithLoss"
  bottom: "fc8"
  bottom: "label"
  top: "loss"
}
I1007 11:14:04.729182 14607 layer_factory.hpp:74] Creating layer data
I1007 11:14:04.729207 14607 net.cpp:92] Creating Layer data
I1007 11:14:04.729214 14607 net.cpp:370] data -> data
I1007 11:14:04.729234 14607 net.cpp:370] data -> label
I1007 11:14:04.729245 14607 net.cpp:122] Setting up data
I1007 11:14:04.729254 14607 data_transformer.cpp:22] Loading mean file from: data/acLogo/imagenet_mean.binaryproto
I1007 11:14:04.730837 14607 db_lmdb.cpp:22] Opened lmdb acWhole/imagenet_train_leveldb
I1007 11:14:04.730913 14607 data_layer.cpp:52] output data size: 10,3,227,227
I1007 11:14:04.731883 14607 net.cpp:129] Top shape: 10 3 227 227 (1545870)
I1007 11:14:04.731909 14607 net.cpp:129] Top shape: 10 (10)
I1007 11:14:04.731919 14607 layer_factory.hpp:74] Creating layer conv1
I1007 11:14:04.731935 14607 net.cpp:92] Creating Layer conv1
I1007 11:14:04.731945 14607 net.cpp:412] conv1 <- data
I1007 11:14:04.731957 14607 net.cpp:370] conv1 -> conv1
I1007 11:14:04.731971 14607 net.cpp:122] Setting up conv1
I1007 11:14:04.732841 14607 net.cpp:129] Top shape: 10 96 55 55 (2904000)
I1007 11:14:04.732859 14607 layer_factory.hpp:74] Creating layer relu1
I1007 11:14:04.732868 14607 net.cpp:92] Creating Layer relu1
I1007 11:14:04.732873 14607 net.cpp:412] relu1 <- conv1
I1007 11:14:04.732880 14607 net.cpp:359] relu1 -> conv1 (in-place)
I1007 11:14:04.732887 14607 net.cpp:122] Setting up relu1
I1007 11:14:04.732893 14607 net.cpp:129] Top shape: 10 96 55 55 (2904000)
I1007 11:14:04.732898 14607 layer_factory.hpp:74] Creating layer pool1
I1007 11:14:04.732906 14607 net.cpp:92] Creating Layer pool1
I1007 11:14:04.732911 14607 net.cpp:412] pool1 <- conv1
I1007 11:14:04.732918 14607 net.cpp:370] pool1 -> pool1
I1007 11:14:04.732925 14607 net.cpp:122] Setting up pool1
I1007 11:14:04.732939 14607 net.cpp:129] Top shape: 10 96 27 27 (699840)
I1007 11:14:04.732944 14607 layer_factory.hpp:74] Creating layer norm1
I1007 11:14:04.732952 14607 net.cpp:92] Creating Layer norm1
I1007 11:14:04.732957 14607 net.cpp:412] norm1 <- pool1
I1007 11:14:04.732964 14607 net.cpp:370] norm1 -> norm1
I1007 11:14:04.732972 14607 net.cpp:122] Setting up norm1
I1007 11:14:04.732980 14607 net.cpp:129] Top shape: 10 96 27 27 (699840)
I1007 11:14:04.732985 14607 layer_factory.hpp:74] Creating layer conv2
I1007 11:14:04.732993 14607 net.cpp:92] Creating Layer conv2
I1007 11:14:04.732998 14607 net.cpp:412] conv2 <- norm1
I1007 11:14:04.733014 14607 net.cpp:370] conv2 -> conv2
I1007 11:14:04.733031 14607 net.cpp:122] Setting up conv2
I1007 11:14:04.740568 14607 net.cpp:129] Top shape: 10 256 27 27 (1866240)
I1007 11:14:04.740608 14607 layer_factory.hpp:74] Creating layer relu2
I1007 11:14:04.740619 14607 net.cpp:92] Creating Layer relu2
I1007 11:14:04.740624 14607 net.cpp:412] relu2 <- conv2
I1007 11:14:04.740634 14607 net.cpp:359] relu2 -> conv2 (in-place)
I1007 11:14:04.740643 14607 net.cpp:122] Setting up relu2
I1007 11:14:04.740649 14607 net.cpp:129] Top shape: 10 256 27 27 (1866240)
I1007 11:14:04.740654 14607 layer_factory.hpp:74] Creating layer pool2
I1007 11:14:04.740663 14607 net.cpp:92] Creating Layer pool2
I1007 11:14:04.740667 14607 net.cpp:412] pool2 <- conv2
I1007 11:14:04.740674 14607 net.cpp:370] pool2 -> pool2
I1007 11:14:04.740681 14607 net.cpp:122] Setting up pool2
I1007 11:14:04.740691 14607 net.cpp:129] Top shape: 10 256 13 13 (432640)
I1007 11:14:04.740696 14607 layer_factory.hpp:74] Creating layer norm2
I1007 11:14:04.740706 14607 net.cpp:92] Creating Layer norm2
I1007 11:14:04.740711 14607 net.cpp:412] norm2 <- pool2
I1007 11:14:04.740720 14607 net.cpp:370] norm2 -> norm2
I1007 11:14:04.740726 14607 net.cpp:122] Setting up norm2
I1007 11:14:04.740734 14607 net.cpp:129] Top shape: 10 256 13 13 (432640)
I1007 11:14:04.740739 14607 layer_factory.hpp:74] Creating layer conv3
I1007 11:14:04.740748 14607 net.cpp:92] Creating Layer conv3
I1007 11:14:04.740753 14607 net.cpp:412] conv3 <- norm2
I1007 11:14:04.740761 14607 net.cpp:370] conv3 -> conv3
I1007 11:14:04.740772 14607 net.cpp:122] Setting up conv3
I1007 11:14:04.761641 14607 net.cpp:129] Top shape: 10 384 13 13 (648960)
I1007 11:14:04.761677 14607 layer_factory.hpp:74] Creating layer relu3
I1007 11:14:04.761690 14607 net.cpp:92] Creating Layer relu3
I1007 11:14:04.761696 14607 net.cpp:412] relu3 <- conv3
I1007 11:14:04.761703 14607 net.cpp:359] relu3 -> conv3 (in-place)
I1007 11:14:04.761711 14607 net.cpp:122] Setting up relu3
I1007 11:14:04.761718 14607 net.cpp:129] Top shape: 10 384 13 13 (648960)
I1007 11:14:04.761723 14607 layer_factory.hpp:74] Creating layer conv4
I1007 11:14:04.761732 14607 net.cpp:92] Creating Layer conv4
I1007 11:14:04.761737 14607 net.cpp:412] conv4 <- conv3
I1007 11:14:04.761744 14607 net.cpp:370] conv4 -> conv4
I1007 11:14:04.761752 14607 net.cpp:122] Setting up conv4
I1007 11:14:04.777493 14607 net.cpp:129] Top shape: 10 384 13 13 (648960)
I1007 11:14:04.777514 14607 layer_factory.hpp:74] Creating layer relu4
I1007 11:14:04.777523 14607 net.cpp:92] Creating Layer relu4
I1007 11:14:04.777529 14607 net.cpp:412] relu4 <- conv4
I1007 11:14:04.777535 14607 net.cpp:359] relu4 -> conv4 (in-place)
I1007 11:14:04.777542 14607 net.cpp:122] Setting up relu4
I1007 11:14:04.777549 14607 net.cpp:129] Top shape: 10 384 13 13 (648960)
I1007 11:14:04.777554 14607 layer_factory.hpp:74] Creating layer conv5
I1007 11:14:04.777565 14607 net.cpp:92] Creating Layer conv5
I1007 11:14:04.777570 14607 net.cpp:412] conv5 <- conv4
I1007 11:14:04.777578 14607 net.cpp:370] conv5 -> conv5
I1007 11:14:04.777586 14607 net.cpp:122] Setting up conv5
I1007 11:14:04.788064 14607 net.cpp:129] Top shape: 10 256 13 13 (432640)
I1007 11:14:04.788084 14607 layer_factory.hpp:74] Creating layer relu5
I1007 11:14:04.788091 14607 net.cpp:92] Creating Layer relu5
I1007 11:14:04.788096 14607 net.cpp:412] relu5 <- conv5
I1007 11:14:04.788105 14607 net.cpp:359] relu5 -> conv5 (in-place)
I1007 11:14:04.788110 14607 net.cpp:122] Setting up relu5
I1007 11:14:04.788117 14607 net.cpp:129] Top shape: 10 256 13 13 (432640)
I1007 11:14:04.788121 14607 layer_factory.hpp:74] Creating layer pool5
I1007 11:14:04.788130 14607 net.cpp:92] Creating Layer pool5
I1007 11:14:04.788135 14607 net.cpp:412] pool5 <- conv5
I1007 11:14:04.788141 14607 net.cpp:370] pool5 -> pool5
I1007 11:14:04.788147 14607 net.cpp:122] Setting up pool5
I1007 11:14:04.788157 14607 net.cpp:129] Top shape: 10 256 6 6 (92160)
I1007 11:14:04.788162 14607 layer_factory.hpp:74] Creating layer fc6
I1007 11:14:04.788182 14607 net.cpp:92] Creating Layer fc6
I1007 11:14:04.788188 14607 net.cpp:412] fc6 <- pool5
I1007 11:14:04.788204 14607 net.cpp:370] fc6 -> fc6
I1007 11:14:04.788215 14607 net.cpp:122] Setting up fc6
I1007 11:14:05.699057 14607 net.cpp:129] Top shape: 10 4096 (40960)
I1007 11:14:05.699100 14607 layer_factory.hpp:74] Creating layer relu6
I1007 11:14:05.699113 14607 net.cpp:92] Creating Layer relu6
I1007 11:14:05.699120 14607 net.cpp:412] relu6 <- fc6
I1007 11:14:05.699128 14607 net.cpp:359] relu6 -> fc6 (in-place)
I1007 11:14:05.699137 14607 net.cpp:122] Setting up relu6
I1007 11:14:05.699144 14607 net.cpp:129] Top shape: 10 4096 (40960)
I1007 11:14:05.699148 14607 layer_factory.hpp:74] Creating layer drop6
I1007 11:14:05.699162 14607 net.cpp:92] Creating Layer drop6
I1007 11:14:05.699167 14607 net.cpp:412] drop6 <- fc6
I1007 11:14:05.699177 14607 net.cpp:359] drop6 -> fc6 (in-place)
I1007 11:14:05.699187 14607 net.cpp:122] Setting up drop6
I1007 11:14:05.699196 14607 net.cpp:129] Top shape: 10 4096 (40960)
I1007 11:14:05.699201 14607 layer_factory.hpp:74] Creating layer fc7
I1007 11:14:05.699210 14607 net.cpp:92] Creating Layer fc7
I1007 11:14:05.699215 14607 net.cpp:412] fc7 <- fc6
I1007 11:14:05.699223 14607 net.cpp:370] fc7 -> fc7
I1007 11:14:05.699230 14607 net.cpp:122] Setting up fc7
I1007 11:14:06.107355 14607 net.cpp:129] Top shape: 10 4096 (40960)
I1007 11:14:06.107399 14607 layer_factory.hpp:74] Creating layer relu7
I1007 11:14:06.107411 14607 net.cpp:92] Creating Layer relu7
I1007 11:14:06.107417 14607 net.cpp:412] relu7 <- fc7
I1007 11:14:06.107426 14607 net.cpp:359] relu7 -> fc7 (in-place)
I1007 11:14:06.107436 14607 net.cpp:122] Setting up relu7
I1007 11:14:06.107442 14607 net.cpp:129] Top shape: 10 4096 (40960)
I1007 11:14:06.107447 14607 layer_factory.hpp:74] Creating layer drop7
I1007 11:14:06.107455 14607 net.cpp:92] Creating Layer drop7
I1007 11:14:06.107460 14607 net.cpp:412] drop7 <- fc7
I1007 11:14:06.107466 14607 net.cpp:359] drop7 -> fc7 (in-place)
I1007 11:14:06.107472 14607 net.cpp:122] Setting up drop7
I1007 11:14:06.107481 14607 net.cpp:129] Top shape: 10 4096 (40960)
I1007 11:14:06.107486 14607 layer_factory.hpp:74] Creating layer fc8
I1007 11:14:06.107496 14607 net.cpp:92] Creating Layer fc8
I1007 11:14:06.107501 14607 net.cpp:412] fc8 <- fc7
I1007 11:14:06.107507 14607 net.cpp:370] fc8 -> fc8
I1007 11:14:06.107517 14607 net.cpp:122] Setting up fc8
I1007 11:14:06.107722 14607 net.cpp:129] Top shape: 10 2 (20)
I1007 11:14:06.107730 14607 layer_factory.hpp:74] Creating layer loss
I1007 11:14:06.107738 14607 net.cpp:92] Creating Layer loss
I1007 11:14:06.107743 14607 net.cpp:412] loss <- fc8
I1007 11:14:06.107748 14607 net.cpp:412] loss <- label
I1007 11:14:06.107758 14607 net.cpp:370] loss -> loss
I1007 11:14:06.107774 14607 net.cpp:122] Setting up loss
I1007 11:14:06.107781 14607 layer_factory.hpp:74] Creating layer loss
…
I1007 11:14:06.108613 14607 net.cpp:289] The NetState phase (1) differed from the phase (0) specified by a rule in layer data
I1007 11:14:06.108769 14607 net.cpp:44] Initializing net from parameters: 
name: "CaffeNet"
state {
  phase: TEST
}
layer {
  name: "data"
  type: "Data"
  top: "data"
  top: "label"
  include {
    phase: TEST
  }
  transform_param {
    mirror: true
    crop_size: 227
    mean_file: "data/acWhole/imagenet_mean.binaryproto"
  }
  data_param {
    source: "acWhole/imagenet_val_leveldb"
    mean_file: "data/acWhole/imagenet_mean.binartproto"
    batch_size: 10
    crop_size: 227
    mirror: false
    backend: LMDB
  }
}
layer {
  name: "conv1"
  type: "Convolution"
  bottom: "data"
  top: "conv1"
  param {
    lr_mult: 1
    decay_mult: 1
  }
  param {
    lr_mult: 2
    decay_mult: 0
  }
  convolution_param {
    num_output: 96
    kernel_size: 11
    stride: 4
    weight_filler {
      type: "gaussian"
      std: 0.01
    }
    bias_filler {
      type: "constant"
      value: 0
    }
  }
}
layer {
  name: "relu1"
  type: "ReLU"
  bottom: "conv1"
  top: "conv1"
}
layer {
  name: "pool1"
  type: "Pooling"
  bottom: "conv1"
  top: "pool1"
  pooling_param {
    pool: MAX
    kernel_size: 3
    stride: 2
  }
}
layer {
  name: "norm1"
  type: "LRN"
  bottom: "pool1"
  top: "norm1"
  lrn_param {
    local_size: 5
    alpha: 0.0001
    beta: 0.75
  }
}
layer {
  name: "conv2"
  type: "Convolution"
  bottom: "norm1"
  top: "conv2"
  param {
    lr_mult: 1
    decay_mult: 1
  }
  param {
    lr_mult: 2
    decay_mult: 0
  }
  convolution_param {
    num_output: 256
    pad: 2
    kernel_size: 5
    group: 2
    weight_filler {
      type: "gaussian"
      std: 0.01
    }
    bias_filler {
      type: "constant"
      value: 1
    }
  }
}
layer {
  name: "relu2"
  type: "ReLU"
  bottom: "conv2"
  top: "conv2"
}
layer {
  name: "pool2"
  type: "Pooling"
  bottom: "conv2"
  top: "pool2"
  pooling_param {
    pool: MAX
    kernel_size: 3
    stride: 2
  }
}
layer {
  name: "norm2"
  type: "LRN"
  bottom: "pool2"
  top: "norm2"
  lrn_param {
    local_size: 5
    alpha: 0.0001
    beta: 0.75
  }
}
layer {
  name: "conv3"
  type: "Convolution"
  bottom: "norm2"
  top: "conv3"
  param {
    lr_mult: 1
    decay_mult: 1
  }
  param {
    lr_mult: 2
    decay_mult: 0
  }
  convolution_param {
    num_output: 384
    pad: 1
    kernel_size: 3
    weight_filler {
      type: "gaussian"
      std: 0.01
    }
    bias_filler {
      type: "constant"
      value: 0
    }
  }
}
layer {
  name: "relu3"
  type: "ReLU"
  bottom: "conv3"
  top: "conv3"
}
layer {
  name: "conv4"
  type: "Convolution"
  bottom: "conv3"
  top: "conv4"
  param {
    lr_mult: 1
    decay_mult: 1
  }
  param {
    lr_mult: 2
    decay_mult: 0
  }
  convolution_param {
    num_output: 384
    pad: 1
    kernel_size: 3
    group: 2
    weight_filler {
      type: "gaussian"
      std: 0.01
    }
    bias_filler {
      type: "constant"
      value: 1
    }
  }
}
layer {
  name: "relu4"
  type: "ReLU"
  bottom: "conv4"
  top: "conv4"
}
layer {
  name: "conv5"
  type: "Convolution"
  bottom: "conv4"
  top: "conv5"
  param {
    lr_mult: 1
    decay_mult: 1
  }
  param {
    lr_mult: 2
    decay_mult: 0
  }
  convolution_param {
    num_output: 256
    pad: 1
    kernel_size: 3
    group: 2
    weight_filler {
      type: "gaussian"
      std: 0.01
    }
    bias_filler {
      type: "constant"
      value: 1
    }
  }
}
layer {
  name: "relu5"
  type: "ReLU"
  bottom: "conv5"
  top: "conv5"
}
layer {
  name: "pool5"
  type: "Pooling"
  bottom: "conv5"
  top: "pool5"
  pooling_param {
    pool: MAX
    kernel_size: 3
    stride: 2
  }
}
layer {
  name: "fc6"
  type: "InnerProduct"
  bottom: "pool5"
  top: "fc6"
  param {
    lr_mult: 1
    decay_mult: 1
  }
  param {
    lr_mult: 2
    decay_mult: 0
  }
  inner_product_param {
    num_output: 4096
    weight_filler {
      type: "gaussian"
      std: 0.005
    }
    bias_filler {
      type: "constant"
      value: 1
    }
  }
}
layer {
  name: "relu6"
  type: "ReLU"
  bottom: "fc6"
  top: "fc6"
}
layer {
  name: "drop6"
  type: "Dropout"
  bottom: "fc6"
  top: "fc6"
  dropout_param {
    dropout_ratio: 0.5
  }
}
layer {
  name: "fc7"
  type: "InnerProduct"
  bottom: "fc6"
  top: "fc7"
  param {
    lr_mult: 1
    decay_mult: 1
  }
  param {
    lr_mult: 2
    decay_mult: 0
  }
  inner_product_param {
    num_output: 4096
    weight_filler {
      type: "gaussian"
      std: 0.005
    }
    bias_filler {
      type: "constant"
      value: 1
    }
  }
}
layer {
  name: "relu7"
  type: "ReLU"
  bottom: "fc7"
  top: "fc7"
}
layer {
  name: "drop7"
  type: "Dropout"
  bottom: "fc7"
  top: "fc7"
  dropout_param {
    dropout_ratio: 0.5
  }
}
layer {
  name: "fc8"
  type: "InnerProduct"
  bottom: "fc7"
  top: "fc8"
  param {
    lr_mult: 1
    decay_mult: 1
  }
  param {
    lr_mult: 2
    decay_mult: 0
  }
  inner_product_param {
    num_output: 2
    weight_filler {
      type: "gaussian"
      std: 0.01
    }
    bias_filler {
      type: "constant"
      value: 0
    }
  }
}
layer {
  name: "accuracy"
  type: "Accuracy"
  bottom: "fc8"
  bottom: "label"
  top: "accuracy"
  include {
    phase: TEST
  }
}
layer {
  name: "loss"
  type: "SoftmaxWithLoss"
  bottom: "fc8"
  bottom: "label"
  top: "loss"
}
I1007 11:14:06.108881 14607 layer_factory.hpp:74] Creating layer data
I1007 11:14:06.108893 14607 net.cpp:92] Creating Layer data
I1007 11:14:06.108899 14607 net.cpp:370] data -> data
I1007 11:14:06.108909 14607 net.cpp:370] data -> label
I1007 11:14:06.108917 14607 net.cpp:122] Setting up data
I1007 11:14:06.108922 14607 data_transformer.cpp:22] Loading mean file from: data/acWhole/imagenet_mean.binaryproto
I1007 11:14:06.110302 14607 db_lmdb.cpp:22] Opened lmdb acWhole/imagenet_val_leveldb
I1007 11:14:06.110379 14607 data_layer.cpp:52] output data size: 10,3,227,227
I1007 11:14:06.111498 14607 net.cpp:129] Top shape: 10 3 227 227 (1545870)
I1007 11:14:06.111534 14607 net.cpp:129] Top shape: 10 (10)
I1007 11:14:06.111552 14607 layer_factory.hpp:74] Creating layer label_data_1_split
I1007 11:14:06.111573 14607 net.cpp:92] Creating Layer label_data_1_split
I1007 11:14:06.111580 14607 net.cpp:412] label_data_1_split <- label
I1007 11:14:06.111590 14607 net.cpp:370] label_data_1_split -> label_data_1_split_0
I1007 11:14:06.111603 14607 net.cpp:370] label_data_1_split -> label_data_1_split_1
I1007 11:14:06.111610 14607 net.cpp:122] Setting up label_data_1_split
I1007 11:14:06.111619 14607 net.cpp:129] Top shape: 10 (10)
I1007 11:14:06.111625 14607 net.cpp:129] Top shape: 10 (10)
I1007 11:14:06.111630 14607 layer_factory.hpp:74] Creating layer conv1
I1007 11:14:06.111642 14607 net.cpp:92] Creating Layer conv1
I1007 11:14:06.111647 14607 net.cpp:412] conv1 <- data
I1007 11:14:06.111654 14607 net.cpp:370] conv1 -> conv1
I1007 11:14:06.111663 14607 net.cpp:122] Setting up conv1
I1007 11:14:06.112520 14607 net.cpp:129] Top shape: 10 96 55 55 (2904000)
I1007 11:14:06.112535 14607 layer_factory.hpp:74] Creating layer relu1
I1007 11:14:06.112543 14607 net.cpp:92] Creating Layer relu1
I1007 11:14:06.112557 14607 net.cpp:412] relu1 <- conv1
I1007 11:14:06.112565 14607 net.cpp:359] relu1 -> conv1 (in-place)
I1007 11:14:06.112581 14607 net.cpp:122] Setting up relu1
I1007 11:14:06.112587 14607 net.cpp:129] Top shape: 10 96 55 55 (2904000)
I1007 11:14:06.112592 14607 layer_factory.hpp:74] Creating layer pool1
I1007 11:14:06.112601 14607 net.cpp:92] Creating Layer pool1
I1007 11:14:06.112607 14607 net.cpp:412] pool1 <- conv1
I1007 11:14:06.112612 14607 net.cpp:370] pool1 -> pool1
I1007 11:14:06.112619 14607 net.cpp:122] Setting up pool1
I1007 11:14:06.112629 14607 net.cpp:129] Top shape: 10 96 27 27 (699840)
I1007 11:14:06.112635 14607 layer_factory.hpp:74] Creating layer norm1
I1007 11:14:06.112643 14607 net.cpp:92] Creating Layer norm1
I1007 11:14:06.112648 14607 net.cpp:412] norm1 <- pool1
I1007 11:14:06.112653 14607 net.cpp:370] norm1 -> norm1
I1007 11:14:06.112660 14607 net.cpp:122] Setting up norm1
I1007 11:14:06.112668 14607 net.cpp:129] Top shape: 10 96 27 27 (699840)
I1007 11:14:06.112673 14607 layer_factory.hpp:74] Creating layer conv2
I1007 11:14:06.112680 14607 net.cpp:92] Creating Layer conv2
I1007 11:14:06.112694 14607 net.cpp:412] conv2 <- norm1
I1007 11:14:06.112701 14607 net.cpp:370] conv2 -> conv2
I1007 11:14:06.112709 14607 net.cpp:122] Setting up conv2
I1007 11:14:06.120090 14607 net.cpp:129] Top shape: 10 256 27 27 (1866240)
I1007 11:14:06.120123 14607 layer_factory.hpp:74] Creating layer relu2
I1007 11:14:06.120134 14607 net.cpp:92] Creating Layer relu2
I1007 11:14:06.120139 14607 net.cpp:412] relu2 <- conv2
I1007 11:14:06.120147 14607 net.cpp:359] relu2 -> conv2 (in-place)
I1007 11:14:06.120156 14607 net.cpp:122] Setting up relu2
I1007 11:14:06.120162 14607 net.cpp:129] Top shape: 10 256 27 27 (1866240)
I1007 11:14:06.120167 14607 layer_factory.hpp:74] Creating layer pool2
I1007 11:14:06.120175 14607 net.cpp:92] Creating Layer pool2
I1007 11:14:06.120180 14607 net.cpp:412] pool2 <- conv2
I1007 11:14:06.120188 14607 net.cpp:370] pool2 -> pool2
I1007 11:14:06.120198 14607 net.cpp:122] Setting up pool2
I1007 11:14:06.120208 14607 net.cpp:129] Top shape: 10 256 13 13 (432640)
I1007 11:14:06.120213 14607 layer_factory.hpp:74] Creating layer norm2
I1007 11:14:06.120220 14607 net.cpp:92] Creating Layer norm2
I1007 11:14:06.120225 14607 net.cpp:412] norm2 <- pool2
I1007 11:14:06.120232 14607 net.cpp:370] norm2 -> norm2
I1007 11:14:06.120239 14607 net.cpp:122] Setting up norm2
I1007 11:14:06.120246 14607 net.cpp:129] Top shape: 10 256 13 13 (432640)
I1007 11:14:06.120251 14607 layer_factory.hpp:74] Creating layer conv3
I1007 11:14:06.120261 14607 net.cpp:92] Creating Layer conv3
I1007 11:14:06.120266 14607 net.cpp:412] conv3 <- norm2
I1007 11:14:06.120275 14607 net.cpp:370] conv3 -> conv3
I1007 11:14:06.120281 14607 net.cpp:122] Setting up conv3
I1007 11:14:06.141197 14607 net.cpp:129] Top shape: 10 384 13 13 (648960)
I1007 11:14:06.141247 14607 layer_factory.hpp:74] Creating layer relu3
I1007 11:14:06.141258 14607 net.cpp:92] Creating Layer relu3
I1007 11:14:06.141264 14607 net.cpp:412] relu3 <- conv3
I1007 11:14:06.141273 14607 net.cpp:359] relu3 -> conv3 (in-place)
I1007 11:14:06.141283 14607 net.cpp:122] Setting up relu3
I1007 11:14:06.141289 14607 net.cpp:129] Top shape: 10 384 13 13 (648960)
I1007 11:14:06.141294 14607 layer_factory.hpp:74] Creating layer conv4
I1007 11:14:06.141304 14607 net.cpp:92] Creating Layer conv4
I1007 11:14:06.141309 14607 net.cpp:412] conv4 <- conv3
I1007 11:14:06.141316 14607 net.cpp:370] conv4 -> conv4
I1007 11:14:06.141325 14607 net.cpp:122] Setting up conv4
I1007 11:14:06.157124 14607 net.cpp:129] Top shape: 10 384 13 13 (648960)
I1007 11:14:06.157156 14607 layer_factory.hpp:74] Creating layer relu4
I1007 11:14:06.157166 14607 net.cpp:92] Creating Layer relu4
I1007 11:14:06.157172 14607 net.cpp:412] relu4 <- conv4
I1007 11:14:06.157187 14607 net.cpp:359] relu4 -> conv4 (in-place)
I1007 11:14:06.157196 14607 net.cpp:122] Setting up relu4
I1007 11:14:06.157202 14607 net.cpp:129] Top shape: 10 384 13 13 (648960)
I1007 11:14:06.157207 14607 layer_factory.hpp:74] Creating layer conv5
I1007 11:14:06.157223 14607 net.cpp:92] Creating Layer conv5
I1007 11:14:06.157238 14607 net.cpp:412] conv5 <- conv4
I1007 11:14:06.157245 14607 net.cpp:370] conv5 -> conv5
I1007 11:14:06.157254 14607 net.cpp:122] Setting up conv5
I1007 11:14:06.167749 14607 net.cpp:129] Top shape: 10 256 13 13 (432640)
I1007 11:14:06.167769 14607 layer_factory.hpp:74] Creating layer relu5
I1007 11:14:06.167778 14607 net.cpp:92] Creating Layer relu5
I1007 11:14:06.167783 14607 net.cpp:412] relu5 <- conv5
I1007 11:14:06.167789 14607 net.cpp:359] relu5 -> conv5 (in-place)
I1007 11:14:06.167796 14607 net.cpp:122] Setting up relu5
I1007 11:14:06.167804 14607 net.cpp:129] Top shape: 10 256 13 13 (432640)
I1007 11:14:06.167809 14607 layer_factory.hpp:74] Creating layer pool5
I1007 11:14:06.167819 14607 net.cpp:92] Creating Layer pool5
I1007 11:14:06.167824 14607 net.cpp:412] pool5 <- conv5
I1007 11:14:06.167830 14607 net.cpp:370] pool5 -> pool5
I1007 11:14:06.167837 14607 net.cpp:122] Setting up pool5
I1007 11:14:06.167847 14607 net.cpp:129] Top shape: 10 256 6 6 (92160)
I1007 11:14:06.167852 14607 layer_factory.hpp:74] Creating layer fc6
I1007 11:14:06.167862 14607 net.cpp:92] Creating Layer fc6
I1007 11:14:06.167867 14607 net.cpp:412] fc6 <- pool5
I1007 11:14:06.167873 14607 net.cpp:370] fc6 -> fc6
I1007 11:14:06.167881 14607 net.cpp:122] Setting up fc6
I1007 11:14:07.078662 14607 net.cpp:129] Top shape: 10 4096 (40960)
I1007 11:14:07.078739 14607 layer_factory.hpp:74] Creating layer relu6
I1007 11:14:07.078757 14607 net.cpp:92] Creating Layer relu6
I1007 11:14:07.078764 14607 net.cpp:412] relu6 <- fc6
I1007 11:14:07.078773 14607 net.cpp:359] relu6 -> fc6 (in-place)
I1007 11:14:07.078781 14607 net.cpp:122] Setting up relu6
I1007 11:14:07.078788 14607 net.cpp:129] Top shape: 10 4096 (40960)
I1007 11:14:07.078794 14607 layer_factory.hpp:74] Creating layer drop6
I1007 11:14:07.078801 14607 net.cpp:92] Creating Layer drop6
I1007 11:14:07.078807 14607 net.cpp:412] drop6 <- fc6
I1007 11:14:07.078814 14607 net.cpp:359] drop6 -> fc6 (in-place)
I1007 11:14:07.078819 14607 net.cpp:122] Setting up drop6
I1007 11:14:07.078827 14607 net.cpp:129] Top shape: 10 4096 (40960)
I1007 11:14:07.078832 14607 layer_factory.hpp:74] Creating layer fc7
I1007 11:14:07.078841 14607 net.cpp:92] Creating Layer fc7
I1007 11:14:07.078846 14607 net.cpp:412] fc7 <- fc6
I1007 11:14:07.078855 14607 net.cpp:370] fc7 -> fc7
I1007 11:14:07.078863 14607 net.cpp:122] Setting up fc7
I1007 11:14:07.479882 14607 net.cpp:129] Top shape: 10 4096 (40960)
I1007 11:14:07.479934 14607 layer_factory.hpp:74] Creating layer relu7
I1007 11:14:07.479948 14607 net.cpp:92] Creating Layer relu7
I1007 11:14:07.479954 14607 net.cpp:412] relu7 <- fc7
I1007 11:14:07.479964 14607 net.cpp:359] relu7 -> fc7 (in-place)
I1007 11:14:07.479972 14607 net.cpp:122] Setting up relu7
I1007 11:14:07.479979 14607 net.cpp:129] Top shape: 10 4096 (40960)
I1007 11:14:07.479984 14607 layer_factory.hpp:74] Creating layer drop7
I1007 11:14:07.479991 14607 net.cpp:92] Creating Layer drop7
I1007 11:14:07.479996 14607 net.cpp:412] drop7 <- fc7
I1007 11:14:07.480002 14607 net.cpp:359] drop7 -> fc7 (in-place)
I1007 11:14:07.480010 14607 net.cpp:122] Setting up drop7
I1007 11:14:07.480016 14607 net.cpp:129] Top shape: 10 4096 (40960)
I1007 11:14:07.480021 14607 layer_factory.hpp:74] Creating layer fc8
I1007 11:14:07.480031 14607 net.cpp:92] Creating Layer fc8
I1007 11:14:07.480037 14607 net.cpp:412] fc8 <- fc7
I1007 11:14:07.480044 14607 net.cpp:370] fc8 -> fc8
I1007 11:14:07.480056 14607 net.cpp:122] Setting up fc8
I1007 11:14:07.480262 14607 net.cpp:129] Top shape: 10 2 (20)
I1007 11:14:07.480270 14607 layer_factory.hpp:74] Creating layer fc8_fc8_0_split
I1007 11:14:07.480278 14607 net.cpp:92] Creating Layer fc8_fc8_0_split
I1007 11:14:07.480283 14607 net.cpp:412] fc8_fc8_0_split <- fc8
I1007 11:14:07.480290 14607 net.cpp:370] fc8_fc8_0_split -> fc8_fc8_0_split_0
I1007 11:14:07.480298 14607 net.cpp:370] fc8_fc8_0_split -> fc8_fc8_0_split_1
I1007 11:14:07.480305 14607 net.cpp:122] Setting up fc8_fc8_0_split
I1007 11:14:07.480321 14607 net.cpp:129] Top shape: 10 2 (20)
I1007 11:14:07.480335 14607 net.cpp:129] Top shape: 10 2 (20)
I1007 11:14:07.480340 14607 layer_factory.hpp:74] Creating layer accuracy
I1007 11:14:07.480348 14607 net.cpp:92] Creating Layer accuracy
I1007 11:14:07.480352 14607 net.cpp:412] accuracy <- fc8_fc8_0_split_0
I1007 11:14:07.480360 14607 net.cpp:412] accuracy <- label_data_1_split_0
I1007 11:14:07.480366 14607 net.cpp:370] accuracy -> accuracy
I1007 11:14:07.480373 14607 net.cpp:122] Setting up accuracy
…
