…
I1007 14:17:01.627321  2112 net.cpp:289] The NetState phase (0) differed from the phase (1) specified by a rule in layer accuracy
I1007 14:17:01.627466  2112 net.cpp:44] Initializing net from parameters: 
name: "CaffeNet"
state {
  phase: TRAIN
}
layer {
  name: "data"
  type: "Data"
  top: "data"
  top: "label"
  include {
    phase: TRAIN
  }
  transform_param {
    mirror: true
    crop_size: 227
    mean_file: "data/acLogo/imagenet_mean.binaryproto"
  }
  data_param {
    source: "acLogo/imagenet_train_leveldb"
    batch_size: 10
    backend: LMDB
  }
}
layer {
  name: "conv1"
  type: "Convolution"
  bottom: "data"
  top: "conv1"
  param {
    lr_mult: 1
    decay_mult: 1
  }
  param {
    lr_mult: 2
    decay_mult: 0
  }
  convolution_param {
    num_output: 96
    kernel_size: 11
    stride: 4
    weight_filler {
      type: "gaussian"
      std: 0.01
    }
    bias_filler {
      type: "constant"
      value: 0
    }
  }
}
layer {
  name: "relu1"
  type: "ReLU"
  bottom: "conv1"
  top: "conv1"
}
layer {
  name: "pool1"
  type: "Pooling"
  bottom: "conv1"
  top: "pool1"
  pooling_param {
    pool: MAX
    kernel_size: 3
    stride: 2
  }
}
layer {
  name: "norm1"
  type: "LRN"
  bottom: "pool1"
  top: "norm1"
  lrn_param {
    local_size: 5
    alpha: 0.0001
    beta: 0.75
  }
}
layer {
  name: "conv2"
  type: "Convolution"
  bottom: "norm1"
  top: "conv2"
  param {
    lr_mult: 1
    decay_mult: 1
  }
  param {
    lr_mult: 2
    decay_mult: 0
  }
  convolution_param {
    num_output: 256
    pad: 2
    kernel_size: 5
    group: 2
    weight_filler {
      type: "gaussian"
      std: 0.01
    }
    bias_filler {
      type: "constant"
      value: 1
    }
  }
}
layer {
  name: "relu2"
  type: "ReLU"
  bottom: "conv2"
  top: "conv2"
}
layer {
  name: "pool2"
  type: "Pooling"
  bottom: "conv2"
  top: "pool2"
  pooling_param {
    pool: MAX
    kernel_size: 3
    stride: 2
  }
}
layer {
  name: "norm2"
  type: "LRN"
  bottom: "pool2"
  top: "norm2"
  lrn_param {
    local_size: 5
    alpha: 0.0001
    beta: 0.75
  }
}
layer {
  name: "conv3"
  type: "Convolution"
  bottom: "norm2"
  top: "conv3"
  param {
    lr_mult: 1
    decay_mult: 1
  }
  param {
    lr_mult: 2
    decay_mult: 0
  }
  convolution_param {
    num_output: 384
    pad: 1
    kernel_size: 3
    weight_filler {
      type: "gaussian"
      std: 0.01
    }
    bias_filler {
      type: "constant"
      value: 0
    }
  }
}
layer {
  name: "relu3"
  type: "ReLU"
  bottom: "conv3"
  top: "conv3"
}
layer {
  name: "conv4"
  type: "Convolution"
  bottom: "conv3"
  top: "conv4"
  param {
    lr_mult: 1
    decay_mult: 1
  }
  param {
    lr_mult: 2
    decay_mult: 0
  }
  convolution_param {
    num_output: 384
    pad: 1
    kernel_size: 3
    group: 2
    weight_filler {
      type: "gaussian"
      std: 0.01
    }
    bias_filler {
      type: "constant"
      value: 1
    }
  }
}
layer {
  name: "relu4"
  type: "ReLU"
  bottom: "conv4"
  top: "conv4"
}
layer {
  name: "conv5"
  type: "Convolution"
  bottom: "conv4"
  top: "conv5"
  param {
    lr_mult: 1
    decay_mult: 1
  }
  param {
    lr_mult: 2
    decay_mult: 0
  }
  convolution_param {
    num_output: 256
    pad: 1
    kernel_size: 3
    group: 2
    weight_filler {
      type: "gaussian"
      std: 0.01
    }
    bias_filler {
      type: "constant"
      value: 1
    }
  }
}
layer {
  name: "relu5"
  type: "ReLU"
  bottom: "conv5"
  top: "conv5"
}
layer {
  name: "pool5"
  type: "Pooling"
  bottom: "conv5"
  top: "pool5"
  pooling_param {
    pool: MAX
    kernel_size: 3
    stride: 2
  }
}
layer {
  name: "fc6"
  type: "InnerProduct"
  bottom: "pool5"
  top: "fc6"
  param {
    lr_mult: 1
    decay_mult: 1
  }
  param {
    lr_mult: 2
    decay_mult: 0
  }
  inner_product_param {
    num_output: 4096
    weight_filler {
      type: "gaussian"
      std: 0.005
    }
    bias_filler {
      type: "constant"
      value: 1
    }
  }
}
layer {
  name: "relu6"
  type: "ReLU"
  bottom: "fc6"
  top: "fc6"
}
layer {
  name: "drop6"
  type: "Dropout"
  bottom: "fc6"
  top: "fc6"
  dropout_param {
    dropout_ratio: 0.5
  }
}
layer {
  name: "fc7"
  type: "InnerProduct"
  bottom: "fc6"
  top: "fc7"
  param {
    lr_mult: 1
    decay_mult: 1
  }
  param {
    lr_mult: 2
    decay_mult: 0
  }
  inner_product_param {
    num_output: 4096
    weight_filler {
      type: "gaussian"
      std: 0.005
    }
    bias_filler {
      type: "constant"
      value: 1
    }
  }
}
layer {
  name: "relu7"
  type: "ReLU"
  bottom: "fc7"
  top: "fc7"
}
layer {
  name: "drop7"
  type: "Dropout"
  bottom: "fc7"
  top: "fc7"
  dropout_param {
    dropout_ratio: 0.5
  }
}
layer {
  name: "fc8"
  type: "InnerProduct"
  bottom: "fc7"
  top: "fc8"
  param {
    lr_mult: 1
    decay_mult: 1
  }
  param {
    lr_mult: 2
    decay_mult: 0
  }
  inner_product_param {
    num_output: 2
    weight_filler {
      type: "gaussian"
      std: 0.01
    }
    bias_filler {
      type: "constant"
      value: 0
    }
  }
}
layer {
  name: "loss"
  type: "SoftmaxWithLoss"
  bottom: "fc8"
  bottom: "label"
  top: "loss"
}
I1007 14:17:01.627573  2112 layer_factory.hpp:74] Creating layer data
I1007 14:17:01.633533  2112 net.cpp:92] Creating Layer data
I1007 14:17:01.633551  2112 net.cpp:370] data -> data
I1007 14:17:01.633577  2112 net.cpp:370] data -> label
I1007 14:17:01.633589  2112 net.cpp:122] Setting up data
I1007 14:17:01.633597  2112 data_transformer.cpp:22] Loading mean file from: data/acLogo/imagenet_mean.binaryproto
I1007 14:17:01.635399  2112 db_lmdb.cpp:22] Opened lmdb acLogo/imagenet_train_leveldb
I1007 14:17:01.635465  2112 data_layer.cpp:52] output data size: 10,3,227,227
I1007 14:17:01.636368  2112 net.cpp:129] Top shape: 10 3 227 227 (1545870)
I1007 14:17:01.636389  2112 net.cpp:129] Top shape: 10 (10)
I1007 14:17:01.636397  2112 layer_factory.hpp:74] Creating layer conv1
I1007 14:17:01.636414  2112 net.cpp:92] Creating Layer conv1
I1007 14:17:01.636420  2112 net.cpp:412] conv1 <- data
I1007 14:17:01.636435  2112 net.cpp:370] conv1 -> conv1
I1007 14:17:01.636450  2112 net.cpp:122] Setting up conv1
I1007 14:17:01.637778  2112 net.cpp:129] Top shape: 10 96 55 55 (2904000)
I1007 14:17:01.637802  2112 layer_factory.hpp:74] Creating layer relu1
I1007 14:17:01.637812  2112 net.cpp:92] Creating Layer relu1
I1007 14:17:01.637817  2112 net.cpp:412] relu1 <- conv1
I1007 14:17:01.637823  2112 net.cpp:359] relu1 -> conv1 (in-place)
I1007 14:17:01.637830  2112 net.cpp:122] Setting up relu1
I1007 14:17:01.637837  2112 net.cpp:129] Top shape: 10 96 55 55 (2904000)
I1007 14:17:01.637841  2112 layer_factory.hpp:74] Creating layer pool1
I1007 14:17:01.637850  2112 net.cpp:92] Creating Layer pool1
I1007 14:17:01.637855  2112 net.cpp:412] pool1 <- conv1
I1007 14:17:01.637861  2112 net.cpp:370] pool1 -> pool1
I1007 14:17:01.637868  2112 net.cpp:122] Setting up pool1
I1007 14:17:01.637881  2112 net.cpp:129] Top shape: 10 96 27 27 (699840)
I1007 14:17:01.637887  2112 layer_factory.hpp:74] Creating layer norm1
I1007 14:17:01.637894  2112 net.cpp:92] Creating Layer norm1
I1007 14:17:01.637899  2112 net.cpp:412] norm1 <- pool1
I1007 14:17:01.637905  2112 net.cpp:370] norm1 -> norm1
I1007 14:17:01.637914  2112 net.cpp:122] Setting up norm1
I1007 14:17:01.637923  2112 net.cpp:129] Top shape: 10 96 27 27 (699840)
I1007 14:17:01.637928  2112 layer_factory.hpp:74] Creating layer conv2
I1007 14:17:01.637934  2112 net.cpp:92] Creating Layer conv2
I1007 14:17:01.637939  2112 net.cpp:412] conv2 <- norm1
I1007 14:17:01.637953  2112 net.cpp:370] conv2 -> conv2
I1007 14:17:01.637967  2112 net.cpp:122] Setting up conv2
I1007 14:17:01.645066  2112 net.cpp:129] Top shape: 10 256 27 27 (1866240)
I1007 14:17:01.645079  2112 layer_factory.hpp:74] Creating layer relu2
I1007 14:17:01.645087  2112 net.cpp:92] Creating Layer relu2
I1007 14:17:01.645092  2112 net.cpp:412] relu2 <- conv2
I1007 14:17:01.645099  2112 net.cpp:359] relu2 -> conv2 (in-place)
I1007 14:17:01.645105  2112 net.cpp:122] Setting up relu2
I1007 14:17:01.645112  2112 net.cpp:129] Top shape: 10 256 27 27 (1866240)
I1007 14:17:01.645117  2112 layer_factory.hpp:74] Creating layer pool2
I1007 14:17:01.645123  2112 net.cpp:92] Creating Layer pool2
I1007 14:17:01.645128  2112 net.cpp:412] pool2 <- conv2
I1007 14:17:01.645134  2112 net.cpp:370] pool2 -> pool2
I1007 14:17:01.645141  2112 net.cpp:122] Setting up pool2
I1007 14:17:01.645149  2112 net.cpp:129] Top shape: 10 256 13 13 (432640)
I1007 14:17:01.645154  2112 layer_factory.hpp:74] Creating layer norm2
I1007 14:17:01.645162  2112 net.cpp:92] Creating Layer norm2
I1007 14:17:01.645167  2112 net.cpp:412] norm2 <- pool2
I1007 14:17:01.645174  2112 net.cpp:370] norm2 -> norm2
I1007 14:17:01.645181  2112 net.cpp:122] Setting up norm2
I1007 14:17:01.645189  2112 net.cpp:129] Top shape: 10 256 13 13 (432640)
I1007 14:17:01.645194  2112 layer_factory.hpp:74] Creating layer conv3
I1007 14:17:01.645201  2112 net.cpp:92] Creating Layer conv3
I1007 14:17:01.645205  2112 net.cpp:412] conv3 <- norm2
I1007 14:17:01.645213  2112 net.cpp:370] conv3 -> conv3
I1007 14:17:01.645221  2112 net.cpp:122] Setting up conv3
I1007 14:17:01.665606  2112 net.cpp:129] Top shape: 10 384 13 13 (648960)
I1007 14:17:01.665623  2112 layer_factory.hpp:74] Creating layer relu3
I1007 14:17:01.665633  2112 net.cpp:92] Creating Layer relu3
I1007 14:17:01.665639  2112 net.cpp:412] relu3 <- conv3
I1007 14:17:01.665645  2112 net.cpp:359] relu3 -> conv3 (in-place)
I1007 14:17:01.665653  2112 net.cpp:122] Setting up relu3
I1007 14:17:01.665659  2112 net.cpp:129] Top shape: 10 384 13 13 (648960)
I1007 14:17:01.665664  2112 layer_factory.hpp:74] Creating layer conv4
I1007 14:17:01.665673  2112 net.cpp:92] Creating Layer conv4
I1007 14:17:01.665678  2112 net.cpp:412] conv4 <- conv3
I1007 14:17:01.665684  2112 net.cpp:370] conv4 -> conv4
I1007 14:17:01.665693  2112 net.cpp:122] Setting up conv4
I1007 14:17:01.681587  2112 net.cpp:129] Top shape: 10 384 13 13 (648960)
I1007 14:17:01.681618  2112 layer_factory.hpp:74] Creating layer relu4
I1007 14:17:01.681629  2112 net.cpp:92] Creating Layer relu4
I1007 14:17:01.681635  2112 net.cpp:412] relu4 <- conv4
I1007 14:17:01.681643  2112 net.cpp:359] relu4 -> conv4 (in-place)
I1007 14:17:01.681653  2112 net.cpp:122] Setting up relu4
I1007 14:17:01.681658  2112 net.cpp:129] Top shape: 10 384 13 13 (648960)
I1007 14:17:01.681663  2112 layer_factory.hpp:74] Creating layer conv5
I1007 14:17:01.681679  2112 net.cpp:92] Creating Layer conv5
I1007 14:17:01.681684  2112 net.cpp:412] conv5 <- conv4
I1007 14:17:01.681691  2112 net.cpp:370] conv5 -> conv5
I1007 14:17:01.681700  2112 net.cpp:122] Setting up conv5
I1007 14:17:01.691913  2112 net.cpp:129] Top shape: 10 256 13 13 (432640)
I1007 14:17:01.691927  2112 layer_factory.hpp:74] Creating layer relu5
I1007 14:17:01.691934  2112 net.cpp:92] Creating Layer relu5
I1007 14:17:01.691939  2112 net.cpp:412] relu5 <- conv5
I1007 14:17:01.691946  2112 net.cpp:359] relu5 -> conv5 (in-place)
I1007 14:17:01.691953  2112 net.cpp:122] Setting up relu5
I1007 14:17:01.691959  2112 net.cpp:129] Top shape: 10 256 13 13 (432640)
I1007 14:17:01.691964  2112 layer_factory.hpp:74] Creating layer pool5
I1007 14:17:01.691972  2112 net.cpp:92] Creating Layer pool5
I1007 14:17:01.691977  2112 net.cpp:412] pool5 <- conv5
I1007 14:17:01.691983  2112 net.cpp:370] pool5 -> pool5
I1007 14:17:01.691990  2112 net.cpp:122] Setting up pool5
I1007 14:17:01.692000  2112 net.cpp:129] Top shape: 10 256 6 6 (92160)
I1007 14:17:01.692005  2112 layer_factory.hpp:74] Creating layer fc6
I1007 14:17:01.692024  2112 net.cpp:92] Creating Layer fc6
I1007 14:17:01.692029  2112 net.cpp:412] fc6 <- pool5
I1007 14:17:01.692045  2112 net.cpp:370] fc6 -> fc6
I1007 14:17:01.692055  2112 net.cpp:122] Setting up fc6
I1007 14:17:02.550148  2112 net.cpp:129] Top shape: 10 4096 (40960)
I1007 14:17:02.550187  2112 layer_factory.hpp:74] Creating layer relu6
I1007 14:17:02.550199  2112 net.cpp:92] Creating Layer relu6
I1007 14:17:02.550205  2112 net.cpp:412] relu6 <- fc6
I1007 14:17:02.550217  2112 net.cpp:359] relu6 -> fc6 (in-place)
I1007 14:17:02.550226  2112 net.cpp:122] Setting up relu6
I1007 14:17:02.550233  2112 net.cpp:129] Top shape: 10 4096 (40960)
I1007 14:17:02.550238  2112 layer_factory.hpp:74] Creating layer drop6
I1007 14:17:02.550251  2112 net.cpp:92] Creating Layer drop6
I1007 14:17:02.550256  2112 net.cpp:412] drop6 <- fc6
I1007 14:17:02.550262  2112 net.cpp:359] drop6 -> fc6 (in-place)
I1007 14:17:02.550272  2112 net.cpp:122] Setting up drop6
I1007 14:17:02.550282  2112 net.cpp:129] Top shape: 10 4096 (40960)
I1007 14:17:02.550287  2112 layer_factory.hpp:74] Creating layer fc7
I1007 14:17:02.550297  2112 net.cpp:92] Creating Layer fc7
I1007 14:17:02.550302  2112 net.cpp:412] fc7 <- fc6
I1007 14:17:02.550308  2112 net.cpp:370] fc7 -> fc7
I1007 14:17:02.550318  2112 net.cpp:122] Setting up fc7
I1007 14:17:02.931763  2112 net.cpp:129] Top shape: 10 4096 (40960)
I1007 14:17:02.931798  2112 layer_factory.hpp:74] Creating layer relu7
I1007 14:17:02.931809  2112 net.cpp:92] Creating Layer relu7
I1007 14:17:02.931815  2112 net.cpp:412] relu7 <- fc7
I1007 14:17:02.931824  2112 net.cpp:359] relu7 -> fc7 (in-place)
I1007 14:17:02.931834  2112 net.cpp:122] Setting up relu7
I1007 14:17:02.931840  2112 net.cpp:129] Top shape: 10 4096 (40960)
I1007 14:17:02.931845  2112 layer_factory.hpp:74] Creating layer drop7
I1007 14:17:02.931852  2112 net.cpp:92] Creating Layer drop7
I1007 14:17:02.931857  2112 net.cpp:412] drop7 <- fc7
I1007 14:17:02.931864  2112 net.cpp:359] drop7 -> fc7 (in-place)
I1007 14:17:02.931870  2112 net.cpp:122] Setting up drop7
I1007 14:17:02.931877  2112 net.cpp:129] Top shape: 10 4096 (40960)
I1007 14:17:02.931882  2112 layer_factory.hpp:74] Creating layer fc8
I1007 14:17:02.931891  2112 net.cpp:92] Creating Layer fc8
I1007 14:17:02.931895  2112 net.cpp:412] fc8 <- fc7
I1007 14:17:02.931903  2112 net.cpp:370] fc8 -> fc8
I1007 14:17:02.931912  2112 net.cpp:122] Setting up fc8
I1007 14:17:02.932117  2112 net.cpp:129] Top shape: 10 2 (20)
I1007 14:17:02.932126  2112 layer_factory.hpp:74] Creating layer loss
I1007 14:17:02.958175  2112 net.cpp:92] Creating Layer loss
I1007 14:17:02.958191  2112 net.cpp:412] loss <- fc8
I1007 14:17:02.958200  2112 net.cpp:412] loss <- label
I1007 14:17:02.958212  2112 net.cpp:370] loss -> loss
I1007 14:17:03.012748  2112 net.cpp:122] Setting up loss
I1007 14:17:03.012766  2112 layer_factory.hpp:74] Creating layer loss
…
I1007 14:17:03.013602  2112 net.cpp:289] The NetState phase (1) differed from the phase (0) specified by a rule in layer data
I1007 14:17:03.013757  2112 net.cpp:44] Initializing net from parameters: 
name: "CaffeNet"
state {
  phase: TEST
}
layer {
  name: "data"
  type: "Data"
  top: "data"
  top: "label"
  include {
    phase: TEST
  }
  transform_param {
    mirror: true
    crop_size: 227
    mean_file: "data/acLogo/imagenet_mean.binaryproto"
  }
  data_param {
    source: "acLogo/imagenet_val_leveldb"
    mean_file: "data/acLogo/imagenet_mean.binartproto"
    batch_size: 10
    crop_size: 227
    mirror: false
    backend: LMDB
  }
}
layer {
  name: "conv1"
  type: "Convolution"
  bottom: "data"
  top: "conv1"
  param {
    lr_mult: 1
    decay_mult: 1
  }
  param {
    lr_mult: 2
    decay_mult: 0
  }
  convolution_param {
    num_output: 96
    kernel_size: 11
    stride: 4
    weight_filler {
      type: "gaussian"
      std: 0.01
    }
    bias_filler {
      type: "constant"
      value: 0
    }
  }
}
layer {
  name: "relu1"
  type: "ReLU"
  bottom: "conv1"
  top: "conv1"
}
layer {
  name: "pool1"
  type: "Pooling"
  bottom: "conv1"
  top: "pool1"
  pooling_param {
    pool: MAX
    kernel_size: 3
    stride: 2
  }
}
layer {
  name: "norm1"
  type: "LRN"
  bottom: "pool1"
  top: "norm1"
  lrn_param {
    local_size: 5
    alpha: 0.0001
    beta: 0.75
  }
}
layer {
  name: "conv2"
  type: "Convolution"
  bottom: "norm1"
  top: "conv2"
  param {
    lr_mult: 1
    decay_mult: 1
  }
  param {
    lr_mult: 2
    decay_mult: 0
  }
  convolution_param {
    num_output: 256
    pad: 2
    kernel_size: 5
    group: 2
    weight_filler {
      type: "gaussian"
      std: 0.01
    }
    bias_filler {
      type: "constant"
      value: 1
    }
  }
}
layer {
  name: "relu2"
  type: "ReLU"
  bottom: "conv2"
  top: "conv2"
}
layer {
  name: "pool2"
  type: "Pooling"
  bottom: "conv2"
  top: "pool2"
  pooling_param {
    pool: MAX
    kernel_size: 3
    stride: 2
  }
}
layer {
  name: "norm2"
  type: "LRN"
  bottom: "pool2"
  top: "norm2"
  lrn_param {
    local_size: 5
    alpha: 0.0001
    beta: 0.75
  }
}
layer {
  name: "conv3"
  type: "Convolution"
  bottom: "norm2"
  top: "conv3"
  param {
    lr_mult: 1
    decay_mult: 1
  }
  param {
    lr_mult: 2
    decay_mult: 0
  }
  convolution_param {
    num_output: 384
    pad: 1
    kernel_size: 3
    weight_filler {
      type: "gaussian"
      std: 0.01
    }
    bias_filler {
      type: "constant"
      value: 0
    }
  }
}
layer {
  name: "relu3"
  type: "ReLU"
  bottom: "conv3"
  top: "conv3"
}
layer {
  name: "conv4"
  type: "Convolution"
  bottom: "conv3"
  top: "conv4"
  param {
    lr_mult: 1
    decay_mult: 1
  }
  param {
    lr_mult: 2
    decay_mult: 0
  }
  convolution_param {
    num_output: 384
    pad: 1
    kernel_size: 3
    group: 2
    weight_filler {
      type: "gaussian"
      std: 0.01
    }
    bias_filler {
      type: "constant"
      value: 1
    }
  }
}
layer {
  name: "relu4"
  type: "ReLU"
  bottom: "conv4"
  top: "conv4"
}
layer {
  name: "conv5"
  type: "Convolution"
  bottom: "conv4"
  top: "conv5"
  param {
    lr_mult: 1
    decay_mult: 1
  }
  param {
    lr_mult: 2
    decay_mult: 0
  }
  convolution_param {
    num_output: 256
    pad: 1
    kernel_size: 3
    group: 2
    weight_filler {
      type: "gaussian"
      std: 0.01
    }
    bias_filler {
      type: "constant"
      value: 1
    }
  }
}
layer {
  name: "relu5"
  type: "ReLU"
  bottom: "conv5"
  top: "conv5"
}
layer {
  name: "pool5"
  type: "Pooling"
  bottom: "conv5"
  top: "pool5"
  pooling_param {
    pool: MAX
    kernel_size: 3
    stride: 2
  }
}
layer {
  name: "fc6"
  type: "InnerProduct"
  bottom: "pool5"
  top: "fc6"
  param {
    lr_mult: 1
    decay_mult: 1
  }
  param {
    lr_mult: 2
    decay_mult: 0
  }
  inner_product_param {
    num_output: 4096
    weight_filler {
      type: "gaussian"
      std: 0.005
    }
    bias_filler {
      type: "constant"
      value: 1
    }
  }
}
layer {
  name: "relu6"
  type: "ReLU"
  bottom: "fc6"
  top: "fc6"
}
layer {
  name: "drop6"
  type: "Dropout"
  bottom: "fc6"
  top: "fc6"
  dropout_param {
    dropout_ratio: 0.5
  }
}
layer {
  name: "fc7"
  type: "InnerProduct"
  bottom: "fc6"
  top: "fc7"
  param {
    lr_mult: 1
    decay_mult: 1
  }
  param {
    lr_mult: 2
    decay_mult: 0
  }
  inner_product_param {
    num_output: 4096
    weight_filler {
      type: "gaussian"
      std: 0.005
    }
    bias_filler {
      type: "constant"
      value: 1
    }
  }
}
layer {
  name: "relu7"
  type: "ReLU"
  bottom: "fc7"
  top: "fc7"
}
layer {
  name: "drop7"
  type: "Dropout"
  bottom: "fc7"
  top: "fc7"
  dropout_param {
    dropout_ratio: 0.5
  }
}
layer {
  name: "fc8"
  type: "InnerProduct"
  bottom: "fc7"
  top: "fc8"
  param {
    lr_mult: 1
    decay_mult: 1
  }
  param {
    lr_mult: 2
    decay_mult: 0
  }
  inner_product_param {
    num_output: 2
    weight_filler {
      type: "gaussian"
      std: 0.01
    }
    bias_filler {
      type: "constant"
      value: 0
    }
  }
}
layer {
  name: "accuracy"
  type: "Accuracy"
  bottom: "fc8"
  bottom: "label"
  top: "accuracy"
  include {
    phase: TEST
  }
}
layer {
  name: "loss"
  type: "SoftmaxWithLoss"
  bottom: "fc8"
  bottom: "label"
  top: "loss"
}
I1007 14:17:03.013864  2112 layer_factory.hpp:74] Creating layer data
I1007 14:17:03.013876  2112 net.cpp:92] Creating Layer data
I1007 14:17:03.013883  2112 net.cpp:370] data -> data
I1007 14:17:03.013892  2112 net.cpp:370] data -> label
I1007 14:17:03.013900  2112 net.cpp:122] Setting up data
I1007 14:17:03.013906  2112 data_transformer.cpp:22] Loading mean file from: data/acLogo/imagenet_mean.binaryproto
I1007 14:17:03.015141  2112 db_lmdb.cpp:22] Opened lmdb acLogo/imagenet_val_leveldb
I1007 14:17:03.015204  2112 data_layer.cpp:52] output data size: 10,3,227,227
I1007 14:17:03.016103  2112 net.cpp:129] Top shape: 10 3 227 227 (1545870)
I1007 14:17:03.016125  2112 net.cpp:129] Top shape: 10 (10)
I1007 14:17:03.016132  2112 layer_factory.hpp:74] Creating layer label_data_1_split
I1007 14:17:03.016144  2112 net.cpp:92] Creating Layer label_data_1_split
I1007 14:17:03.016150  2112 net.cpp:412] label_data_1_split <- label
I1007 14:17:03.016160  2112 net.cpp:370] label_data_1_split -> label_data_1_split_0
I1007 14:17:03.016176  2112 net.cpp:370] label_data_1_split -> label_data_1_split_1
I1007 14:17:03.016185  2112 net.cpp:122] Setting up label_data_1_split
I1007 14:17:03.016192  2112 net.cpp:129] Top shape: 10 (10)
I1007 14:17:03.016198  2112 net.cpp:129] Top shape: 10 (10)
I1007 14:17:03.016203  2112 layer_factory.hpp:74] Creating layer conv1
I1007 14:17:03.016213  2112 net.cpp:92] Creating Layer conv1
I1007 14:17:03.016218  2112 net.cpp:412] conv1 <- data
I1007 14:17:03.016226  2112 net.cpp:370] conv1 -> conv1
I1007 14:17:03.016234  2112 net.cpp:122] Setting up conv1
I1007 14:17:03.017083  2112 net.cpp:129] Top shape: 10 96 55 55 (2904000)
I1007 14:17:03.017098  2112 layer_factory.hpp:74] Creating layer relu1
I1007 14:17:03.017107  2112 net.cpp:92] Creating Layer relu1
I1007 14:17:03.017119  2112 net.cpp:412] relu1 <- conv1
I1007 14:17:03.017127  2112 net.cpp:359] relu1 -> conv1 (in-place)
I1007 14:17:03.017140  2112 net.cpp:122] Setting up relu1
I1007 14:17:03.017148  2112 net.cpp:129] Top shape: 10 96 55 55 (2904000)
I1007 14:17:03.017153  2112 layer_factory.hpp:74] Creating layer pool1
I1007 14:17:03.017160  2112 net.cpp:92] Creating Layer pool1
I1007 14:17:03.017165  2112 net.cpp:412] pool1 <- conv1
I1007 14:17:03.017171  2112 net.cpp:370] pool1 -> pool1
I1007 14:17:03.017179  2112 net.cpp:122] Setting up pool1
I1007 14:17:03.017189  2112 net.cpp:129] Top shape: 10 96 27 27 (699840)
I1007 14:17:03.017194  2112 layer_factory.hpp:74] Creating layer norm1
I1007 14:17:03.017200  2112 net.cpp:92] Creating Layer norm1
I1007 14:17:03.017205  2112 net.cpp:412] norm1 <- pool1
I1007 14:17:03.017211  2112 net.cpp:370] norm1 -> norm1
I1007 14:17:03.017218  2112 net.cpp:122] Setting up norm1
I1007 14:17:03.017226  2112 net.cpp:129] Top shape: 10 96 27 27 (699840)
I1007 14:17:03.017231  2112 layer_factory.hpp:74] Creating layer conv2
I1007 14:17:03.017240  2112 net.cpp:92] Creating Layer conv2
I1007 14:17:03.017244  2112 net.cpp:412] conv2 <- norm1
I1007 14:17:03.017251  2112 net.cpp:370] conv2 -> conv2
I1007 14:17:03.017257  2112 net.cpp:122] Setting up conv2
I1007 14:17:03.024430  2112 net.cpp:129] Top shape: 10 256 27 27 (1866240)
I1007 14:17:03.024459  2112 layer_factory.hpp:74] Creating layer relu2
I1007 14:17:03.024468  2112 net.cpp:92] Creating Layer relu2
I1007 14:17:03.024474  2112 net.cpp:412] relu2 <- conv2
I1007 14:17:03.024482  2112 net.cpp:359] relu2 -> conv2 (in-place)
I1007 14:17:03.024490  2112 net.cpp:122] Setting up relu2
I1007 14:17:03.024497  2112 net.cpp:129] Top shape: 10 256 27 27 (1866240)
I1007 14:17:03.024502  2112 layer_factory.hpp:74] Creating layer pool2
I1007 14:17:03.024509  2112 net.cpp:92] Creating Layer pool2
I1007 14:17:03.024514  2112 net.cpp:412] pool2 <- conv2
I1007 14:17:03.024521  2112 net.cpp:370] pool2 -> pool2
I1007 14:17:03.024530  2112 net.cpp:122] Setting up pool2
I1007 14:17:03.024539  2112 net.cpp:129] Top shape: 10 256 13 13 (432640)
I1007 14:17:03.024544  2112 layer_factory.hpp:74] Creating layer norm2
I1007 14:17:03.024554  2112 net.cpp:92] Creating Layer norm2
I1007 14:17:03.024559  2112 net.cpp:412] norm2 <- pool2
I1007 14:17:03.024564  2112 net.cpp:370] norm2 -> norm2
I1007 14:17:03.024571  2112 net.cpp:122] Setting up norm2
I1007 14:17:03.024579  2112 net.cpp:129] Top shape: 10 256 13 13 (432640)
I1007 14:17:03.024583  2112 layer_factory.hpp:74] Creating layer conv3
I1007 14:17:03.024592  2112 net.cpp:92] Creating Layer conv3
I1007 14:17:03.024597  2112 net.cpp:412] conv3 <- norm2
I1007 14:17:03.024605  2112 net.cpp:370] conv3 -> conv3
I1007 14:17:03.024611  2112 net.cpp:122] Setting up conv3
I1007 14:17:03.044903  2112 net.cpp:129] Top shape: 10 384 13 13 (648960)
I1007 14:17:03.044917  2112 layer_factory.hpp:74] Creating layer relu3
I1007 14:17:03.044924  2112 net.cpp:92] Creating Layer relu3
I1007 14:17:03.044929  2112 net.cpp:412] relu3 <- conv3
I1007 14:17:03.044936  2112 net.cpp:359] relu3 -> conv3 (in-place)
I1007 14:17:03.044944  2112 net.cpp:122] Setting up relu3
I1007 14:17:03.044950  2112 net.cpp:129] Top shape: 10 384 13 13 (648960)
I1007 14:17:03.044955  2112 layer_factory.hpp:74] Creating layer conv4
I1007 14:17:03.044961  2112 net.cpp:92] Creating Layer conv4
I1007 14:17:03.044966  2112 net.cpp:412] conv4 <- conv3
I1007 14:17:03.044973  2112 net.cpp:370] conv4 -> conv4
I1007 14:17:03.044981  2112 net.cpp:122] Setting up conv4
I1007 14:17:03.060278  2112 net.cpp:129] Top shape: 10 384 13 13 (648960)
I1007 14:17:03.060292  2112 layer_factory.hpp:74] Creating layer relu4
I1007 14:17:03.060299  2112 net.cpp:92] Creating Layer relu4
I1007 14:17:03.060303  2112 net.cpp:412] relu4 <- conv4
I1007 14:17:03.060313  2112 net.cpp:359] relu4 -> conv4 (in-place)
I1007 14:17:03.060320  2112 net.cpp:122] Setting up relu4
I1007 14:17:03.060327  2112 net.cpp:129] Top shape: 10 384 13 13 (648960)
I1007 14:17:03.060331  2112 layer_factory.hpp:74] Creating layer conv5
I1007 14:17:03.060348  2112 net.cpp:92] Creating Layer conv5
I1007 14:17:03.060359  2112 net.cpp:412] conv5 <- conv4
I1007 14:17:03.060367  2112 net.cpp:370] conv5 -> conv5
I1007 14:17:03.060375  2112 net.cpp:122] Setting up conv5
I1007 14:17:03.070582  2112 net.cpp:129] Top shape: 10 256 13 13 (432640)
I1007 14:17:03.070598  2112 layer_factory.hpp:74] Creating layer relu5
I1007 14:17:03.070606  2112 net.cpp:92] Creating Layer relu5
I1007 14:17:03.070611  2112 net.cpp:412] relu5 <- conv5
I1007 14:17:03.070617  2112 net.cpp:359] relu5 -> conv5 (in-place)
I1007 14:17:03.070624  2112 net.cpp:122] Setting up relu5
I1007 14:17:03.070631  2112 net.cpp:129] Top shape: 10 256 13 13 (432640)
I1007 14:17:03.070634  2112 layer_factory.hpp:74] Creating layer pool5
I1007 14:17:03.070644  2112 net.cpp:92] Creating Layer pool5
I1007 14:17:03.070649  2112 net.cpp:412] pool5 <- conv5
I1007 14:17:03.070657  2112 net.cpp:370] pool5 -> pool5
I1007 14:17:03.070663  2112 net.cpp:122] Setting up pool5
I1007 14:17:03.070672  2112 net.cpp:129] Top shape: 10 256 6 6 (92160)
I1007 14:17:03.070677  2112 layer_factory.hpp:74] Creating layer fc6
I1007 14:17:03.070688  2112 net.cpp:92] Creating Layer fc6
I1007 14:17:03.070693  2112 net.cpp:412] fc6 <- pool5
I1007 14:17:03.070698  2112 net.cpp:370] fc6 -> fc6
I1007 14:17:03.070706  2112 net.cpp:122] Setting up fc6
I1007 14:17:03.928093  2112 net.cpp:129] Top shape: 10 4096 (40960)
I1007 14:17:03.928133  2112 layer_factory.hpp:74] Creating layer relu6
I1007 14:17:03.928146  2112 net.cpp:92] Creating Layer relu6
I1007 14:17:03.928153  2112 net.cpp:412] relu6 <- fc6
I1007 14:17:03.928161  2112 net.cpp:359] relu6 -> fc6 (in-place)
I1007 14:17:03.928170  2112 net.cpp:122] Setting up relu6
I1007 14:17:03.928177  2112 net.cpp:129] Top shape: 10 4096 (40960)
I1007 14:17:03.928181  2112 layer_factory.hpp:74] Creating layer drop6
I1007 14:17:03.928189  2112 net.cpp:92] Creating Layer drop6
I1007 14:17:03.928194  2112 net.cpp:412] drop6 <- fc6
I1007 14:17:03.928201  2112 net.cpp:359] drop6 -> fc6 (in-place)
I1007 14:17:03.928208  2112 net.cpp:122] Setting up drop6
I1007 14:17:03.928216  2112 net.cpp:129] Top shape: 10 4096 (40960)
I1007 14:17:03.928221  2112 layer_factory.hpp:74] Creating layer fc7
I1007 14:17:03.928230  2112 net.cpp:92] Creating Layer fc7
I1007 14:17:03.928234  2112 net.cpp:412] fc7 <- fc6
I1007 14:17:03.928242  2112 net.cpp:370] fc7 -> fc7
I1007 14:17:03.928251  2112 net.cpp:122] Setting up fc7
I1007 14:17:04.312441  2112 net.cpp:129] Top shape: 10 4096 (40960)
I1007 14:17:04.312481  2112 layer_factory.hpp:74] Creating layer relu7
I1007 14:17:04.312494  2112 net.cpp:92] Creating Layer relu7
I1007 14:17:04.312500  2112 net.cpp:412] relu7 <- fc7
I1007 14:17:04.312508  2112 net.cpp:359] relu7 -> fc7 (in-place)
I1007 14:17:04.312517  2112 net.cpp:122] Setting up relu7
I1007 14:17:04.312525  2112 net.cpp:129] Top shape: 10 4096 (40960)
I1007 14:17:04.312528  2112 layer_factory.hpp:74] Creating layer drop7
I1007 14:17:04.312536  2112 net.cpp:92] Creating Layer drop7
I1007 14:17:04.312541  2112 net.cpp:412] drop7 <- fc7
I1007 14:17:04.312546  2112 net.cpp:359] drop7 -> fc7 (in-place)
I1007 14:17:04.312553  2112 net.cpp:122] Setting up drop7
I1007 14:17:04.312561  2112 net.cpp:129] Top shape: 10 4096 (40960)
I1007 14:17:04.312566  2112 layer_factory.hpp:74] Creating layer fc8
I1007 14:17:04.312575  2112 net.cpp:92] Creating Layer fc8
I1007 14:17:04.312580  2112 net.cpp:412] fc8 <- fc7
I1007 14:17:04.312587  2112 net.cpp:370] fc8 -> fc8
I1007 14:17:04.312598  2112 net.cpp:122] Setting up fc8
I1007 14:17:04.312805  2112 net.cpp:129] Top shape: 10 2 (20)
I1007 14:17:04.312814  2112 layer_factory.hpp:74] Creating layer fc8_fc8_0_split
I1007 14:17:04.312821  2112 net.cpp:92] Creating Layer fc8_fc8_0_split
I1007 14:17:04.312827  2112 net.cpp:412] fc8_fc8_0_split <- fc8
I1007 14:17:04.312834  2112 net.cpp:370] fc8_fc8_0_split -> fc8_fc8_0_split_0
I1007 14:17:04.312842  2112 net.cpp:370] fc8_fc8_0_split -> fc8_fc8_0_split_1
I1007 14:17:04.312849  2112 net.cpp:122] Setting up fc8_fc8_0_split
I1007 14:17:04.312866  2112 net.cpp:129] Top shape: 10 2 (20)
I1007 14:17:04.312872  2112 net.cpp:129] Top shape: 10 2 (20)
I1007 14:17:04.312885  2112 layer_factory.hpp:74] Creating layer accuracy
I1007 14:17:04.312892  2112 net.cpp:92] Creating Layer accuracy
I1007 14:17:04.312897  2112 net.cpp:412] accuracy <- fc8_fc8_0_split_0
I1007 14:17:04.312902  2112 net.cpp:412] accuracy <- label_data_1_split_0
I1007 14:17:04.312911  2112 net.cpp:370] accuracy -> accuracy
I1007 14:17:04.312917  2112 net.cpp:122] Setting up accuracy
…
