…
I0930 17:04:04.215733  7119 net.cpp:289] The NetState phase (0) differed from the phase (1) specified by a rule in layer accuracy
I0930 17:04:04.215873  7119 net.cpp:44] Initializing net from parameters: 
name: "CaffeNet"
state {
  phase: TRAIN
}
layer {
  name: "data"
  type: "Data"
  top: "data"
  top: "label"
  include {
    phase: TRAIN
  }
  transform_param {
    mirror: true
    crop_size: 227
    mean_file: "data/Stanford_Cars_09/imagenet_mean.binaryproto"
  }
  data_param {
    source: "Stanford_Cars_09/imagenet_train_leveldb"
    batch_size: 128
    backend: LMDB
  }
}
layer {
  name: "conv1"
  type: "Convolution"
  bottom: "data"
  top: "conv1"
  param {
    lr_mult: 1
    decay_mult: 1
  }
  param {
    lr_mult: 2
    decay_mult: 0
  }
  convolution_param {
    num_output: 96
    kernel_size: 11
    stride: 4
    weight_filler {
      type: "gaussian"
      std: 0.01
    }
    bias_filler {
      type: "constant"
      value: 0
    }
  }
}
layer {
  name: "relu1"
  type: "ReLU"
  bottom: "conv1"
  top: "conv1"
}
layer {
  name: "pool1"
  type: "Pooling"
  bottom: "conv1"
  top: "pool1"
  pooling_param {
    pool: MAX
    kernel_size: 3
    stride: 2
  }
}
layer {
  name: "norm1"
  type: "LRN"
  bottom: "pool1"
  top: "norm1"
  lrn_param {
    local_size: 5
    alpha: 0.0001
    beta: 0.75
  }
}
layer {
  name: "conv2"
  type: "Convolution"
  bottom: "norm1"
  top: "conv2"
  param {
    lr_mult: 1
    decay_mult: 1
  }
  param {
    lr_mult: 2
    decay_mult: 0
  }
  convolution_param {
    num_output: 256
    pad: 2
    kernel_size: 5
    group: 2
    weight_filler {
      type: "gaussian"
      std: 0.01
    }
    bias_filler {
      type: "constant"
      value: 1
    }
  }
}
layer {
  name: "relu2"
  type: "ReLU"
  bottom: "conv2"
  top: "conv2"
}
layer {
  name: "pool2"
  type: "Pooling"
  bottom: "conv2"
  top: "pool2"
  pooling_param {
    pool: MAX
    kernel_size: 3
    stride: 2
  }
}
layer {
  name: "norm2"
  type: "LRN"
  bottom: "pool2"
  top: "norm2"
  lrn_param {
    local_size: 5
    alpha: 0.0001
    beta: 0.75
  }
}
layer {
  name: "conv3"
  type: "Convolution"
  bottom: "norm2"
  top: "conv3"
  param {
    lr_mult: 1
    decay_mult: 1
  }
  param {
    lr_mult: 2
    decay_mult: 0
  }
  convolution_param {
    num_output: 384
    pad: 1
    kernel_size: 3
    weight_filler {
      type: "gaussian"
      std: 0.01
    }
    bias_filler {
      type: "constant"
      value: 0
    }
  }
}
layer {
  name: "relu3"
  type: "ReLU"
  bottom: "conv3"
  top: "conv3"
}
layer {
  name: "conv4"
  type: "Convolution"
  bottom: "conv3"
  top: "conv4"
  param {
    lr_mult: 1
    decay_mult: 1
  }
  param {
    lr_mult: 2
    decay_mult: 0
  }
  convolution_param {
    num_output: 384
    pad: 1
    kernel_size: 3
    group: 2
    weight_filler {
      type: "gaussian"
      std: 0.01
    }
    bias_filler {
      type: "constant"
      value: 1
    }
  }
}
layer {
  name: "relu4"
  type: "ReLU"
  bottom: "conv4"
  top: "conv4"
}
layer {
  name: "conv5"
  type: "Convolution"
  bottom: "conv4"
  top: "conv5"
  param {
    lr_mult: 1
    decay_mult: 1
  }
  param {
    lr_mult: 2
    decay_mult: 0
  }
  convolution_param {
    num_output: 256
    pad: 1
    kernel_size: 3
    group: 2
    weight_filler {
      type: "gaussian"
      std: 0.01
    }
    bias_filler {
      type: "constant"
      value: 1
    }
  }
}
layer {
  name: "relu5"
  type: "ReLU"
  bottom: "conv5"
  top: "conv5"
}
layer {
  name: "pool5"
  type: "Pooling"
  bottom: "conv5"
  top: "pool5"
  pooling_param {
    pool: MAX
    kernel_size: 3
    stride: 2
  }
}
layer {
  name: "fc6"
  type: "InnerProduct"
  bottom: "pool5"
  top: "fc6"
  param {
    lr_mult: 1
    decay_mult: 1
  }
  param {
    lr_mult: 2
    decay_mult: 0
  }
  inner_product_param {
    num_output: 4096
    weight_filler {
      type: "gaussian"
      std: 0.005
    }
    bias_filler {
      type: "constant"
      value: 1
    }
  }
}
layer {
  name: "relu6"
  type: "ReLU"
  bottom: "fc6"
  top: "fc6"
}
layer {
  name: "drop6"
  type: "Dropout"
  bottom: "fc6"
  top: "fc6"
  dropout_param {
    dropout_ratio: 0.5
  }
}
layer {
  name: "fc7"
  type: "InnerProduct"
  bottom: "fc6"
  top: "fc7"
  param {
    lr_mult: 1
    decay_mult: 1
  }
  param {
    lr_mult: 2
    decay_mult: 0
  }
  inner_product_param {
    num_output: 4096
    weight_filler {
      type: "gaussian"
      std: 0.005
    }
    bias_filler {
      type: "constant"
      value: 1
    }
  }
}
layer {
  name: "relu7"
  type: "ReLU"
  bottom: "fc7"
  top: "fc7"
}
layer {
  name: "drop7"
  type: "Dropout"
  bottom: "fc7"
  top: "fc7"
  dropout_param {
    dropout_ratio: 0.5
  }
}
layer {
  name: "fc8"
  type: "InnerProduct"
  bottom: "fc7"
  top: "fc8"
  param {
    lr_mult: 1
    decay_mult: 1
  }
  param {
    lr_mult: 2
    decay_mult: 0
  }
  inner_product_param {
    num_output: 10
    weight_filler {
      type: "gaussian"
      std: 0.01
    }
    bias_filler {
      type: "constant"
      value: 0
    }
  }
}
layer {
  name: "loss"
  type: "SoftmaxWithLoss"
  bottom: "fc8"
  bottom: "label"
  top: "loss"
}
I0930 17:04:04.215976  7119 layer_factory.hpp:74] Creating layer data
I0930 17:04:04.215999  7119 net.cpp:92] Creating Layer data
I0930 17:04:04.216007  7119 net.cpp:370] data -> data
I0930 17:04:04.216028  7119 net.cpp:370] data -> label
I0930 17:04:04.216039  7119 net.cpp:122] Setting up data
I0930 17:04:04.216048  7119 data_transformer.cpp:22] Loading mean file from: data/Stanford_Cars_09/imagenet_mean.binaryproto
I0930 17:04:04.217592  7119 db_lmdb.cpp:22] Opened lmdb Stanford_Cars_09/imagenet_train_leveldb
I0930 17:04:04.217664  7119 data_layer.cpp:52] output data size: 128,3,227,227
I0930 17:04:04.226927  7119 net.cpp:129] Top shape: 128 3 227 227 (19787136)
I0930 17:04:04.226965  7119 net.cpp:129] Top shape: 128 (128)
I0930 17:04:04.226976  7119 layer_factory.hpp:74] Creating layer conv1
I0930 17:04:04.226994  7119 net.cpp:92] Creating Layer conv1
I0930 17:04:04.227001  7119 net.cpp:412] conv1 <- data
I0930 17:04:04.227015  7119 net.cpp:370] conv1 -> conv1
I0930 17:04:04.227031  7119 net.cpp:122] Setting up conv1
I0930 17:04:04.227886  7119 net.cpp:129] Top shape: 128 96 55 55 (37171200)
I0930 17:04:04.227905  7119 layer_factory.hpp:74] Creating layer relu1
I0930 17:04:04.227915  7119 net.cpp:92] Creating Layer relu1
I0930 17:04:04.227921  7119 net.cpp:412] relu1 <- conv1
I0930 17:04:04.227926  7119 net.cpp:359] relu1 -> conv1 (in-place)
I0930 17:04:04.227933  7119 net.cpp:122] Setting up relu1
I0930 17:04:04.227941  7119 net.cpp:129] Top shape: 128 96 55 55 (37171200)
I0930 17:04:04.227946  7119 layer_factory.hpp:74] Creating layer pool1
I0930 17:04:04.227953  7119 net.cpp:92] Creating Layer pool1
I0930 17:04:04.227958  7119 net.cpp:412] pool1 <- conv1
I0930 17:04:04.227964  7119 net.cpp:370] pool1 -> pool1
I0930 17:04:04.227973  7119 net.cpp:122] Setting up pool1
I0930 17:04:04.227991  7119 net.cpp:129] Top shape: 128 96 27 27 (8957952)
I0930 17:04:04.227998  7119 layer_factory.hpp:74] Creating layer norm1
I0930 17:04:04.228006  7119 net.cpp:92] Creating Layer norm1
I0930 17:04:04.228011  7119 net.cpp:412] norm1 <- pool1
I0930 17:04:04.228018  7119 net.cpp:370] norm1 -> norm1
I0930 17:04:04.228026  7119 net.cpp:122] Setting up norm1
I0930 17:04:04.228039  7119 net.cpp:129] Top shape: 128 96 27 27 (8957952)
I0930 17:04:04.228044  7119 layer_factory.hpp:74] Creating layer conv2
I0930 17:04:04.228062  7119 net.cpp:92] Creating Layer conv2
I0930 17:04:04.228067  7119 net.cpp:412] conv2 <- norm1
I0930 17:04:04.228083  7119 net.cpp:370] conv2 -> conv2
I0930 17:04:04.228091  7119 net.cpp:122] Setting up conv2
I0930 17:04:04.235404  7119 net.cpp:129] Top shape: 128 256 27 27 (23887872)
I0930 17:04:04.235445  7119 layer_factory.hpp:74] Creating layer relu2
I0930 17:04:04.235456  7119 net.cpp:92] Creating Layer relu2
I0930 17:04:04.235463  7119 net.cpp:412] relu2 <- conv2
I0930 17:04:04.235471  7119 net.cpp:359] relu2 -> conv2 (in-place)
I0930 17:04:04.235479  7119 net.cpp:122] Setting up relu2
I0930 17:04:04.235486  7119 net.cpp:129] Top shape: 128 256 27 27 (23887872)
I0930 17:04:04.235491  7119 layer_factory.hpp:74] Creating layer pool2
I0930 17:04:04.235499  7119 net.cpp:92] Creating Layer pool2
I0930 17:04:04.235504  7119 net.cpp:412] pool2 <- conv2
I0930 17:04:04.235512  7119 net.cpp:370] pool2 -> pool2
I0930 17:04:04.235520  7119 net.cpp:122] Setting up pool2
I0930 17:04:04.235532  7119 net.cpp:129] Top shape: 128 256 13 13 (5537792)
I0930 17:04:04.235538  7119 layer_factory.hpp:74] Creating layer norm2
I0930 17:04:04.235550  7119 net.cpp:92] Creating Layer norm2
I0930 17:04:04.235555  7119 net.cpp:412] norm2 <- pool2
I0930 17:04:04.235563  7119 net.cpp:370] norm2 -> norm2
I0930 17:04:04.235569  7119 net.cpp:122] Setting up norm2
I0930 17:04:04.235577  7119 net.cpp:129] Top shape: 128 256 13 13 (5537792)
I0930 17:04:04.235582  7119 layer_factory.hpp:74] Creating layer conv3
I0930 17:04:04.235594  7119 net.cpp:92] Creating Layer conv3
I0930 17:04:04.235599  7119 net.cpp:412] conv3 <- norm2
I0930 17:04:04.235606  7119 net.cpp:370] conv3 -> conv3
I0930 17:04:04.235615  7119 net.cpp:122] Setting up conv3
I0930 17:04:04.256521  7119 net.cpp:129] Top shape: 128 384 13 13 (8306688)
I0930 17:04:04.256559  7119 layer_factory.hpp:74] Creating layer relu3
I0930 17:04:04.256572  7119 net.cpp:92] Creating Layer relu3
I0930 17:04:04.256577  7119 net.cpp:412] relu3 <- conv3
I0930 17:04:04.256587  7119 net.cpp:359] relu3 -> conv3 (in-place)
I0930 17:04:04.256595  7119 net.cpp:122] Setting up relu3
I0930 17:04:04.256603  7119 net.cpp:129] Top shape: 128 384 13 13 (8306688)
I0930 17:04:04.256608  7119 layer_factory.hpp:74] Creating layer conv4
I0930 17:04:04.256616  7119 net.cpp:92] Creating Layer conv4
I0930 17:04:04.256621  7119 net.cpp:412] conv4 <- conv3
I0930 17:04:04.256629  7119 net.cpp:370] conv4 -> conv4
I0930 17:04:04.256639  7119 net.cpp:122] Setting up conv4
I0930 17:04:04.272461  7119 net.cpp:129] Top shape: 128 384 13 13 (8306688)
I0930 17:04:04.272495  7119 layer_factory.hpp:74] Creating layer relu4
I0930 17:04:04.272506  7119 net.cpp:92] Creating Layer relu4
I0930 17:04:04.272512  7119 net.cpp:412] relu4 <- conv4
I0930 17:04:04.272548  7119 net.cpp:359] relu4 -> conv4 (in-place)
I0930 17:04:04.272563  7119 net.cpp:122] Setting up relu4
I0930 17:04:04.272572  7119 net.cpp:129] Top shape: 128 384 13 13 (8306688)
I0930 17:04:04.272577  7119 layer_factory.hpp:74] Creating layer conv5
I0930 17:04:04.272585  7119 net.cpp:92] Creating Layer conv5
I0930 17:04:04.272591  7119 net.cpp:412] conv5 <- conv4
I0930 17:04:04.272599  7119 net.cpp:370] conv5 -> conv5
I0930 17:04:04.272608  7119 net.cpp:122] Setting up conv5
I0930 17:04:04.283169  7119 net.cpp:129] Top shape: 128 256 13 13 (5537792)
I0930 17:04:04.283207  7119 layer_factory.hpp:74] Creating layer relu5
I0930 17:04:04.283220  7119 net.cpp:92] Creating Layer relu5
I0930 17:04:04.283226  7119 net.cpp:412] relu5 <- conv5
I0930 17:04:04.283233  7119 net.cpp:359] relu5 -> conv5 (in-place)
I0930 17:04:04.283242  7119 net.cpp:122] Setting up relu5
I0930 17:04:04.283249  7119 net.cpp:129] Top shape: 128 256 13 13 (5537792)
I0930 17:04:04.283254  7119 layer_factory.hpp:74] Creating layer pool5
I0930 17:04:04.283262  7119 net.cpp:92] Creating Layer pool5
I0930 17:04:04.283267  7119 net.cpp:412] pool5 <- conv5
I0930 17:04:04.283275  7119 net.cpp:370] pool5 -> pool5
I0930 17:04:04.283283  7119 net.cpp:122] Setting up pool5
I0930 17:04:04.283293  7119 net.cpp:129] Top shape: 128 256 6 6 (1179648)
I0930 17:04:04.283308  7119 layer_factory.hpp:74] Creating layer fc6
I0930 17:04:04.283329  7119 net.cpp:92] Creating Layer fc6
I0930 17:04:04.283335  7119 net.cpp:412] fc6 <- pool5
I0930 17:04:04.283342  7119 net.cpp:370] fc6 -> fc6
I0930 17:04:04.283354  7119 net.cpp:122] Setting up fc6
I0930 17:04:05.141175  7119 net.cpp:129] Top shape: 128 4096 (524288)
I0930 17:04:05.141218  7119 layer_factory.hpp:74] Creating layer relu6
I0930 17:04:05.141230  7119 net.cpp:92] Creating Layer relu6
I0930 17:04:05.141237  7119 net.cpp:412] relu6 <- fc6
I0930 17:04:05.141245  7119 net.cpp:359] relu6 -> fc6 (in-place)
I0930 17:04:05.141254  7119 net.cpp:122] Setting up relu6
I0930 17:04:05.141260  7119 net.cpp:129] Top shape: 128 4096 (524288)
I0930 17:04:05.141266  7119 layer_factory.hpp:74] Creating layer drop6
I0930 17:04:05.141281  7119 net.cpp:92] Creating Layer drop6
I0930 17:04:05.141286  7119 net.cpp:412] drop6 <- fc6
I0930 17:04:05.141294  7119 net.cpp:359] drop6 -> fc6 (in-place)
I0930 17:04:05.141304  7119 net.cpp:122] Setting up drop6
I0930 17:04:05.141314  7119 net.cpp:129] Top shape: 128 4096 (524288)
I0930 17:04:05.141319  7119 layer_factory.hpp:74] Creating layer fc7
I0930 17:04:05.141327  7119 net.cpp:92] Creating Layer fc7
I0930 17:04:05.141332  7119 net.cpp:412] fc7 <- fc6
I0930 17:04:05.141340  7119 net.cpp:370] fc7 -> fc7
I0930 17:04:05.141350  7119 net.cpp:122] Setting up fc7
I0930 17:04:05.522300  7119 net.cpp:129] Top shape: 128 4096 (524288)
I0930 17:04:05.522341  7119 layer_factory.hpp:74] Creating layer relu7
I0930 17:04:05.522352  7119 net.cpp:92] Creating Layer relu7
I0930 17:04:05.522358  7119 net.cpp:412] relu7 <- fc7
I0930 17:04:05.522367  7119 net.cpp:359] relu7 -> fc7 (in-place)
I0930 17:04:05.522375  7119 net.cpp:122] Setting up relu7
I0930 17:04:05.522382  7119 net.cpp:129] Top shape: 128 4096 (524288)
I0930 17:04:05.522387  7119 layer_factory.hpp:74] Creating layer drop7
I0930 17:04:05.522394  7119 net.cpp:92] Creating Layer drop7
I0930 17:04:05.522399  7119 net.cpp:412] drop7 <- fc7
I0930 17:04:05.522408  7119 net.cpp:359] drop7 -> fc7 (in-place)
I0930 17:04:05.522414  7119 net.cpp:122] Setting up drop7
I0930 17:04:05.522423  7119 net.cpp:129] Top shape: 128 4096 (524288)
I0930 17:04:05.522428  7119 layer_factory.hpp:74] Creating layer fc8
I0930 17:04:05.522436  7119 net.cpp:92] Creating Layer fc8
I0930 17:04:05.522441  7119 net.cpp:412] fc8 <- fc7
I0930 17:04:05.522447  7119 net.cpp:370] fc8 -> fc8
I0930 17:04:05.522456  7119 net.cpp:122] Setting up fc8
I0930 17:04:05.523427  7119 net.cpp:129] Top shape: 128 10 (1280)
I0930 17:04:05.523437  7119 layer_factory.hpp:74] Creating layer loss
I0930 17:04:05.523445  7119 net.cpp:92] Creating Layer loss
I0930 17:04:05.523452  7119 net.cpp:412] loss <- fc8
I0930 17:04:05.523457  7119 net.cpp:412] loss <- label
I0930 17:04:05.523465  7119 net.cpp:370] loss -> loss
I0930 17:04:05.523473  7119 net.cpp:122] Setting up loss
I0930 17:04:05.523481  7119 layer_factory.hpp:74] Creating layer loss
…
I0930 17:04:05.524322  7119 net.cpp:289] The NetState phase (1) differed from the phase (0) specified by a rule in layer data
I0930 17:04:05.524477  7119 net.cpp:44] Initializing net from parameters: 
name: "CaffeNet"
state {
  phase: TEST
}
layer {
  name: "data"
  type: "Data"
  top: "data"
  top: "label"
  include {
    phase: TEST
  }
  transform_param {
    mirror: true
    crop_size: 227
    mean_file: "data/Stanford_Cars_09/imagenet_mean.binaryproto"
  }
  data_param {
    source: "Stanford_Cars_09/imagenet_val_leveldb"
    mean_file: "data/Stanford_Cars_09/imagenet_mean.binartproto"
    batch_size: 10
    crop_size: 227
    mirror: false
    backend: LMDB
  }
}
layer {
  name: "conv1"
  type: "Convolution"
  bottom: "data"
  top: "conv1"
  param {
    lr_mult: 1
    decay_mult: 1
  }
  param {
    lr_mult: 2
    decay_mult: 0
  }
  convolution_param {
    num_output: 96
    kernel_size: 11
    stride: 4
    weight_filler {
      type: "gaussian"
      std: 0.01
    }
    bias_filler {
      type: "constant"
      value: 0
    }
  }
}
layer {
  name: "relu1"
  type: "ReLU"
  bottom: "conv1"
  top: "conv1"
}
layer {
  name: "pool1"
  type: "Pooling"
  bottom: "conv1"
  top: "pool1"
  pooling_param {
    pool: MAX
    kernel_size: 3
    stride: 2
  }
}
layer {
  name: "norm1"
  type: "LRN"
  bottom: "pool1"
  top: "norm1"
  lrn_param {
    local_size: 5
    alpha: 0.0001
    beta: 0.75
  }
}
layer {
  name: "conv2"
  type: "Convolution"
  bottom: "norm1"
  top: "conv2"
  param {
    lr_mult: 1
    decay_mult: 1
  }
  param {
    lr_mult: 2
    decay_mult: 0
  }
  convolution_param {
    num_output: 256
    pad: 2
    kernel_size: 5
    group: 2
    weight_filler {
      type: "gaussian"
      std: 0.01
    }
    bias_filler {
      type: "constant"
      value: 1
    }
  }
}
layer {
  name: "relu2"
  type: "ReLU"
  bottom: "conv2"
  top: "conv2"
}
layer {
  name: "pool2"
  type: "Pooling"
  bottom: "conv2"
  top: "pool2"
  pooling_param {
    pool: MAX
    kernel_size: 3
    stride: 2
  }
}
layer {
  name: "norm2"
  type: "LRN"
  bottom: "pool2"
  top: "norm2"
  lrn_param {
    local_size: 5
    alpha: 0.0001
    beta: 0.75
  }
}
layer {
  name: "conv3"
  type: "Convolution"
  bottom: "norm2"
  top: "conv3"
  param {
    lr_mult: 1
    decay_mult: 1
  }
  param {
    lr_mult: 2
    decay_mult: 0
  }
  convolution_param {
    num_output: 384
    pad: 1
    kernel_size: 3
    weight_filler {
      type: "gaussian"
      std: 0.01
    }
    bias_filler {
      type: "constant"
      value: 0
    }
  }
}
layer {
  name: "relu3"
  type: "ReLU"
  bottom: "conv3"
  top: "conv3"
}
layer {
  name: "conv4"
  type: "Convolution"
  bottom: "conv3"
  top: "conv4"
  param {
    lr_mult: 1
    decay_mult: 1
  }
  param {
    lr_mult: 2
    decay_mult: 0
  }
  convolution_param {
    num_output: 384
    pad: 1
    kernel_size: 3
    group: 2
    weight_filler {
      type: "gaussian"
      std: 0.01
    }
    bias_filler {
      type: "constant"
      value: 1
    }
  }
}
layer {
  name: "relu4"
  type: "ReLU"
  bottom: "conv4"
  top: "conv4"
}
layer {
  name: "conv5"
  type: "Convolution"
  bottom: "conv4"
  top: "conv5"
  param {
    lr_mult: 1
    decay_mult: 1
  }
  param {
    lr_mult: 2
    decay_mult: 0
  }
  convolution_param {
    num_output: 256
    pad: 1
    kernel_size: 3
    group: 2
    weight_filler {
      type: "gaussian"
      std: 0.01
    }
    bias_filler {
      type: "constant"
      value: 1
    }
  }
}
layer {
  name: "relu5"
  type: "ReLU"
  bottom: "conv5"
  top: "conv5"
}
layer {
  name: "pool5"
  type: "Pooling"
  bottom: "conv5"
  top: "pool5"
  pooling_param {
    pool: MAX
    kernel_size: 3
    stride: 2
  }
}
layer {
  name: "fc6"
  type: "InnerProduct"
  bottom: "pool5"
  top: "fc6"
  param {
    lr_mult: 1
    decay_mult: 1
  }
  param {
    lr_mult: 2
    decay_mult: 0
  }
  inner_product_param {
    num_output: 4096
    weight_filler {
      type: "gaussian"
      std: 0.005
    }
    bias_filler {
      type: "constant"
      value: 1
    }
  }
}
layer {
  name: "relu6"
  type: "ReLU"
  bottom: "fc6"
  top: "fc6"
}
layer {
  name: "drop6"
  type: "Dropout"
  bottom: "fc6"
  top: "fc6"
  dropout_param {
    dropout_ratio: 0.5
  }
}
layer {
  name: "fc7"
  type: "InnerProduct"
  bottom: "fc6"
  top: "fc7"
  param {
    lr_mult: 1
    decay_mult: 1
  }
  param {
    lr_mult: 2
    decay_mult: 0
  }
  inner_product_param {
    num_output: 4096
    weight_filler {
      type: "gaussian"
      std: 0.005
    }
    bias_filler {
      type: "constant"
      value: 1
    }
  }
}
layer {
  name: "relu7"
  type: "ReLU"
  bottom: "fc7"
  top: "fc7"
}
layer {
  name: "drop7"
  type: "Dropout"
  bottom: "fc7"
  top: "fc7"
  dropout_param {
    dropout_ratio: 0.5
  }
}
layer {
  name: "fc8"
  type: "InnerProduct"
  bottom: "fc7"
  top: "fc8"
  param {
    lr_mult: 1
    decay_mult: 1
  }
  param {
    lr_mult: 2
    decay_mult: 0
  }
  inner_product_param {
    num_output: 10
    weight_filler {
      type: "gaussian"
      std: 0.01
    }
    bias_filler {
      type: "constant"
      value: 0
    }
  }
}
layer {
  name: "accuracy"
  type: "Accuracy"
  bottom: "fc8"
  bottom: "label"
  top: "accuracy"
  include {
    phase: TEST
  }
}
layer {
  name: "loss"
  type: "SoftmaxWithLoss"
  bottom: "fc8"
  bottom: "label"
  top: "loss"
}
I0930 17:04:05.524576  7119 layer_factory.hpp:74] Creating layer data
I0930 17:04:05.524587  7119 net.cpp:92] Creating Layer data
I0930 17:04:05.524595  7119 net.cpp:370] data -> data
I0930 17:04:05.524603  7119 net.cpp:370] data -> label
I0930 17:04:05.524611  7119 net.cpp:122] Setting up data
I0930 17:04:05.524617  7119 data_transformer.cpp:22] Loading mean file from: data/Stanford_Cars_09/imagenet_mean.binaryproto
I0930 17:04:05.525923  7119 db_lmdb.cpp:22] Opened lmdb Stanford_Cars_09/imagenet_val_leveldb
I0930 17:04:05.525986  7119 data_layer.cpp:52] output data size: 10,3,227,227
I0930 17:04:05.526913  7119 net.cpp:129] Top shape: 10 3 227 227 (1545870)
I0930 17:04:05.526937  7119 net.cpp:129] Top shape: 10 (10)
I0930 17:04:05.526945  7119 layer_factory.hpp:74] Creating layer label_data_1_split
I0930 17:04:05.526957  7119 net.cpp:92] Creating Layer label_data_1_split
I0930 17:04:05.526964  7119 net.cpp:412] label_data_1_split <- label
I0930 17:04:05.526975  7119 net.cpp:370] label_data_1_split -> label_data_1_split_0
I0930 17:04:05.526991  7119 net.cpp:370] label_data_1_split -> label_data_1_split_1
I0930 17:04:05.526998  7119 net.cpp:122] Setting up label_data_1_split
I0930 17:04:05.527007  7119 net.cpp:129] Top shape: 10 (10)
I0930 17:04:05.527014  7119 net.cpp:129] Top shape: 10 (10)
I0930 17:04:05.527019  7119 layer_factory.hpp:74] Creating layer conv1
I0930 17:04:05.527029  7119 net.cpp:92] Creating Layer conv1
I0930 17:04:05.527034  7119 net.cpp:412] conv1 <- data
I0930 17:04:05.527041  7119 net.cpp:370] conv1 -> conv1
I0930 17:04:05.527050  7119 net.cpp:122] Setting up conv1
I0930 17:04:05.527880  7119 net.cpp:129] Top shape: 10 96 55 55 (2904000)
I0930 17:04:05.527902  7119 layer_factory.hpp:74] Creating layer relu1
I0930 17:04:05.527920  7119 net.cpp:92] Creating Layer relu1
I0930 17:04:05.527925  7119 net.cpp:412] relu1 <- conv1
I0930 17:04:05.527931  7119 net.cpp:359] relu1 -> conv1 (in-place)
I0930 17:04:05.527938  7119 net.cpp:122] Setting up relu1
I0930 17:04:05.527945  7119 net.cpp:129] Top shape: 10 96 55 55 (2904000)
I0930 17:04:05.527951  7119 layer_factory.hpp:74] Creating layer pool1
I0930 17:04:05.527958  7119 net.cpp:92] Creating Layer pool1
I0930 17:04:05.527963  7119 net.cpp:412] pool1 <- conv1
I0930 17:04:05.527971  7119 net.cpp:370] pool1 -> pool1
I0930 17:04:05.527977  7119 net.cpp:122] Setting up pool1
I0930 17:04:05.527987  7119 net.cpp:129] Top shape: 10 96 27 27 (699840)
I0930 17:04:05.527993  7119 layer_factory.hpp:74] Creating layer norm1
I0930 17:04:05.528002  7119 net.cpp:92] Creating Layer norm1
I0930 17:04:05.528007  7119 net.cpp:412] norm1 <- pool1
I0930 17:04:05.528012  7119 net.cpp:370] norm1 -> norm1
I0930 17:04:05.528019  7119 net.cpp:122] Setting up norm1
I0930 17:04:05.528028  7119 net.cpp:129] Top shape: 10 96 27 27 (699840)
I0930 17:04:05.528033  7119 layer_factory.hpp:74] Creating layer conv2
I0930 17:04:05.528040  7119 net.cpp:92] Creating Layer conv2
I0930 17:04:05.528045  7119 net.cpp:412] conv2 <- norm1
I0930 17:04:05.528053  7119 net.cpp:370] conv2 -> conv2
I0930 17:04:05.528059  7119 net.cpp:122] Setting up conv2
I0930 17:04:05.535254  7119 net.cpp:129] Top shape: 10 256 27 27 (1866240)
I0930 17:04:05.535285  7119 layer_factory.hpp:74] Creating layer relu2
I0930 17:04:05.535295  7119 net.cpp:92] Creating Layer relu2
I0930 17:04:05.535301  7119 net.cpp:412] relu2 <- conv2
I0930 17:04:05.535310  7119 net.cpp:359] relu2 -> conv2 (in-place)
I0930 17:04:05.535318  7119 net.cpp:122] Setting up relu2
I0930 17:04:05.535326  7119 net.cpp:129] Top shape: 10 256 27 27 (1866240)
I0930 17:04:05.535331  7119 layer_factory.hpp:74] Creating layer pool2
I0930 17:04:05.535338  7119 net.cpp:92] Creating Layer pool2
I0930 17:04:05.535343  7119 net.cpp:412] pool2 <- conv2
I0930 17:04:05.535349  7119 net.cpp:370] pool2 -> pool2
I0930 17:04:05.535358  7119 net.cpp:122] Setting up pool2
I0930 17:04:05.535368  7119 net.cpp:129] Top shape: 10 256 13 13 (432640)
I0930 17:04:05.535373  7119 layer_factory.hpp:74] Creating layer norm2
I0930 17:04:05.535382  7119 net.cpp:92] Creating Layer norm2
I0930 17:04:05.535388  7119 net.cpp:412] norm2 <- pool2
I0930 17:04:05.535395  7119 net.cpp:370] norm2 -> norm2
I0930 17:04:05.535403  7119 net.cpp:122] Setting up norm2
I0930 17:04:05.535410  7119 net.cpp:129] Top shape: 10 256 13 13 (432640)
I0930 17:04:05.535415  7119 layer_factory.hpp:74] Creating layer conv3
I0930 17:04:05.535423  7119 net.cpp:92] Creating Layer conv3
I0930 17:04:05.535429  7119 net.cpp:412] conv3 <- norm2
I0930 17:04:05.535435  7119 net.cpp:370] conv3 -> conv3
I0930 17:04:05.535444  7119 net.cpp:122] Setting up conv3
I0930 17:04:05.555673  7119 net.cpp:129] Top shape: 10 384 13 13 (648960)
I0930 17:04:05.555688  7119 layer_factory.hpp:74] Creating layer relu3
I0930 17:04:05.555696  7119 net.cpp:92] Creating Layer relu3
I0930 17:04:05.555701  7119 net.cpp:412] relu3 <- conv3
I0930 17:04:05.555708  7119 net.cpp:359] relu3 -> conv3 (in-place)
I0930 17:04:05.555714  7119 net.cpp:122] Setting up relu3
I0930 17:04:05.555721  7119 net.cpp:129] Top shape: 10 384 13 13 (648960)
I0930 17:04:05.555727  7119 layer_factory.hpp:74] Creating layer conv4
I0930 17:04:05.555734  7119 net.cpp:92] Creating Layer conv4
I0930 17:04:05.555739  7119 net.cpp:412] conv4 <- conv3
I0930 17:04:05.555747  7119 net.cpp:370] conv4 -> conv4
I0930 17:04:05.555753  7119 net.cpp:122] Setting up conv4
I0930 17:04:05.571132  7119 net.cpp:129] Top shape: 10 384 13 13 (648960)
I0930 17:04:05.571148  7119 layer_factory.hpp:74] Creating layer relu4
I0930 17:04:05.571156  7119 net.cpp:92] Creating Layer relu4
I0930 17:04:05.571161  7119 net.cpp:412] relu4 <- conv4
I0930 17:04:05.571168  7119 net.cpp:359] relu4 -> conv4 (in-place)
I0930 17:04:05.571183  7119 net.cpp:122] Setting up relu4
I0930 17:04:05.571198  7119 net.cpp:129] Top shape: 10 384 13 13 (648960)
I0930 17:04:05.571203  7119 layer_factory.hpp:74] Creating layer conv5
I0930 17:04:05.571213  7119 net.cpp:92] Creating Layer conv5
I0930 17:04:05.571218  7119 net.cpp:412] conv5 <- conv4
I0930 17:04:05.571226  7119 net.cpp:370] conv5 -> conv5
I0930 17:04:05.571234  7119 net.cpp:122] Setting up conv5
I0930 17:04:05.581440  7119 net.cpp:129] Top shape: 10 256 13 13 (432640)
I0930 17:04:05.581454  7119 layer_factory.hpp:74] Creating layer relu5
I0930 17:04:05.581462  7119 net.cpp:92] Creating Layer relu5
I0930 17:04:05.581467  7119 net.cpp:412] relu5 <- conv5
I0930 17:04:05.581475  7119 net.cpp:359] relu5 -> conv5 (in-place)
I0930 17:04:05.581481  7119 net.cpp:122] Setting up relu5
I0930 17:04:05.581487  7119 net.cpp:129] Top shape: 10 256 13 13 (432640)
I0930 17:04:05.581492  7119 layer_factory.hpp:74] Creating layer pool5
I0930 17:04:05.581501  7119 net.cpp:92] Creating Layer pool5
I0930 17:04:05.581506  7119 net.cpp:412] pool5 <- conv5
I0930 17:04:05.581512  7119 net.cpp:370] pool5 -> pool5
I0930 17:04:05.581519  7119 net.cpp:122] Setting up pool5
I0930 17:04:05.581529  7119 net.cpp:129] Top shape: 10 256 6 6 (92160)
I0930 17:04:05.581534  7119 layer_factory.hpp:74] Creating layer fc6
I0930 17:04:05.581544  7119 net.cpp:92] Creating Layer fc6
I0930 17:04:05.581549  7119 net.cpp:412] fc6 <- pool5
I0930 17:04:05.581557  7119 net.cpp:370] fc6 -> fc6
I0930 17:04:05.581564  7119 net.cpp:122] Setting up fc6
I0930 17:04:06.438805  7119 net.cpp:129] Top shape: 10 4096 (40960)
I0930 17:04:06.438849  7119 layer_factory.hpp:74] Creating layer relu6
I0930 17:04:06.438861  7119 net.cpp:92] Creating Layer relu6
I0930 17:04:06.438868  7119 net.cpp:412] relu6 <- fc6
I0930 17:04:06.438879  7119 net.cpp:359] relu6 -> fc6 (in-place)
I0930 17:04:06.438889  7119 net.cpp:122] Setting up relu6
I0930 17:04:06.438894  7119 net.cpp:129] Top shape: 10 4096 (40960)
I0930 17:04:06.438899  7119 layer_factory.hpp:74] Creating layer drop6
I0930 17:04:06.438907  7119 net.cpp:92] Creating Layer drop6
I0930 17:04:06.438912  7119 net.cpp:412] drop6 <- fc6
I0930 17:04:06.438918  7119 net.cpp:359] drop6 -> fc6 (in-place)
I0930 17:04:06.438925  7119 net.cpp:122] Setting up drop6
I0930 17:04:06.438933  7119 net.cpp:129] Top shape: 10 4096 (40960)
I0930 17:04:06.438938  7119 layer_factory.hpp:74] Creating layer fc7
I0930 17:04:06.438948  7119 net.cpp:92] Creating Layer fc7
I0930 17:04:06.438953  7119 net.cpp:412] fc7 <- fc6
I0930 17:04:06.438961  7119 net.cpp:370] fc7 -> fc7
I0930 17:04:06.438969  7119 net.cpp:122] Setting up fc7
I0930 17:04:06.820122  7119 net.cpp:129] Top shape: 10 4096 (40960)
I0930 17:04:06.820164  7119 layer_factory.hpp:74] Creating layer relu7
I0930 17:04:06.820178  7119 net.cpp:92] Creating Layer relu7
I0930 17:04:06.820184  7119 net.cpp:412] relu7 <- fc7
I0930 17:04:06.820193  7119 net.cpp:359] relu7 -> fc7 (in-place)
I0930 17:04:06.820202  7119 net.cpp:122] Setting up relu7
I0930 17:04:06.820209  7119 net.cpp:129] Top shape: 10 4096 (40960)
I0930 17:04:06.820214  7119 layer_factory.hpp:74] Creating layer drop7
I0930 17:04:06.820221  7119 net.cpp:92] Creating Layer drop7
I0930 17:04:06.820226  7119 net.cpp:412] drop7 <- fc7
I0930 17:04:06.820232  7119 net.cpp:359] drop7 -> fc7 (in-place)
I0930 17:04:06.820240  7119 net.cpp:122] Setting up drop7
I0930 17:04:06.820247  7119 net.cpp:129] Top shape: 10 4096 (40960)
I0930 17:04:06.820252  7119 layer_factory.hpp:74] Creating layer fc8
I0930 17:04:06.820261  7119 net.cpp:92] Creating Layer fc8
I0930 17:04:06.820266  7119 net.cpp:412] fc8 <- fc7
I0930 17:04:06.820273  7119 net.cpp:370] fc8 -> fc8
I0930 17:04:06.820286  7119 net.cpp:122] Setting up fc8
I0930 17:04:06.821259  7119 net.cpp:129] Top shape: 10 10 (100)
I0930 17:04:06.821269  7119 layer_factory.hpp:74] Creating layer fc8_fc8_0_split
I0930 17:04:06.821276  7119 net.cpp:92] Creating Layer fc8_fc8_0_split
I0930 17:04:06.821281  7119 net.cpp:412] fc8_fc8_0_split <- fc8
I0930 17:04:06.821288  7119 net.cpp:370] fc8_fc8_0_split -> fc8_fc8_0_split_0
I0930 17:04:06.821305  7119 net.cpp:370] fc8_fc8_0_split -> fc8_fc8_0_split_1
I0930 17:04:06.821321  7119 net.cpp:122] Setting up fc8_fc8_0_split
I0930 17:04:06.821328  7119 net.cpp:129] Top shape: 10 10 (100)
I0930 17:04:06.821333  7119 net.cpp:129] Top shape: 10 10 (100)
I0930 17:04:06.821338  7119 layer_factory.hpp:74] Creating layer accuracy
I0930 17:04:06.821348  7119 net.cpp:92] Creating Layer accuracy
I0930 17:04:06.821353  7119 net.cpp:412] accuracy <- fc8_fc8_0_split_0
I0930 17:04:06.821358  7119 net.cpp:412] accuracy <- label_data_1_split_0
I0930 17:04:06.821365  7119 net.cpp:370] accuracy -> accuracy
I0930 17:04:06.821372  7119 net.cpp:122] Setting up accuracy
…
