…
I0926 23:34:19.630003  7307 net.cpp:289] The NetState phase (0) differed from the phase (1) specified by a rule in layer accuracy
I0926 23:34:19.630142  7307 net.cpp:44] Initializing net from parameters: 
name: "CaffeNet"
state {
  phase: TRAIN
}
layer {
  name: "data"
  type: "Data"
  top: "data"
  top: "label"
  include {
    phase: TRAIN
  }
  transform_param {
    mirror: true
    crop_size: 227
    mean_file: "data/Stanford_Cars_09/imagenet_mean.binaryproto"
  }
  data_param {
    source: "Stanford_Cars_09/imagenet_train_leveldb"
    batch_size: 128
    backend: LMDB
  }
}
layer {
  name: "conv1"
  type: "Convolution"
  bottom: "data"
  top: "conv1"
  param {
    lr_mult: 1
    decay_mult: 1
  }
  param {
    lr_mult: 2
    decay_mult: 0
  }
  convolution_param {
    num_output: 96
    kernel_size: 11
    stride: 4
    weight_filler {
      type: "gaussian"
      std: 0.01
    }
    bias_filler {
      type: "constant"
      value: 0
    }
  }
}
layer {
  name: "relu1"
  type: "ReLU"
  bottom: "conv1"
  top: "conv1"
}
layer {
  name: "pool1"
  type: "Pooling"
  bottom: "conv1"
  top: "pool1"
  pooling_param {
    pool: MAX
    kernel_size: 3
    stride: 2
  }
}
layer {
  name: "norm1"
  type: "LRN"
  bottom: "pool1"
  top: "norm1"
  lrn_param {
    local_size: 5
    alpha: 0.0001
    beta: 0.75
  }
}
layer {
  name: "conv2"
  type: "Convolution"
  bottom: "norm1"
  top: "conv2"
  param {
    lr_mult: 1
    decay_mult: 1
  }
  param {
    lr_mult: 2
    decay_mult: 0
  }
  convolution_param {
    num_output: 256
    pad: 2
    kernel_size: 5
    group: 2
    weight_filler {
      type: "gaussian"
      std: 0.01
    }
    bias_filler {
      type: "constant"
      value: 1
    }
  }
}
layer {
  name: "relu2"
  type: "ReLU"
  bottom: "conv2"
  top: "conv2"
}
layer {
  name: "pool2"
  type: "Pooling"
  bottom: "conv2"
  top: "pool2"
  pooling_param {
    pool: MAX
    kernel_size: 3
    stride: 2
  }
}
layer {
  name: "norm2"
  type: "LRN"
  bottom: "pool2"
  top: "norm2"
  lrn_param {
    local_size: 5
    alpha: 0.0001
    beta: 0.75
  }
}
layer {
  name: "conv3"
  type: "Convolution"
  bottom: "norm2"
  top: "conv3"
  param {
    lr_mult: 1
    decay_mult: 1
  }
  param {
    lr_mult: 2
    decay_mult: 0
  }
  convolution_param {
    num_output: 384
    pad: 1
    kernel_size: 3
    weight_filler {
      type: "gaussian"
      std: 0.01
    }
    bias_filler {
      type: "constant"
      value: 0
    }
  }
}
layer {
  name: "relu3"
  type: "ReLU"
  bottom: "conv3"
  top: "conv3"
}
layer {
  name: "conv4"
  type: "Convolution"
  bottom: "conv3"
  top: "conv4"
  param {
    lr_mult: 1
    decay_mult: 1
  }
  param {
    lr_mult: 2
    decay_mult: 0
  }
  convolution_param {
    num_output: 384
    pad: 1
    kernel_size: 3
    group: 2
    weight_filler {
      type: "gaussian"
      std: 0.01
    }
    bias_filler {
      type: "constant"
      value: 1
    }
  }
}
layer {
  name: "relu4"
  type: "ReLU"
  bottom: "conv4"
  top: "conv4"
}
layer {
  name: "conv5"
  type: "Convolution"
  bottom: "conv4"
  top: "conv5"
  param {
    lr_mult: 1
    decay_mult: 1
  }
  param {
    lr_mult: 2
    decay_mult: 0
  }
  convolution_param {
    num_output: 256
    pad: 1
    kernel_size: 3
    group: 2
    weight_filler {
      type: "gaussian"
      std: 0.01
    }
    bias_filler {
      type: "constant"
      value: 1
    }
  }
}
layer {
  name: "relu5"
  type: "ReLU"
  bottom: "conv5"
  top: "conv5"
}
layer {
  name: "pool5"
  type: "Pooling"
  bottom: "conv5"
  top: "pool5"
  pooling_param {
    pool: MAX
    kernel_size: 3
    stride: 2
  }
}
layer {
  name: "fc6"
  type: "InnerProduct"
  bottom: "pool5"
  top: "fc6"
  param {
    lr_mult: 1
    decay_mult: 1
  }
  param {
    lr_mult: 2
    decay_mult: 0
  }
  inner_product_param {
    num_output: 4096
    weight_filler {
      type: "gaussian"
      std: 0.005
    }
    bias_filler {
      type: "constant"
      value: 1
    }
  }
}
layer {
  name: "relu6"
  type: "ReLU"
  bottom: "fc6"
  top: "fc6"
}
layer {
  name: "drop6"
  type: "Dropout"
  bottom: "fc6"
  top: "fc6"
  dropout_param {
    dropout_ratio: 0.5
  }
}
layer {
  name: "fc7"
  type: "InnerProduct"
  bottom: "fc6"
  top: "fc7"
  param {
    lr_mult: 1
    decay_mult: 1
  }
  param {
    lr_mult: 2
    decay_mult: 0
  }
  inner_product_param {
    num_output: 4096
    weight_filler {
      type: "gaussian"
      std: 0.005
    }
    bias_filler {
      type: "constant"
      value: 1
    }
  }
}
layer {
  name: "relu7"
  type: "ReLU"
  bottom: "fc7"
  top: "fc7"
}
layer {
  name: "drop7"
  type: "Dropout"
  bottom: "fc7"
  top: "fc7"
  dropout_param {
    dropout_ratio: 0.5
  }
}
layer {
  name: "fc8"
  type: "InnerProduct"
  bottom: "fc7"
  top: "fc8"
  param {
    lr_mult: 1
    decay_mult: 1
  }
  param {
    lr_mult: 2
    decay_mult: 0
  }
  inner_product_param {
    num_output: 10
    weight_filler {
      type: "gaussian"
      std: 0.01
    }
    bias_filler {
      type: "constant"
      value: 0
    }
  }
}
layer {
  name: "loss"
  type: "SoftmaxWithLoss"
  bottom: "fc8"
  bottom: "label"
  top: "loss"
}
I0926 23:34:19.630244  7307 layer_factory.hpp:74] Creating layer data
I0926 23:34:19.630266  7307 net.cpp:92] Creating Layer data
I0926 23:34:19.630275  7307 net.cpp:370] data -> data
I0926 23:34:19.630296  7307 net.cpp:370] data -> label
I0926 23:34:19.630307  7307 net.cpp:122] Setting up data
I0926 23:34:19.630314  7307 data_transformer.cpp:22] Loading mean file from: data/Stanford_Cars_09/imagenet_mean.binaryproto
I0926 23:34:19.631863  7307 db_lmdb.cpp:22] Opened lmdb Stanford_Cars_09/imagenet_train_leveldb
I0926 23:34:19.631935  7307 data_layer.cpp:52] output data size: 128,3,227,227
I0926 23:34:19.641439  7307 net.cpp:129] Top shape: 128 3 227 227 (19787136)
I0926 23:34:19.641480  7307 net.cpp:129] Top shape: 128 (128)
I0926 23:34:19.641490  7307 layer_factory.hpp:74] Creating layer conv1
I0926 23:34:19.641508  7307 net.cpp:92] Creating Layer conv1
I0926 23:34:19.641516  7307 net.cpp:412] conv1 <- data
I0926 23:34:19.641530  7307 net.cpp:370] conv1 -> conv1
I0926 23:34:19.641546  7307 net.cpp:122] Setting up conv1
I0926 23:34:19.642402  7307 net.cpp:129] Top shape: 128 96 55 55 (37171200)
I0926 23:34:19.642421  7307 layer_factory.hpp:74] Creating layer relu1
I0926 23:34:19.642429  7307 net.cpp:92] Creating Layer relu1
I0926 23:34:19.642436  7307 net.cpp:412] relu1 <- conv1
I0926 23:34:19.642441  7307 net.cpp:359] relu1 -> conv1 (in-place)
I0926 23:34:19.642448  7307 net.cpp:122] Setting up relu1
I0926 23:34:19.642454  7307 net.cpp:129] Top shape: 128 96 55 55 (37171200)
I0926 23:34:19.642460  7307 layer_factory.hpp:74] Creating layer pool1
I0926 23:34:19.642467  7307 net.cpp:92] Creating Layer pool1
I0926 23:34:19.642472  7307 net.cpp:412] pool1 <- conv1
I0926 23:34:19.642478  7307 net.cpp:370] pool1 -> pool1
I0926 23:34:19.642488  7307 net.cpp:122] Setting up pool1
I0926 23:34:19.642500  7307 net.cpp:129] Top shape: 128 96 27 27 (8957952)
I0926 23:34:19.642506  7307 layer_factory.hpp:74] Creating layer norm1
I0926 23:34:19.642515  7307 net.cpp:92] Creating Layer norm1
I0926 23:34:19.642520  7307 net.cpp:412] norm1 <- pool1
I0926 23:34:19.642526  7307 net.cpp:370] norm1 -> norm1
I0926 23:34:19.642535  7307 net.cpp:122] Setting up norm1
I0926 23:34:19.642544  7307 net.cpp:129] Top shape: 128 96 27 27 (8957952)
I0926 23:34:19.642549  7307 layer_factory.hpp:74] Creating layer conv2
I0926 23:34:19.642567  7307 net.cpp:92] Creating Layer conv2
I0926 23:34:19.642573  7307 net.cpp:412] conv2 <- norm1
I0926 23:34:19.642588  7307 net.cpp:370] conv2 -> conv2
I0926 23:34:19.642596  7307 net.cpp:122] Setting up conv2
I0926 23:34:19.649914  7307 net.cpp:129] Top shape: 128 256 27 27 (23887872)
I0926 23:34:19.649955  7307 layer_factory.hpp:74] Creating layer relu2
I0926 23:34:19.649966  7307 net.cpp:92] Creating Layer relu2
I0926 23:34:19.649971  7307 net.cpp:412] relu2 <- conv2
I0926 23:34:19.649979  7307 net.cpp:359] relu2 -> conv2 (in-place)
I0926 23:34:19.649988  7307 net.cpp:122] Setting up relu2
I0926 23:34:19.649994  7307 net.cpp:129] Top shape: 128 256 27 27 (23887872)
I0926 23:34:19.649999  7307 layer_factory.hpp:74] Creating layer pool2
I0926 23:34:19.650007  7307 net.cpp:92] Creating Layer pool2
I0926 23:34:19.650012  7307 net.cpp:412] pool2 <- conv2
I0926 23:34:19.650020  7307 net.cpp:370] pool2 -> pool2
I0926 23:34:19.650028  7307 net.cpp:122] Setting up pool2
I0926 23:34:19.650038  7307 net.cpp:129] Top shape: 128 256 13 13 (5537792)
I0926 23:34:19.650043  7307 layer_factory.hpp:74] Creating layer norm2
I0926 23:34:19.650055  7307 net.cpp:92] Creating Layer norm2
I0926 23:34:19.650061  7307 net.cpp:412] norm2 <- pool2
I0926 23:34:19.650068  7307 net.cpp:370] norm2 -> norm2
I0926 23:34:19.650075  7307 net.cpp:122] Setting up norm2
I0926 23:34:19.650084  7307 net.cpp:129] Top shape: 128 256 13 13 (5537792)
I0926 23:34:19.650089  7307 layer_factory.hpp:74] Creating layer conv3
I0926 23:34:19.650099  7307 net.cpp:92] Creating Layer conv3
I0926 23:34:19.650104  7307 net.cpp:412] conv3 <- norm2
I0926 23:34:19.650111  7307 net.cpp:370] conv3 -> conv3
I0926 23:34:19.650120  7307 net.cpp:122] Setting up conv3
I0926 23:34:19.671278  7307 net.cpp:129] Top shape: 128 384 13 13 (8306688)
I0926 23:34:19.671320  7307 layer_factory.hpp:74] Creating layer relu3
I0926 23:34:19.671332  7307 net.cpp:92] Creating Layer relu3
I0926 23:34:19.671339  7307 net.cpp:412] relu3 <- conv3
I0926 23:34:19.671345  7307 net.cpp:359] relu3 -> conv3 (in-place)
I0926 23:34:19.671355  7307 net.cpp:122] Setting up relu3
I0926 23:34:19.671361  7307 net.cpp:129] Top shape: 128 384 13 13 (8306688)
I0926 23:34:19.671370  7307 layer_factory.hpp:74] Creating layer conv4
I0926 23:34:19.671382  7307 net.cpp:92] Creating Layer conv4
I0926 23:34:19.671387  7307 net.cpp:412] conv4 <- conv3
I0926 23:34:19.671401  7307 net.cpp:370] conv4 -> conv4
I0926 23:34:19.671409  7307 net.cpp:122] Setting up conv4
I0926 23:34:19.687027  7307 net.cpp:129] Top shape: 128 384 13 13 (8306688)
I0926 23:34:19.687064  7307 layer_factory.hpp:74] Creating layer relu4
I0926 23:34:19.687083  7307 net.cpp:92] Creating Layer relu4
I0926 23:34:19.687089  7307 net.cpp:412] relu4 <- conv4
I0926 23:34:19.687098  7307 net.cpp:359] relu4 -> conv4 (in-place)
I0926 23:34:19.687108  7307 net.cpp:122] Setting up relu4
I0926 23:34:19.687114  7307 net.cpp:129] Top shape: 128 384 13 13 (8306688)
I0926 23:34:19.687119  7307 layer_factory.hpp:74] Creating layer conv5
I0926 23:34:19.687130  7307 net.cpp:92] Creating Layer conv5
I0926 23:34:19.687135  7307 net.cpp:412] conv5 <- conv4
I0926 23:34:19.687142  7307 net.cpp:370] conv5 -> conv5
I0926 23:34:19.687150  7307 net.cpp:122] Setting up conv5
I0926 23:34:19.697713  7307 net.cpp:129] Top shape: 128 256 13 13 (5537792)
I0926 23:34:19.697752  7307 layer_factory.hpp:74] Creating layer relu5
I0926 23:34:19.697763  7307 net.cpp:92] Creating Layer relu5
I0926 23:34:19.697769  7307 net.cpp:412] relu5 <- conv5
I0926 23:34:19.697777  7307 net.cpp:359] relu5 -> conv5 (in-place)
I0926 23:34:19.697787  7307 net.cpp:122] Setting up relu5
I0926 23:34:19.697793  7307 net.cpp:129] Top shape: 128 256 13 13 (5537792)
I0926 23:34:19.697798  7307 layer_factory.hpp:74] Creating layer pool5
I0926 23:34:19.697806  7307 net.cpp:92] Creating Layer pool5
I0926 23:34:19.697811  7307 net.cpp:412] pool5 <- conv5
I0926 23:34:19.697819  7307 net.cpp:370] pool5 -> pool5
I0926 23:34:19.697826  7307 net.cpp:122] Setting up pool5
I0926 23:34:19.697836  7307 net.cpp:129] Top shape: 128 256 6 6 (1179648)
I0926 23:34:19.697850  7307 layer_factory.hpp:74] Creating layer fc6
I0926 23:34:19.697870  7307 net.cpp:92] Creating Layer fc6
I0926 23:34:19.697876  7307 net.cpp:412] fc6 <- pool5
I0926 23:34:19.697883  7307 net.cpp:370] fc6 -> fc6
I0926 23:34:19.697895  7307 net.cpp:122] Setting up fc6
I0926 23:34:20.555737  7307 net.cpp:129] Top shape: 128 4096 (524288)
I0926 23:34:20.555781  7307 layer_factory.hpp:74] Creating layer relu6
I0926 23:34:20.555793  7307 net.cpp:92] Creating Layer relu6
I0926 23:34:20.555799  7307 net.cpp:412] relu6 <- fc6
I0926 23:34:20.555809  7307 net.cpp:359] relu6 -> fc6 (in-place)
I0926 23:34:20.555817  7307 net.cpp:122] Setting up relu6
I0926 23:34:20.555824  7307 net.cpp:129] Top shape: 128 4096 (524288)
I0926 23:34:20.555830  7307 layer_factory.hpp:74] Creating layer drop6
I0926 23:34:20.555845  7307 net.cpp:92] Creating Layer drop6
I0926 23:34:20.555850  7307 net.cpp:412] drop6 <- fc6
I0926 23:34:20.555855  7307 net.cpp:359] drop6 -> fc6 (in-place)
I0926 23:34:20.555866  7307 net.cpp:122] Setting up drop6
I0926 23:34:20.555876  7307 net.cpp:129] Top shape: 128 4096 (524288)
I0926 23:34:20.555881  7307 layer_factory.hpp:74] Creating layer fc7
I0926 23:34:20.555891  7307 net.cpp:92] Creating Layer fc7
I0926 23:34:20.555896  7307 net.cpp:412] fc7 <- fc6
I0926 23:34:20.555902  7307 net.cpp:370] fc7 -> fc7
I0926 23:34:20.555912  7307 net.cpp:122] Setting up fc7
I0926 23:34:20.936882  7307 net.cpp:129] Top shape: 128 4096 (524288)
I0926 23:34:20.936925  7307 layer_factory.hpp:74] Creating layer relu7
I0926 23:34:20.936936  7307 net.cpp:92] Creating Layer relu7
I0926 23:34:20.936942  7307 net.cpp:412] relu7 <- fc7
I0926 23:34:20.936950  7307 net.cpp:359] relu7 -> fc7 (in-place)
I0926 23:34:20.936959  7307 net.cpp:122] Setting up relu7
I0926 23:34:20.936966  7307 net.cpp:129] Top shape: 128 4096 (524288)
I0926 23:34:20.936971  7307 layer_factory.hpp:74] Creating layer drop7
I0926 23:34:20.936980  7307 net.cpp:92] Creating Layer drop7
I0926 23:34:20.936985  7307 net.cpp:412] drop7 <- fc7
I0926 23:34:20.936991  7307 net.cpp:359] drop7 -> fc7 (in-place)
I0926 23:34:20.936998  7307 net.cpp:122] Setting up drop7
I0926 23:34:20.937006  7307 net.cpp:129] Top shape: 128 4096 (524288)
I0926 23:34:20.937011  7307 layer_factory.hpp:74] Creating layer fc8
I0926 23:34:20.937021  7307 net.cpp:92] Creating Layer fc8
I0926 23:34:20.937026  7307 net.cpp:412] fc8 <- fc7
I0926 23:34:20.937033  7307 net.cpp:370] fc8 -> fc8
I0926 23:34:20.937041  7307 net.cpp:122] Setting up fc8
I0926 23:34:20.938012  7307 net.cpp:129] Top shape: 128 10 (1280)
I0926 23:34:20.938022  7307 layer_factory.hpp:74] Creating layer loss
I0926 23:34:20.938030  7307 net.cpp:92] Creating Layer loss
I0926 23:34:20.938035  7307 net.cpp:412] loss <- fc8
I0926 23:34:20.938040  7307 net.cpp:412] loss <- label
I0926 23:34:20.938051  7307 net.cpp:370] loss -> loss
I0926 23:34:20.938067  7307 net.cpp:122] Setting up loss
I0926 23:34:20.938076  7307 layer_factory.hpp:74] Creating layer loss
…
I0926 23:34:20.938920  7307 net.cpp:289] The NetState phase (1) differed from the phase (0) specified by a rule in layer data
I0926 23:34:20.939075  7307 net.cpp:44] Initializing net from parameters: 
name: "CaffeNet"
state {
  phase: TEST
}
layer {
  name: "data"
  type: "Data"
  top: "data"
  top: "label"
  include {
    phase: TEST
  }
  transform_param {
    mirror: true
    crop_size: 227
    mean_file: "data/Stanford_Cars_09/imagenet_mean.binaryproto"
  }
  data_param {
    source: "Stanford_Cars_09/imagenet_val_leveldb"
    mean_file: "data/Stanford_Cars_09/imagenet_mean.binartproto"
    batch_size: 10
    crop_size: 227
    mirror: false
    backend: LMDB
  }
}
layer {
  name: "conv1"
  type: "Convolution"
  bottom: "data"
  top: "conv1"
  param {
    lr_mult: 1
    decay_mult: 1
  }
  param {
    lr_mult: 2
    decay_mult: 0
  }
  convolution_param {
    num_output: 96
    kernel_size: 11
    stride: 4
    weight_filler {
      type: "gaussian"
      std: 0.01
    }
    bias_filler {
      type: "constant"
      value: 0
    }
  }
}
layer {
  name: "relu1"
  type: "ReLU"
  bottom: "conv1"
  top: "conv1"
}
layer {
  name: "pool1"
  type: "Pooling"
  bottom: "conv1"
  top: "pool1"
  pooling_param {
    pool: MAX
    kernel_size: 3
    stride: 2
  }
}
layer {
  name: "norm1"
  type: "LRN"
  bottom: "pool1"
  top: "norm1"
  lrn_param {
    local_size: 5
    alpha: 0.0001
    beta: 0.75
  }
}
layer {
  name: "conv2"
  type: "Convolution"
  bottom: "norm1"
  top: "conv2"
  param {
    lr_mult: 1
    decay_mult: 1
  }
  param {
    lr_mult: 2
    decay_mult: 0
  }
  convolution_param {
    num_output: 256
    pad: 2
    kernel_size: 5
    group: 2
    weight_filler {
      type: "gaussian"
      std: 0.01
    }
    bias_filler {
      type: "constant"
      value: 1
    }
  }
}
layer {
  name: "relu2"
  type: "ReLU"
  bottom: "conv2"
  top: "conv2"
}
layer {
  name: "pool2"
  type: "Pooling"
  bottom: "conv2"
  top: "pool2"
  pooling_param {
    pool: MAX
    kernel_size: 3
    stride: 2
  }
}
layer {
  name: "norm2"
  type: "LRN"
  bottom: "pool2"
  top: "norm2"
  lrn_param {
    local_size: 5
    alpha: 0.0001
    beta: 0.75
  }
}
layer {
  name: "conv3"
  type: "Convolution"
  bottom: "norm2"
  top: "conv3"
  param {
    lr_mult: 1
    decay_mult: 1
  }
  param {
    lr_mult: 2
    decay_mult: 0
  }
  convolution_param {
    num_output: 384
    pad: 1
    kernel_size: 3
    weight_filler {
      type: "gaussian"
      std: 0.01
    }
    bias_filler {
      type: "constant"
      value: 0
    }
  }
}
layer {
  name: "relu3"
  type: "ReLU"
  bottom: "conv3"
  top: "conv3"
}
layer {
  name: "conv4"
  type: "Convolution"
  bottom: "conv3"
  top: "conv4"
  param {
    lr_mult: 1
    decay_mult: 1
  }
  param {
    lr_mult: 2
    decay_mult: 0
  }
  convolution_param {
    num_output: 384
    pad: 1
    kernel_size: 3
    group: 2
    weight_filler {
      type: "gaussian"
      std: 0.01
    }
    bias_filler {
      type: "constant"
      value: 1
    }
  }
}
layer {
  name: "relu4"
  type: "ReLU"
  bottom: "conv4"
  top: "conv4"
}
layer {
  name: "conv5"
  type: "Convolution"
  bottom: "conv4"
  top: "conv5"
  param {
    lr_mult: 1
    decay_mult: 1
  }
  param {
    lr_mult: 2
    decay_mult: 0
  }
  convolution_param {
    num_output: 256
    pad: 1
    kernel_size: 3
    group: 2
    weight_filler {
      type: "gaussian"
      std: 0.01
    }
    bias_filler {
      type: "constant"
      value: 1
    }
  }
}
layer {
  name: "relu5"
  type: "ReLU"
  bottom: "conv5"
  top: "conv5"
}
layer {
  name: "pool5"
  type: "Pooling"
  bottom: "conv5"
  top: "pool5"
  pooling_param {
    pool: MAX
    kernel_size: 3
    stride: 2
  }
}
layer {
  name: "fc6"
  type: "InnerProduct"
  bottom: "pool5"
  top: "fc6"
  param {
    lr_mult: 1
    decay_mult: 1
  }
  param {
    lr_mult: 2
    decay_mult: 0
  }
  inner_product_param {
    num_output: 4096
    weight_filler {
      type: "gaussian"
      std: 0.005
    }
    bias_filler {
      type: "constant"
      value: 1
    }
  }
}
layer {
  name: "relu6"
  type: "ReLU"
  bottom: "fc6"
  top: "fc6"
}
layer {
  name: "drop6"
  type: "Dropout"
  bottom: "fc6"
  top: "fc6"
  dropout_param {
    dropout_ratio: 0.5
  }
}
layer {
  name: "fc7"
  type: "InnerProduct"
  bottom: "fc6"
  top: "fc7"
  param {
    lr_mult: 1
    decay_mult: 1
  }
  param {
    lr_mult: 2
    decay_mult: 0
  }
  inner_product_param {
    num_output: 4096
    weight_filler {
      type: "gaussian"
      std: 0.005
    }
    bias_filler {
      type: "constant"
      value: 1
    }
  }
}
layer {
  name: "relu7"
  type: "ReLU"
  bottom: "fc7"
  top: "fc7"
}
layer {
  name: "drop7"
  type: "Dropout"
  bottom: "fc7"
  top: "fc7"
  dropout_param {
    dropout_ratio: 0.5
  }
}
layer {
  name: "fc8"
  type: "InnerProduct"
  bottom: "fc7"
  top: "fc8"
  param {
    lr_mult: 1
    decay_mult: 1
  }
  param {
    lr_mult: 2
    decay_mult: 0
  }
  inner_product_param {
    num_output: 10
    weight_filler {
      type: "gaussian"
      std: 0.01
    }
    bias_filler {
      type: "constant"
      value: 0
    }
  }
}
layer {
  name: "accuracy"
  type: "Accuracy"
  bottom: "fc8"
  bottom: "label"
  top: "accuracy"
  include {
    phase: TEST
  }
}
layer {
  name: "loss"
  type: "SoftmaxWithLoss"
  bottom: "fc8"
  bottom: "label"
  top: "loss"
}
I0926 23:34:20.939177  7307 layer_factory.hpp:74] Creating layer data
I0926 23:34:20.939189  7307 net.cpp:92] Creating Layer data
I0926 23:34:20.939195  7307 net.cpp:370] data -> data
I0926 23:34:20.939205  7307 net.cpp:370] data -> label
I0926 23:34:20.939213  7307 net.cpp:122] Setting up data
I0926 23:34:20.939219  7307 data_transformer.cpp:22] Loading mean file from: data/Stanford_Cars_09/imagenet_mean.binaryproto
I0926 23:34:20.940493  7307 db_lmdb.cpp:22] Opened lmdb Stanford_Cars_09/imagenet_val_leveldb
I0926 23:34:20.940558  7307 data_layer.cpp:52] output data size: 10,3,227,227
I0926 23:34:20.941540  7307 net.cpp:129] Top shape: 10 3 227 227 (1545870)
I0926 23:34:20.941566  7307 net.cpp:129] Top shape: 10 (10)
I0926 23:34:20.941573  7307 layer_factory.hpp:74] Creating layer label_data_1_split
I0926 23:34:20.941587  7307 net.cpp:92] Creating Layer label_data_1_split
I0926 23:34:20.941594  7307 net.cpp:412] label_data_1_split <- label
I0926 23:34:20.941604  7307 net.cpp:370] label_data_1_split -> label_data_1_split_0
I0926 23:34:20.941619  7307 net.cpp:370] label_data_1_split -> label_data_1_split_1
I0926 23:34:20.941627  7307 net.cpp:122] Setting up label_data_1_split
I0926 23:34:20.941634  7307 net.cpp:129] Top shape: 10 (10)
I0926 23:34:20.941640  7307 net.cpp:129] Top shape: 10 (10)
I0926 23:34:20.941645  7307 layer_factory.hpp:74] Creating layer conv1
I0926 23:34:20.941656  7307 net.cpp:92] Creating Layer conv1
I0926 23:34:20.941661  7307 net.cpp:412] conv1 <- data
I0926 23:34:20.941668  7307 net.cpp:370] conv1 -> conv1
I0926 23:34:20.941678  7307 net.cpp:122] Setting up conv1
I0926 23:34:20.942514  7307 net.cpp:129] Top shape: 10 96 55 55 (2904000)
I0926 23:34:20.942528  7307 layer_factory.hpp:74] Creating layer relu1
I0926 23:34:20.942544  7307 net.cpp:92] Creating Layer relu1
I0926 23:34:20.942550  7307 net.cpp:412] relu1 <- conv1
I0926 23:34:20.942556  7307 net.cpp:359] relu1 -> conv1 (in-place)
I0926 23:34:20.942564  7307 net.cpp:122] Setting up relu1
I0926 23:34:20.942569  7307 net.cpp:129] Top shape: 10 96 55 55 (2904000)
I0926 23:34:20.942574  7307 layer_factory.hpp:74] Creating layer pool1
I0926 23:34:20.942582  7307 net.cpp:92] Creating Layer pool1
I0926 23:34:20.942587  7307 net.cpp:412] pool1 <- conv1
I0926 23:34:20.942594  7307 net.cpp:370] pool1 -> pool1
I0926 23:34:20.942601  7307 net.cpp:122] Setting up pool1
I0926 23:34:20.942611  7307 net.cpp:129] Top shape: 10 96 27 27 (699840)
I0926 23:34:20.942616  7307 layer_factory.hpp:74] Creating layer norm1
I0926 23:34:20.942625  7307 net.cpp:92] Creating Layer norm1
I0926 23:34:20.942630  7307 net.cpp:412] norm1 <- pool1
I0926 23:34:20.942636  7307 net.cpp:370] norm1 -> norm1
I0926 23:34:20.942642  7307 net.cpp:122] Setting up norm1
I0926 23:34:20.942649  7307 net.cpp:129] Top shape: 10 96 27 27 (699840)
I0926 23:34:20.942654  7307 layer_factory.hpp:74] Creating layer conv2
I0926 23:34:20.942662  7307 net.cpp:92] Creating Layer conv2
I0926 23:34:20.942667  7307 net.cpp:412] conv2 <- norm1
I0926 23:34:20.942674  7307 net.cpp:370] conv2 -> conv2
I0926 23:34:20.942682  7307 net.cpp:122] Setting up conv2
I0926 23:34:20.949869  7307 net.cpp:129] Top shape: 10 256 27 27 (1866240)
I0926 23:34:20.949898  7307 layer_factory.hpp:74] Creating layer relu2
I0926 23:34:20.949908  7307 net.cpp:92] Creating Layer relu2
I0926 23:34:20.949913  7307 net.cpp:412] relu2 <- conv2
I0926 23:34:20.949923  7307 net.cpp:359] relu2 -> conv2 (in-place)
I0926 23:34:20.949930  7307 net.cpp:122] Setting up relu2
I0926 23:34:20.949936  7307 net.cpp:129] Top shape: 10 256 27 27 (1866240)
I0926 23:34:20.949941  7307 layer_factory.hpp:74] Creating layer pool2
I0926 23:34:20.949950  7307 net.cpp:92] Creating Layer pool2
I0926 23:34:20.949955  7307 net.cpp:412] pool2 <- conv2
I0926 23:34:20.949961  7307 net.cpp:370] pool2 -> pool2
I0926 23:34:20.949970  7307 net.cpp:122] Setting up pool2
I0926 23:34:20.949980  7307 net.cpp:129] Top shape: 10 256 13 13 (432640)
I0926 23:34:20.949986  7307 layer_factory.hpp:74] Creating layer norm2
I0926 23:34:20.949993  7307 net.cpp:92] Creating Layer norm2
I0926 23:34:20.949998  7307 net.cpp:412] norm2 <- pool2
I0926 23:34:20.950006  7307 net.cpp:370] norm2 -> norm2
I0926 23:34:20.950013  7307 net.cpp:122] Setting up norm2
I0926 23:34:20.950021  7307 net.cpp:129] Top shape: 10 256 13 13 (432640)
I0926 23:34:20.950026  7307 layer_factory.hpp:74] Creating layer conv3
I0926 23:34:20.950033  7307 net.cpp:92] Creating Layer conv3
I0926 23:34:20.950038  7307 net.cpp:412] conv3 <- norm2
I0926 23:34:20.950047  7307 net.cpp:370] conv3 -> conv3
I0926 23:34:20.950053  7307 net.cpp:122] Setting up conv3
I0926 23:34:20.970291  7307 net.cpp:129] Top shape: 10 384 13 13 (648960)
I0926 23:34:20.970307  7307 layer_factory.hpp:74] Creating layer relu3
I0926 23:34:20.970316  7307 net.cpp:92] Creating Layer relu3
I0926 23:34:20.970321  7307 net.cpp:412] relu3 <- conv3
I0926 23:34:20.970327  7307 net.cpp:359] relu3 -> conv3 (in-place)
I0926 23:34:20.970335  7307 net.cpp:122] Setting up relu3
I0926 23:34:20.970340  7307 net.cpp:129] Top shape: 10 384 13 13 (648960)
I0926 23:34:20.970345  7307 layer_factory.hpp:74] Creating layer conv4
I0926 23:34:20.970353  7307 net.cpp:92] Creating Layer conv4
I0926 23:34:20.970358  7307 net.cpp:412] conv4 <- conv3
I0926 23:34:20.970365  7307 net.cpp:370] conv4 -> conv4
I0926 23:34:20.970372  7307 net.cpp:122] Setting up conv4
I0926 23:34:20.985780  7307 net.cpp:129] Top shape: 10 384 13 13 (648960)
I0926 23:34:20.985797  7307 layer_factory.hpp:74] Creating layer relu4
I0926 23:34:20.985805  7307 net.cpp:92] Creating Layer relu4
I0926 23:34:20.985811  7307 net.cpp:412] relu4 <- conv4
I0926 23:34:20.985817  7307 net.cpp:359] relu4 -> conv4 (in-place)
I0926 23:34:20.985832  7307 net.cpp:122] Setting up relu4
I0926 23:34:20.985847  7307 net.cpp:129] Top shape: 10 384 13 13 (648960)
I0926 23:34:20.985852  7307 layer_factory.hpp:74] Creating layer conv5
I0926 23:34:20.985862  7307 net.cpp:92] Creating Layer conv5
I0926 23:34:20.985885  7307 net.cpp:412] conv5 <- conv4
I0926 23:34:20.985894  7307 net.cpp:370] conv5 -> conv5
I0926 23:34:20.985903  7307 net.cpp:122] Setting up conv5
I0926 23:34:20.996182  7307 net.cpp:129] Top shape: 10 256 13 13 (432640)
I0926 23:34:20.996198  7307 layer_factory.hpp:74] Creating layer relu5
I0926 23:34:20.996206  7307 net.cpp:92] Creating Layer relu5
I0926 23:34:20.996212  7307 net.cpp:412] relu5 <- conv5
I0926 23:34:20.996218  7307 net.cpp:359] relu5 -> conv5 (in-place)
I0926 23:34:20.996225  7307 net.cpp:122] Setting up relu5
I0926 23:34:20.996232  7307 net.cpp:129] Top shape: 10 256 13 13 (432640)
I0926 23:34:20.996237  7307 layer_factory.hpp:74] Creating layer pool5
I0926 23:34:20.996244  7307 net.cpp:92] Creating Layer pool5
I0926 23:34:20.996249  7307 net.cpp:412] pool5 <- conv5
I0926 23:34:20.996258  7307 net.cpp:370] pool5 -> pool5
I0926 23:34:20.996264  7307 net.cpp:122] Setting up pool5
I0926 23:34:20.996273  7307 net.cpp:129] Top shape: 10 256 6 6 (92160)
I0926 23:34:20.996279  7307 layer_factory.hpp:74] Creating layer fc6
I0926 23:34:20.996287  7307 net.cpp:92] Creating Layer fc6
I0926 23:34:20.996292  7307 net.cpp:412] fc6 <- pool5
I0926 23:34:20.996300  7307 net.cpp:370] fc6 -> fc6
I0926 23:34:20.996307  7307 net.cpp:122] Setting up fc6
I0926 23:34:21.854195  7307 net.cpp:129] Top shape: 10 4096 (40960)
I0926 23:34:21.854238  7307 layer_factory.hpp:74] Creating layer relu6
I0926 23:34:21.854250  7307 net.cpp:92] Creating Layer relu6
I0926 23:34:21.854256  7307 net.cpp:412] relu6 <- fc6
I0926 23:34:21.854266  7307 net.cpp:359] relu6 -> fc6 (in-place)
I0926 23:34:21.854275  7307 net.cpp:122] Setting up relu6
I0926 23:34:21.854282  7307 net.cpp:129] Top shape: 10 4096 (40960)
I0926 23:34:21.854287  7307 layer_factory.hpp:74] Creating layer drop6
I0926 23:34:21.854295  7307 net.cpp:92] Creating Layer drop6
I0926 23:34:21.854300  7307 net.cpp:412] drop6 <- fc6
I0926 23:34:21.854306  7307 net.cpp:359] drop6 -> fc6 (in-place)
I0926 23:34:21.854313  7307 net.cpp:122] Setting up drop6
I0926 23:34:21.854321  7307 net.cpp:129] Top shape: 10 4096 (40960)
I0926 23:34:21.854326  7307 layer_factory.hpp:74] Creating layer fc7
I0926 23:34:21.854334  7307 net.cpp:92] Creating Layer fc7
I0926 23:34:21.854339  7307 net.cpp:412] fc7 <- fc6
I0926 23:34:21.854346  7307 net.cpp:370] fc7 -> fc7
I0926 23:34:21.854354  7307 net.cpp:122] Setting up fc7
I0926 23:34:22.235242  7307 net.cpp:129] Top shape: 10 4096 (40960)
I0926 23:34:22.235285  7307 layer_factory.hpp:74] Creating layer relu7
I0926 23:34:22.235294  7307 net.cpp:92] Creating Layer relu7
I0926 23:34:22.235301  7307 net.cpp:412] relu7 <- fc7
I0926 23:34:22.235311  7307 net.cpp:359] relu7 -> fc7 (in-place)
I0926 23:34:22.235319  7307 net.cpp:122] Setting up relu7
I0926 23:34:22.235327  7307 net.cpp:129] Top shape: 10 4096 (40960)
I0926 23:34:22.235332  7307 layer_factory.hpp:74] Creating layer drop7
I0926 23:34:22.235338  7307 net.cpp:92] Creating Layer drop7
I0926 23:34:22.235343  7307 net.cpp:412] drop7 <- fc7
I0926 23:34:22.235349  7307 net.cpp:359] drop7 -> fc7 (in-place)
I0926 23:34:22.235357  7307 net.cpp:122] Setting up drop7
I0926 23:34:22.235363  7307 net.cpp:129] Top shape: 10 4096 (40960)
I0926 23:34:22.235368  7307 layer_factory.hpp:74] Creating layer fc8
I0926 23:34:22.235378  7307 net.cpp:92] Creating Layer fc8
I0926 23:34:22.235383  7307 net.cpp:412] fc8 <- fc7
I0926 23:34:22.235389  7307 net.cpp:370] fc8 -> fc8
I0926 23:34:22.235401  7307 net.cpp:122] Setting up fc8
I0926 23:34:22.236373  7307 net.cpp:129] Top shape: 10 10 (100)
I0926 23:34:22.236382  7307 layer_factory.hpp:74] Creating layer fc8_fc8_0_split
I0926 23:34:22.236390  7307 net.cpp:92] Creating Layer fc8_fc8_0_split
I0926 23:34:22.236395  7307 net.cpp:412] fc8_fc8_0_split <- fc8
I0926 23:34:22.236402  7307 net.cpp:370] fc8_fc8_0_split -> fc8_fc8_0_split_0
I0926 23:34:22.236419  7307 net.cpp:370] fc8_fc8_0_split -> fc8_fc8_0_split_1
I0926 23:34:22.236434  7307 net.cpp:122] Setting up fc8_fc8_0_split
I0926 23:34:22.236443  7307 net.cpp:129] Top shape: 10 10 (100)
I0926 23:34:22.236448  7307 net.cpp:129] Top shape: 10 10 (100)
I0926 23:34:22.236452  7307 layer_factory.hpp:74] Creating layer accuracy
I0926 23:34:22.236460  7307 net.cpp:92] Creating Layer accuracy
I0926 23:34:22.236465  7307 net.cpp:412] accuracy <- fc8_fc8_0_split_0
I0926 23:34:22.236470  7307 net.cpp:412] accuracy <- label_data_1_split_0
I0926 23:34:22.236479  7307 net.cpp:370] accuracy -> accuracy
I0926 23:34:22.236486  7307 net.cpp:122] Setting up accuracy
…
