…
I1001 18:29:34.220279 16764 net.cpp:289] The NetState phase (0) differed from the phase (1) specified by a rule in layer accuracy
I1001 18:29:34.220417 16764 net.cpp:44] Initializing net from parameters: 
name: "CaffeNet"
state {
  phase: TRAIN
}
layer {
  name: "data"
  type: "Data"
  top: "data"
  top: "label"
  include {
    phase: TRAIN
  }
  transform_param {
    mirror: true
    crop_size: 227
    mean_file: "data/Stanford_Cars_09/imagenet_mean.binaryproto"
  }
  data_param {
    source: "Stanford_Cars_09/imagenet_train_leveldb"
    batch_size: 128
    backend: LMDB
  }
}
layer {
  name: "conv1"
  type: "Convolution"
  bottom: "data"
  top: "conv1"
  param {
    lr_mult: 1
    decay_mult: 1
  }
  param {
    lr_mult: 2
    decay_mult: 0
  }
  convolution_param {
    num_output: 96
    kernel_size: 11
    stride: 4
    weight_filler {
      type: "gaussian"
      std: 0.01
    }
    bias_filler {
      type: "constant"
      value: 0
    }
  }
}
layer {
  name: "relu1"
  type: "ReLU"
  bottom: "conv1"
  top: "conv1"
}
layer {
  name: "pool1"
  type: "Pooling"
  bottom: "conv1"
  top: "pool1"
  pooling_param {
    pool: MAX
    kernel_size: 3
    stride: 2
  }
}
layer {
  name: "norm1"
  type: "LRN"
  bottom: "pool1"
  top: "norm1"
  lrn_param {
    local_size: 5
    alpha: 0.0001
    beta: 0.75
  }
}
layer {
  name: "conv2"
  type: "Convolution"
  bottom: "norm1"
  top: "conv2"
  param {
    lr_mult: 1
    decay_mult: 1
  }
  param {
    lr_mult: 2
    decay_mult: 0
  }
  convolution_param {
    num_output: 256
    pad: 2
    kernel_size: 5
    group: 2
    weight_filler {
      type: "gaussian"
      std: 0.01
    }
    bias_filler {
      type: "constant"
      value: 1
    }
  }
}
layer {
  name: "relu2"
  type: "ReLU"
  bottom: "conv2"
  top: "conv2"
}
layer {
  name: "pool2"
  type: "Pooling"
  bottom: "conv2"
  top: "pool2"
  pooling_param {
    pool: MAX
    kernel_size: 3
    stride: 2
  }
}
layer {
  name: "norm2"
  type: "LRN"
  bottom: "pool2"
  top: "norm2"
  lrn_param {
    local_size: 5
    alpha: 0.0001
    beta: 0.75
  }
}
layer {
  name: "conv3"
  type: "Convolution"
  bottom: "norm2"
  top: "conv3"
  param {
    lr_mult: 1
    decay_mult: 1
  }
  param {
    lr_mult: 2
    decay_mult: 0
  }
  convolution_param {
    num_output: 384
    pad: 1
    kernel_size: 3
    weight_filler {
      type: "gaussian"
      std: 0.01
    }
    bias_filler {
      type: "constant"
      value: 0
    }
  }
}
layer {
  name: "relu3"
  type: "ReLU"
  bottom: "conv3"
  top: "conv3"
}
layer {
  name: "conv4"
  type: "Convolution"
  bottom: "conv3"
  top: "conv4"
  param {
    lr_mult: 1
    decay_mult: 1
  }
  param {
    lr_mult: 2
    decay_mult: 0
  }
  convolution_param {
    num_output: 384
    pad: 1
    kernel_size: 3
    group: 2
    weight_filler {
      type: "gaussian"
      std: 0.01
    }
    bias_filler {
      type: "constant"
      value: 1
    }
  }
}
layer {
  name: "relu4"
  type: "ReLU"
  bottom: "conv4"
  top: "conv4"
}
layer {
  name: "conv5"
  type: "Convolution"
  bottom: "conv4"
  top: "conv5"
  param {
    lr_mult: 1
    decay_mult: 1
  }
  param {
    lr_mult: 2
    decay_mult: 0
  }
  convolution_param {
    num_output: 256
    pad: 1
    kernel_size: 3
    group: 2
    weight_filler {
      type: "gaussian"
      std: 0.01
    }
    bias_filler {
      type: "constant"
      value: 1
    }
  }
}
layer {
  name: "relu5"
  type: "ReLU"
  bottom: "conv5"
  top: "conv5"
}
layer {
  name: "pool5"
  type: "Pooling"
  bottom: "conv5"
  top: "pool5"
  pooling_param {
    pool: MAX
    kernel_size: 3
    stride: 2
  }
}
layer {
  name: "fc6"
  type: "InnerProduct"
  bottom: "pool5"
  top: "fc6"
  param {
    lr_mult: 1
    decay_mult: 1
  }
  param {
    lr_mult: 2
    decay_mult: 0
  }
  inner_product_param {
    num_output: 4096
    weight_filler {
      type: "gaussian"
      std: 0.005
    }
    bias_filler {
      type: "constant"
      value: 1
    }
  }
}
layer {
  name: "relu6"
  type: "ReLU"
  bottom: "fc6"
  top: "fc6"
}
layer {
  name: "drop6"
  type: "Dropout"
  bottom: "fc6"
  top: "fc6"
  dropout_param {
    dropout_ratio: 0.5
  }
}
layer {
  name: "fc7"
  type: "InnerProduct"
  bottom: "fc6"
  top: "fc7"
  param {
    lr_mult: 1
    decay_mult: 1
  }
  param {
    lr_mult: 2
    decay_mult: 0
  }
  inner_product_param {
    num_output: 4096
    weight_filler {
      type: "gaussian"
      std: 0.005
    }
    bias_filler {
      type: "constant"
      value: 1
    }
  }
}
layer {
  name: "relu7"
  type: "ReLU"
  bottom: "fc7"
  top: "fc7"
}
layer {
  name: "drop7"
  type: "Dropout"
  bottom: "fc7"
  top: "fc7"
  dropout_param {
    dropout_ratio: 0.5
  }
}
layer {
  name: "fc8"
  type: "InnerProduct"
  bottom: "fc7"
  top: "fc8"
  param {
    lr_mult: 1
    decay_mult: 1
  }
  param {
    lr_mult: 2
    decay_mult: 0
  }
  inner_product_param {
    num_output: 10
    weight_filler {
      type: "gaussian"
      std: 0.01
    }
    bias_filler {
      type: "constant"
      value: 0
    }
  }
}
layer {
  name: "loss"
  type: "SoftmaxWithLoss"
  bottom: "fc8"
  bottom: "label"
  top: "loss"
}
I1001 18:29:34.220516 16764 layer_factory.hpp:74] Creating layer data
I1001 18:29:34.220538 16764 net.cpp:92] Creating Layer data
I1001 18:29:34.220546 16764 net.cpp:370] data -> data
I1001 18:29:34.220567 16764 net.cpp:370] data -> label
I1001 18:29:34.220577 16764 net.cpp:122] Setting up data
I1001 18:29:34.220585 16764 data_transformer.cpp:22] Loading mean file from: data/Stanford_Cars_09/imagenet_mean.binaryproto
I1001 18:29:34.222077 16764 db_lmdb.cpp:22] Opened lmdb Stanford_Cars_09/imagenet_train_leveldb
I1001 18:29:34.222167 16764 data_layer.cpp:52] output data size: 128,3,227,227
I1001 18:29:34.231436 16764 net.cpp:129] Top shape: 128 3 227 227 (19787136)
I1001 18:29:34.231477 16764 net.cpp:129] Top shape: 128 (128)
I1001 18:29:34.231487 16764 layer_factory.hpp:74] Creating layer conv1
I1001 18:29:34.231509 16764 net.cpp:92] Creating Layer conv1
I1001 18:29:34.231516 16764 net.cpp:412] conv1 <- data
I1001 18:29:34.231530 16764 net.cpp:370] conv1 -> conv1
I1001 18:29:34.231544 16764 net.cpp:122] Setting up conv1
I1001 18:29:34.232399 16764 net.cpp:129] Top shape: 128 96 55 55 (37171200)
I1001 18:29:34.232417 16764 layer_factory.hpp:74] Creating layer relu1
I1001 18:29:34.232426 16764 net.cpp:92] Creating Layer relu1
I1001 18:29:34.232431 16764 net.cpp:412] relu1 <- conv1
I1001 18:29:34.232437 16764 net.cpp:359] relu1 -> conv1 (in-place)
I1001 18:29:34.232445 16764 net.cpp:122] Setting up relu1
I1001 18:29:34.232450 16764 net.cpp:129] Top shape: 128 96 55 55 (37171200)
I1001 18:29:34.232455 16764 layer_factory.hpp:74] Creating layer pool1
I1001 18:29:34.232463 16764 net.cpp:92] Creating Layer pool1
I1001 18:29:34.232467 16764 net.cpp:412] pool1 <- conv1
I1001 18:29:34.232475 16764 net.cpp:370] pool1 -> pool1
I1001 18:29:34.232482 16764 net.cpp:122] Setting up pool1
I1001 18:29:34.232506 16764 net.cpp:129] Top shape: 128 96 27 27 (8957952)
I1001 18:29:34.232511 16764 layer_factory.hpp:74] Creating layer norm1
I1001 18:29:34.232520 16764 net.cpp:92] Creating Layer norm1
I1001 18:29:34.232525 16764 net.cpp:412] norm1 <- pool1
I1001 18:29:34.232532 16764 net.cpp:370] norm1 -> norm1
I1001 18:29:34.232540 16764 net.cpp:122] Setting up norm1
I1001 18:29:34.232548 16764 net.cpp:129] Top shape: 128 96 27 27 (8957952)
I1001 18:29:34.232553 16764 layer_factory.hpp:74] Creating layer conv2
I1001 18:29:34.232573 16764 net.cpp:92] Creating Layer conv2
I1001 18:29:34.232578 16764 net.cpp:412] conv2 <- norm1
I1001 18:29:34.232594 16764 net.cpp:370] conv2 -> conv2
I1001 18:29:34.232600 16764 net.cpp:122] Setting up conv2
I1001 18:29:34.239928 16764 net.cpp:129] Top shape: 128 256 27 27 (23887872)
I1001 18:29:34.239966 16764 layer_factory.hpp:74] Creating layer relu2
I1001 18:29:34.239977 16764 net.cpp:92] Creating Layer relu2
I1001 18:29:34.239984 16764 net.cpp:412] relu2 <- conv2
I1001 18:29:34.239991 16764 net.cpp:359] relu2 -> conv2 (in-place)
I1001 18:29:34.240000 16764 net.cpp:122] Setting up relu2
I1001 18:29:34.240006 16764 net.cpp:129] Top shape: 128 256 27 27 (23887872)
I1001 18:29:34.240011 16764 layer_factory.hpp:74] Creating layer pool2
I1001 18:29:34.240020 16764 net.cpp:92] Creating Layer pool2
I1001 18:29:34.240026 16764 net.cpp:412] pool2 <- conv2
I1001 18:29:34.240036 16764 net.cpp:370] pool2 -> pool2
I1001 18:29:34.240044 16764 net.cpp:122] Setting up pool2
I1001 18:29:34.240053 16764 net.cpp:129] Top shape: 128 256 13 13 (5537792)
I1001 18:29:34.240058 16764 layer_factory.hpp:74] Creating layer norm2
I1001 18:29:34.240068 16764 net.cpp:92] Creating Layer norm2
I1001 18:29:34.240073 16764 net.cpp:412] norm2 <- pool2
I1001 18:29:34.240079 16764 net.cpp:370] norm2 -> norm2
I1001 18:29:34.240087 16764 net.cpp:122] Setting up norm2
I1001 18:29:34.240093 16764 net.cpp:129] Top shape: 128 256 13 13 (5537792)
I1001 18:29:34.240098 16764 layer_factory.hpp:74] Creating layer conv3
I1001 18:29:34.240108 16764 net.cpp:92] Creating Layer conv3
I1001 18:29:34.240113 16764 net.cpp:412] conv3 <- norm2
I1001 18:29:34.240120 16764 net.cpp:370] conv3 -> conv3
I1001 18:29:34.240129 16764 net.cpp:122] Setting up conv3
I1001 18:29:34.261054 16764 net.cpp:129] Top shape: 128 384 13 13 (8306688)
I1001 18:29:34.261095 16764 layer_factory.hpp:74] Creating layer relu3
I1001 18:29:34.261106 16764 net.cpp:92] Creating Layer relu3
I1001 18:29:34.261111 16764 net.cpp:412] relu3 <- conv3
I1001 18:29:34.261121 16764 net.cpp:359] relu3 -> conv3 (in-place)
I1001 18:29:34.261129 16764 net.cpp:122] Setting up relu3
I1001 18:29:34.261135 16764 net.cpp:129] Top shape: 128 384 13 13 (8306688)
I1001 18:29:34.261140 16764 layer_factory.hpp:74] Creating layer conv4
I1001 18:29:34.261149 16764 net.cpp:92] Creating Layer conv4
I1001 18:29:34.261154 16764 net.cpp:412] conv4 <- conv3
I1001 18:29:34.261162 16764 net.cpp:370] conv4 -> conv4
I1001 18:29:34.261173 16764 net.cpp:122] Setting up conv4
I1001 18:29:34.277000 16764 net.cpp:129] Top shape: 128 384 13 13 (8306688)
I1001 18:29:34.277046 16764 layer_factory.hpp:74] Creating layer relu4
I1001 18:29:34.277056 16764 net.cpp:92] Creating Layer relu4
I1001 18:29:34.277062 16764 net.cpp:412] relu4 <- conv4
I1001 18:29:34.277078 16764 net.cpp:359] relu4 -> conv4 (in-place)
I1001 18:29:34.277087 16764 net.cpp:122] Setting up relu4
I1001 18:29:34.277093 16764 net.cpp:129] Top shape: 128 384 13 13 (8306688)
I1001 18:29:34.277098 16764 layer_factory.hpp:74] Creating layer conv5
I1001 18:29:34.277108 16764 net.cpp:92] Creating Layer conv5
I1001 18:29:34.277113 16764 net.cpp:412] conv5 <- conv4
I1001 18:29:34.277119 16764 net.cpp:370] conv5 -> conv5
I1001 18:29:34.277127 16764 net.cpp:122] Setting up conv5
I1001 18:29:34.287688 16764 net.cpp:129] Top shape: 128 256 13 13 (5537792)
I1001 18:29:34.287727 16764 layer_factory.hpp:74] Creating layer relu5
I1001 18:29:34.287739 16764 net.cpp:92] Creating Layer relu5
I1001 18:29:34.287744 16764 net.cpp:412] relu5 <- conv5
I1001 18:29:34.287751 16764 net.cpp:359] relu5 -> conv5 (in-place)
I1001 18:29:34.287760 16764 net.cpp:122] Setting up relu5
I1001 18:29:34.287766 16764 net.cpp:129] Top shape: 128 256 13 13 (5537792)
I1001 18:29:34.287770 16764 layer_factory.hpp:74] Creating layer pool5
I1001 18:29:34.287778 16764 net.cpp:92] Creating Layer pool5
I1001 18:29:34.287783 16764 net.cpp:412] pool5 <- conv5
I1001 18:29:34.287791 16764 net.cpp:370] pool5 -> pool5
I1001 18:29:34.287798 16764 net.cpp:122] Setting up pool5
I1001 18:29:34.287808 16764 net.cpp:129] Top shape: 128 256 6 6 (1179648)
I1001 18:29:34.287823 16764 layer_factory.hpp:74] Creating layer fc6
I1001 18:29:34.287842 16764 net.cpp:92] Creating Layer fc6
I1001 18:29:34.287848 16764 net.cpp:412] fc6 <- pool5
I1001 18:29:34.287854 16764 net.cpp:370] fc6 -> fc6
I1001 18:29:34.287866 16764 net.cpp:122] Setting up fc6
I1001 18:29:35.145418 16764 net.cpp:129] Top shape: 128 4096 (524288)
I1001 18:29:35.145460 16764 layer_factory.hpp:74] Creating layer relu6
I1001 18:29:35.145473 16764 net.cpp:92] Creating Layer relu6
I1001 18:29:35.145478 16764 net.cpp:412] relu6 <- fc6
I1001 18:29:35.145488 16764 net.cpp:359] relu6 -> fc6 (in-place)
I1001 18:29:35.145496 16764 net.cpp:122] Setting up relu6
I1001 18:29:35.145503 16764 net.cpp:129] Top shape: 128 4096 (524288)
I1001 18:29:35.145508 16764 layer_factory.hpp:74] Creating layer drop6
I1001 18:29:35.145519 16764 net.cpp:92] Creating Layer drop6
I1001 18:29:35.145524 16764 net.cpp:412] drop6 <- fc6
I1001 18:29:35.145530 16764 net.cpp:359] drop6 -> fc6 (in-place)
I1001 18:29:35.145539 16764 net.cpp:122] Setting up drop6
I1001 18:29:35.145550 16764 net.cpp:129] Top shape: 128 4096 (524288)
I1001 18:29:35.145555 16764 layer_factory.hpp:74] Creating layer fc7
I1001 18:29:35.145562 16764 net.cpp:92] Creating Layer fc7
I1001 18:29:35.145566 16764 net.cpp:412] fc7 <- fc6
I1001 18:29:35.145575 16764 net.cpp:370] fc7 -> fc7
I1001 18:29:35.145584 16764 net.cpp:122] Setting up fc7
I1001 18:29:35.526584 16764 net.cpp:129] Top shape: 128 4096 (524288)
I1001 18:29:35.526625 16764 layer_factory.hpp:74] Creating layer relu7
I1001 18:29:35.526636 16764 net.cpp:92] Creating Layer relu7
I1001 18:29:35.526643 16764 net.cpp:412] relu7 <- fc7
I1001 18:29:35.526650 16764 net.cpp:359] relu7 -> fc7 (in-place)
I1001 18:29:35.526659 16764 net.cpp:122] Setting up relu7
I1001 18:29:35.526666 16764 net.cpp:129] Top shape: 128 4096 (524288)
I1001 18:29:35.526670 16764 layer_factory.hpp:74] Creating layer drop7
I1001 18:29:35.526679 16764 net.cpp:92] Creating Layer drop7
I1001 18:29:35.526684 16764 net.cpp:412] drop7 <- fc7
I1001 18:29:35.526690 16764 net.cpp:359] drop7 -> fc7 (in-place)
I1001 18:29:35.526697 16764 net.cpp:122] Setting up drop7
I1001 18:29:35.526705 16764 net.cpp:129] Top shape: 128 4096 (524288)
I1001 18:29:35.526710 16764 layer_factory.hpp:74] Creating layer fc8
I1001 18:29:35.526717 16764 net.cpp:92] Creating Layer fc8
I1001 18:29:35.526722 16764 net.cpp:412] fc8 <- fc7
I1001 18:29:35.526729 16764 net.cpp:370] fc8 -> fc8
I1001 18:29:35.526737 16764 net.cpp:122] Setting up fc8
I1001 18:29:35.527703 16764 net.cpp:129] Top shape: 128 10 (1280)
I1001 18:29:35.527712 16764 layer_factory.hpp:74] Creating layer loss
I1001 18:29:35.527721 16764 net.cpp:92] Creating Layer loss
I1001 18:29:35.527726 16764 net.cpp:412] loss <- fc8
I1001 18:29:35.527731 16764 net.cpp:412] loss <- label
I1001 18:29:35.527741 16764 net.cpp:370] loss -> loss
I1001 18:29:35.527750 16764 net.cpp:122] Setting up loss
I1001 18:29:35.527757 16764 layer_factory.hpp:74] Creating layer loss
…
I1001 18:29:35.528581 16764 net.cpp:289] The NetState phase (1) differed from the phase (0) specified by a rule in layer data
I1001 18:29:35.528734 16764 net.cpp:44] Initializing net from parameters: 
name: "CaffeNet"
state {
  phase: TEST
}
layer {
  name: "data"
  type: "Data"
  top: "data"
  top: "label"
  include {
    phase: TEST
  }
  transform_param {
    mirror: true
    crop_size: 227
    mean_file: "data/Stanford_Cars_09/imagenet_mean.binaryproto"
  }
  data_param {
    source: "Stanford_Cars_09/imagenet_val_leveldb"
    mean_file: "data/Stanford_Cars_09/imagenet_mean.binartproto"
    batch_size: 10
    crop_size: 227
    mirror: false
    backend: LMDB
  }
}
layer {
  name: "conv1"
  type: "Convolution"
  bottom: "data"
  top: "conv1"
  param {
    lr_mult: 1
    decay_mult: 1
  }
  param {
    lr_mult: 2
    decay_mult: 0
  }
  convolution_param {
    num_output: 96
    kernel_size: 11
    stride: 4
    weight_filler {
      type: "gaussian"
      std: 0.01
    }
    bias_filler {
      type: "constant"
      value: 0
    }
  }
}
layer {
  name: "relu1"
  type: "ReLU"
  bottom: "conv1"
  top: "conv1"
}
layer {
  name: "pool1"
  type: "Pooling"
  bottom: "conv1"
  top: "pool1"
  pooling_param {
    pool: MAX
    kernel_size: 3
    stride: 2
  }
}
layer {
  name: "norm1"
  type: "LRN"
  bottom: "pool1"
  top: "norm1"
  lrn_param {
    local_size: 5
    alpha: 0.0001
    beta: 0.75
  }
}
layer {
  name: "conv2"
  type: "Convolution"
  bottom: "norm1"
  top: "conv2"
  param {
    lr_mult: 1
    decay_mult: 1
  }
  param {
    lr_mult: 2
    decay_mult: 0
  }
  convolution_param {
    num_output: 256
    pad: 2
    kernel_size: 5
    group: 2
    weight_filler {
      type: "gaussian"
      std: 0.01
    }
    bias_filler {
      type: "constant"
      value: 1
    }
  }
}
layer {
  name: "relu2"
  type: "ReLU"
  bottom: "conv2"
  top: "conv2"
}
layer {
  name: "pool2"
  type: "Pooling"
  bottom: "conv2"
  top: "pool2"
  pooling_param {
    pool: MAX
    kernel_size: 3
    stride: 2
  }
}
layer {
  name: "norm2"
  type: "LRN"
  bottom: "pool2"
  top: "norm2"
  lrn_param {
    local_size: 5
    alpha: 0.0001
    beta: 0.75
  }
}
layer {
  name: "conv3"
  type: "Convolution"
  bottom: "norm2"
  top: "conv3"
  param {
    lr_mult: 1
    decay_mult: 1
  }
  param {
    lr_mult: 2
    decay_mult: 0
  }
  convolution_param {
    num_output: 384
    pad: 1
    kernel_size: 3
    weight_filler {
      type: "gaussian"
      std: 0.01
    }
    bias_filler {
      type: "constant"
      value: 0
    }
  }
}
layer {
  name: "relu3"
  type: "ReLU"
  bottom: "conv3"
  top: "conv3"
}
layer {
  name: "conv4"
  type: "Convolution"
  bottom: "conv3"
  top: "conv4"
  param {
    lr_mult: 1
    decay_mult: 1
  }
  param {
    lr_mult: 2
    decay_mult: 0
  }
  convolution_param {
    num_output: 384
    pad: 1
    kernel_size: 3
    group: 2
    weight_filler {
      type: "gaussian"
      std: 0.01
    }
    bias_filler {
      type: "constant"
      value: 1
    }
  }
}
layer {
  name: "relu4"
  type: "ReLU"
  bottom: "conv4"
  top: "conv4"
}
layer {
  name: "conv5"
  type: "Convolution"
  bottom: "conv4"
  top: "conv5"
  param {
    lr_mult: 1
    decay_mult: 1
  }
  param {
    lr_mult: 2
    decay_mult: 0
  }
  convolution_param {
    num_output: 256
    pad: 1
    kernel_size: 3
    group: 2
    weight_filler {
      type: "gaussian"
      std: 0.01
    }
    bias_filler {
      type: "constant"
      value: 1
    }
  }
}
layer {
  name: "relu5"
  type: "ReLU"
  bottom: "conv5"
  top: "conv5"
}
layer {
  name: "pool5"
  type: "Pooling"
  bottom: "conv5"
  top: "pool5"
  pooling_param {
    pool: MAX
    kernel_size: 3
    stride: 2
  }
}
layer {
  name: "fc6"
  type: "InnerProduct"
  bottom: "pool5"
  top: "fc6"
  param {
    lr_mult: 1
    decay_mult: 1
  }
  param {
    lr_mult: 2
    decay_mult: 0
  }
  inner_product_param {
    num_output: 4096
    weight_filler {
      type: "gaussian"
      std: 0.005
    }
    bias_filler {
      type: "constant"
      value: 1
    }
  }
}
layer {
  name: "relu6"
  type: "ReLU"
  bottom: "fc6"
  top: "fc6"
}
layer {
  name: "drop6"
  type: "Dropout"
  bottom: "fc6"
  top: "fc6"
  dropout_param {
    dropout_ratio: 0.5
  }
}
layer {
  name: "fc7"
  type: "InnerProduct"
  bottom: "fc6"
  top: "fc7"
  param {
    lr_mult: 1
    decay_mult: 1
  }
  param {
    lr_mult: 2
    decay_mult: 0
  }
  inner_product_param {
    num_output: 4096
    weight_filler {
      type: "gaussian"
      std: 0.005
    }
    bias_filler {
      type: "constant"
      value: 1
    }
  }
}
layer {
  name: "relu7"
  type: "ReLU"
  bottom: "fc7"
  top: "fc7"
}
layer {
  name: "drop7"
  type: "Dropout"
  bottom: "fc7"
  top: "fc7"
  dropout_param {
    dropout_ratio: 0.5
  }
}
layer {
  name: "fc8"
  type: "InnerProduct"
  bottom: "fc7"
  top: "fc8"
  param {
    lr_mult: 1
    decay_mult: 1
  }
  param {
    lr_mult: 2
    decay_mult: 0
  }
  inner_product_param {
    num_output: 10
    weight_filler {
      type: "gaussian"
      std: 0.01
    }
    bias_filler {
      type: "constant"
      value: 0
    }
  }
}
layer {
  name: "accuracy"
  type: "Accuracy"
  bottom: "fc8"
  bottom: "label"
  top: "accuracy"
  include {
    phase: TEST
  }
}
layer {
  name: "loss"
  type: "SoftmaxWithLoss"
  bottom: "fc8"
  bottom: "label"
  top: "loss"
}
I1001 18:29:35.528832 16764 layer_factory.hpp:74] Creating layer data
I1001 18:29:35.528843 16764 net.cpp:92] Creating Layer data
I1001 18:29:35.528849 16764 net.cpp:370] data -> data
I1001 18:29:35.528858 16764 net.cpp:370] data -> label
I1001 18:29:35.528867 16764 net.cpp:122] Setting up data
I1001 18:29:35.528872 16764 data_transformer.cpp:22] Loading mean file from: data/Stanford_Cars_09/imagenet_mean.binaryproto
I1001 18:29:35.530117 16764 db_lmdb.cpp:22] Opened lmdb Stanford_Cars_09/imagenet_val_leveldb
I1001 18:29:35.530215 16764 data_layer.cpp:52] output data size: 10,3,227,227
I1001 18:29:35.531124 16764 net.cpp:129] Top shape: 10 3 227 227 (1545870)
I1001 18:29:35.531148 16764 net.cpp:129] Top shape: 10 (10)
I1001 18:29:35.531155 16764 layer_factory.hpp:74] Creating layer label_data_1_split
I1001 18:29:35.531167 16764 net.cpp:92] Creating Layer label_data_1_split
I1001 18:29:35.531173 16764 net.cpp:412] label_data_1_split <- label
I1001 18:29:35.531184 16764 net.cpp:370] label_data_1_split -> label_data_1_split_0
I1001 18:29:35.531198 16764 net.cpp:370] label_data_1_split -> label_data_1_split_1
I1001 18:29:35.531205 16764 net.cpp:122] Setting up label_data_1_split
I1001 18:29:35.531214 16764 net.cpp:129] Top shape: 10 (10)
I1001 18:29:35.531219 16764 net.cpp:129] Top shape: 10 (10)
I1001 18:29:35.531224 16764 layer_factory.hpp:74] Creating layer conv1
I1001 18:29:35.531235 16764 net.cpp:92] Creating Layer conv1
I1001 18:29:35.531240 16764 net.cpp:412] conv1 <- data
I1001 18:29:35.531247 16764 net.cpp:370] conv1 -> conv1
I1001 18:29:35.531255 16764 net.cpp:122] Setting up conv1
I1001 18:29:35.532085 16764 net.cpp:129] Top shape: 10 96 55 55 (2904000)
I1001 18:29:35.532107 16764 layer_factory.hpp:74] Creating layer relu1
I1001 18:29:35.532124 16764 net.cpp:92] Creating Layer relu1
I1001 18:29:35.532129 16764 net.cpp:412] relu1 <- conv1
I1001 18:29:35.532135 16764 net.cpp:359] relu1 -> conv1 (in-place)
I1001 18:29:35.532141 16764 net.cpp:122] Setting up relu1
I1001 18:29:35.532147 16764 net.cpp:129] Top shape: 10 96 55 55 (2904000)
I1001 18:29:35.532152 16764 layer_factory.hpp:74] Creating layer pool1
I1001 18:29:35.532160 16764 net.cpp:92] Creating Layer pool1
I1001 18:29:35.532166 16764 net.cpp:412] pool1 <- conv1
I1001 18:29:35.532171 16764 net.cpp:370] pool1 -> pool1
I1001 18:29:35.532178 16764 net.cpp:122] Setting up pool1
I1001 18:29:35.532187 16764 net.cpp:129] Top shape: 10 96 27 27 (699840)
I1001 18:29:35.532192 16764 layer_factory.hpp:74] Creating layer norm1
I1001 18:29:35.532199 16764 net.cpp:92] Creating Layer norm1
I1001 18:29:35.532204 16764 net.cpp:412] norm1 <- pool1
I1001 18:29:35.532210 16764 net.cpp:370] norm1 -> norm1
I1001 18:29:35.532217 16764 net.cpp:122] Setting up norm1
I1001 18:29:35.532225 16764 net.cpp:129] Top shape: 10 96 27 27 (699840)
I1001 18:29:35.532230 16764 layer_factory.hpp:74] Creating layer conv2
I1001 18:29:35.532238 16764 net.cpp:92] Creating Layer conv2
I1001 18:29:35.532243 16764 net.cpp:412] conv2 <- norm1
I1001 18:29:35.532248 16764 net.cpp:370] conv2 -> conv2
I1001 18:29:35.532255 16764 net.cpp:122] Setting up conv2
I1001 18:29:35.539469 16764 net.cpp:129] Top shape: 10 256 27 27 (1866240)
I1001 18:29:35.539499 16764 layer_factory.hpp:74] Creating layer relu2
I1001 18:29:35.539510 16764 net.cpp:92] Creating Layer relu2
I1001 18:29:35.539515 16764 net.cpp:412] relu2 <- conv2
I1001 18:29:35.539523 16764 net.cpp:359] relu2 -> conv2 (in-place)
I1001 18:29:35.539531 16764 net.cpp:122] Setting up relu2
I1001 18:29:35.539538 16764 net.cpp:129] Top shape: 10 256 27 27 (1866240)
I1001 18:29:35.539542 16764 layer_factory.hpp:74] Creating layer pool2
I1001 18:29:35.539551 16764 net.cpp:92] Creating Layer pool2
I1001 18:29:35.539556 16764 net.cpp:412] pool2 <- conv2
I1001 18:29:35.539562 16764 net.cpp:370] pool2 -> pool2
I1001 18:29:35.539571 16764 net.cpp:122] Setting up pool2
I1001 18:29:35.539582 16764 net.cpp:129] Top shape: 10 256 13 13 (432640)
I1001 18:29:35.539587 16764 layer_factory.hpp:74] Creating layer norm2
I1001 18:29:35.539593 16764 net.cpp:92] Creating Layer norm2
I1001 18:29:35.539597 16764 net.cpp:412] norm2 <- pool2
I1001 18:29:35.539605 16764 net.cpp:370] norm2 -> norm2
I1001 18:29:35.539613 16764 net.cpp:122] Setting up norm2
I1001 18:29:35.539619 16764 net.cpp:129] Top shape: 10 256 13 13 (432640)
I1001 18:29:35.539624 16764 layer_factory.hpp:74] Creating layer conv3
I1001 18:29:35.539633 16764 net.cpp:92] Creating Layer conv3
I1001 18:29:35.539638 16764 net.cpp:412] conv3 <- norm2
I1001 18:29:35.539644 16764 net.cpp:370] conv3 -> conv3
I1001 18:29:35.539651 16764 net.cpp:122] Setting up conv3
I1001 18:29:35.560124 16764 net.cpp:129] Top shape: 10 384 13 13 (648960)
I1001 18:29:35.560137 16764 layer_factory.hpp:74] Creating layer relu3
I1001 18:29:35.560147 16764 net.cpp:92] Creating Layer relu3
I1001 18:29:35.560152 16764 net.cpp:412] relu3 <- conv3
I1001 18:29:35.560158 16764 net.cpp:359] relu3 -> conv3 (in-place)
I1001 18:29:35.560164 16764 net.cpp:122] Setting up relu3
I1001 18:29:35.560170 16764 net.cpp:129] Top shape: 10 384 13 13 (648960)
I1001 18:29:35.560174 16764 layer_factory.hpp:74] Creating layer conv4
I1001 18:29:35.560183 16764 net.cpp:92] Creating Layer conv4
I1001 18:29:35.560187 16764 net.cpp:412] conv4 <- conv3
I1001 18:29:35.560194 16764 net.cpp:370] conv4 -> conv4
I1001 18:29:35.560200 16764 net.cpp:122] Setting up conv4
I1001 18:29:35.575368 16764 net.cpp:129] Top shape: 10 384 13 13 (648960)
I1001 18:29:35.575383 16764 layer_factory.hpp:74] Creating layer relu4
I1001 18:29:35.575392 16764 net.cpp:92] Creating Layer relu4
I1001 18:29:35.575397 16764 net.cpp:412] relu4 <- conv4
I1001 18:29:35.575402 16764 net.cpp:359] relu4 -> conv4 (in-place)
I1001 18:29:35.575417 16764 net.cpp:122] Setting up relu4
I1001 18:29:35.575430 16764 net.cpp:129] Top shape: 10 384 13 13 (648960)
I1001 18:29:35.575435 16764 layer_factory.hpp:74] Creating layer conv5
I1001 18:29:35.575443 16764 net.cpp:92] Creating Layer conv5
I1001 18:29:35.575448 16764 net.cpp:412] conv5 <- conv4
I1001 18:29:35.575456 16764 net.cpp:370] conv5 -> conv5
I1001 18:29:35.575464 16764 net.cpp:122] Setting up conv5
I1001 18:29:35.585677 16764 net.cpp:129] Top shape: 10 256 13 13 (432640)
I1001 18:29:35.585692 16764 layer_factory.hpp:74] Creating layer relu5
I1001 18:29:35.585700 16764 net.cpp:92] Creating Layer relu5
I1001 18:29:35.585705 16764 net.cpp:412] relu5 <- conv5
I1001 18:29:35.585712 16764 net.cpp:359] relu5 -> conv5 (in-place)
I1001 18:29:35.585719 16764 net.cpp:122] Setting up relu5
I1001 18:29:35.585724 16764 net.cpp:129] Top shape: 10 256 13 13 (432640)
I1001 18:29:35.585729 16764 layer_factory.hpp:74] Creating layer pool5
I1001 18:29:35.585738 16764 net.cpp:92] Creating Layer pool5
I1001 18:29:35.585743 16764 net.cpp:412] pool5 <- conv5
I1001 18:29:35.585749 16764 net.cpp:370] pool5 -> pool5
I1001 18:29:35.585757 16764 net.cpp:122] Setting up pool5
I1001 18:29:35.585767 16764 net.cpp:129] Top shape: 10 256 6 6 (92160)
I1001 18:29:35.585772 16764 layer_factory.hpp:74] Creating layer fc6
I1001 18:29:35.585780 16764 net.cpp:92] Creating Layer fc6
I1001 18:29:35.585785 16764 net.cpp:412] fc6 <- pool5
I1001 18:29:35.585793 16764 net.cpp:370] fc6 -> fc6
I1001 18:29:35.585800 16764 net.cpp:122] Setting up fc6
I1001 18:29:36.443625 16764 net.cpp:129] Top shape: 10 4096 (40960)
I1001 18:29:36.443666 16764 layer_factory.hpp:74] Creating layer relu6
I1001 18:29:36.443678 16764 net.cpp:92] Creating Layer relu6
I1001 18:29:36.443684 16764 net.cpp:412] relu6 <- fc6
I1001 18:29:36.443693 16764 net.cpp:359] relu6 -> fc6 (in-place)
I1001 18:29:36.443702 16764 net.cpp:122] Setting up relu6
I1001 18:29:36.443708 16764 net.cpp:129] Top shape: 10 4096 (40960)
I1001 18:29:36.443713 16764 layer_factory.hpp:74] Creating layer drop6
I1001 18:29:36.443720 16764 net.cpp:92] Creating Layer drop6
I1001 18:29:36.443725 16764 net.cpp:412] drop6 <- fc6
I1001 18:29:36.443732 16764 net.cpp:359] drop6 -> fc6 (in-place)
I1001 18:29:36.443737 16764 net.cpp:122] Setting up drop6
I1001 18:29:36.443744 16764 net.cpp:129] Top shape: 10 4096 (40960)
I1001 18:29:36.443749 16764 layer_factory.hpp:74] Creating layer fc7
I1001 18:29:36.443759 16764 net.cpp:92] Creating Layer fc7
I1001 18:29:36.443764 16764 net.cpp:412] fc7 <- fc6
I1001 18:29:36.443770 16764 net.cpp:370] fc7 -> fc7
I1001 18:29:36.443779 16764 net.cpp:122] Setting up fc7
I1001 18:29:36.824601 16764 net.cpp:129] Top shape: 10 4096 (40960)
I1001 18:29:36.824642 16764 layer_factory.hpp:74] Creating layer relu7
I1001 18:29:36.824653 16764 net.cpp:92] Creating Layer relu7
I1001 18:29:36.824661 16764 net.cpp:412] relu7 <- fc7
I1001 18:29:36.824669 16764 net.cpp:359] relu7 -> fc7 (in-place)
I1001 18:29:36.824678 16764 net.cpp:122] Setting up relu7
I1001 18:29:36.824684 16764 net.cpp:129] Top shape: 10 4096 (40960)
I1001 18:29:36.824689 16764 layer_factory.hpp:74] Creating layer drop7
I1001 18:29:36.824697 16764 net.cpp:92] Creating Layer drop7
I1001 18:29:36.824702 16764 net.cpp:412] drop7 <- fc7
I1001 18:29:36.824707 16764 net.cpp:359] drop7 -> fc7 (in-place)
I1001 18:29:36.824713 16764 net.cpp:122] Setting up drop7
I1001 18:29:36.824720 16764 net.cpp:129] Top shape: 10 4096 (40960)
I1001 18:29:36.824725 16764 layer_factory.hpp:74] Creating layer fc8
I1001 18:29:36.824733 16764 net.cpp:92] Creating Layer fc8
I1001 18:29:36.824738 16764 net.cpp:412] fc8 <- fc7
I1001 18:29:36.824746 16764 net.cpp:370] fc8 -> fc8
I1001 18:29:36.824758 16764 net.cpp:122] Setting up fc8
I1001 18:29:36.825722 16764 net.cpp:129] Top shape: 10 10 (100)
I1001 18:29:36.825731 16764 layer_factory.hpp:74] Creating layer fc8_fc8_0_split
I1001 18:29:36.825738 16764 net.cpp:92] Creating Layer fc8_fc8_0_split
I1001 18:29:36.825743 16764 net.cpp:412] fc8_fc8_0_split <- fc8
I1001 18:29:36.825749 16764 net.cpp:370] fc8_fc8_0_split -> fc8_fc8_0_split_0
I1001 18:29:36.825767 16764 net.cpp:370] fc8_fc8_0_split -> fc8_fc8_0_split_1
I1001 18:29:36.825780 16764 net.cpp:122] Setting up fc8_fc8_0_split
I1001 18:29:36.825788 16764 net.cpp:129] Top shape: 10 10 (100)
I1001 18:29:36.825793 16764 net.cpp:129] Top shape: 10 10 (100)
I1001 18:29:36.825798 16764 layer_factory.hpp:74] Creating layer accuracy
I1001 18:29:36.825806 16764 net.cpp:92] Creating Layer accuracy
I1001 18:29:36.825811 16764 net.cpp:412] accuracy <- fc8_fc8_0_split_0
I1001 18:29:36.825817 16764 net.cpp:412] accuracy <- label_data_1_split_0
I1001 18:29:36.825824 16764 net.cpp:370] accuracy -> accuracy
I1001 18:29:36.825831 16764 net.cpp:122] Setting up accuracy
…
