…
I1001 09:04:51.309358  1678 net.cpp:289] The NetState phase (0) differed from the phase (1) specified by a rule in layer accuracy
I1001 09:04:51.309501  1678 net.cpp:44] Initializing net from parameters: 
name: "CaffeNet"
state {
  phase: TRAIN
}
layer {
  name: "data"
  type: "Data"
  top: "data"
  top: "label"
  include {
    phase: TRAIN
  }
  transform_param {
    mirror: true
    crop_size: 227
    mean_file: "data/Stanford_Cars_09/imagenet_mean.binaryproto"
  }
  data_param {
    source: "Stanford_Cars_09/imagenet_train_leveldb"
    batch_size: 128
    backend: LMDB
  }
}
layer {
  name: "conv1"
  type: "Convolution"
  bottom: "data"
  top: "conv1"
  param {
    lr_mult: 1
    decay_mult: 1
  }
  param {
    lr_mult: 2
    decay_mult: 0
  }
  convolution_param {
    num_output: 96
    kernel_size: 11
    stride: 4
    weight_filler {
      type: "gaussian"
      std: 0.01
    }
    bias_filler {
      type: "constant"
      value: 0
    }
  }
}
layer {
  name: "relu1"
  type: "ReLU"
  bottom: "conv1"
  top: "conv1"
}
layer {
  name: "pool1"
  type: "Pooling"
  bottom: "conv1"
  top: "pool1"
  pooling_param {
    pool: MAX
    kernel_size: 3
    stride: 2
  }
}
layer {
  name: "norm1"
  type: "LRN"
  bottom: "pool1"
  top: "norm1"
  lrn_param {
    local_size: 5
    alpha: 0.0001
    beta: 0.75
  }
}
layer {
  name: "conv2"
  type: "Convolution"
  bottom: "norm1"
  top: "conv2"
  param {
    lr_mult: 1
    decay_mult: 1
  }
  param {
    lr_mult: 2
    decay_mult: 0
  }
  convolution_param {
    num_output: 256
    pad: 2
    kernel_size: 5
    group: 2
    weight_filler {
      type: "gaussian"
      std: 0.01
    }
    bias_filler {
      type: "constant"
      value: 1
    }
  }
}
layer {
  name: "relu2"
  type: "ReLU"
  bottom: "conv2"
  top: "conv2"
}
layer {
  name: "pool2"
  type: "Pooling"
  bottom: "conv2"
  top: "pool2"
  pooling_param {
    pool: MAX
    kernel_size: 3
    stride: 2
  }
}
layer {
  name: "norm2"
  type: "LRN"
  bottom: "pool2"
  top: "norm2"
  lrn_param {
    local_size: 5
    alpha: 0.0001
    beta: 0.75
  }
}
layer {
  name: "conv3"
  type: "Convolution"
  bottom: "norm2"
  top: "conv3"
  param {
    lr_mult: 1
    decay_mult: 1
  }
  param {
    lr_mult: 2
    decay_mult: 0
  }
  convolution_param {
    num_output: 384
    pad: 1
    kernel_size: 3
    weight_filler {
      type: "gaussian"
      std: 0.01
    }
    bias_filler {
      type: "constant"
      value: 0
    }
  }
}
layer {
  name: "relu3"
  type: "ReLU"
  bottom: "conv3"
  top: "conv3"
}
layer {
  name: "conv4"
  type: "Convolution"
  bottom: "conv3"
  top: "conv4"
  param {
    lr_mult: 1
    decay_mult: 1
  }
  param {
    lr_mult: 2
    decay_mult: 0
  }
  convolution_param {
    num_output: 384
    pad: 1
    kernel_size: 3
    group: 2
    weight_filler {
      type: "gaussian"
      std: 0.01
    }
    bias_filler {
      type: "constant"
      value: 1
    }
  }
}
layer {
  name: "relu4"
  type: "ReLU"
  bottom: "conv4"
  top: "conv4"
}
layer {
  name: "conv5"
  type: "Convolution"
  bottom: "conv4"
  top: "conv5"
  param {
    lr_mult: 1
    decay_mult: 1
  }
  param {
    lr_mult: 2
    decay_mult: 0
  }
  convolution_param {
    num_output: 256
    pad: 1
    kernel_size: 3
    group: 2
    weight_filler {
      type: "gaussian"
      std: 0.01
    }
    bias_filler {
      type: "constant"
      value: 1
    }
  }
}
layer {
  name: "relu5"
  type: "ReLU"
  bottom: "conv5"
  top: "conv5"
}
layer {
  name: "pool5"
  type: "Pooling"
  bottom: "conv5"
  top: "pool5"
  pooling_param {
    pool: MAX
    kernel_size: 3
    stride: 2
  }
}
layer {
  name: "fc6"
  type: "InnerProduct"
  bottom: "pool5"
  top: "fc6"
  param {
    lr_mult: 1
    decay_mult: 1
  }
  param {
    lr_mult: 2
    decay_mult: 0
  }
  inner_product_param {
    num_output: 4096
    weight_filler {
      type: "gaussian"
      std: 0.005
    }
    bias_filler {
      type: "constant"
      value: 1
    }
  }
}
layer {
  name: "relu6"
  type: "ReLU"
  bottom: "fc6"
  top: "fc6"
}
layer {
  name: "drop6"
  type: "Dropout"
  bottom: "fc6"
  top: "fc6"
  dropout_param {
    dropout_ratio: 0.5
  }
}
layer {
  name: "fc7"
  type: "InnerProduct"
  bottom: "fc6"
  top: "fc7"
  param {
    lr_mult: 1
    decay_mult: 1
  }
  param {
    lr_mult: 2
    decay_mult: 0
  }
  inner_product_param {
    num_output: 4096
    weight_filler {
      type: "gaussian"
      std: 0.005
    }
    bias_filler {
      type: "constant"
      value: 1
    }
  }
}
layer {
  name: "relu7"
  type: "ReLU"
  bottom: "fc7"
  top: "fc7"
}
layer {
  name: "drop7"
  type: "Dropout"
  bottom: "fc7"
  top: "fc7"
  dropout_param {
    dropout_ratio: 0.5
  }
}
layer {
  name: "fc8"
  type: "InnerProduct"
  bottom: "fc7"
  top: "fc8"
  param {
    lr_mult: 1
    decay_mult: 1
  }
  param {
    lr_mult: 2
    decay_mult: 0
  }
  inner_product_param {
    num_output: 10
    weight_filler {
      type: "gaussian"
      std: 0.01
    }
    bias_filler {
      type: "constant"
      value: 0
    }
  }
}
layer {
  name: "loss"
  type: "SoftmaxWithLoss"
  bottom: "fc8"
  bottom: "label"
  top: "loss"
}
I1001 09:04:51.309602  1678 layer_factory.hpp:74] Creating layer data
I1001 09:04:51.325933  1678 net.cpp:92] Creating Layer data
I1001 09:04:51.325952  1678 net.cpp:370] data -> data
I1001 09:04:51.325975  1678 net.cpp:370] data -> label
I1001 09:04:51.325987  1678 net.cpp:122] Setting up data
I1001 09:04:51.325995  1678 data_transformer.cpp:22] Loading mean file from: data/Stanford_Cars_09/imagenet_mean.binaryproto
I1001 09:04:51.408036  1678 db_lmdb.cpp:22] Opened lmdb Stanford_Cars_09/imagenet_train_leveldb
I1001 09:04:51.426292  1678 data_layer.cpp:52] output data size: 128,3,227,227
I1001 09:04:51.435554  1678 net.cpp:129] Top shape: 128 3 227 227 (19787136)
I1001 09:04:51.435593  1678 net.cpp:129] Top shape: 128 (128)
I1001 09:04:51.435605  1678 layer_factory.hpp:74] Creating layer conv1
I1001 09:04:51.435622  1678 net.cpp:92] Creating Layer conv1
I1001 09:04:51.435631  1678 net.cpp:412] conv1 <- data
I1001 09:04:51.435643  1678 net.cpp:370] conv1 -> conv1
I1001 09:04:51.435659  1678 net.cpp:122] Setting up conv1
I1001 09:04:51.450135  1678 net.cpp:129] Top shape: 128 96 55 55 (37171200)
I1001 09:04:51.450160  1678 layer_factory.hpp:74] Creating layer relu1
I1001 09:04:51.450170  1678 net.cpp:92] Creating Layer relu1
I1001 09:04:51.450176  1678 net.cpp:412] relu1 <- conv1
I1001 09:04:51.450181  1678 net.cpp:359] relu1 -> conv1 (in-place)
I1001 09:04:51.450188  1678 net.cpp:122] Setting up relu1
I1001 09:04:51.450196  1678 net.cpp:129] Top shape: 128 96 55 55 (37171200)
I1001 09:04:51.450201  1678 layer_factory.hpp:74] Creating layer pool1
I1001 09:04:51.450208  1678 net.cpp:92] Creating Layer pool1
I1001 09:04:51.450212  1678 net.cpp:412] pool1 <- conv1
I1001 09:04:51.450219  1678 net.cpp:370] pool1 -> pool1
I1001 09:04:51.450227  1678 net.cpp:122] Setting up pool1
I1001 09:04:51.450243  1678 net.cpp:129] Top shape: 128 96 27 27 (8957952)
I1001 09:04:51.450248  1678 layer_factory.hpp:74] Creating layer norm1
I1001 09:04:51.450258  1678 net.cpp:92] Creating Layer norm1
I1001 09:04:51.450263  1678 net.cpp:412] norm1 <- pool1
I1001 09:04:51.450268  1678 net.cpp:370] norm1 -> norm1
I1001 09:04:51.450278  1678 net.cpp:122] Setting up norm1
I1001 09:04:51.450285  1678 net.cpp:129] Top shape: 128 96 27 27 (8957952)
I1001 09:04:51.450290  1678 layer_factory.hpp:74] Creating layer conv2
I1001 09:04:51.450305  1678 net.cpp:92] Creating Layer conv2
I1001 09:04:51.450311  1678 net.cpp:412] conv2 <- norm1
I1001 09:04:51.450325  1678 net.cpp:370] conv2 -> conv2
I1001 09:04:51.450333  1678 net.cpp:122] Setting up conv2
I1001 09:04:51.457381  1678 net.cpp:129] Top shape: 128 256 27 27 (23887872)
I1001 09:04:51.457393  1678 layer_factory.hpp:74] Creating layer relu2
I1001 09:04:51.457401  1678 net.cpp:92] Creating Layer relu2
I1001 09:04:51.457406  1678 net.cpp:412] relu2 <- conv2
I1001 09:04:51.457412  1678 net.cpp:359] relu2 -> conv2 (in-place)
I1001 09:04:51.457418  1678 net.cpp:122] Setting up relu2
I1001 09:04:51.457424  1678 net.cpp:129] Top shape: 128 256 27 27 (23887872)
I1001 09:04:51.457429  1678 layer_factory.hpp:74] Creating layer pool2
I1001 09:04:51.457437  1678 net.cpp:92] Creating Layer pool2
I1001 09:04:51.457442  1678 net.cpp:412] pool2 <- conv2
I1001 09:04:51.457448  1678 net.cpp:370] pool2 -> pool2
I1001 09:04:51.457455  1678 net.cpp:122] Setting up pool2
I1001 09:04:51.457463  1678 net.cpp:129] Top shape: 128 256 13 13 (5537792)
I1001 09:04:51.457468  1678 layer_factory.hpp:74] Creating layer norm2
I1001 09:04:51.457478  1678 net.cpp:92] Creating Layer norm2
I1001 09:04:51.457483  1678 net.cpp:412] norm2 <- pool2
I1001 09:04:51.457489  1678 net.cpp:370] norm2 -> norm2
I1001 09:04:51.457495  1678 net.cpp:122] Setting up norm2
I1001 09:04:51.457502  1678 net.cpp:129] Top shape: 128 256 13 13 (5537792)
I1001 09:04:51.457507  1678 layer_factory.hpp:74] Creating layer conv3
I1001 09:04:51.457515  1678 net.cpp:92] Creating Layer conv3
I1001 09:04:51.457520  1678 net.cpp:412] conv3 <- norm2
I1001 09:04:51.457527  1678 net.cpp:370] conv3 -> conv3
I1001 09:04:51.457536  1678 net.cpp:122] Setting up conv3
I1001 09:04:51.477994  1678 net.cpp:129] Top shape: 128 384 13 13 (8306688)
I1001 09:04:51.478019  1678 layer_factory.hpp:74] Creating layer relu3
I1001 09:04:51.478027  1678 net.cpp:92] Creating Layer relu3
I1001 09:04:51.478034  1678 net.cpp:412] relu3 <- conv3
I1001 09:04:51.478041  1678 net.cpp:359] relu3 -> conv3 (in-place)
I1001 09:04:51.478049  1678 net.cpp:122] Setting up relu3
I1001 09:04:51.478055  1678 net.cpp:129] Top shape: 128 384 13 13 (8306688)
I1001 09:04:51.478060  1678 layer_factory.hpp:74] Creating layer conv4
I1001 09:04:51.478068  1678 net.cpp:92] Creating Layer conv4
I1001 09:04:51.478073  1678 net.cpp:412] conv4 <- conv3
I1001 09:04:51.478080  1678 net.cpp:370] conv4 -> conv4
I1001 09:04:51.478088  1678 net.cpp:122] Setting up conv4
I1001 09:04:51.493877  1678 net.cpp:129] Top shape: 128 384 13 13 (8306688)
I1001 09:04:51.493906  1678 layer_factory.hpp:74] Creating layer relu4
I1001 09:04:51.493916  1678 net.cpp:92] Creating Layer relu4
I1001 09:04:51.493922  1678 net.cpp:412] relu4 <- conv4
I1001 09:04:51.493937  1678 net.cpp:359] relu4 -> conv4 (in-place)
I1001 09:04:51.493945  1678 net.cpp:122] Setting up relu4
I1001 09:04:51.493952  1678 net.cpp:129] Top shape: 128 384 13 13 (8306688)
I1001 09:04:51.493957  1678 layer_factory.hpp:74] Creating layer conv5
I1001 09:04:51.493966  1678 net.cpp:92] Creating Layer conv5
I1001 09:04:51.493971  1678 net.cpp:412] conv5 <- conv4
I1001 09:04:51.493979  1678 net.cpp:370] conv5 -> conv5
I1001 09:04:51.493988  1678 net.cpp:122] Setting up conv5
I1001 09:04:51.504232  1678 net.cpp:129] Top shape: 128 256 13 13 (5537792)
I1001 09:04:51.504248  1678 layer_factory.hpp:74] Creating layer relu5
I1001 09:04:51.504256  1678 net.cpp:92] Creating Layer relu5
I1001 09:04:51.504261  1678 net.cpp:412] relu5 <- conv5
I1001 09:04:51.504266  1678 net.cpp:359] relu5 -> conv5 (in-place)
I1001 09:04:51.504273  1678 net.cpp:122] Setting up relu5
I1001 09:04:51.504279  1678 net.cpp:129] Top shape: 128 256 13 13 (5537792)
I1001 09:04:51.504284  1678 layer_factory.hpp:74] Creating layer pool5
I1001 09:04:51.504292  1678 net.cpp:92] Creating Layer pool5
I1001 09:04:51.504297  1678 net.cpp:412] pool5 <- conv5
I1001 09:04:51.504303  1678 net.cpp:370] pool5 -> pool5
I1001 09:04:51.504312  1678 net.cpp:122] Setting up pool5
I1001 09:04:51.504320  1678 net.cpp:129] Top shape: 128 256 6 6 (1179648)
I1001 09:04:51.504333  1678 layer_factory.hpp:74] Creating layer fc6
I1001 09:04:51.504367  1678 net.cpp:92] Creating Layer fc6
I1001 09:04:51.504374  1678 net.cpp:412] fc6 <- pool5
I1001 09:04:51.504381  1678 net.cpp:370] fc6 -> fc6
I1001 09:04:51.504392  1678 net.cpp:122] Setting up fc6
I1001 09:04:52.368245  1678 net.cpp:129] Top shape: 128 4096 (524288)
I1001 09:04:52.368286  1678 layer_factory.hpp:74] Creating layer relu6
I1001 09:04:52.368299  1678 net.cpp:92] Creating Layer relu6
I1001 09:04:52.368305  1678 net.cpp:412] relu6 <- fc6
I1001 09:04:52.368314  1678 net.cpp:359] relu6 -> fc6 (in-place)
I1001 09:04:52.368324  1678 net.cpp:122] Setting up relu6
I1001 09:04:52.368330  1678 net.cpp:129] Top shape: 128 4096 (524288)
I1001 09:04:52.368335  1678 layer_factory.hpp:74] Creating layer drop6
I1001 09:04:52.368348  1678 net.cpp:92] Creating Layer drop6
I1001 09:04:52.368353  1678 net.cpp:412] drop6 <- fc6
I1001 09:04:52.368360  1678 net.cpp:359] drop6 -> fc6 (in-place)
I1001 09:04:52.368369  1678 net.cpp:122] Setting up drop6
I1001 09:04:52.368379  1678 net.cpp:129] Top shape: 128 4096 (524288)
I1001 09:04:52.368384  1678 layer_factory.hpp:74] Creating layer fc7
I1001 09:04:52.368392  1678 net.cpp:92] Creating Layer fc7
I1001 09:04:52.368397  1678 net.cpp:412] fc7 <- fc6
I1001 09:04:52.368405  1678 net.cpp:370] fc7 -> fc7
I1001 09:04:52.368415  1678 net.cpp:122] Setting up fc7
I1001 09:04:52.749632  1678 net.cpp:129] Top shape: 128 4096 (524288)
I1001 09:04:52.749672  1678 layer_factory.hpp:74] Creating layer relu7
I1001 09:04:52.749683  1678 net.cpp:92] Creating Layer relu7
I1001 09:04:52.749691  1678 net.cpp:412] relu7 <- fc7
I1001 09:04:52.749698  1678 net.cpp:359] relu7 -> fc7 (in-place)
I1001 09:04:52.749706  1678 net.cpp:122] Setting up relu7
I1001 09:04:52.749713  1678 net.cpp:129] Top shape: 128 4096 (524288)
I1001 09:04:52.749718  1678 layer_factory.hpp:74] Creating layer drop7
I1001 09:04:52.749727  1678 net.cpp:92] Creating Layer drop7
I1001 09:04:52.749732  1678 net.cpp:412] drop7 <- fc7
I1001 09:04:52.749738  1678 net.cpp:359] drop7 -> fc7 (in-place)
I1001 09:04:52.749745  1678 net.cpp:122] Setting up drop7
I1001 09:04:52.749752  1678 net.cpp:129] Top shape: 128 4096 (524288)
I1001 09:04:52.749758  1678 layer_factory.hpp:74] Creating layer fc8
I1001 09:04:52.749766  1678 net.cpp:92] Creating Layer fc8
I1001 09:04:52.749771  1678 net.cpp:412] fc8 <- fc7
I1001 09:04:52.749778  1678 net.cpp:370] fc8 -> fc8
I1001 09:04:52.749786  1678 net.cpp:122] Setting up fc8
I1001 09:04:52.750777  1678 net.cpp:129] Top shape: 128 10 (1280)
I1001 09:04:52.750787  1678 layer_factory.hpp:74] Creating layer loss
I1001 09:04:52.751240  1678 net.cpp:92] Creating Layer loss
I1001 09:04:52.751248  1678 net.cpp:412] loss <- fc8
I1001 09:04:52.751255  1678 net.cpp:412] loss <- label
I1001 09:04:52.751263  1678 net.cpp:370] loss -> loss
I1001 09:04:52.751520  1678 net.cpp:122] Setting up loss
I1001 09:04:52.751533  1678 layer_factory.hpp:74] Creating layer loss
…
I1001 09:04:52.752367  1678 net.cpp:289] The NetState phase (1) differed from the phase (0) specified by a rule in layer data
I1001 09:04:52.752521  1678 net.cpp:44] Initializing net from parameters: 
name: "CaffeNet"
state {
  phase: TEST
}
layer {
  name: "data"
  type: "Data"
  top: "data"
  top: "label"
  include {
    phase: TEST
  }
  transform_param {
    mirror: true
    crop_size: 227
    mean_file: "data/Stanford_Cars_09/imagenet_mean.binaryproto"
  }
  data_param {
    source: "Stanford_Cars_09/imagenet_val_leveldb"
    mean_file: "data/Stanford_Cars_09/imagenet_mean.binartproto"
    batch_size: 10
    crop_size: 227
    mirror: false
    backend: LMDB
  }
}
layer {
  name: "conv1"
  type: "Convolution"
  bottom: "data"
  top: "conv1"
  param {
    lr_mult: 1
    decay_mult: 1
  }
  param {
    lr_mult: 2
    decay_mult: 0
  }
  convolution_param {
    num_output: 96
    kernel_size: 11
    stride: 4
    weight_filler {
      type: "gaussian"
      std: 0.01
    }
    bias_filler {
      type: "constant"
      value: 0
    }
  }
}
layer {
  name: "relu1"
  type: "ReLU"
  bottom: "conv1"
  top: "conv1"
}
layer {
  name: "pool1"
  type: "Pooling"
  bottom: "conv1"
  top: "pool1"
  pooling_param {
    pool: MAX
    kernel_size: 3
    stride: 2
  }
}
layer {
  name: "norm1"
  type: "LRN"
  bottom: "pool1"
  top: "norm1"
  lrn_param {
    local_size: 5
    alpha: 0.0001
    beta: 0.75
  }
}
layer {
  name: "conv2"
  type: "Convolution"
  bottom: "norm1"
  top: "conv2"
  param {
    lr_mult: 1
    decay_mult: 1
  }
  param {
    lr_mult: 2
    decay_mult: 0
  }
  convolution_param {
    num_output: 256
    pad: 2
    kernel_size: 5
    group: 2
    weight_filler {
      type: "gaussian"
      std: 0.01
    }
    bias_filler {
      type: "constant"
      value: 1
    }
  }
}
layer {
  name: "relu2"
  type: "ReLU"
  bottom: "conv2"
  top: "conv2"
}
layer {
  name: "pool2"
  type: "Pooling"
  bottom: "conv2"
  top: "pool2"
  pooling_param {
    pool: MAX
    kernel_size: 3
    stride: 2
  }
}
layer {
  name: "norm2"
  type: "LRN"
  bottom: "pool2"
  top: "norm2"
  lrn_param {
    local_size: 5
    alpha: 0.0001
    beta: 0.75
  }
}
layer {
  name: "conv3"
  type: "Convolution"
  bottom: "norm2"
  top: "conv3"
  param {
    lr_mult: 1
    decay_mult: 1
  }
  param {
    lr_mult: 2
    decay_mult: 0
  }
  convolution_param {
    num_output: 384
    pad: 1
    kernel_size: 3
    weight_filler {
      type: "gaussian"
      std: 0.01
    }
    bias_filler {
      type: "constant"
      value: 0
    }
  }
}
layer {
  name: "relu3"
  type: "ReLU"
  bottom: "conv3"
  top: "conv3"
}
layer {
  name: "conv4"
  type: "Convolution"
  bottom: "conv3"
  top: "conv4"
  param {
    lr_mult: 1
    decay_mult: 1
  }
  param {
    lr_mult: 2
    decay_mult: 0
  }
  convolution_param {
    num_output: 384
    pad: 1
    kernel_size: 3
    group: 2
    weight_filler {
      type: "gaussian"
      std: 0.01
    }
    bias_filler {
      type: "constant"
      value: 1
    }
  }
}
layer {
  name: "relu4"
  type: "ReLU"
  bottom: "conv4"
  top: "conv4"
}
layer {
  name: "conv5"
  type: "Convolution"
  bottom: "conv4"
  top: "conv5"
  param {
    lr_mult: 1
    decay_mult: 1
  }
  param {
    lr_mult: 2
    decay_mult: 0
  }
  convolution_param {
    num_output: 256
    pad: 1
    kernel_size: 3
    group: 2
    weight_filler {
      type: "gaussian"
      std: 0.01
    }
    bias_filler {
      type: "constant"
      value: 1
    }
  }
}
layer {
  name: "relu5"
  type: "ReLU"
  bottom: "conv5"
  top: "conv5"
}
layer {
  name: "pool5"
  type: "Pooling"
  bottom: "conv5"
  top: "pool5"
  pooling_param {
    pool: MAX
    kernel_size: 3
    stride: 2
  }
}
layer {
  name: "fc6"
  type: "InnerProduct"
  bottom: "pool5"
  top: "fc6"
  param {
    lr_mult: 1
    decay_mult: 1
  }
  param {
    lr_mult: 2
    decay_mult: 0
  }
  inner_product_param {
    num_output: 4096
    weight_filler {
      type: "gaussian"
      std: 0.005
    }
    bias_filler {
      type: "constant"
      value: 1
    }
  }
}
layer {
  name: "relu6"
  type: "ReLU"
  bottom: "fc6"
  top: "fc6"
}
layer {
  name: "drop6"
  type: "Dropout"
  bottom: "fc6"
  top: "fc6"
  dropout_param {
    dropout_ratio: 0.5
  }
}
layer {
  name: "fc7"
  type: "InnerProduct"
  bottom: "fc6"
  top: "fc7"
  param {
    lr_mult: 1
    decay_mult: 1
  }
  param {
    lr_mult: 2
    decay_mult: 0
  }
  inner_product_param {
    num_output: 4096
    weight_filler {
      type: "gaussian"
      std: 0.005
    }
    bias_filler {
      type: "constant"
      value: 1
    }
  }
}
layer {
  name: "relu7"
  type: "ReLU"
  bottom: "fc7"
  top: "fc7"
}
layer {
  name: "drop7"
  type: "Dropout"
  bottom: "fc7"
  top: "fc7"
  dropout_param {
    dropout_ratio: 0.5
  }
}
layer {
  name: "fc8"
  type: "InnerProduct"
  bottom: "fc7"
  top: "fc8"
  param {
    lr_mult: 1
    decay_mult: 1
  }
  param {
    lr_mult: 2
    decay_mult: 0
  }
  inner_product_param {
    num_output: 10
    weight_filler {
      type: "gaussian"
      std: 0.01
    }
    bias_filler {
      type: "constant"
      value: 0
    }
  }
}
layer {
  name: "accuracy"
  type: "Accuracy"
  bottom: "fc8"
  bottom: "label"
  top: "accuracy"
  include {
    phase: TEST
  }
}
layer {
  name: "loss"
  type: "SoftmaxWithLoss"
  bottom: "fc8"
  bottom: "label"
  top: "loss"
}
I1001 09:04:52.752620  1678 layer_factory.hpp:74] Creating layer data
I1001 09:04:52.752632  1678 net.cpp:92] Creating Layer data
I1001 09:04:52.752640  1678 net.cpp:370] data -> data
I1001 09:04:52.752648  1678 net.cpp:370] data -> label
I1001 09:04:52.752656  1678 net.cpp:122] Setting up data
I1001 09:04:52.752662  1678 data_transformer.cpp:22] Loading mean file from: data/Stanford_Cars_09/imagenet_mean.binaryproto
I1001 09:04:52.778378  1678 db_lmdb.cpp:22] Opened lmdb Stanford_Cars_09/imagenet_val_leveldb
I1001 09:04:52.796128  1678 data_layer.cpp:52] output data size: 10,3,227,227
I1001 09:04:52.797040  1678 net.cpp:129] Top shape: 10 3 227 227 (1545870)
I1001 09:04:52.797065  1678 net.cpp:129] Top shape: 10 (10)
I1001 09:04:52.797071  1678 layer_factory.hpp:74] Creating layer label_data_1_split
I1001 09:04:52.797085  1678 net.cpp:92] Creating Layer label_data_1_split
I1001 09:04:52.797091  1678 net.cpp:412] label_data_1_split <- label
I1001 09:04:52.797103  1678 net.cpp:370] label_data_1_split -> label_data_1_split_0
I1001 09:04:52.797116  1678 net.cpp:370] label_data_1_split -> label_data_1_split_1
I1001 09:04:52.797123  1678 net.cpp:122] Setting up label_data_1_split
I1001 09:04:52.797132  1678 net.cpp:129] Top shape: 10 (10)
I1001 09:04:52.797138  1678 net.cpp:129] Top shape: 10 (10)
I1001 09:04:52.797143  1678 layer_factory.hpp:74] Creating layer conv1
I1001 09:04:52.797155  1678 net.cpp:92] Creating Layer conv1
I1001 09:04:52.797160  1678 net.cpp:412] conv1 <- data
I1001 09:04:52.797168  1678 net.cpp:370] conv1 -> conv1
I1001 09:04:52.797176  1678 net.cpp:122] Setting up conv1
I1001 09:04:52.798009  1678 net.cpp:129] Top shape: 10 96 55 55 (2904000)
I1001 09:04:52.798029  1678 layer_factory.hpp:74] Creating layer relu1
I1001 09:04:52.798045  1678 net.cpp:92] Creating Layer relu1
I1001 09:04:52.798050  1678 net.cpp:412] relu1 <- conv1
I1001 09:04:52.798056  1678 net.cpp:359] relu1 -> conv1 (in-place)
I1001 09:04:52.798063  1678 net.cpp:122] Setting up relu1
I1001 09:04:52.798069  1678 net.cpp:129] Top shape: 10 96 55 55 (2904000)
I1001 09:04:52.798074  1678 layer_factory.hpp:74] Creating layer pool1
I1001 09:04:52.798082  1678 net.cpp:92] Creating Layer pool1
I1001 09:04:52.798087  1678 net.cpp:412] pool1 <- conv1
I1001 09:04:52.798094  1678 net.cpp:370] pool1 -> pool1
I1001 09:04:52.798100  1678 net.cpp:122] Setting up pool1
I1001 09:04:52.798110  1678 net.cpp:129] Top shape: 10 96 27 27 (699840)
I1001 09:04:52.798115  1678 layer_factory.hpp:74] Creating layer norm1
I1001 09:04:52.798123  1678 net.cpp:92] Creating Layer norm1
I1001 09:04:52.798140  1678 net.cpp:412] norm1 <- pool1
I1001 09:04:52.798146  1678 net.cpp:370] norm1 -> norm1
I1001 09:04:52.798153  1678 net.cpp:122] Setting up norm1
I1001 09:04:52.798161  1678 net.cpp:129] Top shape: 10 96 27 27 (699840)
I1001 09:04:52.798166  1678 layer_factory.hpp:74] Creating layer conv2
I1001 09:04:52.798173  1678 net.cpp:92] Creating Layer conv2
I1001 09:04:52.798178  1678 net.cpp:412] conv2 <- norm1
I1001 09:04:52.798184  1678 net.cpp:370] conv2 -> conv2
I1001 09:04:52.798192  1678 net.cpp:122] Setting up conv2
I1001 09:04:52.805408  1678 net.cpp:129] Top shape: 10 256 27 27 (1866240)
I1001 09:04:52.805426  1678 layer_factory.hpp:74] Creating layer relu2
I1001 09:04:52.805435  1678 net.cpp:92] Creating Layer relu2
I1001 09:04:52.805440  1678 net.cpp:412] relu2 <- conv2
I1001 09:04:52.805449  1678 net.cpp:359] relu2 -> conv2 (in-place)
I1001 09:04:52.805455  1678 net.cpp:122] Setting up relu2
I1001 09:04:52.805462  1678 net.cpp:129] Top shape: 10 256 27 27 (1866240)
I1001 09:04:52.805467  1678 layer_factory.hpp:74] Creating layer pool2
I1001 09:04:52.805475  1678 net.cpp:92] Creating Layer pool2
I1001 09:04:52.805480  1678 net.cpp:412] pool2 <- conv2
I1001 09:04:52.805487  1678 net.cpp:370] pool2 -> pool2
I1001 09:04:52.805495  1678 net.cpp:122] Setting up pool2
I1001 09:04:52.805505  1678 net.cpp:129] Top shape: 10 256 13 13 (432640)
I1001 09:04:52.805510  1678 layer_factory.hpp:74] Creating layer norm2
I1001 09:04:52.805517  1678 net.cpp:92] Creating Layer norm2
I1001 09:04:52.805523  1678 net.cpp:412] norm2 <- pool2
I1001 09:04:52.805531  1678 net.cpp:370] norm2 -> norm2
I1001 09:04:52.805537  1678 net.cpp:122] Setting up norm2
I1001 09:04:52.805546  1678 net.cpp:129] Top shape: 10 256 13 13 (432640)
I1001 09:04:52.805551  1678 layer_factory.hpp:74] Creating layer conv3
I1001 09:04:52.805558  1678 net.cpp:92] Creating Layer conv3
I1001 09:04:52.805563  1678 net.cpp:412] conv3 <- norm2
I1001 09:04:52.805572  1678 net.cpp:370] conv3 -> conv3
I1001 09:04:52.805578  1678 net.cpp:122] Setting up conv3
I1001 09:04:52.826282  1678 net.cpp:129] Top shape: 10 384 13 13 (648960)
I1001 09:04:52.826315  1678 layer_factory.hpp:74] Creating layer relu3
I1001 09:04:52.826328  1678 net.cpp:92] Creating Layer relu3
I1001 09:04:52.826333  1678 net.cpp:412] relu3 <- conv3
I1001 09:04:52.826341  1678 net.cpp:359] relu3 -> conv3 (in-place)
I1001 09:04:52.826349  1678 net.cpp:122] Setting up relu3
I1001 09:04:52.826356  1678 net.cpp:129] Top shape: 10 384 13 13 (648960)
I1001 09:04:52.826361  1678 layer_factory.hpp:74] Creating layer conv4
I1001 09:04:52.826371  1678 net.cpp:92] Creating Layer conv4
I1001 09:04:52.826376  1678 net.cpp:412] conv4 <- conv3
I1001 09:04:52.826383  1678 net.cpp:370] conv4 -> conv4
I1001 09:04:52.826391  1678 net.cpp:122] Setting up conv4
I1001 09:04:52.841481  1678 net.cpp:129] Top shape: 10 384 13 13 (648960)
I1001 09:04:52.841492  1678 layer_factory.hpp:74] Creating layer relu4
I1001 09:04:52.841500  1678 net.cpp:92] Creating Layer relu4
I1001 09:04:52.841505  1678 net.cpp:412] relu4 <- conv4
I1001 09:04:52.841511  1678 net.cpp:359] relu4 -> conv4 (in-place)
I1001 09:04:52.841523  1678 net.cpp:122] Setting up relu4
I1001 09:04:52.841537  1678 net.cpp:129] Top shape: 10 384 13 13 (648960)
I1001 09:04:52.841542  1678 layer_factory.hpp:74] Creating layer conv5
I1001 09:04:52.841552  1678 net.cpp:92] Creating Layer conv5
I1001 09:04:52.841557  1678 net.cpp:412] conv5 <- conv4
I1001 09:04:52.841564  1678 net.cpp:370] conv5 -> conv5
I1001 09:04:52.841572  1678 net.cpp:122] Setting up conv5
I1001 09:04:52.851766  1678 net.cpp:129] Top shape: 10 256 13 13 (432640)
I1001 09:04:52.851779  1678 layer_factory.hpp:74] Creating layer relu5
I1001 09:04:52.851786  1678 net.cpp:92] Creating Layer relu5
I1001 09:04:52.851791  1678 net.cpp:412] relu5 <- conv5
I1001 09:04:52.851799  1678 net.cpp:359] relu5 -> conv5 (in-place)
I1001 09:04:52.851805  1678 net.cpp:122] Setting up relu5
I1001 09:04:52.851812  1678 net.cpp:129] Top shape: 10 256 13 13 (432640)
I1001 09:04:52.851817  1678 layer_factory.hpp:74] Creating layer pool5
I1001 09:04:52.851825  1678 net.cpp:92] Creating Layer pool5
I1001 09:04:52.851831  1678 net.cpp:412] pool5 <- conv5
I1001 09:04:52.851837  1678 net.cpp:370] pool5 -> pool5
I1001 09:04:52.851845  1678 net.cpp:122] Setting up pool5
I1001 09:04:52.851855  1678 net.cpp:129] Top shape: 10 256 6 6 (92160)
I1001 09:04:52.851860  1678 layer_factory.hpp:74] Creating layer fc6
I1001 09:04:52.851869  1678 net.cpp:92] Creating Layer fc6
I1001 09:04:52.851874  1678 net.cpp:412] fc6 <- pool5
I1001 09:04:52.851882  1678 net.cpp:370] fc6 -> fc6
I1001 09:04:52.851891  1678 net.cpp:122] Setting up fc6
I1001 09:04:53.708565  1678 net.cpp:129] Top shape: 10 4096 (40960)
I1001 09:04:53.708600  1678 layer_factory.hpp:74] Creating layer relu6
I1001 09:04:53.708611  1678 net.cpp:92] Creating Layer relu6
I1001 09:04:53.708617  1678 net.cpp:412] relu6 <- fc6
I1001 09:04:53.708627  1678 net.cpp:359] relu6 -> fc6 (in-place)
I1001 09:04:53.708636  1678 net.cpp:122] Setting up relu6
I1001 09:04:53.708643  1678 net.cpp:129] Top shape: 10 4096 (40960)
I1001 09:04:53.708648  1678 layer_factory.hpp:74] Creating layer drop6
I1001 09:04:53.708657  1678 net.cpp:92] Creating Layer drop6
I1001 09:04:53.708662  1678 net.cpp:412] drop6 <- fc6
I1001 09:04:53.708667  1678 net.cpp:359] drop6 -> fc6 (in-place)
I1001 09:04:53.708673  1678 net.cpp:122] Setting up drop6
I1001 09:04:53.708681  1678 net.cpp:129] Top shape: 10 4096 (40960)
I1001 09:04:53.708686  1678 layer_factory.hpp:74] Creating layer fc7
I1001 09:04:53.708696  1678 net.cpp:92] Creating Layer fc7
I1001 09:04:53.708701  1678 net.cpp:412] fc7 <- fc6
I1001 09:04:53.708709  1678 net.cpp:370] fc7 -> fc7
I1001 09:04:53.708717  1678 net.cpp:122] Setting up fc7
I1001 09:04:54.090294  1678 net.cpp:129] Top shape: 10 4096 (40960)
I1001 09:04:54.090338  1678 layer_factory.hpp:74] Creating layer relu7
I1001 09:04:54.090350  1678 net.cpp:92] Creating Layer relu7
I1001 09:04:54.090356  1678 net.cpp:412] relu7 <- fc7
I1001 09:04:54.090366  1678 net.cpp:359] relu7 -> fc7 (in-place)
I1001 09:04:54.090375  1678 net.cpp:122] Setting up relu7
I1001 09:04:54.090383  1678 net.cpp:129] Top shape: 10 4096 (40960)
I1001 09:04:54.090387  1678 layer_factory.hpp:74] Creating layer drop7
I1001 09:04:54.090394  1678 net.cpp:92] Creating Layer drop7
I1001 09:04:54.090399  1678 net.cpp:412] drop7 <- fc7
I1001 09:04:54.090405  1678 net.cpp:359] drop7 -> fc7 (in-place)
I1001 09:04:54.090412  1678 net.cpp:122] Setting up drop7
I1001 09:04:54.090420  1678 net.cpp:129] Top shape: 10 4096 (40960)
I1001 09:04:54.090425  1678 layer_factory.hpp:74] Creating layer fc8
I1001 09:04:54.090435  1678 net.cpp:92] Creating Layer fc8
I1001 09:04:54.090440  1678 net.cpp:412] fc8 <- fc7
I1001 09:04:54.090447  1678 net.cpp:370] fc8 -> fc8
I1001 09:04:54.090458  1678 net.cpp:122] Setting up fc8
I1001 09:04:54.091428  1678 net.cpp:129] Top shape: 10 10 (100)
I1001 09:04:54.091439  1678 layer_factory.hpp:74] Creating layer fc8_fc8_0_split
I1001 09:04:54.091446  1678 net.cpp:92] Creating Layer fc8_fc8_0_split
I1001 09:04:54.091451  1678 net.cpp:412] fc8_fc8_0_split <- fc8
I1001 09:04:54.091457  1678 net.cpp:370] fc8_fc8_0_split -> fc8_fc8_0_split_0
I1001 09:04:54.091475  1678 net.cpp:370] fc8_fc8_0_split -> fc8_fc8_0_split_1
I1001 09:04:54.091490  1678 net.cpp:122] Setting up fc8_fc8_0_split
I1001 09:04:54.091497  1678 net.cpp:129] Top shape: 10 10 (100)
I1001 09:04:54.091503  1678 net.cpp:129] Top shape: 10 10 (100)
I1001 09:04:54.091508  1678 layer_factory.hpp:74] Creating layer accuracy
I1001 09:04:54.091517  1678 net.cpp:92] Creating Layer accuracy
I1001 09:04:54.091522  1678 net.cpp:412] accuracy <- fc8_fc8_0_split_0
I1001 09:04:54.091528  1678 net.cpp:412] accuracy <- label_data_1_split_0
I1001 09:04:54.091534  1678 net.cpp:370] accuracy -> accuracy
I1001 09:04:54.091542  1678 net.cpp:122] Setting up accuracy
…
