…
I1009 21:34:05.671514 25272 net.cpp:289] The NetState phase (0) differed from the phase (1) specified by a rule in layer accuracy
I1009 21:34:05.671659 25272 net.cpp:44] Initializing net from parameters: 
name: "CaffeNet"
state {
  phase: TRAIN
}
layer {
  name: "data"
  type: "Data"
  top: "data"
  top: "label"
  include {
    phase: TRAIN
  }
  transform_param {
    mirror: true
    crop_size: 227
    mean_file: "data/whole_fs/imagenet_mean.binaryproto"
  }
  data_param {
    source: "whole_fs/imagenet_train_leveldb"
    batch_size: 10
    backend: LMDB
  }
}
layer {
  name: "conv1"
  type: "Convolution"
  bottom: "data"
  top: "conv1"
  param {
    lr_mult: 1
    decay_mult: 1
  }
  param {
    lr_mult: 2
    decay_mult: 0
  }
  convolution_param {
    num_output: 96
    kernel_size: 11
    stride: 4
    weight_filler {
      type: "gaussian"
      std: 0.01
    }
    bias_filler {
      type: "constant"
      value: 0
    }
  }
}
layer {
  name: "relu1"
  type: "ReLU"
  bottom: "conv1"
  top: "conv1"
}
layer {
  name: "pool1"
  type: "Pooling"
  bottom: "conv1"
  top: "pool1"
  pooling_param {
    pool: MAX
    kernel_size: 3
    stride: 2
  }
}
layer {
  name: "norm1"
  type: "LRN"
  bottom: "pool1"
  top: "norm1"
  lrn_param {
    local_size: 5
    alpha: 0.0001
    beta: 0.75
  }
}
layer {
  name: "conv2"
  type: "Convolution"
  bottom: "norm1"
  top: "conv2"
  param {
    lr_mult: 1
    decay_mult: 1
  }
  param {
    lr_mult: 2
    decay_mult: 0
  }
  convolution_param {
    num_output: 256
    pad: 2
    kernel_size: 5
    group: 2
    weight_filler {
      type: "gaussian"
      std: 0.01
    }
    bias_filler {
      type: "constant"
      value: 1
    }
  }
}
layer {
  name: "relu2"
  type: "ReLU"
  bottom: "conv2"
  top: "conv2"
}
layer {
  name: "pool2"
  type: "Pooling"
  bottom: "conv2"
  top: "pool2"
  pooling_param {
    pool: MAX
    kernel_size: 3
    stride: 2
  }
}
layer {
  name: "norm2"
  type: "LRN"
  bottom: "pool2"
  top: "norm2"
  lrn_param {
    local_size: 5
    alpha: 0.0001
    beta: 0.75
  }
}
layer {
  name: "conv3"
  type: "Convolution"
  bottom: "norm2"
  top: "conv3"
  param {
    lr_mult: 1
    decay_mult: 1
  }
  param {
    lr_mult: 2
    decay_mult: 0
  }
  convolution_param {
    num_output: 384
    pad: 1
    kernel_size: 3
    weight_filler {
      type: "gaussian"
      std: 0.01
    }
    bias_filler {
      type: "constant"
      value: 0
    }
  }
}
layer {
  name: "relu3"
  type: "ReLU"
  bottom: "conv3"
  top: "conv3"
}
layer {
  name: "conv4"
  type: "Convolution"
  bottom: "conv3"
  top: "conv4"
  param {
    lr_mult: 1
    decay_mult: 1
  }
  param {
    lr_mult: 2
    decay_mult: 0
  }
  convolution_param {
    num_output: 384
    pad: 1
    kernel_size: 3
    group: 2
    weight_filler {
      type: "gaussian"
      std: 0.01
    }
    bias_filler {
      type: "constant"
      value: 1
    }
  }
}
layer {
  name: "relu4"
  type: "ReLU"
  bottom: "conv4"
  top: "conv4"
}
layer {
  name: "conv5"
  type: "Convolution"
  bottom: "conv4"
  top: "conv5"
  param {
    lr_mult: 1
    decay_mult: 1
  }
  param {
    lr_mult: 2
    decay_mult: 0
  }
  convolution_param {
    num_output: 256
    pad: 1
    kernel_size: 3
    group: 2
    weight_filler {
      type: "gaussian"
      std: 0.01
    }
    bias_filler {
      type: "constant"
      value: 1
    }
  }
}
layer {
  name: "relu5"
  type: "ReLU"
  bottom: "conv5"
  top: "conv5"
}
layer {
  name: "pool5"
  type: "Pooling"
  bottom: "conv5"
  top: "pool5"
  pooling_param {
    pool: MAX
    kernel_size: 3
    stride: 2
  }
}
layer {
  name: "fc6"
  type: "InnerProduct"
  bottom: "pool5"
  top: "fc6"
  param {
    lr_mult: 1
    decay_mult: 1
  }
  param {
    lr_mult: 2
    decay_mult: 0
  }
  inner_product_param {
    num_output: 4096
    weight_filler {
      type: "gaussian"
      std: 0.005
    }
    bias_filler {
      type: "constant"
      value: 1
    }
  }
}
layer {
  name: "relu6"
  type: "ReLU"
  bottom: "fc6"
  top: "fc6"
}
layer {
  name: "drop6"
  type: "Dropout"
  bottom: "fc6"
  top: "fc6"
  dropout_param {
    dropout_ratio: 0.5
  }
}
layer {
  name: "fc7"
  type: "InnerProduct"
  bottom: "fc6"
  top: "fc7"
  param {
    lr_mult: 1
    decay_mult: 1
  }
  param {
    lr_mult: 2
    decay_mult: 0
  }
  inner_product_param {
    num_output: 4096
    weight_filler {
      type: "gaussian"
      std: 0.005
    }
    bias_filler {
      type: "constant"
      value: 1
    }
  }
}
layer {
  name: "relu7"
  type: "ReLU"
  bottom: "fc7"
  top: "fc7"
}
layer {
  name: "drop7"
  type: "Dropout"
  bottom: "fc7"
  top: "fc7"
  dropout_param {
    dropout_ratio: 0.5
  }
}
layer {
  name: "fc8"
  type: "InnerProduct"
  bottom: "fc7"
  top: "fc8"
  param {
    lr_mult: 1
    decay_mult: 1
  }
  param {
    lr_mult: 2
    decay_mult: 0
  }
  inner_product_param {
    num_output: 2
    weight_filler {
      type: "gaussian"
      std: 0.01
    }
    bias_filler {
      type: "constant"
      value: 0
    }
  }
}
layer {
  name: "loss"
  type: "SoftmaxWithLoss"
  bottom: "fc8"
  bottom: "label"
  top: "loss"
}
I1009 21:34:05.671761 25272 layer_factory.hpp:74] Creating layer data
I1009 21:34:05.671782 25272 net.cpp:92] Creating Layer data
I1009 21:34:05.671790 25272 net.cpp:370] data -> data
I1009 21:34:05.671811 25272 net.cpp:370] data -> label
I1009 21:34:05.671823 25272 net.cpp:122] Setting up data
I1009 21:34:05.671833 25272 data_transformer.cpp:22] Loading mean file from: data/whole_fs/imagenet_mean.binaryproto
I1009 21:34:05.673351 25272 db_lmdb.cpp:22] Opened lmdb whole_fs/imagenet_train_leveldb
I1009 21:34:05.673420 25272 data_layer.cpp:52] output data size: 10,3,227,227
I1009 21:34:05.674329 25272 net.cpp:129] Top shape: 10 3 227 227 (1545870)
I1009 21:34:05.674348 25272 net.cpp:129] Top shape: 10 (10)
I1009 21:34:05.674358 25272 layer_factory.hpp:74] Creating layer conv1
I1009 21:34:05.674376 25272 net.cpp:92] Creating Layer conv1
I1009 21:34:05.674382 25272 net.cpp:412] conv1 <- data
I1009 21:34:05.674394 25272 net.cpp:370] conv1 -> conv1
I1009 21:34:05.674409 25272 net.cpp:122] Setting up conv1
I1009 21:34:05.675254 25272 net.cpp:129] Top shape: 10 96 55 55 (2904000)
I1009 21:34:05.675272 25272 layer_factory.hpp:74] Creating layer relu1
I1009 21:34:05.675282 25272 net.cpp:92] Creating Layer relu1
I1009 21:34:05.675287 25272 net.cpp:412] relu1 <- conv1
I1009 21:34:05.675293 25272 net.cpp:359] relu1 -> conv1 (in-place)
I1009 21:34:05.675299 25272 net.cpp:122] Setting up relu1
I1009 21:34:05.675307 25272 net.cpp:129] Top shape: 10 96 55 55 (2904000)
I1009 21:34:05.675312 25272 layer_factory.hpp:74] Creating layer pool1
I1009 21:34:05.675318 25272 net.cpp:92] Creating Layer pool1
I1009 21:34:05.675323 25272 net.cpp:412] pool1 <- conv1
I1009 21:34:05.675329 25272 net.cpp:370] pool1 -> pool1
I1009 21:34:05.675338 25272 net.cpp:122] Setting up pool1
I1009 21:34:05.675351 25272 net.cpp:129] Top shape: 10 96 27 27 (699840)
I1009 21:34:05.675357 25272 layer_factory.hpp:74] Creating layer norm1
I1009 21:34:05.675365 25272 net.cpp:92] Creating Layer norm1
I1009 21:34:05.675371 25272 net.cpp:412] norm1 <- pool1
I1009 21:34:05.675377 25272 net.cpp:370] norm1 -> norm1
I1009 21:34:05.675386 25272 net.cpp:122] Setting up norm1
I1009 21:34:05.675395 25272 net.cpp:129] Top shape: 10 96 27 27 (699840)
I1009 21:34:05.675400 25272 layer_factory.hpp:74] Creating layer conv2
I1009 21:34:05.675407 25272 net.cpp:92] Creating Layer conv2
I1009 21:34:05.675420 25272 net.cpp:412] conv2 <- norm1
I1009 21:34:05.675427 25272 net.cpp:370] conv2 -> conv2
I1009 21:34:05.675443 25272 net.cpp:122] Setting up conv2
I1009 21:34:05.682742 25272 net.cpp:129] Top shape: 10 256 27 27 (1866240)
I1009 21:34:05.682781 25272 layer_factory.hpp:74] Creating layer relu2
I1009 21:34:05.682792 25272 net.cpp:92] Creating Layer relu2
I1009 21:34:05.682798 25272 net.cpp:412] relu2 <- conv2
I1009 21:34:05.682806 25272 net.cpp:359] relu2 -> conv2 (in-place)
I1009 21:34:05.682816 25272 net.cpp:122] Setting up relu2
I1009 21:34:05.682823 25272 net.cpp:129] Top shape: 10 256 27 27 (1866240)
I1009 21:34:05.682828 25272 layer_factory.hpp:74] Creating layer pool2
I1009 21:34:05.682837 25272 net.cpp:92] Creating Layer pool2
I1009 21:34:05.682842 25272 net.cpp:412] pool2 <- conv2
I1009 21:34:05.682847 25272 net.cpp:370] pool2 -> pool2
I1009 21:34:05.682858 25272 net.cpp:122] Setting up pool2
I1009 21:34:05.682869 25272 net.cpp:129] Top shape: 10 256 13 13 (432640)
I1009 21:34:05.682874 25272 layer_factory.hpp:74] Creating layer norm2
I1009 21:34:05.682884 25272 net.cpp:92] Creating Layer norm2
I1009 21:34:05.682890 25272 net.cpp:412] norm2 <- pool2
I1009 21:34:05.682896 25272 net.cpp:370] norm2 -> norm2
I1009 21:34:05.682904 25272 net.cpp:122] Setting up norm2
I1009 21:34:05.682912 25272 net.cpp:129] Top shape: 10 256 13 13 (432640)
I1009 21:34:05.682917 25272 layer_factory.hpp:74] Creating layer conv3
I1009 21:34:05.682926 25272 net.cpp:92] Creating Layer conv3
I1009 21:34:05.682931 25272 net.cpp:412] conv3 <- norm2
I1009 21:34:05.682940 25272 net.cpp:370] conv3 -> conv3
I1009 21:34:05.682955 25272 net.cpp:122] Setting up conv3
I1009 21:34:05.703418 25272 net.cpp:129] Top shape: 10 384 13 13 (648960)
I1009 21:34:05.703431 25272 layer_factory.hpp:74] Creating layer relu3
I1009 21:34:05.703439 25272 net.cpp:92] Creating Layer relu3
I1009 21:34:05.703445 25272 net.cpp:412] relu3 <- conv3
I1009 21:34:05.703451 25272 net.cpp:359] relu3 -> conv3 (in-place)
I1009 21:34:05.703459 25272 net.cpp:122] Setting up relu3
I1009 21:34:05.703464 25272 net.cpp:129] Top shape: 10 384 13 13 (648960)
I1009 21:34:05.703469 25272 layer_factory.hpp:74] Creating layer conv4
I1009 21:34:05.703479 25272 net.cpp:92] Creating Layer conv4
I1009 21:34:05.703485 25272 net.cpp:412] conv4 <- conv3
I1009 21:34:05.703490 25272 net.cpp:370] conv4 -> conv4
I1009 21:34:05.703497 25272 net.cpp:122] Setting up conv4
I1009 21:34:05.718641 25272 net.cpp:129] Top shape: 10 384 13 13 (648960)
I1009 21:34:05.718658 25272 layer_factory.hpp:74] Creating layer relu4
I1009 21:34:05.718665 25272 net.cpp:92] Creating Layer relu4
I1009 21:34:05.718670 25272 net.cpp:412] relu4 <- conv4
I1009 21:34:05.718677 25272 net.cpp:359] relu4 -> conv4 (in-place)
I1009 21:34:05.718684 25272 net.cpp:122] Setting up relu4
I1009 21:34:05.718690 25272 net.cpp:129] Top shape: 10 384 13 13 (648960)
I1009 21:34:05.718695 25272 layer_factory.hpp:74] Creating layer conv5
I1009 21:34:05.718708 25272 net.cpp:92] Creating Layer conv5
I1009 21:34:05.718713 25272 net.cpp:412] conv5 <- conv4
I1009 21:34:05.718719 25272 net.cpp:370] conv5 -> conv5
I1009 21:34:05.718727 25272 net.cpp:122] Setting up conv5
I1009 21:34:05.729043 25272 net.cpp:129] Top shape: 10 256 13 13 (432640)
I1009 21:34:05.729060 25272 layer_factory.hpp:74] Creating layer relu5
I1009 21:34:05.729068 25272 net.cpp:92] Creating Layer relu5
I1009 21:34:05.729073 25272 net.cpp:412] relu5 <- conv5
I1009 21:34:05.729079 25272 net.cpp:359] relu5 -> conv5 (in-place)
I1009 21:34:05.729086 25272 net.cpp:122] Setting up relu5
I1009 21:34:05.729092 25272 net.cpp:129] Top shape: 10 256 13 13 (432640)
I1009 21:34:05.729097 25272 layer_factory.hpp:74] Creating layer pool5
I1009 21:34:05.729105 25272 net.cpp:92] Creating Layer pool5
I1009 21:34:05.729110 25272 net.cpp:412] pool5 <- conv5
I1009 21:34:05.729116 25272 net.cpp:370] pool5 -> pool5
I1009 21:34:05.729123 25272 net.cpp:122] Setting up pool5
I1009 21:34:05.729133 25272 net.cpp:129] Top shape: 10 256 6 6 (92160)
I1009 21:34:05.729138 25272 layer_factory.hpp:74] Creating layer fc6
I1009 21:34:05.729157 25272 net.cpp:92] Creating Layer fc6
I1009 21:34:05.729163 25272 net.cpp:412] fc6 <- pool5
I1009 21:34:05.729179 25272 net.cpp:370] fc6 -> fc6
I1009 21:34:05.729190 25272 net.cpp:122] Setting up fc6
I1009 21:34:06.585773 25272 net.cpp:129] Top shape: 10 4096 (40960)
I1009 21:34:06.585814 25272 layer_factory.hpp:74] Creating layer relu6
I1009 21:34:06.585825 25272 net.cpp:92] Creating Layer relu6
I1009 21:34:06.585831 25272 net.cpp:412] relu6 <- fc6
I1009 21:34:06.585841 25272 net.cpp:359] relu6 -> fc6 (in-place)
I1009 21:34:06.585850 25272 net.cpp:122] Setting up relu6
I1009 21:34:06.585856 25272 net.cpp:129] Top shape: 10 4096 (40960)
I1009 21:34:06.585861 25272 layer_factory.hpp:74] Creating layer drop6
I1009 21:34:06.585870 25272 net.cpp:92] Creating Layer drop6
I1009 21:34:06.585875 25272 net.cpp:412] drop6 <- fc6
I1009 21:34:06.585880 25272 net.cpp:359] drop6 -> fc6 (in-place)
I1009 21:34:06.585889 25272 net.cpp:122] Setting up drop6
I1009 21:34:06.585899 25272 net.cpp:129] Top shape: 10 4096 (40960)
I1009 21:34:06.585904 25272 layer_factory.hpp:74] Creating layer fc7
I1009 21:34:06.585913 25272 net.cpp:92] Creating Layer fc7
I1009 21:34:06.585918 25272 net.cpp:412] fc7 <- fc6
I1009 21:34:06.585925 25272 net.cpp:370] fc7 -> fc7
I1009 21:34:06.585933 25272 net.cpp:122] Setting up fc7
I1009 21:34:06.966909 25272 net.cpp:129] Top shape: 10 4096 (40960)
I1009 21:34:06.966948 25272 layer_factory.hpp:74] Creating layer relu7
I1009 21:34:06.966959 25272 net.cpp:92] Creating Layer relu7
I1009 21:34:06.966966 25272 net.cpp:412] relu7 <- fc7
I1009 21:34:06.966974 25272 net.cpp:359] relu7 -> fc7 (in-place)
I1009 21:34:06.966984 25272 net.cpp:122] Setting up relu7
I1009 21:34:06.966990 25272 net.cpp:129] Top shape: 10 4096 (40960)
I1009 21:34:06.966995 25272 layer_factory.hpp:74] Creating layer drop7
I1009 21:34:06.967005 25272 net.cpp:92] Creating Layer drop7
I1009 21:34:06.967010 25272 net.cpp:412] drop7 <- fc7
I1009 21:34:06.967015 25272 net.cpp:359] drop7 -> fc7 (in-place)
I1009 21:34:06.967022 25272 net.cpp:122] Setting up drop7
I1009 21:34:06.967031 25272 net.cpp:129] Top shape: 10 4096 (40960)
I1009 21:34:06.967036 25272 layer_factory.hpp:74] Creating layer fc8
I1009 21:34:06.967043 25272 net.cpp:92] Creating Layer fc8
I1009 21:34:06.967048 25272 net.cpp:412] fc8 <- fc7
I1009 21:34:06.967056 25272 net.cpp:370] fc8 -> fc8
I1009 21:34:06.967066 25272 net.cpp:122] Setting up fc8
I1009 21:34:06.967265 25272 net.cpp:129] Top shape: 10 2 (20)
I1009 21:34:06.967272 25272 layer_factory.hpp:74] Creating layer loss
I1009 21:34:06.967288 25272 net.cpp:92] Creating Layer loss
I1009 21:34:06.967293 25272 net.cpp:412] loss <- fc8
I1009 21:34:06.967299 25272 net.cpp:412] loss <- label
I1009 21:34:06.967308 25272 net.cpp:370] loss -> loss
I1009 21:34:06.967319 25272 net.cpp:122] Setting up loss
I1009 21:34:06.967326 25272 layer_factory.hpp:74] Creating layer loss
…
I1009 21:34:06.968169 25272 net.cpp:289] The NetState phase (1) differed from the phase (0) specified by a rule in layer data
I1009 21:34:06.968324 25272 net.cpp:44] Initializing net from parameters: 
name: "CaffeNet"
state {
  phase: TEST
}
layer {
  name: "data"
  type: "Data"
  top: "data"
  top: "label"
  include {
    phase: TEST
  }
  transform_param {
    mirror: true
    crop_size: 227
    mean_file: "data/whole_fs/imagenet_mean.binaryproto"
  }
  data_param {
    source: "whole_fs/imagenet_val_leveldb"
    mean_file: "data/whole_fs/imagenet_mean.binartproto"
    batch_size: 10
    crop_size: 227
    mirror: false
    backend: LMDB
  }
}
layer {
  name: "conv1"
  type: "Convolution"
  bottom: "data"
  top: "conv1"
  param {
    lr_mult: 1
    decay_mult: 1
  }
  param {
    lr_mult: 2
    decay_mult: 0
  }
  convolution_param {
    num_output: 96
    kernel_size: 11
    stride: 4
    weight_filler {
      type: "gaussian"
      std: 0.01
    }
    bias_filler {
      type: "constant"
      value: 0
    }
  }
}
layer {
  name: "relu1"
  type: "ReLU"
  bottom: "conv1"
  top: "conv1"
}
layer {
  name: "pool1"
  type: "Pooling"
  bottom: "conv1"
  top: "pool1"
  pooling_param {
    pool: MAX
    kernel_size: 3
    stride: 2
  }
}
layer {
  name: "norm1"
  type: "LRN"
  bottom: "pool1"
  top: "norm1"
  lrn_param {
    local_size: 5
    alpha: 0.0001
    beta: 0.75
  }
}
layer {
  name: "conv2"
  type: "Convolution"
  bottom: "norm1"
  top: "conv2"
  param {
    lr_mult: 1
    decay_mult: 1
  }
  param {
    lr_mult: 2
    decay_mult: 0
  }
  convolution_param {
    num_output: 256
    pad: 2
    kernel_size: 5
    group: 2
    weight_filler {
      type: "gaussian"
      std: 0.01
    }
    bias_filler {
      type: "constant"
      value: 1
    }
  }
}
layer {
  name: "relu2"
  type: "ReLU"
  bottom: "conv2"
  top: "conv2"
}
layer {
  name: "pool2"
  type: "Pooling"
  bottom: "conv2"
  top: "pool2"
  pooling_param {
    pool: MAX
    kernel_size: 3
    stride: 2
  }
}
layer {
  name: "norm2"
  type: "LRN"
  bottom: "pool2"
  top: "norm2"
  lrn_param {
    local_size: 5
    alpha: 0.0001
    beta: 0.75
  }
}
layer {
  name: "conv3"
  type: "Convolution"
  bottom: "norm2"
  top: "conv3"
  param {
    lr_mult: 1
    decay_mult: 1
  }
  param {
    lr_mult: 2
    decay_mult: 0
  }
  convolution_param {
    num_output: 384
    pad: 1
    kernel_size: 3
    weight_filler {
      type: "gaussian"
      std: 0.01
    }
    bias_filler {
      type: "constant"
      value: 0
    }
  }
}
layer {
  name: "relu3"
  type: "ReLU"
  bottom: "conv3"
  top: "conv3"
}
layer {
  name: "conv4"
  type: "Convolution"
  bottom: "conv3"
  top: "conv4"
  param {
    lr_mult: 1
    decay_mult: 1
  }
  param {
    lr_mult: 2
    decay_mult: 0
  }
  convolution_param {
    num_output: 384
    pad: 1
    kernel_size: 3
    group: 2
    weight_filler {
      type: "gaussian"
      std: 0.01
    }
    bias_filler {
      type: "constant"
      value: 1
    }
  }
}
layer {
  name: "relu4"
  type: "ReLU"
  bottom: "conv4"
  top: "conv4"
}
layer {
  name: "conv5"
  type: "Convolution"
  bottom: "conv4"
  top: "conv5"
  param {
    lr_mult: 1
    decay_mult: 1
  }
  param {
    lr_mult: 2
    decay_mult: 0
  }
  convolution_param {
    num_output: 256
    pad: 1
    kernel_size: 3
    group: 2
    weight_filler {
      type: "gaussian"
      std: 0.01
    }
    bias_filler {
      type: "constant"
      value: 1
    }
  }
}
layer {
  name: "relu5"
  type: "ReLU"
  bottom: "conv5"
  top: "conv5"
}
layer {
  name: "pool5"
  type: "Pooling"
  bottom: "conv5"
  top: "pool5"
  pooling_param {
    pool: MAX
    kernel_size: 3
    stride: 2
  }
}
layer {
  name: "fc6"
  type: "InnerProduct"
  bottom: "pool5"
  top: "fc6"
  param {
    lr_mult: 1
    decay_mult: 1
  }
  param {
    lr_mult: 2
    decay_mult: 0
  }
  inner_product_param {
    num_output: 4096
    weight_filler {
      type: "gaussian"
      std: 0.005
    }
    bias_filler {
      type: "constant"
      value: 1
    }
  }
}
layer {
  name: "relu6"
  type: "ReLU"
  bottom: "fc6"
  top: "fc6"
}
layer {
  name: "drop6"
  type: "Dropout"
  bottom: "fc6"
  top: "fc6"
  dropout_param {
    dropout_ratio: 0.5
  }
}
layer {
  name: "fc7"
  type: "InnerProduct"
  bottom: "fc6"
  top: "fc7"
  param {
    lr_mult: 1
    decay_mult: 1
  }
  param {
    lr_mult: 2
    decay_mult: 0
  }
  inner_product_param {
    num_output: 4096
    weight_filler {
      type: "gaussian"
      std: 0.005
    }
    bias_filler {
      type: "constant"
      value: 1
    }
  }
}
layer {
  name: "relu7"
  type: "ReLU"
  bottom: "fc7"
  top: "fc7"
}
layer {
  name: "drop7"
  type: "Dropout"
  bottom: "fc7"
  top: "fc7"
  dropout_param {
    dropout_ratio: 0.5
  }
}
layer {
  name: "fc8"
  type: "InnerProduct"
  bottom: "fc7"
  top: "fc8"
  param {
    lr_mult: 1
    decay_mult: 1
  }
  param {
    lr_mult: 2
    decay_mult: 0
  }
  inner_product_param {
    num_output: 2
    weight_filler {
      type: "gaussian"
      std: 0.01
    }
    bias_filler {
      type: "constant"
      value: 0
    }
  }
}
layer {
  name: "accuracy"
  type: "Accuracy"
  bottom: "fc8"
  bottom: "label"
  top: "accuracy"
  include {
    phase: TEST
  }
}
layer {
  name: "loss"
  type: "SoftmaxWithLoss"
  bottom: "fc8"
  bottom: "label"
  top: "loss"
}
I1009 21:34:06.968428 25272 layer_factory.hpp:74] Creating layer data
I1009 21:34:06.968441 25272 net.cpp:92] Creating Layer data
I1009 21:34:06.968447 25272 net.cpp:370] data -> data
I1009 21:34:06.968456 25272 net.cpp:370] data -> label
I1009 21:34:06.968464 25272 net.cpp:122] Setting up data
I1009 21:34:06.968471 25272 data_transformer.cpp:22] Loading mean file from: data/whole_fs/imagenet_mean.binaryproto
I1009 21:34:06.969758 25272 db_lmdb.cpp:22] Opened lmdb whole_fs/imagenet_val_leveldb
I1009 21:34:06.969823 25272 data_layer.cpp:52] output data size: 10,3,227,227
I1009 21:34:06.970928 25272 net.cpp:129] Top shape: 10 3 227 227 (1545870)
I1009 21:34:06.970953 25272 net.cpp:129] Top shape: 10 (10)
I1009 21:34:06.970962 25272 layer_factory.hpp:74] Creating layer label_data_1_split
I1009 21:34:06.970973 25272 net.cpp:92] Creating Layer label_data_1_split
I1009 21:34:06.970980 25272 net.cpp:412] label_data_1_split <- label
I1009 21:34:06.970991 25272 net.cpp:370] label_data_1_split -> label_data_1_split_0
I1009 21:34:06.971004 25272 net.cpp:370] label_data_1_split -> label_data_1_split_1
I1009 21:34:06.971011 25272 net.cpp:122] Setting up label_data_1_split
I1009 21:34:06.971019 25272 net.cpp:129] Top shape: 10 (10)
I1009 21:34:06.971025 25272 net.cpp:129] Top shape: 10 (10)
I1009 21:34:06.971030 25272 layer_factory.hpp:74] Creating layer conv1
I1009 21:34:06.971041 25272 net.cpp:92] Creating Layer conv1
I1009 21:34:06.971046 25272 net.cpp:412] conv1 <- data
I1009 21:34:06.971053 25272 net.cpp:370] conv1 -> conv1
I1009 21:34:06.971062 25272 net.cpp:122] Setting up conv1
I1009 21:34:06.971896 25272 net.cpp:129] Top shape: 10 96 55 55 (2904000)
I1009 21:34:06.971910 25272 layer_factory.hpp:74] Creating layer relu1
I1009 21:34:06.971918 25272 net.cpp:92] Creating Layer relu1
I1009 21:34:06.971931 25272 net.cpp:412] relu1 <- conv1
I1009 21:34:06.971946 25272 net.cpp:359] relu1 -> conv1 (in-place)
I1009 21:34:06.971952 25272 net.cpp:122] Setting up relu1
I1009 21:34:06.971959 25272 net.cpp:129] Top shape: 10 96 55 55 (2904000)
I1009 21:34:06.971964 25272 layer_factory.hpp:74] Creating layer pool1
I1009 21:34:06.971972 25272 net.cpp:92] Creating Layer pool1
I1009 21:34:06.971977 25272 net.cpp:412] pool1 <- conv1
I1009 21:34:06.971983 25272 net.cpp:370] pool1 -> pool1
I1009 21:34:06.971990 25272 net.cpp:122] Setting up pool1
I1009 21:34:06.972000 25272 net.cpp:129] Top shape: 10 96 27 27 (699840)
I1009 21:34:06.972005 25272 layer_factory.hpp:74] Creating layer norm1
I1009 21:34:06.972012 25272 net.cpp:92] Creating Layer norm1
I1009 21:34:06.972018 25272 net.cpp:412] norm1 <- pool1
I1009 21:34:06.972023 25272 net.cpp:370] norm1 -> norm1
I1009 21:34:06.972030 25272 net.cpp:122] Setting up norm1
I1009 21:34:06.972038 25272 net.cpp:129] Top shape: 10 96 27 27 (699840)
I1009 21:34:06.972043 25272 layer_factory.hpp:74] Creating layer conv2
I1009 21:34:06.972050 25272 net.cpp:92] Creating Layer conv2
I1009 21:34:06.972055 25272 net.cpp:412] conv2 <- norm1
I1009 21:34:06.972062 25272 net.cpp:370] conv2 -> conv2
I1009 21:34:06.972069 25272 net.cpp:122] Setting up conv2
I1009 21:34:06.979259 25272 net.cpp:129] Top shape: 10 256 27 27 (1866240)
I1009 21:34:06.979285 25272 layer_factory.hpp:74] Creating layer relu2
I1009 21:34:06.979295 25272 net.cpp:92] Creating Layer relu2
I1009 21:34:06.979302 25272 net.cpp:412] relu2 <- conv2
I1009 21:34:06.979310 25272 net.cpp:359] relu2 -> conv2 (in-place)
I1009 21:34:06.979317 25272 net.cpp:122] Setting up relu2
I1009 21:34:06.979323 25272 net.cpp:129] Top shape: 10 256 27 27 (1866240)
I1009 21:34:06.979328 25272 layer_factory.hpp:74] Creating layer pool2
I1009 21:34:06.979336 25272 net.cpp:92] Creating Layer pool2
I1009 21:34:06.979341 25272 net.cpp:412] pool2 <- conv2
I1009 21:34:06.979347 25272 net.cpp:370] pool2 -> pool2
I1009 21:34:06.979356 25272 net.cpp:122] Setting up pool2
I1009 21:34:06.979367 25272 net.cpp:129] Top shape: 10 256 13 13 (432640)
I1009 21:34:06.979372 25272 layer_factory.hpp:74] Creating layer norm2
I1009 21:34:06.979379 25272 net.cpp:92] Creating Layer norm2
I1009 21:34:06.979384 25272 net.cpp:412] norm2 <- pool2
I1009 21:34:06.979392 25272 net.cpp:370] norm2 -> norm2
I1009 21:34:06.979398 25272 net.cpp:122] Setting up norm2
I1009 21:34:06.979406 25272 net.cpp:129] Top shape: 10 256 13 13 (432640)
I1009 21:34:06.979411 25272 layer_factory.hpp:74] Creating layer conv3
I1009 21:34:06.979419 25272 net.cpp:92] Creating Layer conv3
I1009 21:34:06.979424 25272 net.cpp:412] conv3 <- norm2
I1009 21:34:06.979432 25272 net.cpp:370] conv3 -> conv3
I1009 21:34:06.979440 25272 net.cpp:122] Setting up conv3
I1009 21:34:06.999891 25272 net.cpp:129] Top shape: 10 384 13 13 (648960)
I1009 21:34:06.999903 25272 layer_factory.hpp:74] Creating layer relu3
I1009 21:34:06.999910 25272 net.cpp:92] Creating Layer relu3
I1009 21:34:06.999915 25272 net.cpp:412] relu3 <- conv3
I1009 21:34:06.999922 25272 net.cpp:359] relu3 -> conv3 (in-place)
I1009 21:34:06.999929 25272 net.cpp:122] Setting up relu3
I1009 21:34:06.999935 25272 net.cpp:129] Top shape: 10 384 13 13 (648960)
I1009 21:34:06.999940 25272 layer_factory.hpp:74] Creating layer conv4
I1009 21:34:06.999948 25272 net.cpp:92] Creating Layer conv4
I1009 21:34:06.999953 25272 net.cpp:412] conv4 <- conv3
I1009 21:34:06.999958 25272 net.cpp:370] conv4 -> conv4
I1009 21:34:06.999966 25272 net.cpp:122] Setting up conv4
I1009 21:34:07.015077 25272 net.cpp:129] Top shape: 10 384 13 13 (648960)
I1009 21:34:07.015092 25272 layer_factory.hpp:74] Creating layer relu4
I1009 21:34:07.015100 25272 net.cpp:92] Creating Layer relu4
I1009 21:34:07.015105 25272 net.cpp:412] relu4 <- conv4
I1009 21:34:07.015115 25272 net.cpp:359] relu4 -> conv4 (in-place)
I1009 21:34:07.015122 25272 net.cpp:122] Setting up relu4
I1009 21:34:07.015128 25272 net.cpp:129] Top shape: 10 384 13 13 (648960)
I1009 21:34:07.015133 25272 layer_factory.hpp:74] Creating layer conv5
I1009 21:34:07.015149 25272 net.cpp:92] Creating Layer conv5
I1009 21:34:07.015161 25272 net.cpp:412] conv5 <- conv4
I1009 21:34:07.015169 25272 net.cpp:370] conv5 -> conv5
I1009 21:34:07.015177 25272 net.cpp:122] Setting up conv5
I1009 21:34:07.025369 25272 net.cpp:129] Top shape: 10 256 13 13 (432640)
I1009 21:34:07.025383 25272 layer_factory.hpp:74] Creating layer relu5
I1009 21:34:07.025393 25272 net.cpp:92] Creating Layer relu5
I1009 21:34:07.025398 25272 net.cpp:412] relu5 <- conv5
I1009 21:34:07.025403 25272 net.cpp:359] relu5 -> conv5 (in-place)
I1009 21:34:07.025409 25272 net.cpp:122] Setting up relu5
I1009 21:34:07.025415 25272 net.cpp:129] Top shape: 10 256 13 13 (432640)
I1009 21:34:07.025420 25272 layer_factory.hpp:74] Creating layer pool5
I1009 21:34:07.025429 25272 net.cpp:92] Creating Layer pool5
I1009 21:34:07.025434 25272 net.cpp:412] pool5 <- conv5
I1009 21:34:07.025441 25272 net.cpp:370] pool5 -> pool5
I1009 21:34:07.025449 25272 net.cpp:122] Setting up pool5
I1009 21:34:07.025459 25272 net.cpp:129] Top shape: 10 256 6 6 (92160)
I1009 21:34:07.025463 25272 layer_factory.hpp:74] Creating layer fc6
I1009 21:34:07.025472 25272 net.cpp:92] Creating Layer fc6
I1009 21:34:07.025477 25272 net.cpp:412] fc6 <- pool5
I1009 21:34:07.025485 25272 net.cpp:370] fc6 -> fc6
I1009 21:34:07.025493 25272 net.cpp:122] Setting up fc6
I1009 21:34:07.882066 25272 net.cpp:129] Top shape: 10 4096 (40960)
I1009 21:34:07.882104 25272 layer_factory.hpp:74] Creating layer relu6
I1009 21:34:07.882117 25272 net.cpp:92] Creating Layer relu6
I1009 21:34:07.882123 25272 net.cpp:412] relu6 <- fc6
I1009 21:34:07.882132 25272 net.cpp:359] relu6 -> fc6 (in-place)
I1009 21:34:07.882140 25272 net.cpp:122] Setting up relu6
I1009 21:34:07.882148 25272 net.cpp:129] Top shape: 10 4096 (40960)
I1009 21:34:07.882153 25272 layer_factory.hpp:74] Creating layer drop6
I1009 21:34:07.882159 25272 net.cpp:92] Creating Layer drop6
I1009 21:34:07.882164 25272 net.cpp:412] drop6 <- fc6
I1009 21:34:07.882171 25272 net.cpp:359] drop6 -> fc6 (in-place)
I1009 21:34:07.882179 25272 net.cpp:122] Setting up drop6
I1009 21:34:07.882186 25272 net.cpp:129] Top shape: 10 4096 (40960)
I1009 21:34:07.882191 25272 layer_factory.hpp:74] Creating layer fc7
I1009 21:34:07.882200 25272 net.cpp:92] Creating Layer fc7
I1009 21:34:07.882205 25272 net.cpp:412] fc7 <- fc6
I1009 21:34:07.882213 25272 net.cpp:370] fc7 -> fc7
I1009 21:34:07.882222 25272 net.cpp:122] Setting up fc7
I1009 21:34:08.263285 25272 net.cpp:129] Top shape: 10 4096 (40960)
I1009 21:34:08.263325 25272 layer_factory.hpp:74] Creating layer relu7
I1009 21:34:08.263336 25272 net.cpp:92] Creating Layer relu7
I1009 21:34:08.263344 25272 net.cpp:412] relu7 <- fc7
I1009 21:34:08.263352 25272 net.cpp:359] relu7 -> fc7 (in-place)
I1009 21:34:08.263361 25272 net.cpp:122] Setting up relu7
I1009 21:34:08.263367 25272 net.cpp:129] Top shape: 10 4096 (40960)
I1009 21:34:08.263372 25272 layer_factory.hpp:74] Creating layer drop7
I1009 21:34:08.263381 25272 net.cpp:92] Creating Layer drop7
I1009 21:34:08.263384 25272 net.cpp:412] drop7 <- fc7
I1009 21:34:08.263391 25272 net.cpp:359] drop7 -> fc7 (in-place)
I1009 21:34:08.263397 25272 net.cpp:122] Setting up drop7
I1009 21:34:08.263404 25272 net.cpp:129] Top shape: 10 4096 (40960)
I1009 21:34:08.263409 25272 layer_factory.hpp:74] Creating layer fc8
I1009 21:34:08.263419 25272 net.cpp:92] Creating Layer fc8
I1009 21:34:08.263424 25272 net.cpp:412] fc8 <- fc7
I1009 21:34:08.263432 25272 net.cpp:370] fc8 -> fc8
I1009 21:34:08.263442 25272 net.cpp:122] Setting up fc8
I1009 21:34:08.263644 25272 net.cpp:129] Top shape: 10 2 (20)
I1009 21:34:08.263653 25272 layer_factory.hpp:74] Creating layer fc8_fc8_0_split
I1009 21:34:08.263659 25272 net.cpp:92] Creating Layer fc8_fc8_0_split
I1009 21:34:08.263664 25272 net.cpp:412] fc8_fc8_0_split <- fc8
I1009 21:34:08.263670 25272 net.cpp:370] fc8_fc8_0_split -> fc8_fc8_0_split_0
I1009 21:34:08.263679 25272 net.cpp:370] fc8_fc8_0_split -> fc8_fc8_0_split_1
I1009 21:34:08.263686 25272 net.cpp:122] Setting up fc8_fc8_0_split
I1009 21:34:08.263702 25272 net.cpp:129] Top shape: 10 2 (20)
I1009 21:34:08.263717 25272 net.cpp:129] Top shape: 10 2 (20)
I1009 21:34:08.263722 25272 layer_factory.hpp:74] Creating layer accuracy
I1009 21:34:08.263731 25272 net.cpp:92] Creating Layer accuracy
I1009 21:34:08.263736 25272 net.cpp:412] accuracy <- fc8_fc8_0_split_0
I1009 21:34:08.263741 25272 net.cpp:412] accuracy <- label_data_1_split_0
I1009 21:34:08.263748 25272 net.cpp:370] accuracy -> accuracy
I1009 21:34:08.263756 25272 net.cpp:122] Setting up accuracy
…
