…
I1002 13:40:25.941110 17059 net.cpp:289] The NetState phase (0) differed from the phase (1) specified by a rule in layer accuracy
I1002 13:40:25.941252 17059 net.cpp:44] Initializing net from parameters: 
name: "CaffeNet"
state {
  phase: TRAIN
}
layer {
  name: "data"
  type: "Data"
  top: "data"
  top: "label"
  include {
    phase: TRAIN
  }
  transform_param {
    mirror: true
    crop_size: 227
    mean_file: "data/Stanford_Cars_49/imagenet_mean.binaryproto"
  }
  data_param {
    source: "Stanford_Cars_49/imagenet_train_leveldb"
    batch_size: 128
    backend: LMDB
  }
}
layer {
  name: "conv1"
  type: "Convolution"
  bottom: "data"
  top: "conv1"
  param {
    lr_mult: 1
    decay_mult: 1
  }
  param {
    lr_mult: 2
    decay_mult: 0
  }
  convolution_param {
    num_output: 96
    kernel_size: 11
    stride: 4
    weight_filler {
      type: "gaussian"
      std: 0.01
    }
    bias_filler {
      type: "constant"
      value: 0
    }
  }
}
layer {
  name: "relu1"
  type: "ReLU"
  bottom: "conv1"
  top: "conv1"
}
layer {
  name: "pool1"
  type: "Pooling"
  bottom: "conv1"
  top: "pool1"
  pooling_param {
    pool: MAX
    kernel_size: 3
    stride: 2
  }
}
layer {
  name: "norm1"
  type: "LRN"
  bottom: "pool1"
  top: "norm1"
  lrn_param {
    local_size: 5
    alpha: 0.0001
    beta: 0.75
  }
}
layer {
  name: "conv2"
  type: "Convolution"
  bottom: "norm1"
  top: "conv2"
  param {
    lr_mult: 1
    decay_mult: 1
  }
  param {
    lr_mult: 2
    decay_mult: 0
  }
  convolution_param {
    num_output: 256
    pad: 2
    kernel_size: 5
    group: 2
    weight_filler {
      type: "gaussian"
      std: 0.01
    }
    bias_filler {
      type: "constant"
      value: 1
    }
  }
}
layer {
  name: "relu2"
  type: "ReLU"
  bottom: "conv2"
  top: "conv2"
}
layer {
  name: "pool2"
  type: "Pooling"
  bottom: "conv2"
  top: "pool2"
  pooling_param {
    pool: MAX
    kernel_size: 3
    stride: 2
  }
}
layer {
  name: "norm2"
  type: "LRN"
  bottom: "pool2"
  top: "norm2"
  lrn_param {
    local_size: 5
    alpha: 0.0001
    beta: 0.75
  }
}
layer {
  name: "conv3"
  type: "Convolution"
  bottom: "norm2"
  top: "conv3"
  param {
    lr_mult: 1
    decay_mult: 1
  }
  param {
    lr_mult: 2
    decay_mult: 0
  }
  convolution_param {
    num_output: 384
    pad: 1
    kernel_size: 3
    weight_filler {
      type: "gaussian"
      std: 0.01
    }
    bias_filler {
      type: "constant"
      value: 0
    }
  }
}
layer {
  name: "relu3"
  type: "ReLU"
  bottom: "conv3"
  top: "conv3"
}
layer {
  name: "conv4"
  type: "Convolution"
  bottom: "conv3"
  top: "conv4"
  param {
    lr_mult: 1
    decay_mult: 1
  }
  param {
    lr_mult: 2
    decay_mult: 0
  }
  convolution_param {
    num_output: 384
    pad: 1
    kernel_size: 3
    group: 2
    weight_filler {
      type: "gaussian"
      std: 0.01
    }
    bias_filler {
      type: "constant"
      value: 1
    }
  }
}
layer {
  name: "relu4"
  type: "ReLU"
  bottom: "conv4"
  top: "conv4"
}
layer {
  name: "conv5"
  type: "Convolution"
  bottom: "conv4"
  top: "conv5"
  param {
    lr_mult: 1
    decay_mult: 1
  }
  param {
    lr_mult: 2
    decay_mult: 0
  }
  convolution_param {
    num_output: 256
    pad: 1
    kernel_size: 3
    group: 2
    weight_filler {
      type: "gaussian"
      std: 0.01
    }
    bias_filler {
      type: "constant"
      value: 1
    }
  }
}
layer {
  name: "relu5"
  type: "ReLU"
  bottom: "conv5"
  top: "conv5"
}
layer {
  name: "pool5"
  type: "Pooling"
  bottom: "conv5"
  top: "pool5"
  pooling_param {
    pool: MAX
    kernel_size: 3
    stride: 2
  }
}
layer {
  name: "fc6"
  type: "InnerProduct"
  bottom: "pool5"
  top: "fc6"
  param {
    lr_mult: 1
    decay_mult: 1
  }
  param {
    lr_mult: 2
    decay_mult: 0
  }
  inner_product_param {
    num_output: 4096
    weight_filler {
      type: "gaussian"
      std: 0.005
    }
    bias_filler {
      type: "constant"
      value: 1
    }
  }
}
layer {
  name: "relu6"
  type: "ReLU"
  bottom: "fc6"
  top: "fc6"
}
layer {
  name: "drop6"
  type: "Dropout"
  bottom: "fc6"
  top: "fc6"
  dropout_param {
    dropout_ratio: 0.5
  }
}
layer {
  name: "fc7"
  type: "InnerProduct"
  bottom: "fc6"
  top: "fc7"
  param {
    lr_mult: 1
    decay_mult: 1
  }
  param {
    lr_mult: 2
    decay_mult: 0
  }
  inner_product_param {
    num_output: 4096
    weight_filler {
      type: "gaussian"
      std: 0.005
    }
    bias_filler {
      type: "constant"
      value: 1
    }
  }
}
layer {
  name: "relu7"
  type: "ReLU"
  bottom: "fc7"
  top: "fc7"
}
layer {
  name: "drop7"
  type: "Dropout"
  bottom: "fc7"
  top: "fc7"
  dropout_param {
    dropout_ratio: 0.5
  }
}
layer {
  name: "fc8"
  type: "InnerProduct"
  bottom: "fc7"
  top: "fc8"
  param {
    lr_mult: 1
    decay_mult: 1
  }
  param {
    lr_mult: 2
    decay_mult: 0
  }
  inner_product_param {
    num_output: 50
    weight_filler {
      type: "gaussian"
      std: 0.01
    }
    bias_filler {
      type: "constant"
      value: 0
    }
  }
}
layer {
  name: "loss"
  type: "SoftmaxWithLoss"
  bottom: "fc8"
  bottom: "label"
  top: "loss"
}
I1002 13:40:25.941355 17059 layer_factory.hpp:74] Creating layer data
I1002 13:40:25.941378 17059 net.cpp:92] Creating Layer data
I1002 13:40:25.941387 17059 net.cpp:370] data -> data
I1002 13:40:25.941408 17059 net.cpp:370] data -> label
I1002 13:40:25.941419 17059 net.cpp:122] Setting up data
I1002 13:40:25.941427 17059 data_transformer.cpp:22] Loading mean file from: data/Stanford_Cars_49/imagenet_mean.binaryproto
I1002 13:40:25.943054 17059 db_lmdb.cpp:22] Opened lmdb Stanford_Cars_49/imagenet_train_leveldb
I1002 13:40:25.943130 17059 data_layer.cpp:52] output data size: 128,3,227,227
I1002 13:40:25.952507 17059 net.cpp:129] Top shape: 128 3 227 227 (19787136)
I1002 13:40:25.952546 17059 net.cpp:129] Top shape: 128 (128)
I1002 13:40:25.952558 17059 layer_factory.hpp:74] Creating layer conv1
I1002 13:40:25.952577 17059 net.cpp:92] Creating Layer conv1
I1002 13:40:25.952584 17059 net.cpp:412] conv1 <- data
I1002 13:40:25.952599 17059 net.cpp:370] conv1 -> conv1
I1002 13:40:25.952613 17059 net.cpp:122] Setting up conv1
I1002 13:40:25.953469 17059 net.cpp:129] Top shape: 128 96 55 55 (37171200)
I1002 13:40:25.953488 17059 layer_factory.hpp:74] Creating layer relu1
I1002 13:40:25.953498 17059 net.cpp:92] Creating Layer relu1
I1002 13:40:25.953505 17059 net.cpp:412] relu1 <- conv1
I1002 13:40:25.953510 17059 net.cpp:359] relu1 -> conv1 (in-place)
I1002 13:40:25.953517 17059 net.cpp:122] Setting up relu1
I1002 13:40:25.953524 17059 net.cpp:129] Top shape: 128 96 55 55 (37171200)
I1002 13:40:25.953531 17059 layer_factory.hpp:74] Creating layer pool1
I1002 13:40:25.953538 17059 net.cpp:92] Creating Layer pool1
I1002 13:40:25.953543 17059 net.cpp:412] pool1 <- conv1
I1002 13:40:25.953550 17059 net.cpp:370] pool1 -> pool1
I1002 13:40:25.953558 17059 net.cpp:122] Setting up pool1
I1002 13:40:25.953575 17059 net.cpp:129] Top shape: 128 96 27 27 (8957952)
I1002 13:40:25.953583 17059 layer_factory.hpp:74] Creating layer norm1
I1002 13:40:25.953591 17059 net.cpp:92] Creating Layer norm1
I1002 13:40:25.953596 17059 net.cpp:412] norm1 <- pool1
I1002 13:40:25.953603 17059 net.cpp:370] norm1 -> norm1
I1002 13:40:25.953613 17059 net.cpp:122] Setting up norm1
I1002 13:40:25.953624 17059 net.cpp:129] Top shape: 128 96 27 27 (8957952)
I1002 13:40:25.953629 17059 layer_factory.hpp:74] Creating layer conv2
I1002 13:40:25.953646 17059 net.cpp:92] Creating Layer conv2
I1002 13:40:25.953652 17059 net.cpp:412] conv2 <- norm1
I1002 13:40:25.953670 17059 net.cpp:370] conv2 -> conv2
I1002 13:40:25.953678 17059 net.cpp:122] Setting up conv2
I1002 13:40:25.961004 17059 net.cpp:129] Top shape: 128 256 27 27 (23887872)
I1002 13:40:25.961040 17059 layer_factory.hpp:74] Creating layer relu2
I1002 13:40:25.961052 17059 net.cpp:92] Creating Layer relu2
I1002 13:40:25.961058 17059 net.cpp:412] relu2 <- conv2
I1002 13:40:25.961069 17059 net.cpp:359] relu2 -> conv2 (in-place)
I1002 13:40:25.961078 17059 net.cpp:122] Setting up relu2
I1002 13:40:25.961086 17059 net.cpp:129] Top shape: 128 256 27 27 (23887872)
I1002 13:40:25.961091 17059 layer_factory.hpp:74] Creating layer pool2
I1002 13:40:25.961099 17059 net.cpp:92] Creating Layer pool2
I1002 13:40:25.961104 17059 net.cpp:412] pool2 <- conv2
I1002 13:40:25.961112 17059 net.cpp:370] pool2 -> pool2
I1002 13:40:25.961120 17059 net.cpp:122] Setting up pool2
I1002 13:40:25.961130 17059 net.cpp:129] Top shape: 128 256 13 13 (5537792)
I1002 13:40:25.961136 17059 layer_factory.hpp:74] Creating layer norm2
I1002 13:40:25.961148 17059 net.cpp:92] Creating Layer norm2
I1002 13:40:25.961153 17059 net.cpp:412] norm2 <- pool2
I1002 13:40:25.961160 17059 net.cpp:370] norm2 -> norm2
I1002 13:40:25.961169 17059 net.cpp:122] Setting up norm2
I1002 13:40:25.961177 17059 net.cpp:129] Top shape: 128 256 13 13 (5537792)
I1002 13:40:25.961182 17059 layer_factory.hpp:74] Creating layer conv3
I1002 13:40:25.961192 17059 net.cpp:92] Creating Layer conv3
I1002 13:40:25.961197 17059 net.cpp:412] conv3 <- norm2
I1002 13:40:25.961206 17059 net.cpp:370] conv3 -> conv3
I1002 13:40:25.961217 17059 net.cpp:122] Setting up conv3
I1002 13:40:25.982161 17059 net.cpp:129] Top shape: 128 384 13 13 (8306688)
I1002 13:40:25.982197 17059 layer_factory.hpp:74] Creating layer relu3
I1002 13:40:25.982209 17059 net.cpp:92] Creating Layer relu3
I1002 13:40:25.982216 17059 net.cpp:412] relu3 <- conv3
I1002 13:40:25.982225 17059 net.cpp:359] relu3 -> conv3 (in-place)
I1002 13:40:25.982234 17059 net.cpp:122] Setting up relu3
I1002 13:40:25.982242 17059 net.cpp:129] Top shape: 128 384 13 13 (8306688)
I1002 13:40:25.982247 17059 layer_factory.hpp:74] Creating layer conv4
I1002 13:40:25.982259 17059 net.cpp:92] Creating Layer conv4
I1002 13:40:25.982264 17059 net.cpp:412] conv4 <- conv3
I1002 13:40:25.982271 17059 net.cpp:370] conv4 -> conv4
I1002 13:40:25.982280 17059 net.cpp:122] Setting up conv4
I1002 13:40:25.998123 17059 net.cpp:129] Top shape: 128 384 13 13 (8306688)
I1002 13:40:25.998167 17059 layer_factory.hpp:74] Creating layer relu4
I1002 13:40:25.998178 17059 net.cpp:92] Creating Layer relu4
I1002 13:40:25.998185 17059 net.cpp:412] relu4 <- conv4
I1002 13:40:25.998193 17059 net.cpp:359] relu4 -> conv4 (in-place)
I1002 13:40:25.998203 17059 net.cpp:122] Setting up relu4
I1002 13:40:25.998210 17059 net.cpp:129] Top shape: 128 384 13 13 (8306688)
I1002 13:40:25.998215 17059 layer_factory.hpp:74] Creating layer conv5
I1002 13:40:25.998232 17059 net.cpp:92] Creating Layer conv5
I1002 13:40:25.998237 17059 net.cpp:412] conv5 <- conv4
I1002 13:40:25.998246 17059 net.cpp:370] conv5 -> conv5
I1002 13:40:25.998255 17059 net.cpp:122] Setting up conv5
I1002 13:40:26.008847 17059 net.cpp:129] Top shape: 128 256 13 13 (5537792)
I1002 13:40:26.008887 17059 layer_factory.hpp:74] Creating layer relu5
I1002 13:40:26.008898 17059 net.cpp:92] Creating Layer relu5
I1002 13:40:26.008903 17059 net.cpp:412] relu5 <- conv5
I1002 13:40:26.008913 17059 net.cpp:359] relu5 -> conv5 (in-place)
I1002 13:40:26.008923 17059 net.cpp:122] Setting up relu5
I1002 13:40:26.008929 17059 net.cpp:129] Top shape: 128 256 13 13 (5537792)
I1002 13:40:26.008935 17059 layer_factory.hpp:74] Creating layer pool5
I1002 13:40:26.008942 17059 net.cpp:92] Creating Layer pool5
I1002 13:40:26.008949 17059 net.cpp:412] pool5 <- conv5
I1002 13:40:26.008955 17059 net.cpp:370] pool5 -> pool5
I1002 13:40:26.008965 17059 net.cpp:122] Setting up pool5
I1002 13:40:26.008977 17059 net.cpp:129] Top shape: 128 256 6 6 (1179648)
I1002 13:40:26.008996 17059 layer_factory.hpp:74] Creating layer fc6
I1002 13:40:26.009017 17059 net.cpp:92] Creating Layer fc6
I1002 13:40:26.009023 17059 net.cpp:412] fc6 <- pool5
I1002 13:40:26.009032 17059 net.cpp:370] fc6 -> fc6
I1002 13:40:26.009043 17059 net.cpp:122] Setting up fc6
I1002 13:40:26.867043 17059 net.cpp:129] Top shape: 128 4096 (524288)
I1002 13:40:26.867085 17059 layer_factory.hpp:74] Creating layer relu6
I1002 13:40:26.867097 17059 net.cpp:92] Creating Layer relu6
I1002 13:40:26.867104 17059 net.cpp:412] relu6 <- fc6
I1002 13:40:26.867113 17059 net.cpp:359] relu6 -> fc6 (in-place)
I1002 13:40:26.867123 17059 net.cpp:122] Setting up relu6
I1002 13:40:26.867130 17059 net.cpp:129] Top shape: 128 4096 (524288)
I1002 13:40:26.867136 17059 layer_factory.hpp:74] Creating layer drop6
I1002 13:40:26.867151 17059 net.cpp:92] Creating Layer drop6
I1002 13:40:26.867156 17059 net.cpp:412] drop6 <- fc6
I1002 13:40:26.867164 17059 net.cpp:359] drop6 -> fc6 (in-place)
I1002 13:40:26.867174 17059 net.cpp:122] Setting up drop6
I1002 13:40:26.867184 17059 net.cpp:129] Top shape: 128 4096 (524288)
I1002 13:40:26.867189 17059 layer_factory.hpp:74] Creating layer fc7
I1002 13:40:26.867198 17059 net.cpp:92] Creating Layer fc7
I1002 13:40:26.867203 17059 net.cpp:412] fc7 <- fc6
I1002 13:40:26.867210 17059 net.cpp:370] fc7 -> fc7
I1002 13:40:26.867220 17059 net.cpp:122] Setting up fc7
I1002 13:40:27.248232 17059 net.cpp:129] Top shape: 128 4096 (524288)
I1002 13:40:27.248265 17059 layer_factory.hpp:74] Creating layer relu7
I1002 13:40:27.248275 17059 net.cpp:92] Creating Layer relu7
I1002 13:40:27.248283 17059 net.cpp:412] relu7 <- fc7
I1002 13:40:27.248291 17059 net.cpp:359] relu7 -> fc7 (in-place)
I1002 13:40:27.248301 17059 net.cpp:122] Setting up relu7
I1002 13:40:27.248307 17059 net.cpp:129] Top shape: 128 4096 (524288)
I1002 13:40:27.248312 17059 layer_factory.hpp:74] Creating layer drop7
I1002 13:40:27.248320 17059 net.cpp:92] Creating Layer drop7
I1002 13:40:27.248325 17059 net.cpp:412] drop7 <- fc7
I1002 13:40:27.248332 17059 net.cpp:359] drop7 -> fc7 (in-place)
I1002 13:40:27.248338 17059 net.cpp:122] Setting up drop7
I1002 13:40:27.248347 17059 net.cpp:129] Top shape: 128 4096 (524288)
I1002 13:40:27.248353 17059 layer_factory.hpp:74] Creating layer fc8
I1002 13:40:27.248363 17059 net.cpp:92] Creating Layer fc8
I1002 13:40:27.248368 17059 net.cpp:412] fc8 <- fc7
I1002 13:40:27.248375 17059 net.cpp:370] fc8 -> fc8
I1002 13:40:27.248384 17059 net.cpp:122] Setting up fc8
I1002 13:40:27.253137 17059 net.cpp:129] Top shape: 128 50 (6400)
I1002 13:40:27.253149 17059 layer_factory.hpp:74] Creating layer loss
I1002 13:40:27.253157 17059 net.cpp:92] Creating Layer loss
I1002 13:40:27.253164 17059 net.cpp:412] loss <- fc8
I1002 13:40:27.253170 17059 net.cpp:412] loss <- label
I1002 13:40:27.253178 17059 net.cpp:370] loss -> loss
I1002 13:40:27.253186 17059 net.cpp:122] Setting up loss
I1002 13:40:27.253195 17059 layer_factory.hpp:74] Creating layer loss
…
I1002 13:40:27.254047 17059 net.cpp:289] The NetState phase (1) differed from the phase (0) specified by a rule in layer data
I1002 13:40:27.254228 17059 net.cpp:44] Initializing net from parameters: 
name: "CaffeNet"
state {
  phase: TEST
}
layer {
  name: "data"
  type: "Data"
  top: "data"
  top: "label"
  include {
    phase: TEST
  }
  transform_param {
    mirror: true
    crop_size: 227
    mean_file: "data/Stanford_Cars_49/imagenet_mean.binaryproto"
  }
  data_param {
    source: "Stanford_Cars_49/imagenet_val_leveldb"
    mean_file: "data/Stanford_Cars_49/imagenet_mean.binartproto"
    batch_size: 10
    crop_size: 227
    mirror: false
    backend: LMDB
  }
}
layer {
  name: "conv1"
  type: "Convolution"
  bottom: "data"
  top: "conv1"
  param {
    lr_mult: 1
    decay_mult: 1
  }
  param {
    lr_mult: 2
    decay_mult: 0
  }
  convolution_param {
    num_output: 96
    kernel_size: 11
    stride: 4
    weight_filler {
      type: "gaussian"
      std: 0.01
    }
    bias_filler {
      type: "constant"
      value: 0
    }
  }
}
layer {
  name: "relu1"
  type: "ReLU"
  bottom: "conv1"
  top: "conv1"
}
layer {
  name: "pool1"
  type: "Pooling"
  bottom: "conv1"
  top: "pool1"
  pooling_param {
    pool: MAX
    kernel_size: 3
    stride: 2
  }
}
layer {
  name: "norm1"
  type: "LRN"
  bottom: "pool1"
  top: "norm1"
  lrn_param {
    local_size: 5
    alpha: 0.0001
    beta: 0.75
  }
}
layer {
  name: "conv2"
  type: "Convolution"
  bottom: "norm1"
  top: "conv2"
  param {
    lr_mult: 1
    decay_mult: 1
  }
  param {
    lr_mult: 2
    decay_mult: 0
  }
  convolution_param {
    num_output: 256
    pad: 2
    kernel_size: 5
    group: 2
    weight_filler {
      type: "gaussian"
      std: 0.01
    }
    bias_filler {
      type: "constant"
      value: 1
    }
  }
}
layer {
  name: "relu2"
  type: "ReLU"
  bottom: "conv2"
  top: "conv2"
}
layer {
  name: "pool2"
  type: "Pooling"
  bottom: "conv2"
  top: "pool2"
  pooling_param {
    pool: MAX
    kernel_size: 3
    stride: 2
  }
}
layer {
  name: "norm2"
  type: "LRN"
  bottom: "pool2"
  top: "norm2"
  lrn_param {
    local_size: 5
    alpha: 0.0001
    beta: 0.75
  }
}
layer {
  name: "conv3"
  type: "Convolution"
  bottom: "norm2"
  top: "conv3"
  param {
    lr_mult: 1
    decay_mult: 1
  }
  param {
    lr_mult: 2
    decay_mult: 0
  }
  convolution_param {
    num_output: 384
    pad: 1
    kernel_size: 3
    weight_filler {
      type: "gaussian"
      std: 0.01
    }
    bias_filler {
      type: "constant"
      value: 0
    }
  }
}
layer {
  name: "relu3"
  type: "ReLU"
  bottom: "conv3"
  top: "conv3"
}
layer {
  name: "conv4"
  type: "Convolution"
  bottom: "conv3"
  top: "conv4"
  param {
    lr_mult: 1
    decay_mult: 1
  }
  param {
    lr_mult: 2
    decay_mult: 0
  }
  convolution_param {
    num_output: 384
    pad: 1
    kernel_size: 3
    group: 2
    weight_filler {
      type: "gaussian"
      std: 0.01
    }
    bias_filler {
      type: "constant"
      value: 1
    }
  }
}
layer {
  name: "relu4"
  type: "ReLU"
  bottom: "conv4"
  top: "conv4"
}
layer {
  name: "conv5"
  type: "Convolution"
  bottom: "conv4"
  top: "conv5"
  param {
    lr_mult: 1
    decay_mult: 1
  }
  param {
    lr_mult: 2
    decay_mult: 0
  }
  convolution_param {
    num_output: 256
    pad: 1
    kernel_size: 3
    group: 2
    weight_filler {
      type: "gaussian"
      std: 0.01
    }
    bias_filler {
      type: "constant"
      value: 1
    }
  }
}
layer {
  name: "relu5"
  type: "ReLU"
  bottom: "conv5"
  top: "conv5"
}
layer {
  name: "pool5"
  type: "Pooling"
  bottom: "conv5"
  top: "pool5"
  pooling_param {
    pool: MAX
    kernel_size: 3
    stride: 2
  }
}
layer {
  name: "fc6"
  type: "InnerProduct"
  bottom: "pool5"
  top: "fc6"
  param {
    lr_mult: 1
    decay_mult: 1
  }
  param {
    lr_mult: 2
    decay_mult: 0
  }
  inner_product_param {
    num_output: 4096
    weight_filler {
      type: "gaussian"
      std: 0.005
    }
    bias_filler {
      type: "constant"
      value: 1
    }
  }
}
layer {
  name: "relu6"
  type: "ReLU"
  bottom: "fc6"
  top: "fc6"
}
layer {
  name: "drop6"
  type: "Dropout"
  bottom: "fc6"
  top: "fc6"
  dropout_param {
    dropout_ratio: 0.5
  }
}
layer {
  name: "fc7"
  type: "InnerProduct"
  bottom: "fc6"
  top: "fc7"
  param {
    lr_mult: 1
    decay_mult: 1
  }
  param {
    lr_mult: 2
    decay_mult: 0
  }
  inner_product_param {
    num_output: 4096
    weight_filler {
      type: "gaussian"
      std: 0.005
    }
    bias_filler {
      type: "constant"
      value: 1
    }
  }
}
layer {
  name: "relu7"
  type: "ReLU"
  bottom: "fc7"
  top: "fc7"
}
layer {
  name: "drop7"
  type: "Dropout"
  bottom: "fc7"
  top: "fc7"
  dropout_param {
    dropout_ratio: 0.5
  }
}
layer {
  name: "fc8"
  type: "InnerProduct"
  bottom: "fc7"
  top: "fc8"
  param {
    lr_mult: 1
    decay_mult: 1
  }
  param {
    lr_mult: 2
    decay_mult: 0
  }
  inner_product_param {
    num_output: 50
    weight_filler {
      type: "gaussian"
      std: 0.01
    }
    bias_filler {
      type: "constant"
      value: 0
    }
  }
}
layer {
  name: "accuracy"
  type: "Accuracy"
  bottom: "fc8"
  bottom: "label"
  top: "accuracy"
  include {
    phase: TEST
  }
}
layer {
  name: "loss"
  type: "SoftmaxWithLoss"
  bottom: "fc8"
  bottom: "label"
  top: "loss"
}
I1002 13:40:27.254333 17059 layer_factory.hpp:74] Creating layer data
I1002 13:40:27.254344 17059 net.cpp:92] Creating Layer data
I1002 13:40:27.254351 17059 net.cpp:370] data -> data
I1002 13:40:27.254361 17059 net.cpp:370] data -> label
I1002 13:40:27.254369 17059 net.cpp:122] Setting up data
I1002 13:40:27.254376 17059 data_transformer.cpp:22] Loading mean file from: data/Stanford_Cars_49/imagenet_mean.binaryproto
I1002 13:40:27.255692 17059 db_lmdb.cpp:22] Opened lmdb Stanford_Cars_49/imagenet_val_leveldb
I1002 13:40:27.255759 17059 data_layer.cpp:52] output data size: 10,3,227,227
I1002 13:40:27.256732 17059 net.cpp:129] Top shape: 10 3 227 227 (1545870)
I1002 13:40:27.256755 17059 net.cpp:129] Top shape: 10 (10)
I1002 13:40:27.256763 17059 layer_factory.hpp:74] Creating layer label_data_1_split
I1002 13:40:27.256777 17059 net.cpp:92] Creating Layer label_data_1_split
I1002 13:40:27.256783 17059 net.cpp:412] label_data_1_split <- label
I1002 13:40:27.256793 17059 net.cpp:370] label_data_1_split -> label_data_1_split_0
I1002 13:40:27.256806 17059 net.cpp:370] label_data_1_split -> label_data_1_split_1
I1002 13:40:27.256814 17059 net.cpp:122] Setting up label_data_1_split
I1002 13:40:27.256824 17059 net.cpp:129] Top shape: 10 (10)
I1002 13:40:27.256830 17059 net.cpp:129] Top shape: 10 (10)
I1002 13:40:27.256835 17059 layer_factory.hpp:74] Creating layer conv1
I1002 13:40:27.256846 17059 net.cpp:92] Creating Layer conv1
I1002 13:40:27.256851 17059 net.cpp:412] conv1 <- data
I1002 13:40:27.256860 17059 net.cpp:370] conv1 -> conv1
I1002 13:40:27.256870 17059 net.cpp:122] Setting up conv1
I1002 13:40:27.257701 17059 net.cpp:129] Top shape: 10 96 55 55 (2904000)
I1002 13:40:27.257725 17059 layer_factory.hpp:74] Creating layer relu1
I1002 13:40:27.257740 17059 net.cpp:92] Creating Layer relu1
I1002 13:40:27.257745 17059 net.cpp:412] relu1 <- conv1
I1002 13:40:27.257752 17059 net.cpp:359] relu1 -> conv1 (in-place)
I1002 13:40:27.257760 17059 net.cpp:122] Setting up relu1
I1002 13:40:27.257766 17059 net.cpp:129] Top shape: 10 96 55 55 (2904000)
I1002 13:40:27.257771 17059 layer_factory.hpp:74] Creating layer pool1
I1002 13:40:27.257779 17059 net.cpp:92] Creating Layer pool1
I1002 13:40:27.257786 17059 net.cpp:412] pool1 <- conv1
I1002 13:40:27.257791 17059 net.cpp:370] pool1 -> pool1
I1002 13:40:27.257799 17059 net.cpp:122] Setting up pool1
I1002 13:40:27.257809 17059 net.cpp:129] Top shape: 10 96 27 27 (699840)
I1002 13:40:27.257815 17059 layer_factory.hpp:74] Creating layer norm1
I1002 13:40:27.257823 17059 net.cpp:92] Creating Layer norm1
I1002 13:40:27.257828 17059 net.cpp:412] norm1 <- pool1
I1002 13:40:27.257835 17059 net.cpp:370] norm1 -> norm1
I1002 13:40:27.257843 17059 net.cpp:122] Setting up norm1
I1002 13:40:27.257850 17059 net.cpp:129] Top shape: 10 96 27 27 (699840)
I1002 13:40:27.257856 17059 layer_factory.hpp:74] Creating layer conv2
I1002 13:40:27.257863 17059 net.cpp:92] Creating Layer conv2
I1002 13:40:27.257869 17059 net.cpp:412] conv2 <- norm1
I1002 13:40:27.257876 17059 net.cpp:370] conv2 -> conv2
I1002 13:40:27.257884 17059 net.cpp:122] Setting up conv2
I1002 13:40:27.265146 17059 net.cpp:129] Top shape: 10 256 27 27 (1866240)
I1002 13:40:27.265174 17059 layer_factory.hpp:74] Creating layer relu2
I1002 13:40:27.265187 17059 net.cpp:92] Creating Layer relu2
I1002 13:40:27.265192 17059 net.cpp:412] relu2 <- conv2
I1002 13:40:27.265199 17059 net.cpp:359] relu2 -> conv2 (in-place)
I1002 13:40:27.265208 17059 net.cpp:122] Setting up relu2
I1002 13:40:27.265214 17059 net.cpp:129] Top shape: 10 256 27 27 (1866240)
I1002 13:40:27.265219 17059 layer_factory.hpp:74] Creating layer pool2
I1002 13:40:27.265230 17059 net.cpp:92] Creating Layer pool2
I1002 13:40:27.265235 17059 net.cpp:412] pool2 <- conv2
I1002 13:40:27.265243 17059 net.cpp:370] pool2 -> pool2
I1002 13:40:27.265251 17059 net.cpp:122] Setting up pool2
I1002 13:40:27.265261 17059 net.cpp:129] Top shape: 10 256 13 13 (432640)
I1002 13:40:27.265266 17059 layer_factory.hpp:74] Creating layer norm2
I1002 13:40:27.265276 17059 net.cpp:92] Creating Layer norm2
I1002 13:40:27.265281 17059 net.cpp:412] norm2 <- pool2
I1002 13:40:27.265288 17059 net.cpp:370] norm2 -> norm2
I1002 13:40:27.265295 17059 net.cpp:122] Setting up norm2
I1002 13:40:27.265305 17059 net.cpp:129] Top shape: 10 256 13 13 (432640)
I1002 13:40:27.265311 17059 layer_factory.hpp:74] Creating layer conv3
I1002 13:40:27.265319 17059 net.cpp:92] Creating Layer conv3
I1002 13:40:27.265324 17059 net.cpp:412] conv3 <- norm2
I1002 13:40:27.265332 17059 net.cpp:370] conv3 -> conv3
I1002 13:40:27.265339 17059 net.cpp:122] Setting up conv3
I1002 13:40:27.285634 17059 net.cpp:129] Top shape: 10 384 13 13 (648960)
I1002 13:40:27.285650 17059 layer_factory.hpp:74] Creating layer relu3
I1002 13:40:27.285656 17059 net.cpp:92] Creating Layer relu3
I1002 13:40:27.285661 17059 net.cpp:412] relu3 <- conv3
I1002 13:40:27.285670 17059 net.cpp:359] relu3 -> conv3 (in-place)
I1002 13:40:27.285676 17059 net.cpp:122] Setting up relu3
I1002 13:40:27.285683 17059 net.cpp:129] Top shape: 10 384 13 13 (648960)
I1002 13:40:27.285688 17059 layer_factory.hpp:74] Creating layer conv4
I1002 13:40:27.285696 17059 net.cpp:92] Creating Layer conv4
I1002 13:40:27.285701 17059 net.cpp:412] conv4 <- conv3
I1002 13:40:27.285709 17059 net.cpp:370] conv4 -> conv4
I1002 13:40:27.285717 17059 net.cpp:122] Setting up conv4
I1002 13:40:27.301172 17059 net.cpp:129] Top shape: 10 384 13 13 (648960)
I1002 13:40:27.301188 17059 layer_factory.hpp:74] Creating layer relu4
I1002 13:40:27.301197 17059 net.cpp:92] Creating Layer relu4
I1002 13:40:27.301203 17059 net.cpp:412] relu4 <- conv4
I1002 13:40:27.301209 17059 net.cpp:359] relu4 -> conv4 (in-place)
I1002 13:40:27.301223 17059 net.cpp:122] Setting up relu4
I1002 13:40:27.301239 17059 net.cpp:129] Top shape: 10 384 13 13 (648960)
I1002 13:40:27.301244 17059 layer_factory.hpp:74] Creating layer conv5
I1002 13:40:27.301252 17059 net.cpp:92] Creating Layer conv5
I1002 13:40:27.301259 17059 net.cpp:412] conv5 <- conv4
I1002 13:40:27.301266 17059 net.cpp:370] conv5 -> conv5
I1002 13:40:27.301275 17059 net.cpp:122] Setting up conv5
I1002 13:40:27.311530 17059 net.cpp:129] Top shape: 10 256 13 13 (432640)
I1002 13:40:27.311547 17059 layer_factory.hpp:74] Creating layer relu5
I1002 13:40:27.311554 17059 net.cpp:92] Creating Layer relu5
I1002 13:40:27.311560 17059 net.cpp:412] relu5 <- conv5
I1002 13:40:27.311566 17059 net.cpp:359] relu5 -> conv5 (in-place)
I1002 13:40:27.311573 17059 net.cpp:122] Setting up relu5
I1002 13:40:27.311581 17059 net.cpp:129] Top shape: 10 256 13 13 (432640)
I1002 13:40:27.311586 17059 layer_factory.hpp:74] Creating layer pool5
I1002 13:40:27.311595 17059 net.cpp:92] Creating Layer pool5
I1002 13:40:27.311601 17059 net.cpp:412] pool5 <- conv5
I1002 13:40:27.311607 17059 net.cpp:370] pool5 -> pool5
I1002 13:40:27.311615 17059 net.cpp:122] Setting up pool5
I1002 13:40:27.311625 17059 net.cpp:129] Top shape: 10 256 6 6 (92160)
I1002 13:40:27.311630 17059 layer_factory.hpp:74] Creating layer fc6
I1002 13:40:27.311640 17059 net.cpp:92] Creating Layer fc6
I1002 13:40:27.311645 17059 net.cpp:412] fc6 <- pool5
I1002 13:40:27.311653 17059 net.cpp:370] fc6 -> fc6
I1002 13:40:27.311661 17059 net.cpp:122] Setting up fc6
I1002 13:40:28.169989 17059 net.cpp:129] Top shape: 10 4096 (40960)
I1002 13:40:28.170030 17059 layer_factory.hpp:74] Creating layer relu6
I1002 13:40:28.170042 17059 net.cpp:92] Creating Layer relu6
I1002 13:40:28.170048 17059 net.cpp:412] relu6 <- fc6
I1002 13:40:28.170058 17059 net.cpp:359] relu6 -> fc6 (in-place)
I1002 13:40:28.170066 17059 net.cpp:122] Setting up relu6
I1002 13:40:28.170073 17059 net.cpp:129] Top shape: 10 4096 (40960)
I1002 13:40:28.170078 17059 layer_factory.hpp:74] Creating layer drop6
I1002 13:40:28.170086 17059 net.cpp:92] Creating Layer drop6
I1002 13:40:28.170091 17059 net.cpp:412] drop6 <- fc6
I1002 13:40:28.170101 17059 net.cpp:359] drop6 -> fc6 (in-place)
I1002 13:40:28.170109 17059 net.cpp:122] Setting up drop6
I1002 13:40:28.170116 17059 net.cpp:129] Top shape: 10 4096 (40960)
I1002 13:40:28.170122 17059 layer_factory.hpp:74] Creating layer fc7
I1002 13:40:28.170135 17059 net.cpp:92] Creating Layer fc7
I1002 13:40:28.170140 17059 net.cpp:412] fc7 <- fc6
I1002 13:40:28.170148 17059 net.cpp:370] fc7 -> fc7
I1002 13:40:28.170157 17059 net.cpp:122] Setting up fc7
I1002 13:40:28.551328 17059 net.cpp:129] Top shape: 10 4096 (40960)
I1002 13:40:28.551369 17059 layer_factory.hpp:74] Creating layer relu7
I1002 13:40:28.551383 17059 net.cpp:92] Creating Layer relu7
I1002 13:40:28.551389 17059 net.cpp:412] relu7 <- fc7
I1002 13:40:28.551398 17059 net.cpp:359] relu7 -> fc7 (in-place)
I1002 13:40:28.551408 17059 net.cpp:122] Setting up relu7
I1002 13:40:28.551414 17059 net.cpp:129] Top shape: 10 4096 (40960)
I1002 13:40:28.551419 17059 layer_factory.hpp:74] Creating layer drop7
I1002 13:40:28.551427 17059 net.cpp:92] Creating Layer drop7
I1002 13:40:28.551432 17059 net.cpp:412] drop7 <- fc7
I1002 13:40:28.551442 17059 net.cpp:359] drop7 -> fc7 (in-place)
I1002 13:40:28.551450 17059 net.cpp:122] Setting up drop7
I1002 13:40:28.551457 17059 net.cpp:129] Top shape: 10 4096 (40960)
I1002 13:40:28.551462 17059 layer_factory.hpp:74] Creating layer fc8
I1002 13:40:28.551471 17059 net.cpp:92] Creating Layer fc8
I1002 13:40:28.551477 17059 net.cpp:412] fc8 <- fc7
I1002 13:40:28.551486 17059 net.cpp:370] fc8 -> fc8
I1002 13:40:28.551497 17059 net.cpp:122] Setting up fc8
I1002 13:40:28.556262 17059 net.cpp:129] Top shape: 10 50 (500)
I1002 13:40:28.556273 17059 layer_factory.hpp:74] Creating layer fc8_fc8_0_split
I1002 13:40:28.556282 17059 net.cpp:92] Creating Layer fc8_fc8_0_split
I1002 13:40:28.556287 17059 net.cpp:412] fc8_fc8_0_split <- fc8
I1002 13:40:28.556293 17059 net.cpp:370] fc8_fc8_0_split -> fc8_fc8_0_split_0
I1002 13:40:28.556310 17059 net.cpp:370] fc8_fc8_0_split -> fc8_fc8_0_split_1
I1002 13:40:28.556330 17059 net.cpp:122] Setting up fc8_fc8_0_split
I1002 13:40:28.556339 17059 net.cpp:129] Top shape: 10 50 (500)
I1002 13:40:28.556344 17059 net.cpp:129] Top shape: 10 50 (500)
I1002 13:40:28.556349 17059 layer_factory.hpp:74] Creating layer accuracy
I1002 13:40:28.556360 17059 net.cpp:92] Creating Layer accuracy
I1002 13:40:28.556365 17059 net.cpp:412] accuracy <- fc8_fc8_0_split_0
I1002 13:40:28.556370 17059 net.cpp:412] accuracy <- label_data_1_split_0
I1002 13:40:28.556377 17059 net.cpp:370] accuracy -> accuracy
I1002 13:40:28.556385 17059 net.cpp:122] Setting up accuracy
…
