…
I1002 22:03:51.669276 15560 net.cpp:289] The NetState phase (0) differed from the phase (1) specified by a rule in layer accuracy
I1002 22:03:51.669416 15560 net.cpp:44] Initializing net from parameters: 
name: "CaffeNet"
state {
  phase: TRAIN
}
layer {
  name: "data"
  type: "Data"
  top: "data"
  top: "label"
  include {
    phase: TRAIN
  }
  transform_param {
    mirror: true
    crop_size: 227
    mean_file: "data/Stanford_Cars_49/imagenet_mean.binaryproto"
  }
  data_param {
    source: "Stanford_Cars_49/imagenet_train_leveldb"
    batch_size: 128
    backend: LMDB
  }
}
layer {
  name: "conv1"
  type: "Convolution"
  bottom: "data"
  top: "conv1"
  param {
    lr_mult: 1
    decay_mult: 1
  }
  param {
    lr_mult: 2
    decay_mult: 0
  }
  convolution_param {
    num_output: 96
    kernel_size: 11
    stride: 4
    weight_filler {
      type: "gaussian"
      std: 0.01
    }
    bias_filler {
      type: "constant"
      value: 0
    }
  }
}
layer {
  name: "relu1"
  type: "ReLU"
  bottom: "conv1"
  top: "conv1"
}
layer {
  name: "pool1"
  type: "Pooling"
  bottom: "conv1"
  top: "pool1"
  pooling_param {
    pool: MAX
    kernel_size: 3
    stride: 2
  }
}
layer {
  name: "norm1"
  type: "LRN"
  bottom: "pool1"
  top: "norm1"
  lrn_param {
    local_size: 5
    alpha: 0.0001
    beta: 0.75
  }
}
layer {
  name: "conv2"
  type: "Convolution"
  bottom: "norm1"
  top: "conv2"
  param {
    lr_mult: 1
    decay_mult: 1
  }
  param {
    lr_mult: 2
    decay_mult: 0
  }
  convolution_param {
    num_output: 256
    pad: 2
    kernel_size: 5
    group: 2
    weight_filler {
      type: "gaussian"
      std: 0.01
    }
    bias_filler {
      type: "constant"
      value: 1
    }
  }
}
layer {
  name: "relu2"
  type: "ReLU"
  bottom: "conv2"
  top: "conv2"
}
layer {
  name: "pool2"
  type: "Pooling"
  bottom: "conv2"
  top: "pool2"
  pooling_param {
    pool: MAX
    kernel_size: 3
    stride: 2
  }
}
layer {
  name: "norm2"
  type: "LRN"
  bottom: "pool2"
  top: "norm2"
  lrn_param {
    local_size: 5
    alpha: 0.0001
    beta: 0.75
  }
}
layer {
  name: "conv3"
  type: "Convolution"
  bottom: "norm2"
  top: "conv3"
  param {
    lr_mult: 1
    decay_mult: 1
  }
  param {
    lr_mult: 2
    decay_mult: 0
  }
  convolution_param {
    num_output: 384
    pad: 1
    kernel_size: 3
    weight_filler {
      type: "gaussian"
      std: 0.01
    }
    bias_filler {
      type: "constant"
      value: 0
    }
  }
}
layer {
  name: "relu3"
  type: "ReLU"
  bottom: "conv3"
  top: "conv3"
}
layer {
  name: "conv4"
  type: "Convolution"
  bottom: "conv3"
  top: "conv4"
  param {
    lr_mult: 1
    decay_mult: 1
  }
  param {
    lr_mult: 2
    decay_mult: 0
  }
  convolution_param {
    num_output: 384
    pad: 1
    kernel_size: 3
    group: 2
    weight_filler {
      type: "gaussian"
      std: 0.01
    }
    bias_filler {
      type: "constant"
      value: 1
    }
  }
}
layer {
  name: "relu4"
  type: "ReLU"
  bottom: "conv4"
  top: "conv4"
}
layer {
  name: "conv5"
  type: "Convolution"
  bottom: "conv4"
  top: "conv5"
  param {
    lr_mult: 1
    decay_mult: 1
  }
  param {
    lr_mult: 2
    decay_mult: 0
  }
  convolution_param {
    num_output: 256
    pad: 1
    kernel_size: 3
    group: 2
    weight_filler {
      type: "gaussian"
      std: 0.01
    }
    bias_filler {
      type: "constant"
      value: 1
    }
  }
}
layer {
  name: "relu5"
  type: "ReLU"
  bottom: "conv5"
  top: "conv5"
}
layer {
  name: "pool5"
  type: "Pooling"
  bottom: "conv5"
  top: "pool5"
  pooling_param {
    pool: MAX
    kernel_size: 3
    stride: 2
  }
}
layer {
  name: "fc6"
  type: "InnerProduct"
  bottom: "pool5"
  top: "fc6"
  param {
    lr_mult: 1
    decay_mult: 1
  }
  param {
    lr_mult: 2
    decay_mult: 0
  }
  inner_product_param {
    num_output: 4096
    weight_filler {
      type: "gaussian"
      std: 0.005
    }
    bias_filler {
      type: "constant"
      value: 1
    }
  }
}
layer {
  name: "relu6"
  type: "ReLU"
  bottom: "fc6"
  top: "fc6"
}
layer {
  name: "drop6"
  type: "Dropout"
  bottom: "fc6"
  top: "fc6"
  dropout_param {
    dropout_ratio: 0.5
  }
}
layer {
  name: "fc7"
  type: "InnerProduct"
  bottom: "fc6"
  top: "fc7"
  param {
    lr_mult: 1
    decay_mult: 1
  }
  param {
    lr_mult: 2
    decay_mult: 0
  }
  inner_product_param {
    num_output: 4096
    weight_filler {
      type: "gaussian"
      std: 0.005
    }
    bias_filler {
      type: "constant"
      value: 1
    }
  }
}
layer {
  name: "relu7"
  type: "ReLU"
  bottom: "fc7"
  top: "fc7"
}
layer {
  name: "drop7"
  type: "Dropout"
  bottom: "fc7"
  top: "fc7"
  dropout_param {
    dropout_ratio: 0.5
  }
}
layer {
  name: "fc8"
  type: "InnerProduct"
  bottom: "fc7"
  top: "fc8"
  param {
    lr_mult: 1
    decay_mult: 1
  }
  param {
    lr_mult: 2
    decay_mult: 0
  }
  inner_product_param {
    num_output: 50
    weight_filler {
      type: "gaussian"
      std: 0.01
    }
    bias_filler {
      type: "constant"
      value: 0
    }
  }
}
layer {
  name: "loss"
  type: "SoftmaxWithLoss"
  bottom: "fc8"
  bottom: "label"
  top: "loss"
}
I1002 22:03:51.669517 15560 layer_factory.hpp:74] Creating layer data
I1002 22:03:51.669538 15560 net.cpp:92] Creating Layer data
I1002 22:03:51.669546 15560 net.cpp:370] data -> data
I1002 22:03:51.669566 15560 net.cpp:370] data -> label
I1002 22:03:51.669577 15560 net.cpp:122] Setting up data
I1002 22:03:51.669584 15560 data_transformer.cpp:22] Loading mean file from: data/Stanford_Cars_49/imagenet_mean.binaryproto
I1002 22:03:51.671182 15560 db_lmdb.cpp:22] Opened lmdb Stanford_Cars_49/imagenet_train_leveldb
I1002 22:03:51.671257 15560 data_layer.cpp:52] output data size: 128,3,227,227
I1002 22:03:51.680547 15560 net.cpp:129] Top shape: 128 3 227 227 (19787136)
I1002 22:03:51.680587 15560 net.cpp:129] Top shape: 128 (128)
I1002 22:03:51.680598 15560 layer_factory.hpp:74] Creating layer conv1
I1002 22:03:51.680614 15560 net.cpp:92] Creating Layer conv1
I1002 22:03:51.680622 15560 net.cpp:412] conv1 <- data
I1002 22:03:51.680635 15560 net.cpp:370] conv1 -> conv1
I1002 22:03:51.680650 15560 net.cpp:122] Setting up conv1
I1002 22:03:51.681505 15560 net.cpp:129] Top shape: 128 96 55 55 (37171200)
I1002 22:03:51.681524 15560 layer_factory.hpp:74] Creating layer relu1
I1002 22:03:51.681532 15560 net.cpp:92] Creating Layer relu1
I1002 22:03:51.681537 15560 net.cpp:412] relu1 <- conv1
I1002 22:03:51.681543 15560 net.cpp:359] relu1 -> conv1 (in-place)
I1002 22:03:51.681550 15560 net.cpp:122] Setting up relu1
I1002 22:03:51.681556 15560 net.cpp:129] Top shape: 128 96 55 55 (37171200)
I1002 22:03:51.681561 15560 layer_factory.hpp:74] Creating layer pool1
I1002 22:03:51.681568 15560 net.cpp:92] Creating Layer pool1
I1002 22:03:51.681573 15560 net.cpp:412] pool1 <- conv1
I1002 22:03:51.681579 15560 net.cpp:370] pool1 -> pool1
I1002 22:03:51.681587 15560 net.cpp:122] Setting up pool1
I1002 22:03:51.681602 15560 net.cpp:129] Top shape: 128 96 27 27 (8957952)
I1002 22:03:51.681607 15560 layer_factory.hpp:74] Creating layer norm1
I1002 22:03:51.681615 15560 net.cpp:92] Creating Layer norm1
I1002 22:03:51.681620 15560 net.cpp:412] norm1 <- pool1
I1002 22:03:51.681627 15560 net.cpp:370] norm1 -> norm1
I1002 22:03:51.681635 15560 net.cpp:122] Setting up norm1
I1002 22:03:51.681643 15560 net.cpp:129] Top shape: 128 96 27 27 (8957952)
I1002 22:03:51.681648 15560 layer_factory.hpp:74] Creating layer conv2
I1002 22:03:51.681664 15560 net.cpp:92] Creating Layer conv2
I1002 22:03:51.681669 15560 net.cpp:412] conv2 <- norm1
I1002 22:03:51.681687 15560 net.cpp:370] conv2 -> conv2
I1002 22:03:51.681695 15560 net.cpp:122] Setting up conv2
I1002 22:03:51.689018 15560 net.cpp:129] Top shape: 128 256 27 27 (23887872)
I1002 22:03:51.689056 15560 layer_factory.hpp:74] Creating layer relu2
I1002 22:03:51.689067 15560 net.cpp:92] Creating Layer relu2
I1002 22:03:51.689074 15560 net.cpp:412] relu2 <- conv2
I1002 22:03:51.689080 15560 net.cpp:359] relu2 -> conv2 (in-place)
I1002 22:03:51.689088 15560 net.cpp:122] Setting up relu2
I1002 22:03:51.689095 15560 net.cpp:129] Top shape: 128 256 27 27 (23887872)
I1002 22:03:51.689100 15560 layer_factory.hpp:74] Creating layer pool2
I1002 22:03:51.689107 15560 net.cpp:92] Creating Layer pool2
I1002 22:03:51.689112 15560 net.cpp:412] pool2 <- conv2
I1002 22:03:51.689119 15560 net.cpp:370] pool2 -> pool2
I1002 22:03:51.689127 15560 net.cpp:122] Setting up pool2
I1002 22:03:51.689137 15560 net.cpp:129] Top shape: 128 256 13 13 (5537792)
I1002 22:03:51.689142 15560 layer_factory.hpp:74] Creating layer norm2
I1002 22:03:51.689152 15560 net.cpp:92] Creating Layer norm2
I1002 22:03:51.689157 15560 net.cpp:412] norm2 <- pool2
I1002 22:03:51.689163 15560 net.cpp:370] norm2 -> norm2
I1002 22:03:51.689170 15560 net.cpp:122] Setting up norm2
I1002 22:03:51.689180 15560 net.cpp:129] Top shape: 128 256 13 13 (5537792)
I1002 22:03:51.689187 15560 layer_factory.hpp:74] Creating layer conv3
I1002 22:03:51.689198 15560 net.cpp:92] Creating Layer conv3
I1002 22:03:51.689203 15560 net.cpp:412] conv3 <- norm2
I1002 22:03:51.689209 15560 net.cpp:370] conv3 -> conv3
I1002 22:03:51.689218 15560 net.cpp:122] Setting up conv3
I1002 22:03:51.710160 15560 net.cpp:129] Top shape: 128 384 13 13 (8306688)
I1002 22:03:51.710197 15560 layer_factory.hpp:74] Creating layer relu3
I1002 22:03:51.710208 15560 net.cpp:92] Creating Layer relu3
I1002 22:03:51.710214 15560 net.cpp:412] relu3 <- conv3
I1002 22:03:51.710223 15560 net.cpp:359] relu3 -> conv3 (in-place)
I1002 22:03:51.710232 15560 net.cpp:122] Setting up relu3
I1002 22:03:51.710238 15560 net.cpp:129] Top shape: 128 384 13 13 (8306688)
I1002 22:03:51.710243 15560 layer_factory.hpp:74] Creating layer conv4
I1002 22:03:51.710253 15560 net.cpp:92] Creating Layer conv4
I1002 22:03:51.710258 15560 net.cpp:412] conv4 <- conv3
I1002 22:03:51.710265 15560 net.cpp:370] conv4 -> conv4
I1002 22:03:51.710273 15560 net.cpp:122] Setting up conv4
I1002 22:03:51.726115 15560 net.cpp:129] Top shape: 128 384 13 13 (8306688)
I1002 22:03:51.726155 15560 layer_factory.hpp:74] Creating layer relu4
I1002 22:03:51.726173 15560 net.cpp:92] Creating Layer relu4
I1002 22:03:51.726179 15560 net.cpp:412] relu4 <- conv4
I1002 22:03:51.726188 15560 net.cpp:359] relu4 -> conv4 (in-place)
I1002 22:03:51.726197 15560 net.cpp:122] Setting up relu4
I1002 22:03:51.726204 15560 net.cpp:129] Top shape: 128 384 13 13 (8306688)
I1002 22:03:51.726209 15560 layer_factory.hpp:74] Creating layer conv5
I1002 22:03:51.726219 15560 net.cpp:92] Creating Layer conv5
I1002 22:03:51.726223 15560 net.cpp:412] conv5 <- conv4
I1002 22:03:51.726230 15560 net.cpp:370] conv5 -> conv5
I1002 22:03:51.726238 15560 net.cpp:122] Setting up conv5
I1002 22:03:51.736811 15560 net.cpp:129] Top shape: 128 256 13 13 (5537792)
I1002 22:03:51.736850 15560 layer_factory.hpp:74] Creating layer relu5
I1002 22:03:51.736861 15560 net.cpp:92] Creating Layer relu5
I1002 22:03:51.736868 15560 net.cpp:412] relu5 <- conv5
I1002 22:03:51.736878 15560 net.cpp:359] relu5 -> conv5 (in-place)
I1002 22:03:51.736888 15560 net.cpp:122] Setting up relu5
I1002 22:03:51.736896 15560 net.cpp:129] Top shape: 128 256 13 13 (5537792)
I1002 22:03:51.736901 15560 layer_factory.hpp:74] Creating layer pool5
I1002 22:03:51.736907 15560 net.cpp:92] Creating Layer pool5
I1002 22:03:51.736912 15560 net.cpp:412] pool5 <- conv5
I1002 22:03:51.736920 15560 net.cpp:370] pool5 -> pool5
I1002 22:03:51.736928 15560 net.cpp:122] Setting up pool5
I1002 22:03:51.736937 15560 net.cpp:129] Top shape: 128 256 6 6 (1179648)
I1002 22:03:51.736953 15560 layer_factory.hpp:74] Creating layer fc6
I1002 22:03:51.736973 15560 net.cpp:92] Creating Layer fc6
I1002 22:03:51.736979 15560 net.cpp:412] fc6 <- pool5
I1002 22:03:51.736984 15560 net.cpp:370] fc6 -> fc6
I1002 22:03:51.736996 15560 net.cpp:122] Setting up fc6
I1002 22:03:52.594969 15560 net.cpp:129] Top shape: 128 4096 (524288)
I1002 22:03:52.595010 15560 layer_factory.hpp:74] Creating layer relu6
I1002 22:03:52.595021 15560 net.cpp:92] Creating Layer relu6
I1002 22:03:52.595027 15560 net.cpp:412] relu6 <- fc6
I1002 22:03:52.595036 15560 net.cpp:359] relu6 -> fc6 (in-place)
I1002 22:03:52.595046 15560 net.cpp:122] Setting up relu6
I1002 22:03:52.595052 15560 net.cpp:129] Top shape: 128 4096 (524288)
I1002 22:03:52.595057 15560 layer_factory.hpp:74] Creating layer drop6
I1002 22:03:52.595070 15560 net.cpp:92] Creating Layer drop6
I1002 22:03:52.595075 15560 net.cpp:412] drop6 <- fc6
I1002 22:03:52.595082 15560 net.cpp:359] drop6 -> fc6 (in-place)
I1002 22:03:52.595090 15560 net.cpp:122] Setting up drop6
I1002 22:03:52.595099 15560 net.cpp:129] Top shape: 128 4096 (524288)
I1002 22:03:52.595104 15560 layer_factory.hpp:74] Creating layer fc7
I1002 22:03:52.595114 15560 net.cpp:92] Creating Layer fc7
I1002 22:03:52.595119 15560 net.cpp:412] fc7 <- fc6
I1002 22:03:52.595125 15560 net.cpp:370] fc7 -> fc7
I1002 22:03:52.595134 15560 net.cpp:122] Setting up fc7
I1002 22:03:52.975913 15560 net.cpp:129] Top shape: 128 4096 (524288)
I1002 22:03:52.975953 15560 layer_factory.hpp:74] Creating layer relu7
I1002 22:03:52.975965 15560 net.cpp:92] Creating Layer relu7
I1002 22:03:52.975970 15560 net.cpp:412] relu7 <- fc7
I1002 22:03:52.975978 15560 net.cpp:359] relu7 -> fc7 (in-place)
I1002 22:03:52.975987 15560 net.cpp:122] Setting up relu7
I1002 22:03:52.975993 15560 net.cpp:129] Top shape: 128 4096 (524288)
I1002 22:03:52.975998 15560 layer_factory.hpp:74] Creating layer drop7
I1002 22:03:52.976007 15560 net.cpp:92] Creating Layer drop7
I1002 22:03:52.976012 15560 net.cpp:412] drop7 <- fc7
I1002 22:03:52.976018 15560 net.cpp:359] drop7 -> fc7 (in-place)
I1002 22:03:52.976024 15560 net.cpp:122] Setting up drop7
I1002 22:03:52.976032 15560 net.cpp:129] Top shape: 128 4096 (524288)
I1002 22:03:52.976037 15560 layer_factory.hpp:74] Creating layer fc8
I1002 22:03:52.976047 15560 net.cpp:92] Creating Layer fc8
I1002 22:03:52.976052 15560 net.cpp:412] fc8 <- fc7
I1002 22:03:52.976058 15560 net.cpp:370] fc8 -> fc8
I1002 22:03:52.976066 15560 net.cpp:122] Setting up fc8
I1002 22:03:52.980823 15560 net.cpp:129] Top shape: 128 50 (6400)
I1002 22:03:52.980834 15560 layer_factory.hpp:74] Creating layer loss
I1002 22:03:52.980841 15560 net.cpp:92] Creating Layer loss
I1002 22:03:52.980846 15560 net.cpp:412] loss <- fc8
I1002 22:03:52.980852 15560 net.cpp:412] loss <- label
I1002 22:03:52.980862 15560 net.cpp:370] loss -> loss
I1002 22:03:52.980877 15560 net.cpp:122] Setting up loss
I1002 22:03:52.980886 15560 layer_factory.hpp:74] Creating layer loss
…
I1002 22:03:52.981725 15560 net.cpp:289] The NetState phase (1) differed from the phase (0) specified by a rule in layer data
I1002 22:03:52.981880 15560 net.cpp:44] Initializing net from parameters: 
name: "CaffeNet"
state {
  phase: TEST
}
layer {
  name: "data"
  type: "Data"
  top: "data"
  top: "label"
  include {
    phase: TEST
  }
  transform_param {
    mirror: true
    crop_size: 227
    mean_file: "data/Stanford_Cars_49/imagenet_mean.binaryproto"
  }
  data_param {
    source: "Stanford_Cars_49/imagenet_val_leveldb"
    mean_file: "data/Stanford_Cars_49/imagenet_mean.binartproto"
    batch_size: 10
    crop_size: 227
    mirror: false
    backend: LMDB
  }
}
layer {
  name: "conv1"
  type: "Convolution"
  bottom: "data"
  top: "conv1"
  param {
    lr_mult: 1
    decay_mult: 1
  }
  param {
    lr_mult: 2
    decay_mult: 0
  }
  convolution_param {
    num_output: 96
    kernel_size: 11
    stride: 4
    weight_filler {
      type: "gaussian"
      std: 0.01
    }
    bias_filler {
      type: "constant"
      value: 0
    }
  }
}
layer {
  name: "relu1"
  type: "ReLU"
  bottom: "conv1"
  top: "conv1"
}
layer {
  name: "pool1"
  type: "Pooling"
  bottom: "conv1"
  top: "pool1"
  pooling_param {
    pool: MAX
    kernel_size: 3
    stride: 2
  }
}
layer {
  name: "norm1"
  type: "LRN"
  bottom: "pool1"
  top: "norm1"
  lrn_param {
    local_size: 5
    alpha: 0.0001
    beta: 0.75
  }
}
layer {
  name: "conv2"
  type: "Convolution"
  bottom: "norm1"
  top: "conv2"
  param {
    lr_mult: 1
    decay_mult: 1
  }
  param {
    lr_mult: 2
    decay_mult: 0
  }
  convolution_param {
    num_output: 256
    pad: 2
    kernel_size: 5
    group: 2
    weight_filler {
      type: "gaussian"
      std: 0.01
    }
    bias_filler {
      type: "constant"
      value: 1
    }
  }
}
layer {
  name: "relu2"
  type: "ReLU"
  bottom: "conv2"
  top: "conv2"
}
layer {
  name: "pool2"
  type: "Pooling"
  bottom: "conv2"
  top: "pool2"
  pooling_param {
    pool: MAX
    kernel_size: 3
    stride: 2
  }
}
layer {
  name: "norm2"
  type: "LRN"
  bottom: "pool2"
  top: "norm2"
  lrn_param {
    local_size: 5
    alpha: 0.0001
    beta: 0.75
  }
}
layer {
  name: "conv3"
  type: "Convolution"
  bottom: "norm2"
  top: "conv3"
  param {
    lr_mult: 1
    decay_mult: 1
  }
  param {
    lr_mult: 2
    decay_mult: 0
  }
  convolution_param {
    num_output: 384
    pad: 1
    kernel_size: 3
    weight_filler {
      type: "gaussian"
      std: 0.01
    }
    bias_filler {
      type: "constant"
      value: 0
    }
  }
}
layer {
  name: "relu3"
  type: "ReLU"
  bottom: "conv3"
  top: "conv3"
}
layer {
  name: "conv4"
  type: "Convolution"
  bottom: "conv3"
  top: "conv4"
  param {
    lr_mult: 1
    decay_mult: 1
  }
  param {
    lr_mult: 2
    decay_mult: 0
  }
  convolution_param {
    num_output: 384
    pad: 1
    kernel_size: 3
    group: 2
    weight_filler {
      type: "gaussian"
      std: 0.01
    }
    bias_filler {
      type: "constant"
      value: 1
    }
  }
}
layer {
  name: "relu4"
  type: "ReLU"
  bottom: "conv4"
  top: "conv4"
}
layer {
  name: "conv5"
  type: "Convolution"
  bottom: "conv4"
  top: "conv5"
  param {
    lr_mult: 1
    decay_mult: 1
  }
  param {
    lr_mult: 2
    decay_mult: 0
  }
  convolution_param {
    num_output: 256
    pad: 1
    kernel_size: 3
    group: 2
    weight_filler {
      type: "gaussian"
      std: 0.01
    }
    bias_filler {
      type: "constant"
      value: 1
    }
  }
}
layer {
  name: "relu5"
  type: "ReLU"
  bottom: "conv5"
  top: "conv5"
}
layer {
  name: "pool5"
  type: "Pooling"
  bottom: "conv5"
  top: "pool5"
  pooling_param {
    pool: MAX
    kernel_size: 3
    stride: 2
  }
}
layer {
  name: "fc6"
  type: "InnerProduct"
  bottom: "pool5"
  top: "fc6"
  param {
    lr_mult: 1
    decay_mult: 1
  }
  param {
    lr_mult: 2
    decay_mult: 0
  }
  inner_product_param {
    num_output: 4096
    weight_filler {
      type: "gaussian"
      std: 0.005
    }
    bias_filler {
      type: "constant"
      value: 1
    }
  }
}
layer {
  name: "relu6"
  type: "ReLU"
  bottom: "fc6"
  top: "fc6"
}
layer {
  name: "drop6"
  type: "Dropout"
  bottom: "fc6"
  top: "fc6"
  dropout_param {
    dropout_ratio: 0.5
  }
}
layer {
  name: "fc7"
  type: "InnerProduct"
  bottom: "fc6"
  top: "fc7"
  param {
    lr_mult: 1
    decay_mult: 1
  }
  param {
    lr_mult: 2
    decay_mult: 0
  }
  inner_product_param {
    num_output: 4096
    weight_filler {
      type: "gaussian"
      std: 0.005
    }
    bias_filler {
      type: "constant"
      value: 1
    }
  }
}
layer {
  name: "relu7"
  type: "ReLU"
  bottom: "fc7"
  top: "fc7"
}
layer {
  name: "drop7"
  type: "Dropout"
  bottom: "fc7"
  top: "fc7"
  dropout_param {
    dropout_ratio: 0.5
  }
}
layer {
  name: "fc8"
  type: "InnerProduct"
  bottom: "fc7"
  top: "fc8"
  param {
    lr_mult: 1
    decay_mult: 1
  }
  param {
    lr_mult: 2
    decay_mult: 0
  }
  inner_product_param {
    num_output: 50
    weight_filler {
      type: "gaussian"
      std: 0.01
    }
    bias_filler {
      type: "constant"
      value: 0
    }
  }
}
layer {
  name: "accuracy"
  type: "Accuracy"
  bottom: "fc8"
  bottom: "label"
  top: "accuracy"
  include {
    phase: TEST
  }
}
layer {
  name: "loss"
  type: "SoftmaxWithLoss"
  bottom: "fc8"
  bottom: "label"
  top: "loss"
}
I1002 22:03:52.981982 15560 layer_factory.hpp:74] Creating layer data
I1002 22:03:52.981993 15560 net.cpp:92] Creating Layer data
I1002 22:03:52.981999 15560 net.cpp:370] data -> data
I1002 22:03:52.982008 15560 net.cpp:370] data -> label
I1002 22:03:52.982017 15560 net.cpp:122] Setting up data
I1002 22:03:52.982023 15560 data_transformer.cpp:22] Loading mean file from: data/Stanford_Cars_49/imagenet_mean.binaryproto
I1002 22:03:52.983366 15560 db_lmdb.cpp:22] Opened lmdb Stanford_Cars_49/imagenet_val_leveldb
I1002 22:03:52.983435 15560 data_layer.cpp:52] output data size: 10,3,227,227
I1002 22:03:52.984366 15560 net.cpp:129] Top shape: 10 3 227 227 (1545870)
I1002 22:03:52.984391 15560 net.cpp:129] Top shape: 10 (10)
I1002 22:03:52.984398 15560 layer_factory.hpp:74] Creating layer label_data_1_split
I1002 22:03:52.984411 15560 net.cpp:92] Creating Layer label_data_1_split
I1002 22:03:52.984417 15560 net.cpp:412] label_data_1_split <- label
I1002 22:03:52.984427 15560 net.cpp:370] label_data_1_split -> label_data_1_split_0
I1002 22:03:52.984441 15560 net.cpp:370] label_data_1_split -> label_data_1_split_1
I1002 22:03:52.984448 15560 net.cpp:122] Setting up label_data_1_split
I1002 22:03:52.984457 15560 net.cpp:129] Top shape: 10 (10)
I1002 22:03:52.984462 15560 net.cpp:129] Top shape: 10 (10)
I1002 22:03:52.984467 15560 layer_factory.hpp:74] Creating layer conv1
I1002 22:03:52.984477 15560 net.cpp:92] Creating Layer conv1
I1002 22:03:52.984483 15560 net.cpp:412] conv1 <- data
I1002 22:03:52.984489 15560 net.cpp:370] conv1 -> conv1
I1002 22:03:52.984498 15560 net.cpp:122] Setting up conv1
I1002 22:03:52.985333 15560 net.cpp:129] Top shape: 10 96 55 55 (2904000)
I1002 22:03:52.985347 15560 layer_factory.hpp:74] Creating layer relu1
I1002 22:03:52.985363 15560 net.cpp:92] Creating Layer relu1
I1002 22:03:52.985368 15560 net.cpp:412] relu1 <- conv1
I1002 22:03:52.985374 15560 net.cpp:359] relu1 -> conv1 (in-place)
I1002 22:03:52.985381 15560 net.cpp:122] Setting up relu1
I1002 22:03:52.985388 15560 net.cpp:129] Top shape: 10 96 55 55 (2904000)
I1002 22:03:52.985393 15560 layer_factory.hpp:74] Creating layer pool1
I1002 22:03:52.985399 15560 net.cpp:92] Creating Layer pool1
I1002 22:03:52.985404 15560 net.cpp:412] pool1 <- conv1
I1002 22:03:52.985410 15560 net.cpp:370] pool1 -> pool1
I1002 22:03:52.985417 15560 net.cpp:122] Setting up pool1
I1002 22:03:52.985426 15560 net.cpp:129] Top shape: 10 96 27 27 (699840)
I1002 22:03:52.985431 15560 layer_factory.hpp:74] Creating layer norm1
I1002 22:03:52.985440 15560 net.cpp:92] Creating Layer norm1
I1002 22:03:52.985443 15560 net.cpp:412] norm1 <- pool1
I1002 22:03:52.985450 15560 net.cpp:370] norm1 -> norm1
I1002 22:03:52.985456 15560 net.cpp:122] Setting up norm1
I1002 22:03:52.985463 15560 net.cpp:129] Top shape: 10 96 27 27 (699840)
I1002 22:03:52.985468 15560 layer_factory.hpp:74] Creating layer conv2
I1002 22:03:52.985476 15560 net.cpp:92] Creating Layer conv2
I1002 22:03:52.985481 15560 net.cpp:412] conv2 <- norm1
I1002 22:03:52.985487 15560 net.cpp:370] conv2 -> conv2
I1002 22:03:52.985494 15560 net.cpp:122] Setting up conv2
I1002 22:03:52.992693 15560 net.cpp:129] Top shape: 10 256 27 27 (1866240)
I1002 22:03:52.992724 15560 layer_factory.hpp:74] Creating layer relu2
I1002 22:03:52.992735 15560 net.cpp:92] Creating Layer relu2
I1002 22:03:52.992741 15560 net.cpp:412] relu2 <- conv2
I1002 22:03:52.992748 15560 net.cpp:359] relu2 -> conv2 (in-place)
I1002 22:03:52.992756 15560 net.cpp:122] Setting up relu2
I1002 22:03:52.992763 15560 net.cpp:129] Top shape: 10 256 27 27 (1866240)
I1002 22:03:52.992768 15560 layer_factory.hpp:74] Creating layer pool2
I1002 22:03:52.992775 15560 net.cpp:92] Creating Layer pool2
I1002 22:03:52.992779 15560 net.cpp:412] pool2 <- conv2
I1002 22:03:52.992787 15560 net.cpp:370] pool2 -> pool2
I1002 22:03:52.992795 15560 net.cpp:122] Setting up pool2
I1002 22:03:52.992805 15560 net.cpp:129] Top shape: 10 256 13 13 (432640)
I1002 22:03:52.992810 15560 layer_factory.hpp:74] Creating layer norm2
I1002 22:03:52.992820 15560 net.cpp:92] Creating Layer norm2
I1002 22:03:52.992823 15560 net.cpp:412] norm2 <- pool2
I1002 22:03:52.992830 15560 net.cpp:370] norm2 -> norm2
I1002 22:03:52.992836 15560 net.cpp:122] Setting up norm2
I1002 22:03:52.992843 15560 net.cpp:129] Top shape: 10 256 13 13 (432640)
I1002 22:03:52.992848 15560 layer_factory.hpp:74] Creating layer conv3
I1002 22:03:52.992856 15560 net.cpp:92] Creating Layer conv3
I1002 22:03:52.992861 15560 net.cpp:412] conv3 <- norm2
I1002 22:03:52.992868 15560 net.cpp:370] conv3 -> conv3
I1002 22:03:52.992876 15560 net.cpp:122] Setting up conv3
I1002 22:03:53.013135 15560 net.cpp:129] Top shape: 10 384 13 13 (648960)
I1002 22:03:53.013149 15560 layer_factory.hpp:74] Creating layer relu3
I1002 22:03:53.013156 15560 net.cpp:92] Creating Layer relu3
I1002 22:03:53.013161 15560 net.cpp:412] relu3 <- conv3
I1002 22:03:53.013169 15560 net.cpp:359] relu3 -> conv3 (in-place)
I1002 22:03:53.013175 15560 net.cpp:122] Setting up relu3
I1002 22:03:53.013180 15560 net.cpp:129] Top shape: 10 384 13 13 (648960)
I1002 22:03:53.013185 15560 layer_factory.hpp:74] Creating layer conv4
I1002 22:03:53.013193 15560 net.cpp:92] Creating Layer conv4
I1002 22:03:53.013197 15560 net.cpp:412] conv4 <- conv3
I1002 22:03:53.013203 15560 net.cpp:370] conv4 -> conv4
I1002 22:03:53.013211 15560 net.cpp:122] Setting up conv4
I1002 22:03:53.028609 15560 net.cpp:129] Top shape: 10 384 13 13 (648960)
I1002 22:03:53.028627 15560 layer_factory.hpp:74] Creating layer relu4
I1002 22:03:53.028635 15560 net.cpp:92] Creating Layer relu4
I1002 22:03:53.028640 15560 net.cpp:412] relu4 <- conv4
I1002 22:03:53.028651 15560 net.cpp:359] relu4 -> conv4 (in-place)
I1002 22:03:53.028666 15560 net.cpp:122] Setting up relu4
I1002 22:03:53.028681 15560 net.cpp:129] Top shape: 10 384 13 13 (648960)
I1002 22:03:53.028686 15560 layer_factory.hpp:74] Creating layer conv5
I1002 22:03:53.028693 15560 net.cpp:92] Creating Layer conv5
I1002 22:03:53.028698 15560 net.cpp:412] conv5 <- conv4
I1002 22:03:53.028705 15560 net.cpp:370] conv5 -> conv5
I1002 22:03:53.028713 15560 net.cpp:122] Setting up conv5
I1002 22:03:53.038913 15560 net.cpp:129] Top shape: 10 256 13 13 (432640)
I1002 22:03:53.038928 15560 layer_factory.hpp:74] Creating layer relu5
I1002 22:03:53.038935 15560 net.cpp:92] Creating Layer relu5
I1002 22:03:53.038940 15560 net.cpp:412] relu5 <- conv5
I1002 22:03:53.038946 15560 net.cpp:359] relu5 -> conv5 (in-place)
I1002 22:03:53.038954 15560 net.cpp:122] Setting up relu5
I1002 22:03:53.038959 15560 net.cpp:129] Top shape: 10 256 13 13 (432640)
I1002 22:03:53.038964 15560 layer_factory.hpp:74] Creating layer pool5
I1002 22:03:53.038972 15560 net.cpp:92] Creating Layer pool5
I1002 22:03:53.038977 15560 net.cpp:412] pool5 <- conv5
I1002 22:03:53.038985 15560 net.cpp:370] pool5 -> pool5
I1002 22:03:53.038992 15560 net.cpp:122] Setting up pool5
I1002 22:03:53.039001 15560 net.cpp:129] Top shape: 10 256 6 6 (92160)
I1002 22:03:53.039006 15560 layer_factory.hpp:74] Creating layer fc6
I1002 22:03:53.039014 15560 net.cpp:92] Creating Layer fc6
I1002 22:03:53.039019 15560 net.cpp:412] fc6 <- pool5
I1002 22:03:53.039026 15560 net.cpp:370] fc6 -> fc6
I1002 22:03:53.039034 15560 net.cpp:122] Setting up fc6
I1002 22:03:53.895999 15560 net.cpp:129] Top shape: 10 4096 (40960)
I1002 22:03:53.896041 15560 layer_factory.hpp:74] Creating layer relu6
I1002 22:03:53.896054 15560 net.cpp:92] Creating Layer relu6
I1002 22:03:53.896060 15560 net.cpp:412] relu6 <- fc6
I1002 22:03:53.896070 15560 net.cpp:359] relu6 -> fc6 (in-place)
I1002 22:03:53.896077 15560 net.cpp:122] Setting up relu6
I1002 22:03:53.896083 15560 net.cpp:129] Top shape: 10 4096 (40960)
I1002 22:03:53.896088 15560 layer_factory.hpp:74] Creating layer drop6
I1002 22:03:53.896096 15560 net.cpp:92] Creating Layer drop6
I1002 22:03:53.896101 15560 net.cpp:412] drop6 <- fc6
I1002 22:03:53.896107 15560 net.cpp:359] drop6 -> fc6 (in-place)
I1002 22:03:53.896114 15560 net.cpp:122] Setting up drop6
I1002 22:03:53.896122 15560 net.cpp:129] Top shape: 10 4096 (40960)
I1002 22:03:53.896126 15560 layer_factory.hpp:74] Creating layer fc7
I1002 22:03:53.896136 15560 net.cpp:92] Creating Layer fc7
I1002 22:03:53.896139 15560 net.cpp:412] fc7 <- fc6
I1002 22:03:53.896148 15560 net.cpp:370] fc7 -> fc7
I1002 22:03:53.896157 15560 net.cpp:122] Setting up fc7
I1002 22:03:54.277086 15560 net.cpp:129] Top shape: 10 4096 (40960)
I1002 22:03:54.277129 15560 layer_factory.hpp:74] Creating layer relu7
I1002 22:03:54.277140 15560 net.cpp:92] Creating Layer relu7
I1002 22:03:54.277146 15560 net.cpp:412] relu7 <- fc7
I1002 22:03:54.277155 15560 net.cpp:359] relu7 -> fc7 (in-place)
I1002 22:03:54.277164 15560 net.cpp:122] Setting up relu7
I1002 22:03:54.277171 15560 net.cpp:129] Top shape: 10 4096 (40960)
I1002 22:03:54.277176 15560 layer_factory.hpp:74] Creating layer drop7
I1002 22:03:54.277184 15560 net.cpp:92] Creating Layer drop7
I1002 22:03:54.277189 15560 net.cpp:412] drop7 <- fc7
I1002 22:03:54.277194 15560 net.cpp:359] drop7 -> fc7 (in-place)
I1002 22:03:54.277200 15560 net.cpp:122] Setting up drop7
I1002 22:03:54.277207 15560 net.cpp:129] Top shape: 10 4096 (40960)
I1002 22:03:54.277212 15560 layer_factory.hpp:74] Creating layer fc8
I1002 22:03:54.277222 15560 net.cpp:92] Creating Layer fc8
I1002 22:03:54.277227 15560 net.cpp:412] fc8 <- fc7
I1002 22:03:54.277233 15560 net.cpp:370] fc8 -> fc8
I1002 22:03:54.277245 15560 net.cpp:122] Setting up fc8
I1002 22:03:54.281985 15560 net.cpp:129] Top shape: 10 50 (500)
I1002 22:03:54.281996 15560 layer_factory.hpp:74] Creating layer fc8_fc8_0_split
I1002 22:03:54.282003 15560 net.cpp:92] Creating Layer fc8_fc8_0_split
I1002 22:03:54.282008 15560 net.cpp:412] fc8_fc8_0_split <- fc8
I1002 22:03:54.282016 15560 net.cpp:370] fc8_fc8_0_split -> fc8_fc8_0_split_0
I1002 22:03:54.282032 15560 net.cpp:370] fc8_fc8_0_split -> fc8_fc8_0_split_1
I1002 22:03:54.282047 15560 net.cpp:122] Setting up fc8_fc8_0_split
I1002 22:03:54.282053 15560 net.cpp:129] Top shape: 10 50 (500)
I1002 22:03:54.282059 15560 net.cpp:129] Top shape: 10 50 (500)
I1002 22:03:54.282064 15560 layer_factory.hpp:74] Creating layer accuracy
I1002 22:03:54.282071 15560 net.cpp:92] Creating Layer accuracy
I1002 22:03:54.282075 15560 net.cpp:412] accuracy <- fc8_fc8_0_split_0
I1002 22:03:54.282081 15560 net.cpp:412] accuracy <- label_data_1_split_0
I1002 22:03:54.282088 15560 net.cpp:370] accuracy -> accuracy
I1002 22:03:54.282095 15560 net.cpp:122] Setting up accuracy
…
