…
I1004 21:33:31.838995  1639 net.cpp:289] The NetState phase (0) differed from the phase (1) specified by a rule in layer accuracy
I1004 21:33:31.839133  1639 net.cpp:44] Initializing net from parameters: 
name: "CaffeNet"
state {
  phase: TRAIN
}
layer {
  name: "data"
  type: "Data"
  top: "data"
  top: "label"
  include {
    phase: TRAIN
  }
  transform_param {
    mirror: true
    crop_size: 227
    mean_file: "data/acBlackLight/imagenet_mean.binaryproto"
  }
  data_param {
    source: "acBlackLight/imagenet_train_leveldb"
    batch_size: 128
    backend: LMDB
  }
}
layer {
  name: "conv1"
  type: "Convolution"
  bottom: "data"
  top: "conv1"
  param {
    lr_mult: 1
    decay_mult: 1
  }
  param {
    lr_mult: 2
    decay_mult: 0
  }
  convolution_param {
    num_output: 96
    kernel_size: 11
    stride: 4
    weight_filler {
      type: "gaussian"
      std: 0.01
    }
    bias_filler {
      type: "constant"
      value: 0
    }
  }
}
layer {
  name: "relu1"
  type: "ReLU"
  bottom: "conv1"
  top: "conv1"
}
layer {
  name: "pool1"
  type: "Pooling"
  bottom: "conv1"
  top: "pool1"
  pooling_param {
    pool: MAX
    kernel_size: 3
    stride: 2
  }
}
layer {
  name: "norm1"
  type: "LRN"
  bottom: "pool1"
  top: "norm1"
  lrn_param {
    local_size: 5
    alpha: 0.0001
    beta: 0.75
  }
}
layer {
  name: "conv2"
  type: "Convolution"
  bottom: "norm1"
  top: "conv2"
  param {
    lr_mult: 1
    decay_mult: 1
  }
  param {
    lr_mult: 2
    decay_mult: 0
  }
  convolution_param {
    num_output: 256
    pad: 2
    kernel_size: 5
    group: 2
    weight_filler {
      type: "gaussian"
      std: 0.01
    }
    bias_filler {
      type: "constant"
      value: 1
    }
  }
}
layer {
  name: "relu2"
  type: "ReLU"
  bottom: "conv2"
  top: "conv2"
}
layer {
  name: "pool2"
  type: "Pooling"
  bottom: "conv2"
  top: "pool2"
  pooling_param {
    pool: MAX
    kernel_size: 3
    stride: 2
  }
}
layer {
  name: "norm2"
  type: "LRN"
  bottom: "pool2"
  top: "norm2"
  lrn_param {
    local_size: 5
    alpha: 0.0001
    beta: 0.75
  }
}
layer {
  name: "conv3"
  type: "Convolution"
  bottom: "norm2"
  top: "conv3"
  param {
    lr_mult: 1
    decay_mult: 1
  }
  param {
    lr_mult: 2
    decay_mult: 0
  }
  convolution_param {
    num_output: 384
    pad: 1
    kernel_size: 3
    weight_filler {
      type: "gaussian"
      std: 0.01
    }
    bias_filler {
      type: "constant"
      value: 0
    }
  }
}
layer {
  name: "relu3"
  type: "ReLU"
  bottom: "conv3"
  top: "conv3"
}
layer {
  name: "conv4"
  type: "Convolution"
  bottom: "conv3"
  top: "conv4"
  param {
    lr_mult: 1
    decay_mult: 1
  }
  param {
    lr_mult: 2
    decay_mult: 0
  }
  convolution_param {
    num_output: 384
    pad: 1
    kernel_size: 3
    group: 2
    weight_filler {
      type: "gaussian"
      std: 0.01
    }
    bias_filler {
      type: "constant"
      value: 1
    }
  }
}
layer {
  name: "relu4"
  type: "ReLU"
  bottom: "conv4"
  top: "conv4"
}
layer {
  name: "conv5"
  type: "Convolution"
  bottom: "conv4"
  top: "conv5"
  param {
    lr_mult: 1
    decay_mult: 1
  }
  param {
    lr_mult: 2
    decay_mult: 0
  }
  convolution_param {
    num_output: 256
    pad: 1
    kernel_size: 3
    group: 2
    weight_filler {
      type: "gaussian"
      std: 0.01
    }
    bias_filler {
      type: "constant"
      value: 1
    }
  }
}
layer {
  name: "relu5"
  type: "ReLU"
  bottom: "conv5"
  top: "conv5"
}
layer {
  name: "pool5"
  type: "Pooling"
  bottom: "conv5"
  top: "pool5"
  pooling_param {
    pool: MAX
    kernel_size: 3
    stride: 2
  }
}
layer {
  name: "fc6"
  type: "InnerProduct"
  bottom: "pool5"
  top: "fc6"
  param {
    lr_mult: 1
    decay_mult: 1
  }
  param {
    lr_mult: 2
    decay_mult: 0
  }
  inner_product_param {
    num_output: 4096
    weight_filler {
      type: "gaussian"
      std: 0.005
    }
    bias_filler {
      type: "constant"
      value: 1
    }
  }
}
layer {
  name: "relu6"
  type: "ReLU"
  bottom: "fc6"
  top: "fc6"
}
layer {
  name: "drop6"
  type: "Dropout"
  bottom: "fc6"
  top: "fc6"
  dropout_param {
    dropout_ratio: 0.5
  }
}
layer {
  name: "fc7"
  type: "InnerProduct"
  bottom: "fc6"
  top: "fc7"
  param {
    lr_mult: 1
    decay_mult: 1
  }
  param {
    lr_mult: 2
    decay_mult: 0
  }
  inner_product_param {
    num_output: 4096
    weight_filler {
      type: "gaussian"
      std: 0.005
    }
    bias_filler {
      type: "constant"
      value: 1
    }
  }
}
layer {
  name: "relu7"
  type: "ReLU"
  bottom: "fc7"
  top: "fc7"
}
layer {
  name: "drop7"
  type: "Dropout"
  bottom: "fc7"
  top: "fc7"
  dropout_param {
    dropout_ratio: 0.5
  }
}
layer {
  name: "fc8"
  type: "InnerProduct"
  bottom: "fc7"
  top: "fc8"
  param {
    lr_mult: 1
    decay_mult: 1
  }
  param {
    lr_mult: 2
    decay_mult: 0
  }
  inner_product_param {
    num_output: 2
    weight_filler {
      type: "gaussian"
      std: 0.01
    }
    bias_filler {
      type: "constant"
      value: 0
    }
  }
}
layer {
  name: "loss"
  type: "SoftmaxWithLoss"
  bottom: "fc8"
  bottom: "label"
  top: "loss"
}
I1004 21:33:31.839231  1639 layer_factory.hpp:74] Creating layer data
I1004 21:33:31.839253  1639 net.cpp:92] Creating Layer data
I1004 21:33:31.839262  1639 net.cpp:370] data -> data
I1004 21:33:31.839287  1639 net.cpp:370] data -> label
I1004 21:33:31.839298  1639 net.cpp:122] Setting up data
I1004 21:33:31.881551  1639 data_transformer.cpp:22] Loading mean file from: data/acBlackLight/imagenet_mean.binaryproto
I1004 21:33:31.883111  1639 db_lmdb.cpp:22] Opened lmdb acBlackLight/imagenet_train_leveldb
I1004 21:33:31.883182  1639 data_layer.cpp:52] output data size: 128,3,227,227
I1004 21:33:31.892428  1639 net.cpp:129] Top shape: 128 3 227 227 (19787136)
I1004 21:33:31.892467  1639 net.cpp:129] Top shape: 128 (128)
I1004 21:33:31.892477  1639 layer_factory.hpp:74] Creating layer conv1
I1004 21:33:31.892496  1639 net.cpp:92] Creating Layer conv1
I1004 21:33:31.892503  1639 net.cpp:412] conv1 <- data
I1004 21:33:31.892516  1639 net.cpp:370] conv1 -> conv1
I1004 21:33:31.892531  1639 net.cpp:122] Setting up conv1
I1004 21:33:31.894405  1639 net.cpp:129] Top shape: 128 96 55 55 (37171200)
I1004 21:33:31.894430  1639 layer_factory.hpp:74] Creating layer relu1
I1004 21:33:31.907102  1639 net.cpp:92] Creating Layer relu1
I1004 21:33:31.907117  1639 net.cpp:412] relu1 <- conv1
I1004 21:33:31.907127  1639 net.cpp:359] relu1 -> conv1 (in-place)
I1004 21:33:31.907137  1639 net.cpp:122] Setting up relu1
I1004 21:33:31.907145  1639 net.cpp:129] Top shape: 128 96 55 55 (37171200)
I1004 21:33:31.907150  1639 layer_factory.hpp:74] Creating layer pool1
I1004 21:33:31.907158  1639 net.cpp:92] Creating Layer pool1
I1004 21:33:31.907163  1639 net.cpp:412] pool1 <- conv1
I1004 21:33:31.907169  1639 net.cpp:370] pool1 -> pool1
I1004 21:33:31.907178  1639 net.cpp:122] Setting up pool1
I1004 21:33:31.907194  1639 net.cpp:129] Top shape: 128 96 27 27 (8957952)
I1004 21:33:31.907201  1639 layer_factory.hpp:74] Creating layer norm1
I1004 21:33:31.907209  1639 net.cpp:92] Creating Layer norm1
I1004 21:33:31.907214  1639 net.cpp:412] norm1 <- pool1
I1004 21:33:31.907220  1639 net.cpp:370] norm1 -> norm1
I1004 21:33:31.907229  1639 net.cpp:122] Setting up norm1
I1004 21:33:31.907238  1639 net.cpp:129] Top shape: 128 96 27 27 (8957952)
I1004 21:33:31.907243  1639 layer_factory.hpp:74] Creating layer conv2
I1004 21:33:31.907249  1639 net.cpp:92] Creating Layer conv2
I1004 21:33:31.907261  1639 net.cpp:412] conv2 <- norm1
I1004 21:33:31.907276  1639 net.cpp:370] conv2 -> conv2
I1004 21:33:31.907284  1639 net.cpp:122] Setting up conv2
I1004 21:33:31.914391  1639 net.cpp:129] Top shape: 128 256 27 27 (23887872)
I1004 21:33:31.914408  1639 layer_factory.hpp:74] Creating layer relu2
I1004 21:33:31.914415  1639 net.cpp:92] Creating Layer relu2
I1004 21:33:31.914420  1639 net.cpp:412] relu2 <- conv2
I1004 21:33:31.914427  1639 net.cpp:359] relu2 -> conv2 (in-place)
I1004 21:33:31.914433  1639 net.cpp:122] Setting up relu2
I1004 21:33:31.914440  1639 net.cpp:129] Top shape: 128 256 27 27 (23887872)
I1004 21:33:31.914445  1639 layer_factory.hpp:74] Creating layer pool2
I1004 21:33:31.914453  1639 net.cpp:92] Creating Layer pool2
I1004 21:33:31.914458  1639 net.cpp:412] pool2 <- conv2
I1004 21:33:31.914464  1639 net.cpp:370] pool2 -> pool2
I1004 21:33:31.914472  1639 net.cpp:122] Setting up pool2
I1004 21:33:31.914480  1639 net.cpp:129] Top shape: 128 256 13 13 (5537792)
I1004 21:33:31.914485  1639 layer_factory.hpp:74] Creating layer norm2
I1004 21:33:31.914494  1639 net.cpp:92] Creating Layer norm2
I1004 21:33:31.914500  1639 net.cpp:412] norm2 <- pool2
I1004 21:33:31.914506  1639 net.cpp:370] norm2 -> norm2
I1004 21:33:31.914513  1639 net.cpp:122] Setting up norm2
I1004 21:33:31.914520  1639 net.cpp:129] Top shape: 128 256 13 13 (5537792)
I1004 21:33:31.914533  1639 layer_factory.hpp:74] Creating layer conv3
I1004 21:33:31.914542  1639 net.cpp:92] Creating Layer conv3
I1004 21:33:31.914547  1639 net.cpp:412] conv3 <- norm2
I1004 21:33:31.914554  1639 net.cpp:370] conv3 -> conv3
I1004 21:33:31.914563  1639 net.cpp:122] Setting up conv3
I1004 21:33:31.935140  1639 net.cpp:129] Top shape: 128 384 13 13 (8306688)
I1004 21:33:31.935169  1639 layer_factory.hpp:74] Creating layer relu3
I1004 21:33:31.935179  1639 net.cpp:92] Creating Layer relu3
I1004 21:33:31.935185  1639 net.cpp:412] relu3 <- conv3
I1004 21:33:31.935194  1639 net.cpp:359] relu3 -> conv3 (in-place)
I1004 21:33:31.935204  1639 net.cpp:122] Setting up relu3
I1004 21:33:31.935209  1639 net.cpp:129] Top shape: 128 384 13 13 (8306688)
I1004 21:33:31.935215  1639 layer_factory.hpp:74] Creating layer conv4
I1004 21:33:31.935223  1639 net.cpp:92] Creating Layer conv4
I1004 21:33:31.935228  1639 net.cpp:412] conv4 <- conv3
I1004 21:33:31.935236  1639 net.cpp:370] conv4 -> conv4
I1004 21:33:31.935245  1639 net.cpp:122] Setting up conv4
I1004 21:33:31.950881  1639 net.cpp:129] Top shape: 128 384 13 13 (8306688)
I1004 21:33:31.950914  1639 layer_factory.hpp:74] Creating layer relu4
I1004 21:33:31.950928  1639 net.cpp:92] Creating Layer relu4
I1004 21:33:31.950937  1639 net.cpp:412] relu4 <- conv4
I1004 21:33:31.950968  1639 net.cpp:359] relu4 -> conv4 (in-place)
I1004 21:33:31.950978  1639 net.cpp:122] Setting up relu4
I1004 21:33:31.950985  1639 net.cpp:129] Top shape: 128 384 13 13 (8306688)
I1004 21:33:31.950990  1639 layer_factory.hpp:74] Creating layer conv5
I1004 21:33:31.950999  1639 net.cpp:92] Creating Layer conv5
I1004 21:33:31.951004  1639 net.cpp:412] conv5 <- conv4
I1004 21:33:31.951012  1639 net.cpp:370] conv5 -> conv5
I1004 21:33:31.951021  1639 net.cpp:122] Setting up conv5
I1004 21:33:31.961562  1639 net.cpp:129] Top shape: 128 256 13 13 (5537792)
I1004 21:33:31.961603  1639 layer_factory.hpp:74] Creating layer relu5
I1004 21:33:31.961614  1639 net.cpp:92] Creating Layer relu5
I1004 21:33:31.961621  1639 net.cpp:412] relu5 <- conv5
I1004 21:33:31.961629  1639 net.cpp:359] relu5 -> conv5 (in-place)
I1004 21:33:31.961638  1639 net.cpp:122] Setting up relu5
I1004 21:33:31.961644  1639 net.cpp:129] Top shape: 128 256 13 13 (5537792)
I1004 21:33:31.961650  1639 layer_factory.hpp:74] Creating layer pool5
I1004 21:33:31.961658  1639 net.cpp:92] Creating Layer pool5
I1004 21:33:31.961663  1639 net.cpp:412] pool5 <- conv5
I1004 21:33:31.961670  1639 net.cpp:370] pool5 -> pool5
I1004 21:33:31.961678  1639 net.cpp:122] Setting up pool5
I1004 21:33:31.961688  1639 net.cpp:129] Top shape: 128 256 6 6 (1179648)
I1004 21:33:31.961704  1639 layer_factory.hpp:74] Creating layer fc6
I1004 21:33:31.961725  1639 net.cpp:92] Creating Layer fc6
I1004 21:33:31.961730  1639 net.cpp:412] fc6 <- pool5
I1004 21:33:31.961738  1639 net.cpp:370] fc6 -> fc6
I1004 21:33:31.961750  1639 net.cpp:122] Setting up fc6
I1004 21:33:32.820631  1639 net.cpp:129] Top shape: 128 4096 (524288)
I1004 21:33:32.820673  1639 layer_factory.hpp:74] Creating layer relu6
I1004 21:33:32.820685  1639 net.cpp:92] Creating Layer relu6
I1004 21:33:32.820691  1639 net.cpp:412] relu6 <- fc6
I1004 21:33:32.820699  1639 net.cpp:359] relu6 -> fc6 (in-place)
I1004 21:33:32.820709  1639 net.cpp:122] Setting up relu6
I1004 21:33:32.820718  1639 net.cpp:129] Top shape: 128 4096 (524288)
I1004 21:33:32.820722  1639 layer_factory.hpp:74] Creating layer drop6
I1004 21:33:32.820729  1639 net.cpp:92] Creating Layer drop6
I1004 21:33:32.820734  1639 net.cpp:412] drop6 <- fc6
I1004 21:33:32.820740  1639 net.cpp:359] drop6 -> fc6 (in-place)
I1004 21:33:32.820750  1639 net.cpp:122] Setting up drop6
I1004 21:33:32.820760  1639 net.cpp:129] Top shape: 128 4096 (524288)
I1004 21:33:32.820765  1639 layer_factory.hpp:74] Creating layer fc7
I1004 21:33:32.820773  1639 net.cpp:92] Creating Layer fc7
I1004 21:33:32.820778  1639 net.cpp:412] fc7 <- fc6
I1004 21:33:32.820786  1639 net.cpp:370] fc7 -> fc7
I1004 21:33:32.820796  1639 net.cpp:122] Setting up fc7
I1004 21:33:33.201617  1639 net.cpp:129] Top shape: 128 4096 (524288)
I1004 21:33:33.201656  1639 layer_factory.hpp:74] Creating layer relu7
I1004 21:33:33.201668  1639 net.cpp:92] Creating Layer relu7
I1004 21:33:33.201674  1639 net.cpp:412] relu7 <- fc7
I1004 21:33:33.201683  1639 net.cpp:359] relu7 -> fc7 (in-place)
I1004 21:33:33.201691  1639 net.cpp:122] Setting up relu7
I1004 21:33:33.201697  1639 net.cpp:129] Top shape: 128 4096 (524288)
I1004 21:33:33.201702  1639 layer_factory.hpp:74] Creating layer drop7
I1004 21:33:33.201711  1639 net.cpp:92] Creating Layer drop7
I1004 21:33:33.201716  1639 net.cpp:412] drop7 <- fc7
I1004 21:33:33.201722  1639 net.cpp:359] drop7 -> fc7 (in-place)
I1004 21:33:33.201730  1639 net.cpp:122] Setting up drop7
I1004 21:33:33.201737  1639 net.cpp:129] Top shape: 128 4096 (524288)
I1004 21:33:33.201742  1639 layer_factory.hpp:74] Creating layer fc8
I1004 21:33:33.201750  1639 net.cpp:92] Creating Layer fc8
I1004 21:33:33.201756  1639 net.cpp:412] fc8 <- fc7
I1004 21:33:33.201762  1639 net.cpp:370] fc8 -> fc8
I1004 21:33:33.201771  1639 net.cpp:122] Setting up fc8
I1004 21:33:33.201985  1639 net.cpp:129] Top shape: 128 2 (256)
I1004 21:33:33.201994  1639 layer_factory.hpp:74] Creating layer loss
I1004 21:33:33.202009  1639 net.cpp:92] Creating Layer loss
I1004 21:33:33.202014  1639 net.cpp:412] loss <- fc8
I1004 21:33:33.202020  1639 net.cpp:412] loss <- label
I1004 21:33:33.202029  1639 net.cpp:370] loss -> loss
I1004 21:33:33.202040  1639 net.cpp:122] Setting up loss
I1004 21:33:33.202049  1639 layer_factory.hpp:74] Creating layer loss
…
I1004 21:33:33.202893  1639 net.cpp:289] The NetState phase (1) differed from the phase (0) specified by a rule in layer data
I1004 21:33:33.203050  1639 net.cpp:44] Initializing net from parameters: 
name: "CaffeNet"
state {
  phase: TEST
}
layer {
  name: "data"
  type: "Data"
  top: "data"
  top: "label"
  include {
    phase: TEST
  }
  transform_param {
    mirror: true
    crop_size: 227
    mean_file: "data/acBlackLight/imagenet_mean.binaryproto"
  }
  data_param {
    source: "acBlackLight/imagenet_val_leveldb"
    mean_file: "data/acBlackLight/imagenet_mean.binartproto"
    batch_size: 10
    crop_size: 227
    mirror: false
    backend: LMDB
  }
}
layer {
  name: "conv1"
  type: "Convolution"
  bottom: "data"
  top: "conv1"
  param {
    lr_mult: 1
    decay_mult: 1
  }
  param {
    lr_mult: 2
    decay_mult: 0
  }
  convolution_param {
    num_output: 96
    kernel_size: 11
    stride: 4
    weight_filler {
      type: "gaussian"
      std: 0.01
    }
    bias_filler {
      type: "constant"
      value: 0
    }
  }
}
layer {
  name: "relu1"
  type: "ReLU"
  bottom: "conv1"
  top: "conv1"
}
layer {
  name: "pool1"
  type: "Pooling"
  bottom: "conv1"
  top: "pool1"
  pooling_param {
    pool: MAX
    kernel_size: 3
    stride: 2
  }
}
layer {
  name: "norm1"
  type: "LRN"
  bottom: "pool1"
  top: "norm1"
  lrn_param {
    local_size: 5
    alpha: 0.0001
    beta: 0.75
  }
}
layer {
  name: "conv2"
  type: "Convolution"
  bottom: "norm1"
  top: "conv2"
  param {
    lr_mult: 1
    decay_mult: 1
  }
  param {
    lr_mult: 2
    decay_mult: 0
  }
  convolution_param {
    num_output: 256
    pad: 2
    kernel_size: 5
    group: 2
    weight_filler {
      type: "gaussian"
      std: 0.01
    }
    bias_filler {
      type: "constant"
      value: 1
    }
  }
}
layer {
  name: "relu2"
  type: "ReLU"
  bottom: "conv2"
  top: "conv2"
}
layer {
  name: "pool2"
  type: "Pooling"
  bottom: "conv2"
  top: "pool2"
  pooling_param {
    pool: MAX
    kernel_size: 3
    stride: 2
  }
}
layer {
  name: "norm2"
  type: "LRN"
  bottom: "pool2"
  top: "norm2"
  lrn_param {
    local_size: 5
    alpha: 0.0001
    beta: 0.75
  }
}
layer {
  name: "conv3"
  type: "Convolution"
  bottom: "norm2"
  top: "conv3"
  param {
    lr_mult: 1
    decay_mult: 1
  }
  param {
    lr_mult: 2
    decay_mult: 0
  }
  convolution_param {
    num_output: 384
    pad: 1
    kernel_size: 3
    weight_filler {
      type: "gaussian"
      std: 0.01
    }
    bias_filler {
      type: "constant"
      value: 0
    }
  }
}
layer {
  name: "relu3"
  type: "ReLU"
  bottom: "conv3"
  top: "conv3"
}
layer {
  name: "conv4"
  type: "Convolution"
  bottom: "conv3"
  top: "conv4"
  param {
    lr_mult: 1
    decay_mult: 1
  }
  param {
    lr_mult: 2
    decay_mult: 0
  }
  convolution_param {
    num_output: 384
    pad: 1
    kernel_size: 3
    group: 2
    weight_filler {
      type: "gaussian"
      std: 0.01
    }
    bias_filler {
      type: "constant"
      value: 1
    }
  }
}
layer {
  name: "relu4"
  type: "ReLU"
  bottom: "conv4"
  top: "conv4"
}
layer {
  name: "conv5"
  type: "Convolution"
  bottom: "conv4"
  top: "conv5"
  param {
    lr_mult: 1
    decay_mult: 1
  }
  param {
    lr_mult: 2
    decay_mult: 0
  }
  convolution_param {
    num_output: 256
    pad: 1
    kernel_size: 3
    group: 2
    weight_filler {
      type: "gaussian"
      std: 0.01
    }
    bias_filler {
      type: "constant"
      value: 1
    }
  }
}
layer {
  name: "relu5"
  type: "ReLU"
  bottom: "conv5"
  top: "conv5"
}
layer {
  name: "pool5"
  type: "Pooling"
  bottom: "conv5"
  top: "pool5"
  pooling_param {
    pool: MAX
    kernel_size: 3
    stride: 2
  }
}
layer {
  name: "fc6"
  type: "InnerProduct"
  bottom: "pool5"
  top: "fc6"
  param {
    lr_mult: 1
    decay_mult: 1
  }
  param {
    lr_mult: 2
    decay_mult: 0
  }
  inner_product_param {
    num_output: 4096
    weight_filler {
      type: "gaussian"
      std: 0.005
    }
    bias_filler {
      type: "constant"
      value: 1
    }
  }
}
layer {
  name: "relu6"
  type: "ReLU"
  bottom: "fc6"
  top: "fc6"
}
layer {
  name: "drop6"
  type: "Dropout"
  bottom: "fc6"
  top: "fc6"
  dropout_param {
    dropout_ratio: 0.5
  }
}
layer {
  name: "fc7"
  type: "InnerProduct"
  bottom: "fc6"
  top: "fc7"
  param {
    lr_mult: 1
    decay_mult: 1
  }
  param {
    lr_mult: 2
    decay_mult: 0
  }
  inner_product_param {
    num_output: 4096
    weight_filler {
      type: "gaussian"
      std: 0.005
    }
    bias_filler {
      type: "constant"
      value: 1
    }
  }
}
layer {
  name: "relu7"
  type: "ReLU"
  bottom: "fc7"
  top: "fc7"
}
layer {
  name: "drop7"
  type: "Dropout"
  bottom: "fc7"
  top: "fc7"
  dropout_param {
    dropout_ratio: 0.5
  }
}
layer {
  name: "fc8"
  type: "InnerProduct"
  bottom: "fc7"
  top: "fc8"
  param {
    lr_mult: 1
    decay_mult: 1
  }
  param {
    lr_mult: 2
    decay_mult: 0
  }
  inner_product_param {
    num_output: 2
    weight_filler {
      type: "gaussian"
      std: 0.01
    }
    bias_filler {
      type: "constant"
      value: 0
    }
  }
}
layer {
  name: "accuracy"
  type: "Accuracy"
  bottom: "fc8"
  bottom: "label"
  top: "accuracy"
  include {
    phase: TEST
  }
}
layer {
  name: "loss"
  type: "SoftmaxWithLoss"
  bottom: "fc8"
  bottom: "label"
  top: "loss"
}
I1004 21:33:33.203155  1639 layer_factory.hpp:74] Creating layer data
I1004 21:33:33.203166  1639 net.cpp:92] Creating Layer data
I1004 21:33:33.203173  1639 net.cpp:370] data -> data
I1004 21:33:33.203183  1639 net.cpp:370] data -> label
I1004 21:33:33.203191  1639 net.cpp:122] Setting up data
I1004 21:33:33.203197  1639 data_transformer.cpp:22] Loading mean file from: data/acBlackLight/imagenet_mean.binaryproto
I1004 21:33:33.204447  1639 db_lmdb.cpp:22] Opened lmdb acBlackLight/imagenet_val_leveldb
I1004 21:33:33.204512  1639 data_layer.cpp:52] output data size: 10,3,227,227
I1004 21:33:33.205433  1639 net.cpp:129] Top shape: 10 3 227 227 (1545870)
I1004 21:33:33.205457  1639 net.cpp:129] Top shape: 10 (10)
I1004 21:33:33.205466  1639 layer_factory.hpp:74] Creating layer label_data_1_split
I1004 21:33:33.205476  1639 net.cpp:92] Creating Layer label_data_1_split
I1004 21:33:33.205482  1639 net.cpp:412] label_data_1_split <- label
I1004 21:33:33.205493  1639 net.cpp:370] label_data_1_split -> label_data_1_split_0
I1004 21:33:33.205508  1639 net.cpp:370] label_data_1_split -> label_data_1_split_1
I1004 21:33:33.205517  1639 net.cpp:122] Setting up label_data_1_split
I1004 21:33:33.205525  1639 net.cpp:129] Top shape: 10 (10)
I1004 21:33:33.205530  1639 net.cpp:129] Top shape: 10 (10)
I1004 21:33:33.205536  1639 layer_factory.hpp:74] Creating layer conv1
I1004 21:33:33.205548  1639 net.cpp:92] Creating Layer conv1
I1004 21:33:33.205552  1639 net.cpp:412] conv1 <- data
I1004 21:33:33.205560  1639 net.cpp:370] conv1 -> conv1
I1004 21:33:33.205569  1639 net.cpp:122] Setting up conv1
I1004 21:33:33.206414  1639 net.cpp:129] Top shape: 10 96 55 55 (2904000)
I1004 21:33:33.206439  1639 layer_factory.hpp:74] Creating layer relu1
I1004 21:33:33.206454  1639 net.cpp:92] Creating Layer relu1
I1004 21:33:33.206459  1639 net.cpp:412] relu1 <- conv1
I1004 21:33:33.206466  1639 net.cpp:359] relu1 -> conv1 (in-place)
I1004 21:33:33.206472  1639 net.cpp:122] Setting up relu1
I1004 21:33:33.206480  1639 net.cpp:129] Top shape: 10 96 55 55 (2904000)
I1004 21:33:33.206485  1639 layer_factory.hpp:74] Creating layer pool1
I1004 21:33:33.206492  1639 net.cpp:92] Creating Layer pool1
I1004 21:33:33.206497  1639 net.cpp:412] pool1 <- conv1
I1004 21:33:33.206503  1639 net.cpp:370] pool1 -> pool1
I1004 21:33:33.206511  1639 net.cpp:122] Setting up pool1
I1004 21:33:33.206521  1639 net.cpp:129] Top shape: 10 96 27 27 (699840)
I1004 21:33:33.206526  1639 layer_factory.hpp:74] Creating layer norm1
I1004 21:33:33.206533  1639 net.cpp:92] Creating Layer norm1
I1004 21:33:33.206538  1639 net.cpp:412] norm1 <- pool1
I1004 21:33:33.206544  1639 net.cpp:370] norm1 -> norm1
I1004 21:33:33.206552  1639 net.cpp:122] Setting up norm1
I1004 21:33:33.206558  1639 net.cpp:129] Top shape: 10 96 27 27 (699840)
I1004 21:33:33.206563  1639 layer_factory.hpp:74] Creating layer conv2
I1004 21:33:33.206571  1639 net.cpp:92] Creating Layer conv2
I1004 21:33:33.206576  1639 net.cpp:412] conv2 <- norm1
I1004 21:33:33.206583  1639 net.cpp:370] conv2 -> conv2
I1004 21:33:33.206590  1639 net.cpp:122] Setting up conv2
I1004 21:33:33.213778  1639 net.cpp:129] Top shape: 10 256 27 27 (1866240)
I1004 21:33:33.213806  1639 layer_factory.hpp:74] Creating layer relu2
I1004 21:33:33.213816  1639 net.cpp:92] Creating Layer relu2
I1004 21:33:33.213822  1639 net.cpp:412] relu2 <- conv2
I1004 21:33:33.213830  1639 net.cpp:359] relu2 -> conv2 (in-place)
I1004 21:33:33.213838  1639 net.cpp:122] Setting up relu2
I1004 21:33:33.213845  1639 net.cpp:129] Top shape: 10 256 27 27 (1866240)
I1004 21:33:33.213850  1639 layer_factory.hpp:74] Creating layer pool2
I1004 21:33:33.213858  1639 net.cpp:92] Creating Layer pool2
I1004 21:33:33.213862  1639 net.cpp:412] pool2 <- conv2
I1004 21:33:33.213870  1639 net.cpp:370] pool2 -> pool2
I1004 21:33:33.213877  1639 net.cpp:122] Setting up pool2
I1004 21:33:33.213887  1639 net.cpp:129] Top shape: 10 256 13 13 (432640)
I1004 21:33:33.213892  1639 layer_factory.hpp:74] Creating layer norm2
I1004 21:33:33.213901  1639 net.cpp:92] Creating Layer norm2
I1004 21:33:33.213906  1639 net.cpp:412] norm2 <- pool2
I1004 21:33:33.213913  1639 net.cpp:370] norm2 -> norm2
I1004 21:33:33.213920  1639 net.cpp:122] Setting up norm2
I1004 21:33:33.213928  1639 net.cpp:129] Top shape: 10 256 13 13 (432640)
I1004 21:33:33.213933  1639 layer_factory.hpp:74] Creating layer conv3
I1004 21:33:33.213942  1639 net.cpp:92] Creating Layer conv3
I1004 21:33:33.213946  1639 net.cpp:412] conv3 <- norm2
I1004 21:33:33.213953  1639 net.cpp:370] conv3 -> conv3
I1004 21:33:33.213961  1639 net.cpp:122] Setting up conv3
I1004 21:33:33.234395  1639 net.cpp:129] Top shape: 10 384 13 13 (648960)
I1004 21:33:33.234410  1639 layer_factory.hpp:74] Creating layer relu3
I1004 21:33:33.234417  1639 net.cpp:92] Creating Layer relu3
I1004 21:33:33.234422  1639 net.cpp:412] relu3 <- conv3
I1004 21:33:33.234428  1639 net.cpp:359] relu3 -> conv3 (in-place)
I1004 21:33:33.234436  1639 net.cpp:122] Setting up relu3
I1004 21:33:33.234441  1639 net.cpp:129] Top shape: 10 384 13 13 (648960)
I1004 21:33:33.234447  1639 layer_factory.hpp:74] Creating layer conv4
I1004 21:33:33.234455  1639 net.cpp:92] Creating Layer conv4
I1004 21:33:33.234460  1639 net.cpp:412] conv4 <- conv3
I1004 21:33:33.234467  1639 net.cpp:370] conv4 -> conv4
I1004 21:33:33.234473  1639 net.cpp:122] Setting up conv4
I1004 21:33:33.249564  1639 net.cpp:129] Top shape: 10 384 13 13 (648960)
I1004 21:33:33.249577  1639 layer_factory.hpp:74] Creating layer relu4
I1004 21:33:33.249584  1639 net.cpp:92] Creating Layer relu4
I1004 21:33:33.249589  1639 net.cpp:412] relu4 <- conv4
I1004 21:33:33.249595  1639 net.cpp:359] relu4 -> conv4 (in-place)
I1004 21:33:33.249601  1639 net.cpp:122] Setting up relu4
I1004 21:33:33.249615  1639 net.cpp:129] Top shape: 10 384 13 13 (648960)
I1004 21:33:33.249629  1639 layer_factory.hpp:74] Creating layer conv5
I1004 21:33:33.249639  1639 net.cpp:92] Creating Layer conv5
I1004 21:33:33.249644  1639 net.cpp:412] conv5 <- conv4
I1004 21:33:33.249652  1639 net.cpp:370] conv5 -> conv5
I1004 21:33:33.249660  1639 net.cpp:122] Setting up conv5
I1004 21:33:33.259857  1639 net.cpp:129] Top shape: 10 256 13 13 (432640)
I1004 21:33:33.259873  1639 layer_factory.hpp:74] Creating layer relu5
I1004 21:33:33.259881  1639 net.cpp:92] Creating Layer relu5
I1004 21:33:33.259886  1639 net.cpp:412] relu5 <- conv5
I1004 21:33:33.259892  1639 net.cpp:359] relu5 -> conv5 (in-place)
I1004 21:33:33.259899  1639 net.cpp:122] Setting up relu5
I1004 21:33:33.259906  1639 net.cpp:129] Top shape: 10 256 13 13 (432640)
I1004 21:33:33.259910  1639 layer_factory.hpp:74] Creating layer pool5
I1004 21:33:33.259919  1639 net.cpp:92] Creating Layer pool5
I1004 21:33:33.259924  1639 net.cpp:412] pool5 <- conv5
I1004 21:33:33.259930  1639 net.cpp:370] pool5 -> pool5
I1004 21:33:33.259938  1639 net.cpp:122] Setting up pool5
I1004 21:33:33.259948  1639 net.cpp:129] Top shape: 10 256 6 6 (92160)
I1004 21:33:33.259953  1639 layer_factory.hpp:74] Creating layer fc6
I1004 21:33:33.259963  1639 net.cpp:92] Creating Layer fc6
I1004 21:33:33.259968  1639 net.cpp:412] fc6 <- pool5
I1004 21:33:33.259975  1639 net.cpp:370] fc6 -> fc6
I1004 21:33:33.259984  1639 net.cpp:122] Setting up fc6
I1004 21:33:34.118693  1639 net.cpp:129] Top shape: 10 4096 (40960)
I1004 21:33:34.118736  1639 layer_factory.hpp:74] Creating layer relu6
I1004 21:33:34.118748  1639 net.cpp:92] Creating Layer relu6
I1004 21:33:34.118755  1639 net.cpp:412] relu6 <- fc6
I1004 21:33:34.118764  1639 net.cpp:359] relu6 -> fc6 (in-place)
I1004 21:33:34.118774  1639 net.cpp:122] Setting up relu6
I1004 21:33:34.118782  1639 net.cpp:129] Top shape: 10 4096 (40960)
I1004 21:33:34.118787  1639 layer_factory.hpp:74] Creating layer drop6
I1004 21:33:34.118793  1639 net.cpp:92] Creating Layer drop6
I1004 21:33:34.118798  1639 net.cpp:412] drop6 <- fc6
I1004 21:33:34.118804  1639 net.cpp:359] drop6 -> fc6 (in-place)
I1004 21:33:34.118811  1639 net.cpp:122] Setting up drop6
I1004 21:33:34.118819  1639 net.cpp:129] Top shape: 10 4096 (40960)
I1004 21:33:34.118824  1639 layer_factory.hpp:74] Creating layer fc7
I1004 21:33:34.118835  1639 net.cpp:92] Creating Layer fc7
I1004 21:33:34.118841  1639 net.cpp:412] fc7 <- fc6
I1004 21:33:34.118847  1639 net.cpp:370] fc7 -> fc7
I1004 21:33:34.118856  1639 net.cpp:122] Setting up fc7
I1004 21:33:34.500939  1639 net.cpp:129] Top shape: 10 4096 (40960)
I1004 21:33:34.500977  1639 layer_factory.hpp:74] Creating layer relu7
I1004 21:33:34.500989  1639 net.cpp:92] Creating Layer relu7
I1004 21:33:34.500996  1639 net.cpp:412] relu7 <- fc7
I1004 21:33:34.501005  1639 net.cpp:359] relu7 -> fc7 (in-place)
I1004 21:33:34.501014  1639 net.cpp:122] Setting up relu7
I1004 21:33:34.501020  1639 net.cpp:129] Top shape: 10 4096 (40960)
I1004 21:33:34.501025  1639 layer_factory.hpp:74] Creating layer drop7
I1004 21:33:34.501034  1639 net.cpp:92] Creating Layer drop7
I1004 21:33:34.501039  1639 net.cpp:412] drop7 <- fc7
I1004 21:33:34.501045  1639 net.cpp:359] drop7 -> fc7 (in-place)
I1004 21:33:34.501051  1639 net.cpp:122] Setting up drop7
I1004 21:33:34.501060  1639 net.cpp:129] Top shape: 10 4096 (40960)
I1004 21:33:34.501065  1639 layer_factory.hpp:74] Creating layer fc8
I1004 21:33:34.501073  1639 net.cpp:92] Creating Layer fc8
I1004 21:33:34.501077  1639 net.cpp:412] fc8 <- fc7
I1004 21:33:34.501085  1639 net.cpp:370] fc8 -> fc8
I1004 21:33:34.501097  1639 net.cpp:122] Setting up fc8
I1004 21:33:34.501298  1639 net.cpp:129] Top shape: 10 2 (20)
I1004 21:33:34.501307  1639 layer_factory.hpp:74] Creating layer fc8_fc8_0_split
I1004 21:33:34.501313  1639 net.cpp:92] Creating Layer fc8_fc8_0_split
I1004 21:33:34.501318  1639 net.cpp:412] fc8_fc8_0_split <- fc8
I1004 21:33:34.501324  1639 net.cpp:370] fc8_fc8_0_split -> fc8_fc8_0_split_0
I1004 21:33:34.501341  1639 net.cpp:370] fc8_fc8_0_split -> fc8_fc8_0_split_1
I1004 21:33:34.501355  1639 net.cpp:122] Setting up fc8_fc8_0_split
I1004 21:33:34.501363  1639 net.cpp:129] Top shape: 10 2 (20)
I1004 21:33:34.501369  1639 net.cpp:129] Top shape: 10 2 (20)
I1004 21:33:34.501374  1639 layer_factory.hpp:74] Creating layer accuracy
I1004 21:33:34.501384  1639 net.cpp:92] Creating Layer accuracy
I1004 21:33:34.501389  1639 net.cpp:412] accuracy <- fc8_fc8_0_split_0
I1004 21:33:34.501394  1639 net.cpp:412] accuracy <- label_data_1_split_0
I1004 21:33:34.501400  1639 net.cpp:370] accuracy -> accuracy
I1004 21:33:34.501409  1639 net.cpp:122] Setting up accuracy
…
