…
I0925 20:14:34.182406  4417 net.cpp:289] The NetState phase (0) differed from the phase (1) specified by a rule in layer accuracy
I0925 20:14:34.182546  4417 net.cpp:44] Initializing net from parameters: 
name: "CaffeNet"
state {
  phase: TRAIN
}
layer {
  name: "data"
  type: "Data"
  top: "data"
  top: "label"
  include {
    phase: TRAIN
  }
  transform_param {
    mirror: true
    crop_size: 227
    mean_file: "data/Stanford_Cars/imagenet_mean.binaryproto"
  }
  data_param {
    source: "Stanford_Cars/imagenet_train_leveldb"
    batch_size: 32
    backend: LMDB
  }
}
layer {
  name: "conv1"
  type: "Convolution"
  bottom: "data"
  top: "conv1"
  param {
    lr_mult: 1
    decay_mult: 1
  }
  param {
    lr_mult: 2
    decay_mult: 0
  }
  convolution_param {
    num_output: 96
    kernel_size: 11
    stride: 4
    weight_filler {
      type: "gaussian"
      std: 0.01
    }
    bias_filler {
      type: "constant"
      value: 0
    }
  }
}
layer {
  name: "relu1"
  type: "ReLU"
  bottom: "conv1"
  top: "conv1"
}
layer {
  name: "pool1"
  type: "Pooling"
  bottom: "conv1"
  top: "pool1"
  pooling_param {
    pool: MAX
    kernel_size: 3
    stride: 2
  }
}
layer {
  name: "norm1"
  type: "LRN"
  bottom: "pool1"
  top: "norm1"
  lrn_param {
    local_size: 5
    alpha: 0.0001
    beta: 0.75
  }
}
layer {
  name: "conv2"
  type: "Convolution"
  bottom: "norm1"
  top: "conv2"
  param {
    lr_mult: 1
    decay_mult: 1
  }
  param {
    lr_mult: 2
    decay_mult: 0
  }
  convolution_param {
    num_output: 256
    pad: 2
    kernel_size: 5
    group: 2
    weight_filler {
      type: "gaussian"
      std: 0.01
    }
    bias_filler {
      type: "constant"
      value: 1
    }
  }
}
layer {
  name: "relu2"
  type: "ReLU"
  bottom: "conv2"
  top: "conv2"
}
layer {
  name: "pool2"
  type: "Pooling"
  bottom: "conv2"
  top: "pool2"
  pooling_param {
    pool: MAX
    kernel_size: 3
    stride: 2
  }
}
layer {
  name: "norm2"
  type: "LRN"
  bottom: "pool2"
  top: "norm2"
  lrn_param {
    local_size: 5
    alpha: 0.0001
    beta: 0.75
  }
}
layer {
  name: "conv3"
  type: "Convolution"
  bottom: "norm2"
  top: "conv3"
  param {
    lr_mult: 1
    decay_mult: 1
  }
  param {
    lr_mult: 2
    decay_mult: 0
  }
  convolution_param {
    num_output: 384
    pad: 1
    kernel_size: 3
    weight_filler {
      type: "gaussian"
      std: 0.01
    }
    bias_filler {
      type: "constant"
      value: 0
    }
  }
}
layer {
  name: "relu3"
  type: "ReLU"
  bottom: "conv3"
  top: "conv3"
}
layer {
  name: "conv4"
  type: "Convolution"
  bottom: "conv3"
  top: "conv4"
  param {
    lr_mult: 1
    decay_mult: 1
  }
  param {
    lr_mult: 2
    decay_mult: 0
  }
  convolution_param {
    num_output: 384
    pad: 1
    kernel_size: 3
    group: 2
    weight_filler {
      type: "gaussian"
      std: 0.01
    }
    bias_filler {
      type: "constant"
      value: 1
    }
  }
}
layer {
  name: "relu4"
  type: "ReLU"
  bottom: "conv4"
  top: "conv4"
}
layer {
  name: "conv5"
  type: "Convolution"
  bottom: "conv4"
  top: "conv5"
  param {
    lr_mult: 1
    decay_mult: 1
  }
  param {
    lr_mult: 2
    decay_mult: 0
  }
  convolution_param {
    num_output: 256
    pad: 1
    kernel_size: 3
    group: 2
    weight_filler {
      type: "gaussian"
      std: 0.01
    }
    bias_filler {
      type: "constant"
      value: 1
    }
  }
}
layer {
  name: "relu5"
  type: "ReLU"
  bottom: "conv5"
  top: "conv5"
}
layer {
  name: "pool5"
  type: "Pooling"
  bottom: "conv5"
  top: "pool5"
  pooling_param {
    pool: MAX
    kernel_size: 3
    stride: 2
  }
}
layer {
  name: "fc6"
  type: "InnerProduct"
  bottom: "pool5"
  top: "fc6"
  param {
    lr_mult: 1
    decay_mult: 1
  }
  param {
    lr_mult: 2
    decay_mult: 0
  }
  inner_product_param {
    num_output: 4096
    weight_filler {
      type: "gaussian"
      std: 0.005
    }
    bias_filler {
      type: "constant"
      value: 1
    }
  }
}
layer {
  name: "relu6"
  type: "ReLU"
  bottom: "fc6"
  top: "fc6"
}
layer {
  name: "drop6"
  type: "Dropout"
  bottom: "fc6"
  top: "fc6"
  dropout_param {
    dropout_ratio: 0.5
  }
}
layer {
  name: "fc7"
  type: "InnerProduct"
  bottom: "fc6"
  top: "fc7"
  param {
    lr_mult: 1
    decay_mult: 1
  }
  param {
    lr_mult: 2
    decay_mult: 0
  }
  inner_product_param {
    num_output: 4096
    weight_filler {
      type: "gaussian"
      std: 0.005
    }
    bias_filler {
      type: "constant"
      value: 1
    }
  }
}
layer {
  name: "relu7"
  type: "ReLU"
  bottom: "fc7"
  top: "fc7"
}
layer {
  name: "drop7"
  type: "Dropout"
  bottom: "fc7"
  top: "fc7"
  dropout_param {
    dropout_ratio: 0.5
  }
}
layer {
  name: "fc8"
  type: "InnerProduct"
  bottom: "fc7"
  top: "fc8"
  param {
    lr_mult: 1
    decay_mult: 1
  }
  param {
    lr_mult: 2
    decay_mult: 0
  }
  inner_product_param {
    num_output: 196
    weight_filler {
      type: "gaussian"
      std: 0.01
    }
    bias_filler {
      type: "constant"
      value: 0
    }
  }
}
layer {
  name: "loss"
  type: "SoftmaxWithLoss"
  bottom: "fc8"
  bottom: "label"
  top: "loss"
}
I0925 20:14:34.182648  4417 layer_factory.hpp:74] Creating layer data
I0925 20:14:34.182672  4417 net.cpp:92] Creating Layer data
I0925 20:14:34.182682  4417 net.cpp:370] data -> data
I0925 20:14:34.182708  4417 net.cpp:370] data -> label
I0925 20:14:34.182719  4417 net.cpp:122] Setting up data
I0925 20:14:34.182728  4417 data_transformer.cpp:22] Loading mean file from: data/Stanford_Cars/imagenet_mean.binaryproto
I0925 20:14:34.184237  4417 db_lmdb.cpp:22] Opened lmdb Stanford_Cars/imagenet_train_leveldb
I0925 20:14:34.184309  4417 data_layer.cpp:52] output data size: 32,3,227,227
I0925 20:14:34.187028  4417 net.cpp:129] Top shape: 32 3 227 227 (4946784)
I0925 20:14:34.187069  4417 net.cpp:129] Top shape: 32 (32)
I0925 20:14:34.187079  4417 layer_factory.hpp:74] Creating layer conv1
I0925 20:14:34.187099  4417 net.cpp:92] Creating Layer conv1
I0925 20:14:34.187108  4417 net.cpp:412] conv1 <- data
I0925 20:14:34.187120  4417 net.cpp:370] conv1 -> conv1
I0925 20:14:34.187136  4417 net.cpp:122] Setting up conv1
I0925 20:14:34.187994  4417 net.cpp:129] Top shape: 32 96 55 55 (9292800)
I0925 20:14:34.188012  4417 layer_factory.hpp:74] Creating layer relu1
I0925 20:14:34.188021  4417 net.cpp:92] Creating Layer relu1
I0925 20:14:34.188026  4417 net.cpp:412] relu1 <- conv1
I0925 20:14:34.188032  4417 net.cpp:359] relu1 -> conv1 (in-place)
I0925 20:14:34.188040  4417 net.cpp:122] Setting up relu1
I0925 20:14:34.188045  4417 net.cpp:129] Top shape: 32 96 55 55 (9292800)
I0925 20:14:34.188050  4417 layer_factory.hpp:74] Creating layer pool1
I0925 20:14:34.188058  4417 net.cpp:92] Creating Layer pool1
I0925 20:14:34.188063  4417 net.cpp:412] pool1 <- conv1
I0925 20:14:34.188069  4417 net.cpp:370] pool1 -> pool1
I0925 20:14:34.188078  4417 net.cpp:122] Setting up pool1
I0925 20:14:34.188097  4417 net.cpp:129] Top shape: 32 96 27 27 (2239488)
I0925 20:14:34.188102  4417 layer_factory.hpp:74] Creating layer norm1
I0925 20:14:34.188110  4417 net.cpp:92] Creating Layer norm1
I0925 20:14:34.188117  4417 net.cpp:412] norm1 <- pool1
I0925 20:14:34.188122  4417 net.cpp:370] norm1 -> norm1
I0925 20:14:34.188132  4417 net.cpp:122] Setting up norm1
I0925 20:14:34.188139  4417 net.cpp:129] Top shape: 32 96 27 27 (2239488)
I0925 20:14:34.188144  4417 layer_factory.hpp:74] Creating layer conv2
I0925 20:14:34.188153  4417 net.cpp:92] Creating Layer conv2
I0925 20:14:34.188168  4417 net.cpp:412] conv2 <- norm1
I0925 20:14:34.188184  4417 net.cpp:370] conv2 -> conv2
I0925 20:14:34.188191  4417 net.cpp:122] Setting up conv2
I0925 20:14:34.195500  4417 net.cpp:129] Top shape: 32 256 27 27 (5971968)
I0925 20:14:34.195539  4417 layer_factory.hpp:74] Creating layer relu2
I0925 20:14:34.195550  4417 net.cpp:92] Creating Layer relu2
I0925 20:14:34.195556  4417 net.cpp:412] relu2 <- conv2
I0925 20:14:34.195564  4417 net.cpp:359] relu2 -> conv2 (in-place)
I0925 20:14:34.195572  4417 net.cpp:122] Setting up relu2
I0925 20:14:34.195580  4417 net.cpp:129] Top shape: 32 256 27 27 (5971968)
I0925 20:14:34.195585  4417 layer_factory.hpp:74] Creating layer pool2
I0925 20:14:34.195593  4417 net.cpp:92] Creating Layer pool2
I0925 20:14:34.195600  4417 net.cpp:412] pool2 <- conv2
I0925 20:14:34.195605  4417 net.cpp:370] pool2 -> pool2
I0925 20:14:34.195613  4417 net.cpp:122] Setting up pool2
I0925 20:14:34.195624  4417 net.cpp:129] Top shape: 32 256 13 13 (1384448)
I0925 20:14:34.195631  4417 layer_factory.hpp:74] Creating layer norm2
I0925 20:14:34.195639  4417 net.cpp:92] Creating Layer norm2
I0925 20:14:34.195644  4417 net.cpp:412] norm2 <- pool2
I0925 20:14:34.195652  4417 net.cpp:370] norm2 -> norm2
I0925 20:14:34.195658  4417 net.cpp:122] Setting up norm2
I0925 20:14:34.195668  4417 net.cpp:129] Top shape: 32 256 13 13 (1384448)
I0925 20:14:34.195673  4417 layer_factory.hpp:74] Creating layer conv3
I0925 20:14:34.195688  4417 net.cpp:92] Creating Layer conv3
I0925 20:14:34.195693  4417 net.cpp:412] conv3 <- norm2
I0925 20:14:34.195703  4417 net.cpp:370] conv3 -> conv3
I0925 20:14:34.195710  4417 net.cpp:122] Setting up conv3
I0925 20:14:34.216593  4417 net.cpp:129] Top shape: 32 384 13 13 (2076672)
I0925 20:14:34.216629  4417 layer_factory.hpp:74] Creating layer relu3
I0925 20:14:34.216639  4417 net.cpp:92] Creating Layer relu3
I0925 20:14:34.216645  4417 net.cpp:412] relu3 <- conv3
I0925 20:14:34.216653  4417 net.cpp:359] relu3 -> conv3 (in-place)
I0925 20:14:34.216661  4417 net.cpp:122] Setting up relu3
I0925 20:14:34.216668  4417 net.cpp:129] Top shape: 32 384 13 13 (2076672)
I0925 20:14:34.216673  4417 layer_factory.hpp:74] Creating layer conv4
I0925 20:14:34.216682  4417 net.cpp:92] Creating Layer conv4
I0925 20:14:34.216687  4417 net.cpp:412] conv4 <- conv3
I0925 20:14:34.216694  4417 net.cpp:370] conv4 -> conv4
I0925 20:14:34.216703  4417 net.cpp:122] Setting up conv4
I0925 20:14:34.232019  4417 net.cpp:129] Top shape: 32 384 13 13 (2076672)
I0925 20:14:34.232033  4417 layer_factory.hpp:74] Creating layer relu4
I0925 20:14:34.232039  4417 net.cpp:92] Creating Layer relu4
I0925 20:14:34.232044  4417 net.cpp:412] relu4 <- conv4
I0925 20:14:34.232050  4417 net.cpp:359] relu4 -> conv4 (in-place)
I0925 20:14:34.232056  4417 net.cpp:122] Setting up relu4
I0925 20:14:34.232062  4417 net.cpp:129] Top shape: 32 384 13 13 (2076672)
I0925 20:14:34.232067  4417 layer_factory.hpp:74] Creating layer conv5
I0925 20:14:34.232076  4417 net.cpp:92] Creating Layer conv5
I0925 20:14:34.232081  4417 net.cpp:412] conv5 <- conv4
I0925 20:14:34.232089  4417 net.cpp:370] conv5 -> conv5
I0925 20:14:34.232095  4417 net.cpp:122] Setting up conv5
I0925 20:14:34.242300  4417 net.cpp:129] Top shape: 32 256 13 13 (1384448)
I0925 20:14:34.242313  4417 layer_factory.hpp:74] Creating layer relu5
I0925 20:14:34.242321  4417 net.cpp:92] Creating Layer relu5
I0925 20:14:34.242326  4417 net.cpp:412] relu5 <- conv5
I0925 20:14:34.242331  4417 net.cpp:359] relu5 -> conv5 (in-place)
I0925 20:14:34.242337  4417 net.cpp:122] Setting up relu5
I0925 20:14:34.242343  4417 net.cpp:129] Top shape: 32 256 13 13 (1384448)
I0925 20:14:34.242348  4417 layer_factory.hpp:74] Creating layer pool5
I0925 20:14:34.242357  4417 net.cpp:92] Creating Layer pool5
I0925 20:14:34.242362  4417 net.cpp:412] pool5 <- conv5
I0925 20:14:34.242369  4417 net.cpp:370] pool5 -> pool5
I0925 20:14:34.242377  4417 net.cpp:122] Setting up pool5
I0925 20:14:34.242386  4417 net.cpp:129] Top shape: 32 256 6 6 (294912)
I0925 20:14:34.242393  4417 layer_factory.hpp:74] Creating layer fc6
I0925 20:14:34.242410  4417 net.cpp:92] Creating Layer fc6
I0925 20:14:34.242424  4417 net.cpp:412] fc6 <- pool5
I0925 20:14:34.242434  4417 net.cpp:370] fc6 -> fc6
I0925 20:14:34.242444  4417 net.cpp:122] Setting up fc6
I0925 20:14:35.123505  4417 net.cpp:129] Top shape: 32 4096 (131072)
I0925 20:14:35.123546  4417 layer_factory.hpp:74] Creating layer relu6
I0925 20:14:35.123558  4417 net.cpp:92] Creating Layer relu6
I0925 20:14:35.123564  4417 net.cpp:412] relu6 <- fc6
I0925 20:14:35.123574  4417 net.cpp:359] relu6 -> fc6 (in-place)
I0925 20:14:35.123584  4417 net.cpp:122] Setting up relu6
I0925 20:14:35.123589  4417 net.cpp:129] Top shape: 32 4096 (131072)
I0925 20:14:35.123594  4417 layer_factory.hpp:74] Creating layer drop6
I0925 20:14:35.123602  4417 net.cpp:92] Creating Layer drop6
I0925 20:14:35.123607  4417 net.cpp:412] drop6 <- fc6
I0925 20:14:35.123613  4417 net.cpp:359] drop6 -> fc6 (in-place)
I0925 20:14:35.123623  4417 net.cpp:122] Setting up drop6
I0925 20:14:35.123633  4417 net.cpp:129] Top shape: 32 4096 (131072)
I0925 20:14:35.123638  4417 layer_factory.hpp:74] Creating layer fc7
I0925 20:14:35.123648  4417 net.cpp:92] Creating Layer fc7
I0925 20:14:35.123653  4417 net.cpp:412] fc7 <- fc6
I0925 20:14:35.123661  4417 net.cpp:370] fc7 -> fc7
I0925 20:14:35.123669  4417 net.cpp:122] Setting up fc7
I0925 20:14:35.515347  4417 net.cpp:129] Top shape: 32 4096 (131072)
I0925 20:14:35.515388  4417 layer_factory.hpp:74] Creating layer relu7
I0925 20:14:35.515399  4417 net.cpp:92] Creating Layer relu7
I0925 20:14:35.515405  4417 net.cpp:412] relu7 <- fc7
I0925 20:14:35.515413  4417 net.cpp:359] relu7 -> fc7 (in-place)
I0925 20:14:35.515422  4417 net.cpp:122] Setting up relu7
I0925 20:14:35.515429  4417 net.cpp:129] Top shape: 32 4096 (131072)
I0925 20:14:35.515434  4417 layer_factory.hpp:74] Creating layer drop7
I0925 20:14:35.515442  4417 net.cpp:92] Creating Layer drop7
I0925 20:14:35.515447  4417 net.cpp:412] drop7 <- fc7
I0925 20:14:35.515455  4417 net.cpp:359] drop7 -> fc7 (in-place)
I0925 20:14:35.515460  4417 net.cpp:122] Setting up drop7
I0925 20:14:35.515468  4417 net.cpp:129] Top shape: 32 4096 (131072)
I0925 20:14:35.515473  4417 layer_factory.hpp:74] Creating layer fc8
I0925 20:14:35.515481  4417 net.cpp:92] Creating Layer fc8
I0925 20:14:35.515486  4417 net.cpp:412] fc8 <- fc7
I0925 20:14:35.515494  4417 net.cpp:370] fc8 -> fc8
I0925 20:14:35.515503  4417 net.cpp:122] Setting up fc8
I0925 20:14:35.534364  4417 net.cpp:129] Top shape: 32 196 (6272)
I0925 20:14:35.534375  4417 layer_factory.hpp:74] Creating layer loss
I0925 20:14:35.534389  4417 net.cpp:92] Creating Layer loss
I0925 20:14:35.534394  4417 net.cpp:412] loss <- fc8
I0925 20:14:35.534400  4417 net.cpp:412] loss <- label
I0925 20:14:35.534409  4417 net.cpp:370] loss -> loss
I0925 20:14:35.534420  4417 net.cpp:122] Setting up loss
I0925 20:14:35.534428  4417 layer_factory.hpp:74] Creating layer loss
…
I0925 20:14:35.535266  4417 net.cpp:289] The NetState phase (1) differed from the phase (0) specified by a rule in layer data
I0925 20:14:35.535421  4417 net.cpp:44] Initializing net from parameters: 
name: "CaffeNet"
state {
  phase: TEST
}
layer {
  name: "data"
  type: "Data"
  top: "data"
  top: "label"
  include {
    phase: TEST
  }
  transform_param {
    mirror: true
    crop_size: 227
    mean_file: "data/Stanford_Cars/imagenet_mean.binaryproto"
  }
  data_param {
    source: "Stanford_Cars/imagenet_val_leveldb"
    mean_file: "data/Stanford_Cars/imagenet_mean.binartproto"
    batch_size: 10
    crop_size: 227
    mirror: false
    backend: LMDB
  }
}
layer {
  name: "conv1"
  type: "Convolution"
  bottom: "data"
  top: "conv1"
  param {
    lr_mult: 1
    decay_mult: 1
  }
  param {
    lr_mult: 2
    decay_mult: 0
  }
  convolution_param {
    num_output: 96
    kernel_size: 11
    stride: 4
    weight_filler {
      type: "gaussian"
      std: 0.01
    }
    bias_filler {
      type: "constant"
      value: 0
    }
  }
}
layer {
  name: "relu1"
  type: "ReLU"
  bottom: "conv1"
  top: "conv1"
}
layer {
  name: "pool1"
  type: "Pooling"
  bottom: "conv1"
  top: "pool1"
  pooling_param {
    pool: MAX
    kernel_size: 3
    stride: 2
  }
}
layer {
  name: "norm1"
  type: "LRN"
  bottom: "pool1"
  top: "norm1"
  lrn_param {
    local_size: 5
    alpha: 0.0001
    beta: 0.75
  }
}
layer {
  name: "conv2"
  type: "Convolution"
  bottom: "norm1"
  top: "conv2"
  param {
    lr_mult: 1
    decay_mult: 1
  }
  param {
    lr_mult: 2
    decay_mult: 0
  }
  convolution_param {
    num_output: 256
    pad: 2
    kernel_size: 5
    group: 2
    weight_filler {
      type: "gaussian"
      std: 0.01
    }
    bias_filler {
      type: "constant"
      value: 1
    }
  }
}
layer {
  name: "relu2"
  type: "ReLU"
  bottom: "conv2"
  top: "conv2"
}
layer {
  name: "pool2"
  type: "Pooling"
  bottom: "conv2"
  top: "pool2"
  pooling_param {
    pool: MAX
    kernel_size: 3
    stride: 2
  }
}
layer {
  name: "norm2"
  type: "LRN"
  bottom: "pool2"
  top: "norm2"
  lrn_param {
    local_size: 5
    alpha: 0.0001
    beta: 0.75
  }
}
layer {
  name: "conv3"
  type: "Convolution"
  bottom: "norm2"
  top: "conv3"
  param {
    lr_mult: 1
    decay_mult: 1
  }
  param {
    lr_mult: 2
    decay_mult: 0
  }
  convolution_param {
    num_output: 384
    pad: 1
    kernel_size: 3
    weight_filler {
      type: "gaussian"
      std: 0.01
    }
    bias_filler {
      type: "constant"
      value: 0
    }
  }
}
layer {
  name: "relu3"
  type: "ReLU"
  bottom: "conv3"
  top: "conv3"
}
layer {
  name: "conv4"
  type: "Convolution"
  bottom: "conv3"
  top: "conv4"
  param {
    lr_mult: 1
    decay_mult: 1
  }
  param {
    lr_mult: 2
    decay_mult: 0
  }
  convolution_param {
    num_output: 384
    pad: 1
    kernel_size: 3
    group: 2
    weight_filler {
      type: "gaussian"
      std: 0.01
    }
    bias_filler {
      type: "constant"
      value: 1
    }
  }
}
layer {
  name: "relu4"
  type: "ReLU"
  bottom: "conv4"
  top: "conv4"
}
layer {
  name: "conv5"
  type: "Convolution"
  bottom: "conv4"
  top: "conv5"
  param {
    lr_mult: 1
    decay_mult: 1
  }
  param {
    lr_mult: 2
    decay_mult: 0
  }
  convolution_param {
    num_output: 256
    pad: 1
    kernel_size: 3
    group: 2
    weight_filler {
      type: "gaussian"
      std: 0.01
    }
    bias_filler {
      type: "constant"
      value: 1
    }
  }
}
layer {
  name: "relu5"
  type: "ReLU"
  bottom: "conv5"
  top: "conv5"
}
layer {
  name: "pool5"
  type: "Pooling"
  bottom: "conv5"
  top: "pool5"
  pooling_param {
    pool: MAX
    kernel_size: 3
    stride: 2
  }
}
layer {
  name: "fc6"
  type: "InnerProduct"
  bottom: "pool5"
  top: "fc6"
  param {
    lr_mult: 1
    decay_mult: 1
  }
  param {
    lr_mult: 2
    decay_mult: 0
  }
  inner_product_param {
    num_output: 4096
    weight_filler {
      type: "gaussian"
      std: 0.005
    }
    bias_filler {
      type: "constant"
      value: 1
    }
  }
}
layer {
  name: "relu6"
  type: "ReLU"
  bottom: "fc6"
  top: "fc6"
}
layer {
  name: "drop6"
  type: "Dropout"
  bottom: "fc6"
  top: "fc6"
  dropout_param {
    dropout_ratio: 0.5
  }
}
layer {
  name: "fc7"
  type: "InnerProduct"
  bottom: "fc6"
  top: "fc7"
  param {
    lr_mult: 1
    decay_mult: 1
  }
  param {
    lr_mult: 2
    decay_mult: 0
  }
  inner_product_param {
    num_output: 4096
    weight_filler {
      type: "gaussian"
      std: 0.005
    }
    bias_filler {
      type: "constant"
      value: 1
    }
  }
}
layer {
  name: "relu7"
  type: "ReLU"
  bottom: "fc7"
  top: "fc7"
}
layer {
  name: "drop7"
  type: "Dropout"
  bottom: "fc7"
  top: "fc7"
  dropout_param {
    dropout_ratio: 0.5
  }
}
layer {
  name: "fc8"
  type: "InnerProduct"
  bottom: "fc7"
  top: "fc8"
  param {
    lr_mult: 1
    decay_mult: 1
  }
  param {
    lr_mult: 2
    decay_mult: 0
  }
  inner_product_param {
    num_output: 196
    weight_filler {
      type: "gaussian"
      std: 0.01
    }
    bias_filler {
      type: "constant"
      value: 0
    }
  }
}
layer {
  name: "accuracy"
  type: "Accuracy"
  bottom: "fc8"
  bottom: "label"
  top: "accuracy"
  include {
    phase: TEST
  }
}
layer {
  name: "loss"
  type: "SoftmaxWithLoss"
  bottom: "fc8"
  bottom: "label"
  top: "loss"
}
I0925 20:14:35.535526  4417 layer_factory.hpp:74] Creating layer data
I0925 20:14:35.535539  4417 net.cpp:92] Creating Layer data
I0925 20:14:35.535545  4417 net.cpp:370] data -> data
I0925 20:14:35.535555  4417 net.cpp:370] data -> label
I0925 20:14:35.535563  4417 net.cpp:122] Setting up data
I0925 20:14:35.535569  4417 data_transformer.cpp:22] Loading mean file from: data/Stanford_Cars/imagenet_mean.binaryproto
I0925 20:14:35.536861  4417 db_lmdb.cpp:22] Opened lmdb Stanford_Cars/imagenet_val_leveldb
I0925 20:14:35.536943  4417 data_layer.cpp:52] output data size: 10,3,227,227
I0925 20:14:35.537863  4417 net.cpp:129] Top shape: 10 3 227 227 (1545870)
I0925 20:14:35.537888  4417 net.cpp:129] Top shape: 10 (10)
I0925 20:14:35.537895  4417 layer_factory.hpp:74] Creating layer label_data_1_split
I0925 20:14:35.537909  4417 net.cpp:92] Creating Layer label_data_1_split
I0925 20:14:35.537915  4417 net.cpp:412] label_data_1_split <- label
I0925 20:14:35.537927  4417 net.cpp:370] label_data_1_split -> label_data_1_split_0
I0925 20:14:35.537941  4417 net.cpp:370] label_data_1_split -> label_data_1_split_1
I0925 20:14:35.537950  4417 net.cpp:122] Setting up label_data_1_split
I0925 20:14:35.537957  4417 net.cpp:129] Top shape: 10 (10)
I0925 20:14:35.537962  4417 net.cpp:129] Top shape: 10 (10)
I0925 20:14:35.537967  4417 layer_factory.hpp:74] Creating layer conv1
I0925 20:14:35.537979  4417 net.cpp:92] Creating Layer conv1
I0925 20:14:35.537984  4417 net.cpp:412] conv1 <- data
I0925 20:14:35.537992  4417 net.cpp:370] conv1 -> conv1
I0925 20:14:35.538000  4417 net.cpp:122] Setting up conv1
I0925 20:14:35.538907  4417 net.cpp:129] Top shape: 10 96 55 55 (2904000)
I0925 20:14:35.538921  4417 layer_factory.hpp:74] Creating layer relu1
I0925 20:14:35.538938  4417 net.cpp:92] Creating Layer relu1
I0925 20:14:35.538951  4417 net.cpp:412] relu1 <- conv1
I0925 20:14:35.538957  4417 net.cpp:359] relu1 -> conv1 (in-place)
I0925 20:14:35.538964  4417 net.cpp:122] Setting up relu1
I0925 20:14:35.538971  4417 net.cpp:129] Top shape: 10 96 55 55 (2904000)
I0925 20:14:35.538976  4417 layer_factory.hpp:74] Creating layer pool1
I0925 20:14:35.538985  4417 net.cpp:92] Creating Layer pool1
I0925 20:14:35.538990  4417 net.cpp:412] pool1 <- conv1
I0925 20:14:35.538995  4417 net.cpp:370] pool1 -> pool1
I0925 20:14:35.539002  4417 net.cpp:122] Setting up pool1
I0925 20:14:35.539012  4417 net.cpp:129] Top shape: 10 96 27 27 (699840)
I0925 20:14:35.539017  4417 layer_factory.hpp:74] Creating layer norm1
I0925 20:14:35.539026  4417 net.cpp:92] Creating Layer norm1
I0925 20:14:35.539031  4417 net.cpp:412] norm1 <- pool1
I0925 20:14:35.539036  4417 net.cpp:370] norm1 -> norm1
I0925 20:14:35.539044  4417 net.cpp:122] Setting up norm1
I0925 20:14:35.539052  4417 net.cpp:129] Top shape: 10 96 27 27 (699840)
I0925 20:14:35.539057  4417 layer_factory.hpp:74] Creating layer conv2
I0925 20:14:35.539064  4417 net.cpp:92] Creating Layer conv2
I0925 20:14:35.539072  4417 net.cpp:412] conv2 <- norm1
I0925 20:14:35.539079  4417 net.cpp:370] conv2 -> conv2
I0925 20:14:35.539086  4417 net.cpp:122] Setting up conv2
I0925 20:14:35.546262  4417 net.cpp:129] Top shape: 10 256 27 27 (1866240)
I0925 20:14:35.546291  4417 layer_factory.hpp:74] Creating layer relu2
I0925 20:14:35.546303  4417 net.cpp:92] Creating Layer relu2
I0925 20:14:35.546308  4417 net.cpp:412] relu2 <- conv2
I0925 20:14:35.546315  4417 net.cpp:359] relu2 -> conv2 (in-place)
I0925 20:14:35.546324  4417 net.cpp:122] Setting up relu2
I0925 20:14:35.546329  4417 net.cpp:129] Top shape: 10 256 27 27 (1866240)
I0925 20:14:35.546334  4417 layer_factory.hpp:74] Creating layer pool2
I0925 20:14:35.546344  4417 net.cpp:92] Creating Layer pool2
I0925 20:14:35.546349  4417 net.cpp:412] pool2 <- conv2
I0925 20:14:35.546355  4417 net.cpp:370] pool2 -> pool2
I0925 20:14:35.546365  4417 net.cpp:122] Setting up pool2
I0925 20:14:35.546375  4417 net.cpp:129] Top shape: 10 256 13 13 (432640)
I0925 20:14:35.546380  4417 layer_factory.hpp:74] Creating layer norm2
I0925 20:14:35.546387  4417 net.cpp:92] Creating Layer norm2
I0925 20:14:35.546392  4417 net.cpp:412] norm2 <- pool2
I0925 20:14:35.546399  4417 net.cpp:370] norm2 -> norm2
I0925 20:14:35.546406  4417 net.cpp:122] Setting up norm2
I0925 20:14:35.546413  4417 net.cpp:129] Top shape: 10 256 13 13 (432640)
I0925 20:14:35.546418  4417 layer_factory.hpp:74] Creating layer conv3
I0925 20:14:35.546427  4417 net.cpp:92] Creating Layer conv3
I0925 20:14:35.546433  4417 net.cpp:412] conv3 <- norm2
I0925 20:14:35.546440  4417 net.cpp:370] conv3 -> conv3
I0925 20:14:35.546447  4417 net.cpp:122] Setting up conv3
I0925 20:14:35.566897  4417 net.cpp:129] Top shape: 10 384 13 13 (648960)
I0925 20:14:35.566913  4417 layer_factory.hpp:74] Creating layer relu3
I0925 20:14:35.566920  4417 net.cpp:92] Creating Layer relu3
I0925 20:14:35.566926  4417 net.cpp:412] relu3 <- conv3
I0925 20:14:35.566932  4417 net.cpp:359] relu3 -> conv3 (in-place)
I0925 20:14:35.566939  4417 net.cpp:122] Setting up relu3
I0925 20:14:35.566946  4417 net.cpp:129] Top shape: 10 384 13 13 (648960)
I0925 20:14:35.566951  4417 layer_factory.hpp:74] Creating layer conv4
I0925 20:14:35.566958  4417 net.cpp:92] Creating Layer conv4
I0925 20:14:35.566963  4417 net.cpp:412] conv4 <- conv3
I0925 20:14:35.566969  4417 net.cpp:370] conv4 -> conv4
I0925 20:14:35.566977  4417 net.cpp:122] Setting up conv4
I0925 20:14:35.582077  4417 net.cpp:129] Top shape: 10 384 13 13 (648960)
I0925 20:14:35.582092  4417 layer_factory.hpp:74] Creating layer relu4
I0925 20:14:35.582098  4417 net.cpp:92] Creating Layer relu4
I0925 20:14:35.582103  4417 net.cpp:412] relu4 <- conv4
I0925 20:14:35.582114  4417 net.cpp:359] relu4 -> conv4 (in-place)
I0925 20:14:35.582121  4417 net.cpp:122] Setting up relu4
I0925 20:14:35.582128  4417 net.cpp:129] Top shape: 10 384 13 13 (648960)
I0925 20:14:35.582147  4417 layer_factory.hpp:74] Creating layer conv5
I0925 20:14:35.582155  4417 net.cpp:92] Creating Layer conv5
I0925 20:14:35.582160  4417 net.cpp:412] conv5 <- conv4
I0925 20:14:35.582168  4417 net.cpp:370] conv5 -> conv5
I0925 20:14:35.582176  4417 net.cpp:122] Setting up conv5
I0925 20:14:35.592391  4417 net.cpp:129] Top shape: 10 256 13 13 (432640)
I0925 20:14:35.592407  4417 layer_factory.hpp:74] Creating layer relu5
I0925 20:14:35.592414  4417 net.cpp:92] Creating Layer relu5
I0925 20:14:35.592419  4417 net.cpp:412] relu5 <- conv5
I0925 20:14:35.592425  4417 net.cpp:359] relu5 -> conv5 (in-place)
I0925 20:14:35.592432  4417 net.cpp:122] Setting up relu5
I0925 20:14:35.592438  4417 net.cpp:129] Top shape: 10 256 13 13 (432640)
I0925 20:14:35.592442  4417 layer_factory.hpp:74] Creating layer pool5
I0925 20:14:35.592452  4417 net.cpp:92] Creating Layer pool5
I0925 20:14:35.592456  4417 net.cpp:412] pool5 <- conv5
I0925 20:14:35.592465  4417 net.cpp:370] pool5 -> pool5
I0925 20:14:35.592473  4417 net.cpp:122] Setting up pool5
I0925 20:14:35.592483  4417 net.cpp:129] Top shape: 10 256 6 6 (92160)
I0925 20:14:35.592489  4417 layer_factory.hpp:74] Creating layer fc6
I0925 20:14:35.592496  4417 net.cpp:92] Creating Layer fc6
I0925 20:14:35.592502  4417 net.cpp:412] fc6 <- pool5
I0925 20:14:35.592509  4417 net.cpp:370] fc6 -> fc6
I0925 20:14:35.592516  4417 net.cpp:122] Setting up fc6
I0925 20:14:36.450475  4417 net.cpp:129] Top shape: 10 4096 (40960)
I0925 20:14:36.450518  4417 layer_factory.hpp:74] Creating layer relu6
I0925 20:14:36.450531  4417 net.cpp:92] Creating Layer relu6
I0925 20:14:36.450538  4417 net.cpp:412] relu6 <- fc6
I0925 20:14:36.450547  4417 net.cpp:359] relu6 -> fc6 (in-place)
I0925 20:14:36.450556  4417 net.cpp:122] Setting up relu6
I0925 20:14:36.450563  4417 net.cpp:129] Top shape: 10 4096 (40960)
I0925 20:14:36.450568  4417 layer_factory.hpp:74] Creating layer drop6
I0925 20:14:36.450577  4417 net.cpp:92] Creating Layer drop6
I0925 20:14:36.450582  4417 net.cpp:412] drop6 <- fc6
I0925 20:14:36.450592  4417 net.cpp:359] drop6 -> fc6 (in-place)
I0925 20:14:36.450598  4417 net.cpp:122] Setting up drop6
I0925 20:14:36.450606  4417 net.cpp:129] Top shape: 10 4096 (40960)
I0925 20:14:36.450613  4417 layer_factory.hpp:74] Creating layer fc7
I0925 20:14:36.450621  4417 net.cpp:92] Creating Layer fc7
I0925 20:14:36.450626  4417 net.cpp:412] fc7 <- fc6
I0925 20:14:36.450634  4417 net.cpp:370] fc7 -> fc7
I0925 20:14:36.450644  4417 net.cpp:122] Setting up fc7
I0925 20:14:36.834034  4417 net.cpp:129] Top shape: 10 4096 (40960)
I0925 20:14:36.834072  4417 layer_factory.hpp:74] Creating layer relu7
I0925 20:14:36.834084  4417 net.cpp:92] Creating Layer relu7
I0925 20:14:36.834092  4417 net.cpp:412] relu7 <- fc7
I0925 20:14:36.834101  4417 net.cpp:359] relu7 -> fc7 (in-place)
I0925 20:14:36.834110  4417 net.cpp:122] Setting up relu7
I0925 20:14:36.834116  4417 net.cpp:129] Top shape: 10 4096 (40960)
I0925 20:14:36.834121  4417 layer_factory.hpp:74] Creating layer drop7
I0925 20:14:36.834130  4417 net.cpp:92] Creating Layer drop7
I0925 20:14:36.834134  4417 net.cpp:412] drop7 <- fc7
I0925 20:14:36.834141  4417 net.cpp:359] drop7 -> fc7 (in-place)
I0925 20:14:36.834146  4417 net.cpp:122] Setting up drop7
I0925 20:14:36.834154  4417 net.cpp:129] Top shape: 10 4096 (40960)
I0925 20:14:36.834159  4417 layer_factory.hpp:74] Creating layer fc8
I0925 20:14:36.834170  4417 net.cpp:92] Creating Layer fc8
I0925 20:14:36.834175  4417 net.cpp:412] fc8 <- fc7
I0925 20:14:36.834182  4417 net.cpp:370] fc8 -> fc8
I0925 20:14:36.834194  4417 net.cpp:122] Setting up fc8
I0925 20:14:36.852823  4417 net.cpp:129] Top shape: 10 196 (1960)
I0925 20:14:36.852834  4417 layer_factory.hpp:74] Creating layer fc8_fc8_0_split
I0925 20:14:36.852844  4417 net.cpp:92] Creating Layer fc8_fc8_0_split
I0925 20:14:36.852849  4417 net.cpp:412] fc8_fc8_0_split <- fc8
I0925 20:14:36.852856  4417 net.cpp:370] fc8_fc8_0_split -> fc8_fc8_0_split_0
I0925 20:14:36.852864  4417 net.cpp:370] fc8_fc8_0_split -> fc8_fc8_0_split_1
I0925 20:14:36.852880  4417 net.cpp:122] Setting up fc8_fc8_0_split
I0925 20:14:36.852897  4417 net.cpp:129] Top shape: 10 196 (1960)
I0925 20:14:36.852903  4417 net.cpp:129] Top shape: 10 196 (1960)
I0925 20:14:36.852908  4417 layer_factory.hpp:74] Creating layer accuracy
I0925 20:14:36.852916  4417 net.cpp:92] Creating Layer accuracy
I0925 20:14:36.852921  4417 net.cpp:412] accuracy <- fc8_fc8_0_split_0
I0925 20:14:36.852927  4417 net.cpp:412] accuracy <- label_data_1_split_0
I0925 20:14:36.852933  4417 net.cpp:370] accuracy -> accuracy
I0925 20:14:36.852941  4417 net.cpp:122] Setting up accuracy
…
