…
I0926 10:18:44.907201 23724 net.cpp:289] The NetState phase (0) differed from the phase (1) specified by a rule in layer accuracy
I0926 10:18:44.907341 23724 net.cpp:44] Initializing net from parameters: 
name: "CaffeNet"
state {
  phase: TRAIN
}
layer {
  name: "data"
  type: "Data"
  top: "data"
  top: "label"
  include {
    phase: TRAIN
  }
  transform_param {
    mirror: true
    crop_size: 227
    mean_file: "data/Stanford_Cars/imagenet_mean.binaryproto"
  }
  data_param {
    source: "Stanford_Cars/imagenet_train_leveldb"
    batch_size: 128
    backend: LMDB
  }
}
layer {
  name: "conv1"
  type: "Convolution"
  bottom: "data"
  top: "conv1"
  param {
    lr_mult: 1
    decay_mult: 1
  }
  param {
    lr_mult: 2
    decay_mult: 0
  }
  convolution_param {
    num_output: 96
    kernel_size: 11
    stride: 4
    weight_filler {
      type: "gaussian"
      std: 0.01
    }
    bias_filler {
      type: "constant"
      value: 0
    }
  }
}
layer {
  name: "relu1"
  type: "ReLU"
  bottom: "conv1"
  top: "conv1"
}
layer {
  name: "pool1"
  type: "Pooling"
  bottom: "conv1"
  top: "pool1"
  pooling_param {
    pool: MAX
    kernel_size: 3
    stride: 2
  }
}
layer {
  name: "norm1"
  type: "LRN"
  bottom: "pool1"
  top: "norm1"
  lrn_param {
    local_size: 5
    alpha: 0.0001
    beta: 0.75
  }
}
layer {
  name: "conv2"
  type: "Convolution"
  bottom: "norm1"
  top: "conv2"
  param {
    lr_mult: 1
    decay_mult: 1
  }
  param {
    lr_mult: 2
    decay_mult: 0
  }
  convolution_param {
    num_output: 256
    pad: 2
    kernel_size: 5
    group: 2
    weight_filler {
      type: "gaussian"
      std: 0.01
    }
    bias_filler {
      type: "constant"
      value: 1
    }
  }
}
layer {
  name: "relu2"
  type: "ReLU"
  bottom: "conv2"
  top: "conv2"
}
layer {
  name: "pool2"
  type: "Pooling"
  bottom: "conv2"
  top: "pool2"
  pooling_param {
    pool: MAX
    kernel_size: 3
    stride: 2
  }
}
layer {
  name: "norm2"
  type: "LRN"
  bottom: "pool2"
  top: "norm2"
  lrn_param {
    local_size: 5
    alpha: 0.0001
    beta: 0.75
  }
}
layer {
  name: "conv3"
  type: "Convolution"
  bottom: "norm2"
  top: "conv3"
  param {
    lr_mult: 1
    decay_mult: 1
  }
  param {
    lr_mult: 2
    decay_mult: 0
  }
  convolution_param {
    num_output: 384
    pad: 1
    kernel_size: 3
    weight_filler {
      type: "gaussian"
      std: 0.01
    }
    bias_filler {
      type: "constant"
      value: 0
    }
  }
}
layer {
  name: "relu3"
  type: "ReLU"
  bottom: "conv3"
  top: "conv3"
}
layer {
  name: "conv4"
  type: "Convolution"
  bottom: "conv3"
  top: "conv4"
  param {
    lr_mult: 1
    decay_mult: 1
  }
  param {
    lr_mult: 2
    decay_mult: 0
  }
  convolution_param {
    num_output: 384
    pad: 1
    kernel_size: 3
    group: 2
    weight_filler {
      type: "gaussian"
      std: 0.01
    }
    bias_filler {
      type: "constant"
      value: 1
    }
  }
}
layer {
  name: "relu4"
  type: "ReLU"
  bottom: "conv4"
  top: "conv4"
}
layer {
  name: "conv5"
  type: "Convolution"
  bottom: "conv4"
  top: "conv5"
  param {
    lr_mult: 1
    decay_mult: 1
  }
  param {
    lr_mult: 2
    decay_mult: 0
  }
  convolution_param {
    num_output: 256
    pad: 1
    kernel_size: 3
    group: 2
    weight_filler {
      type: "gaussian"
      std: 0.01
    }
    bias_filler {
      type: "constant"
      value: 1
    }
  }
}
layer {
  name: "relu5"
  type: "ReLU"
  bottom: "conv5"
  top: "conv5"
}
layer {
  name: "pool5"
  type: "Pooling"
  bottom: "conv5"
  top: "pool5"
  pooling_param {
    pool: MAX
    kernel_size: 3
    stride: 2
  }
}
layer {
  name: "fc6"
  type: "InnerProduct"
  bottom: "pool5"
  top: "fc6"
  param {
    lr_mult: 1
    decay_mult: 1
  }
  param {
    lr_mult: 2
    decay_mult: 0
  }
  inner_product_param {
    num_output: 4096
    weight_filler {
      type: "gaussian"
      std: 0.005
    }
    bias_filler {
      type: "constant"
      value: 1
    }
  }
}
layer {
  name: "relu6"
  type: "ReLU"
  bottom: "fc6"
  top: "fc6"
}
layer {
  name: "drop6"
  type: "Dropout"
  bottom: "fc6"
  top: "fc6"
  dropout_param {
    dropout_ratio: 0.5
  }
}
layer {
  name: "fc7"
  type: "InnerProduct"
  bottom: "fc6"
  top: "fc7"
  param {
    lr_mult: 1
    decay_mult: 1
  }
  param {
    lr_mult: 2
    decay_mult: 0
  }
  inner_product_param {
    num_output: 4096
    weight_filler {
      type: "gaussian"
      std: 0.005
    }
    bias_filler {
      type: "constant"
      value: 1
    }
  }
}
layer {
  name: "relu7"
  type: "ReLU"
  bottom: "fc7"
  top: "fc7"
}
layer {
  name: "drop7"
  type: "Dropout"
  bottom: "fc7"
  top: "fc7"
  dropout_param {
    dropout_ratio: 0.5
  }
}
layer {
  name: "fc8"
  type: "InnerProduct"
  bottom: "fc7"
  top: "fc8"
  param {
    lr_mult: 1
    decay_mult: 1
  }
  param {
    lr_mult: 2
    decay_mult: 0
  }
  inner_product_param {
    num_output: 196
    weight_filler {
      type: "gaussian"
      std: 0.01
    }
    bias_filler {
      type: "constant"
      value: 0
    }
  }
}
layer {
  name: "loss"
  type: "SoftmaxWithLoss"
  bottom: "fc8"
  bottom: "label"
  top: "loss"
}
I0926 10:18:44.907441 23724 layer_factory.hpp:74] Creating layer data
I0926 10:18:44.907469 23724 net.cpp:92] Creating Layer data
I0926 10:18:44.907475 23724 net.cpp:370] data -> data
I0926 10:18:44.907496 23724 net.cpp:370] data -> label
I0926 10:18:44.907507 23724 net.cpp:122] Setting up data
I0926 10:18:44.907516 23724 data_transformer.cpp:22] Loading mean file from: data/Stanford_Cars/imagenet_mean.binaryproto
I0926 10:18:44.909092 23724 db_lmdb.cpp:22] Opened lmdb Stanford_Cars/imagenet_train_leveldb
I0926 10:18:44.909165 23724 data_layer.cpp:52] output data size: 128,3,227,227
I0926 10:18:44.918629 23724 net.cpp:129] Top shape: 128 3 227 227 (19787136)
I0926 10:18:44.918670 23724 net.cpp:129] Top shape: 128 (128)
I0926 10:18:44.918680 23724 layer_factory.hpp:74] Creating layer conv1
I0926 10:18:44.918704 23724 net.cpp:92] Creating Layer conv1
I0926 10:18:44.918712 23724 net.cpp:412] conv1 <- data
I0926 10:18:44.918725 23724 net.cpp:370] conv1 -> conv1
I0926 10:18:44.918740 23724 net.cpp:122] Setting up conv1
I0926 10:18:44.919597 23724 net.cpp:129] Top shape: 128 96 55 55 (37171200)
I0926 10:18:44.919615 23724 layer_factory.hpp:74] Creating layer relu1
I0926 10:18:44.919623 23724 net.cpp:92] Creating Layer relu1
I0926 10:18:44.919630 23724 net.cpp:412] relu1 <- conv1
I0926 10:18:44.919636 23724 net.cpp:359] relu1 -> conv1 (in-place)
I0926 10:18:44.919641 23724 net.cpp:122] Setting up relu1
I0926 10:18:44.919648 23724 net.cpp:129] Top shape: 128 96 55 55 (37171200)
I0926 10:18:44.919652 23724 layer_factory.hpp:74] Creating layer pool1
I0926 10:18:44.919661 23724 net.cpp:92] Creating Layer pool1
I0926 10:18:44.919666 23724 net.cpp:412] pool1 <- conv1
I0926 10:18:44.919672 23724 net.cpp:370] pool1 -> pool1
I0926 10:18:44.919679 23724 net.cpp:122] Setting up pool1
I0926 10:18:44.919698 23724 net.cpp:129] Top shape: 128 96 27 27 (8957952)
I0926 10:18:44.919704 23724 layer_factory.hpp:74] Creating layer norm1
I0926 10:18:44.919714 23724 net.cpp:92] Creating Layer norm1
I0926 10:18:44.919719 23724 net.cpp:412] norm1 <- pool1
I0926 10:18:44.919726 23724 net.cpp:370] norm1 -> norm1
I0926 10:18:44.919735 23724 net.cpp:122] Setting up norm1
I0926 10:18:44.919744 23724 net.cpp:129] Top shape: 128 96 27 27 (8957952)
I0926 10:18:44.919749 23724 layer_factory.hpp:74] Creating layer conv2
I0926 10:18:44.919755 23724 net.cpp:92] Creating Layer conv2
I0926 10:18:44.919770 23724 net.cpp:412] conv2 <- norm1
I0926 10:18:44.919785 23724 net.cpp:370] conv2 -> conv2
I0926 10:18:44.919792 23724 net.cpp:122] Setting up conv2
I0926 10:18:44.927146 23724 net.cpp:129] Top shape: 128 256 27 27 (23887872)
I0926 10:18:44.927184 23724 layer_factory.hpp:74] Creating layer relu2
I0926 10:18:44.927196 23724 net.cpp:92] Creating Layer relu2
I0926 10:18:44.927201 23724 net.cpp:412] relu2 <- conv2
I0926 10:18:44.927211 23724 net.cpp:359] relu2 -> conv2 (in-place)
I0926 10:18:44.927220 23724 net.cpp:122] Setting up relu2
I0926 10:18:44.927227 23724 net.cpp:129] Top shape: 128 256 27 27 (23887872)
I0926 10:18:44.927232 23724 layer_factory.hpp:74] Creating layer pool2
I0926 10:18:44.927239 23724 net.cpp:92] Creating Layer pool2
I0926 10:18:44.927244 23724 net.cpp:412] pool2 <- conv2
I0926 10:18:44.927251 23724 net.cpp:370] pool2 -> pool2
I0926 10:18:44.927259 23724 net.cpp:122] Setting up pool2
I0926 10:18:44.927268 23724 net.cpp:129] Top shape: 128 256 13 13 (5537792)
I0926 10:18:44.927273 23724 layer_factory.hpp:74] Creating layer norm2
I0926 10:18:44.927283 23724 net.cpp:92] Creating Layer norm2
I0926 10:18:44.927287 23724 net.cpp:412] norm2 <- pool2
I0926 10:18:44.927294 23724 net.cpp:370] norm2 -> norm2
I0926 10:18:44.927301 23724 net.cpp:122] Setting up norm2
I0926 10:18:44.927309 23724 net.cpp:129] Top shape: 128 256 13 13 (5537792)
I0926 10:18:44.927314 23724 layer_factory.hpp:74] Creating layer conv3
I0926 10:18:44.927323 23724 net.cpp:92] Creating Layer conv3
I0926 10:18:44.927330 23724 net.cpp:412] conv3 <- norm2
I0926 10:18:44.927335 23724 net.cpp:370] conv3 -> conv3
I0926 10:18:44.927343 23724 net.cpp:122] Setting up conv3
I0926 10:18:44.948526 23724 net.cpp:129] Top shape: 128 384 13 13 (8306688)
I0926 10:18:44.948565 23724 layer_factory.hpp:74] Creating layer relu3
I0926 10:18:44.948577 23724 net.cpp:92] Creating Layer relu3
I0926 10:18:44.948583 23724 net.cpp:412] relu3 <- conv3
I0926 10:18:44.948591 23724 net.cpp:359] relu3 -> conv3 (in-place)
I0926 10:18:44.948600 23724 net.cpp:122] Setting up relu3
I0926 10:18:44.948606 23724 net.cpp:129] Top shape: 128 384 13 13 (8306688)
I0926 10:18:44.948611 23724 layer_factory.hpp:74] Creating layer conv4
I0926 10:18:44.948621 23724 net.cpp:92] Creating Layer conv4
I0926 10:18:44.948626 23724 net.cpp:412] conv4 <- conv3
I0926 10:18:44.948633 23724 net.cpp:370] conv4 -> conv4
I0926 10:18:44.948642 23724 net.cpp:122] Setting up conv4
I0926 10:18:44.964284 23724 net.cpp:129] Top shape: 128 384 13 13 (8306688)
I0926 10:18:44.964318 23724 layer_factory.hpp:74] Creating layer relu4
I0926 10:18:44.964330 23724 net.cpp:92] Creating Layer relu4
I0926 10:18:44.964336 23724 net.cpp:412] relu4 <- conv4
I0926 10:18:44.964345 23724 net.cpp:359] relu4 -> conv4 (in-place)
I0926 10:18:44.964354 23724 net.cpp:122] Setting up relu4
I0926 10:18:44.964360 23724 net.cpp:129] Top shape: 128 384 13 13 (8306688)
I0926 10:18:44.964365 23724 layer_factory.hpp:74] Creating layer conv5
I0926 10:18:44.964375 23724 net.cpp:92] Creating Layer conv5
I0926 10:18:44.964378 23724 net.cpp:412] conv5 <- conv4
I0926 10:18:44.964386 23724 net.cpp:370] conv5 -> conv5
I0926 10:18:44.964395 23724 net.cpp:122] Setting up conv5
I0926 10:18:44.974963 23724 net.cpp:129] Top shape: 128 256 13 13 (5537792)
I0926 10:18:44.975003 23724 layer_factory.hpp:74] Creating layer relu5
I0926 10:18:44.975013 23724 net.cpp:92] Creating Layer relu5
I0926 10:18:44.975019 23724 net.cpp:412] relu5 <- conv5
I0926 10:18:44.975030 23724 net.cpp:359] relu5 -> conv5 (in-place)
I0926 10:18:44.975039 23724 net.cpp:122] Setting up relu5
I0926 10:18:44.975045 23724 net.cpp:129] Top shape: 128 256 13 13 (5537792)
I0926 10:18:44.975050 23724 layer_factory.hpp:74] Creating layer pool5
I0926 10:18:44.975059 23724 net.cpp:92] Creating Layer pool5
I0926 10:18:44.975064 23724 net.cpp:412] pool5 <- conv5
I0926 10:18:44.975071 23724 net.cpp:370] pool5 -> pool5
I0926 10:18:44.975080 23724 net.cpp:122] Setting up pool5
I0926 10:18:44.975090 23724 net.cpp:129] Top shape: 128 256 6 6 (1179648)
I0926 10:18:44.975103 23724 layer_factory.hpp:74] Creating layer fc6
I0926 10:18:44.975122 23724 net.cpp:92] Creating Layer fc6
I0926 10:18:44.975128 23724 net.cpp:412] fc6 <- pool5
I0926 10:18:44.975136 23724 net.cpp:370] fc6 -> fc6
I0926 10:18:44.975148 23724 net.cpp:122] Setting up fc6
I0926 10:18:45.833361 23724 net.cpp:129] Top shape: 128 4096 (524288)
I0926 10:18:45.833403 23724 layer_factory.hpp:74] Creating layer relu6
I0926 10:18:45.833415 23724 net.cpp:92] Creating Layer relu6
I0926 10:18:45.833420 23724 net.cpp:412] relu6 <- fc6
I0926 10:18:45.833428 23724 net.cpp:359] relu6 -> fc6 (in-place)
I0926 10:18:45.833437 23724 net.cpp:122] Setting up relu6
I0926 10:18:45.833443 23724 net.cpp:129] Top shape: 128 4096 (524288)
I0926 10:18:45.833448 23724 layer_factory.hpp:74] Creating layer drop6
I0926 10:18:45.833463 23724 net.cpp:92] Creating Layer drop6
I0926 10:18:45.833468 23724 net.cpp:412] drop6 <- fc6
I0926 10:18:45.833475 23724 net.cpp:359] drop6 -> fc6 (in-place)
I0926 10:18:45.833485 23724 net.cpp:122] Setting up drop6
I0926 10:18:45.833495 23724 net.cpp:129] Top shape: 128 4096 (524288)
I0926 10:18:45.833500 23724 layer_factory.hpp:74] Creating layer fc7
I0926 10:18:45.833508 23724 net.cpp:92] Creating Layer fc7
I0926 10:18:45.833513 23724 net.cpp:412] fc7 <- fc6
I0926 10:18:45.833519 23724 net.cpp:370] fc7 -> fc7
I0926 10:18:45.833528 23724 net.cpp:122] Setting up fc7
I0926 10:18:46.214767 23724 net.cpp:129] Top shape: 128 4096 (524288)
I0926 10:18:46.214812 23724 layer_factory.hpp:74] Creating layer relu7
I0926 10:18:46.214824 23724 net.cpp:92] Creating Layer relu7
I0926 10:18:46.214831 23724 net.cpp:412] relu7 <- fc7
I0926 10:18:46.214839 23724 net.cpp:359] relu7 -> fc7 (in-place)
I0926 10:18:46.214848 23724 net.cpp:122] Setting up relu7
I0926 10:18:46.214854 23724 net.cpp:129] Top shape: 128 4096 (524288)
I0926 10:18:46.214859 23724 layer_factory.hpp:74] Creating layer drop7
I0926 10:18:46.214866 23724 net.cpp:92] Creating Layer drop7
I0926 10:18:46.214871 23724 net.cpp:412] drop7 <- fc7
I0926 10:18:46.214879 23724 net.cpp:359] drop7 -> fc7 (in-place)
I0926 10:18:46.214885 23724 net.cpp:122] Setting up drop7
I0926 10:18:46.214893 23724 net.cpp:129] Top shape: 128 4096 (524288)
I0926 10:18:46.214898 23724 layer_factory.hpp:74] Creating layer fc8
I0926 10:18:46.214906 23724 net.cpp:92] Creating Layer fc8
I0926 10:18:46.214911 23724 net.cpp:412] fc8 <- fc7
I0926 10:18:46.214920 23724 net.cpp:370] fc8 -> fc8
I0926 10:18:46.214929 23724 net.cpp:122] Setting up fc8
I0926 10:18:46.233500 23724 net.cpp:129] Top shape: 128 196 (25088)
I0926 10:18:46.233510 23724 layer_factory.hpp:74] Creating layer loss
I0926 10:18:46.233518 23724 net.cpp:92] Creating Layer loss
I0926 10:18:46.233523 23724 net.cpp:412] loss <- fc8
I0926 10:18:46.233528 23724 net.cpp:412] loss <- label
I0926 10:18:46.233538 23724 net.cpp:370] loss -> loss
I0926 10:18:46.233546 23724 net.cpp:122] Setting up loss
I0926 10:18:46.233553 23724 layer_factory.hpp:74] Creating layer loss
…
I0926 10:18:46.234416 23724 net.cpp:289] The NetState phase (1) differed from the phase (0) specified by a rule in layer data
I0926 10:18:46.234570 23724 net.cpp:44] Initializing net from parameters: 
name: "CaffeNet"
state {
  phase: TEST
}
layer {
  name: "data"
  type: "Data"
  top: "data"
  top: "label"
  include {
    phase: TEST
  }
  transform_param {
    mirror: true
    crop_size: 227
    mean_file: "data/Stanford_Cars/imagenet_mean.binaryproto"
  }
  data_param {
    source: "Stanford_Cars/imagenet_val_leveldb"
    mean_file: "data/Stanford_Cars/imagenet_mean.binartproto"
    batch_size: 10
    crop_size: 227
    mirror: false
    backend: LMDB
  }
}
layer {
  name: "conv1"
  type: "Convolution"
  bottom: "data"
  top: "conv1"
  param {
    lr_mult: 1
    decay_mult: 1
  }
  param {
    lr_mult: 2
    decay_mult: 0
  }
  convolution_param {
    num_output: 96
    kernel_size: 11
    stride: 4
    weight_filler {
      type: "gaussian"
      std: 0.01
    }
    bias_filler {
      type: "constant"
      value: 0
    }
  }
}
layer {
  name: "relu1"
  type: "ReLU"
  bottom: "conv1"
  top: "conv1"
}
layer {
  name: "pool1"
  type: "Pooling"
  bottom: "conv1"
  top: "pool1"
  pooling_param {
    pool: MAX
    kernel_size: 3
    stride: 2
  }
}
layer {
  name: "norm1"
  type: "LRN"
  bottom: "pool1"
  top: "norm1"
  lrn_param {
    local_size: 5
    alpha: 0.0001
    beta: 0.75
  }
}
layer {
  name: "conv2"
  type: "Convolution"
  bottom: "norm1"
  top: "conv2"
  param {
    lr_mult: 1
    decay_mult: 1
  }
  param {
    lr_mult: 2
    decay_mult: 0
  }
  convolution_param {
    num_output: 256
    pad: 2
    kernel_size: 5
    group: 2
    weight_filler {
      type: "gaussian"
      std: 0.01
    }
    bias_filler {
      type: "constant"
      value: 1
    }
  }
}
layer {
  name: "relu2"
  type: "ReLU"
  bottom: "conv2"
  top: "conv2"
}
layer {
  name: "pool2"
  type: "Pooling"
  bottom: "conv2"
  top: "pool2"
  pooling_param {
    pool: MAX
    kernel_size: 3
    stride: 2
  }
}
layer {
  name: "norm2"
  type: "LRN"
  bottom: "pool2"
  top: "norm2"
  lrn_param {
    local_size: 5
    alpha: 0.0001
    beta: 0.75
  }
}
layer {
  name: "conv3"
  type: "Convolution"
  bottom: "norm2"
  top: "conv3"
  param {
    lr_mult: 1
    decay_mult: 1
  }
  param {
    lr_mult: 2
    decay_mult: 0
  }
  convolution_param {
    num_output: 384
    pad: 1
    kernel_size: 3
    weight_filler {
      type: "gaussian"
      std: 0.01
    }
    bias_filler {
      type: "constant"
      value: 0
    }
  }
}
layer {
  name: "relu3"
  type: "ReLU"
  bottom: "conv3"
  top: "conv3"
}
layer {
  name: "conv4"
  type: "Convolution"
  bottom: "conv3"
  top: "conv4"
  param {
    lr_mult: 1
    decay_mult: 1
  }
  param {
    lr_mult: 2
    decay_mult: 0
  }
  convolution_param {
    num_output: 384
    pad: 1
    kernel_size: 3
    group: 2
    weight_filler {
      type: "gaussian"
      std: 0.01
    }
    bias_filler {
      type: "constant"
      value: 1
    }
  }
}
layer {
  name: "relu4"
  type: "ReLU"
  bottom: "conv4"
  top: "conv4"
}
layer {
  name: "conv5"
  type: "Convolution"
  bottom: "conv4"
  top: "conv5"
  param {
    lr_mult: 1
    decay_mult: 1
  }
  param {
    lr_mult: 2
    decay_mult: 0
  }
  convolution_param {
    num_output: 256
    pad: 1
    kernel_size: 3
    group: 2
    weight_filler {
      type: "gaussian"
      std: 0.01
    }
    bias_filler {
      type: "constant"
      value: 1
    }
  }
}
layer {
  name: "relu5"
  type: "ReLU"
  bottom: "conv5"
  top: "conv5"
}
layer {
  name: "pool5"
  type: "Pooling"
  bottom: "conv5"
  top: "pool5"
  pooling_param {
    pool: MAX
    kernel_size: 3
    stride: 2
  }
}
layer {
  name: "fc6"
  type: "InnerProduct"
  bottom: "pool5"
  top: "fc6"
  param {
    lr_mult: 1
    decay_mult: 1
  }
  param {
    lr_mult: 2
    decay_mult: 0
  }
  inner_product_param {
    num_output: 4096
    weight_filler {
      type: "gaussian"
      std: 0.005
    }
    bias_filler {
      type: "constant"
      value: 1
    }
  }
}
layer {
  name: "relu6"
  type: "ReLU"
  bottom: "fc6"
  top: "fc6"
}
layer {
  name: "drop6"
  type: "Dropout"
  bottom: "fc6"
  top: "fc6"
  dropout_param {
    dropout_ratio: 0.5
  }
}
layer {
  name: "fc7"
  type: "InnerProduct"
  bottom: "fc6"
  top: "fc7"
  param {
    lr_mult: 1
    decay_mult: 1
  }
  param {
    lr_mult: 2
    decay_mult: 0
  }
  inner_product_param {
    num_output: 4096
    weight_filler {
      type: "gaussian"
      std: 0.005
    }
    bias_filler {
      type: "constant"
      value: 1
    }
  }
}
layer {
  name: "relu7"
  type: "ReLU"
  bottom: "fc7"
  top: "fc7"
}
layer {
  name: "drop7"
  type: "Dropout"
  bottom: "fc7"
  top: "fc7"
  dropout_param {
    dropout_ratio: 0.5
  }
}
layer {
  name: "fc8"
  type: "InnerProduct"
  bottom: "fc7"
  top: "fc8"
  param {
    lr_mult: 1
    decay_mult: 1
  }
  param {
    lr_mult: 2
    decay_mult: 0
  }
  inner_product_param {
    num_output: 196
    weight_filler {
      type: "gaussian"
      std: 0.01
    }
    bias_filler {
      type: "constant"
      value: 0
    }
  }
}
layer {
  name: "accuracy"
  type: "Accuracy"
  bottom: "fc8"
  bottom: "label"
  top: "accuracy"
  include {
    phase: TEST
  }
}
layer {
  name: "loss"
  type: "SoftmaxWithLoss"
  bottom: "fc8"
  bottom: "label"
  top: "loss"
}
I0926 10:18:46.234673 23724 layer_factory.hpp:74] Creating layer data
I0926 10:18:46.234683 23724 net.cpp:92] Creating Layer data
I0926 10:18:46.234690 23724 net.cpp:370] data -> data
I0926 10:18:46.234699 23724 net.cpp:370] data -> label
I0926 10:18:46.234707 23724 net.cpp:122] Setting up data
I0926 10:18:46.234712 23724 data_transformer.cpp:22] Loading mean file from: data/Stanford_Cars/imagenet_mean.binaryproto
I0926 10:18:46.235998 23724 db_lmdb.cpp:22] Opened lmdb Stanford_Cars/imagenet_val_leveldb
I0926 10:18:46.236068 23724 data_layer.cpp:52] output data size: 10,3,227,227
I0926 10:18:46.237035 23724 net.cpp:129] Top shape: 10 3 227 227 (1545870)
I0926 10:18:46.237061 23724 net.cpp:129] Top shape: 10 (10)
I0926 10:18:46.237068 23724 layer_factory.hpp:74] Creating layer label_data_1_split
I0926 10:18:46.237084 23724 net.cpp:92] Creating Layer label_data_1_split
I0926 10:18:46.237092 23724 net.cpp:412] label_data_1_split <- label
I0926 10:18:46.237104 23724 net.cpp:370] label_data_1_split -> label_data_1_split_0
I0926 10:18:46.237118 23724 net.cpp:370] label_data_1_split -> label_data_1_split_1
I0926 10:18:46.237124 23724 net.cpp:122] Setting up label_data_1_split
I0926 10:18:46.237133 23724 net.cpp:129] Top shape: 10 (10)
I0926 10:18:46.237138 23724 net.cpp:129] Top shape: 10 (10)
I0926 10:18:46.237143 23724 layer_factory.hpp:74] Creating layer conv1
I0926 10:18:46.237154 23724 net.cpp:92] Creating Layer conv1
I0926 10:18:46.237159 23724 net.cpp:412] conv1 <- data
I0926 10:18:46.237166 23724 net.cpp:370] conv1 -> conv1
I0926 10:18:46.237175 23724 net.cpp:122] Setting up conv1
I0926 10:18:46.238004 23724 net.cpp:129] Top shape: 10 96 55 55 (2904000)
I0926 10:18:46.238028 23724 layer_factory.hpp:74] Creating layer relu1
I0926 10:18:46.238044 23724 net.cpp:92] Creating Layer relu1
I0926 10:18:46.238049 23724 net.cpp:412] relu1 <- conv1
I0926 10:18:46.238054 23724 net.cpp:359] relu1 -> conv1 (in-place)
I0926 10:18:46.238061 23724 net.cpp:122] Setting up relu1
I0926 10:18:46.238067 23724 net.cpp:129] Top shape: 10 96 55 55 (2904000)
I0926 10:18:46.238072 23724 layer_factory.hpp:74] Creating layer pool1
I0926 10:18:46.238080 23724 net.cpp:92] Creating Layer pool1
I0926 10:18:46.238085 23724 net.cpp:412] pool1 <- conv1
I0926 10:18:46.238091 23724 net.cpp:370] pool1 -> pool1
I0926 10:18:46.238098 23724 net.cpp:122] Setting up pool1
I0926 10:18:46.238108 23724 net.cpp:129] Top shape: 10 96 27 27 (699840)
I0926 10:18:46.238113 23724 layer_factory.hpp:74] Creating layer norm1
I0926 10:18:46.238121 23724 net.cpp:92] Creating Layer norm1
I0926 10:18:46.238126 23724 net.cpp:412] norm1 <- pool1
I0926 10:18:46.238131 23724 net.cpp:370] norm1 -> norm1
I0926 10:18:46.238138 23724 net.cpp:122] Setting up norm1
I0926 10:18:46.238147 23724 net.cpp:129] Top shape: 10 96 27 27 (699840)
I0926 10:18:46.238152 23724 layer_factory.hpp:74] Creating layer conv2
I0926 10:18:46.238158 23724 net.cpp:92] Creating Layer conv2
I0926 10:18:46.238163 23724 net.cpp:412] conv2 <- norm1
I0926 10:18:46.238170 23724 net.cpp:370] conv2 -> conv2
I0926 10:18:46.238178 23724 net.cpp:122] Setting up conv2
I0926 10:18:46.245363 23724 net.cpp:129] Top shape: 10 256 27 27 (1866240)
I0926 10:18:46.245394 23724 layer_factory.hpp:74] Creating layer relu2
I0926 10:18:46.245404 23724 net.cpp:92] Creating Layer relu2
I0926 10:18:46.245410 23724 net.cpp:412] relu2 <- conv2
I0926 10:18:46.245419 23724 net.cpp:359] relu2 -> conv2 (in-place)
I0926 10:18:46.245427 23724 net.cpp:122] Setting up relu2
I0926 10:18:46.245434 23724 net.cpp:129] Top shape: 10 256 27 27 (1866240)
I0926 10:18:46.245439 23724 layer_factory.hpp:74] Creating layer pool2
I0926 10:18:46.245446 23724 net.cpp:92] Creating Layer pool2
I0926 10:18:46.245451 23724 net.cpp:412] pool2 <- conv2
I0926 10:18:46.245457 23724 net.cpp:370] pool2 -> pool2
I0926 10:18:46.245465 23724 net.cpp:122] Setting up pool2
I0926 10:18:46.245476 23724 net.cpp:129] Top shape: 10 256 13 13 (432640)
I0926 10:18:46.245481 23724 layer_factory.hpp:74] Creating layer norm2
I0926 10:18:46.245488 23724 net.cpp:92] Creating Layer norm2
I0926 10:18:46.245493 23724 net.cpp:412] norm2 <- pool2
I0926 10:18:46.245501 23724 net.cpp:370] norm2 -> norm2
I0926 10:18:46.245507 23724 net.cpp:122] Setting up norm2
I0926 10:18:46.245514 23724 net.cpp:129] Top shape: 10 256 13 13 (432640)
I0926 10:18:46.245519 23724 layer_factory.hpp:74] Creating layer conv3
I0926 10:18:46.245527 23724 net.cpp:92] Creating Layer conv3
I0926 10:18:46.245532 23724 net.cpp:412] conv3 <- norm2
I0926 10:18:46.245539 23724 net.cpp:370] conv3 -> conv3
I0926 10:18:46.245548 23724 net.cpp:122] Setting up conv3
I0926 10:18:46.265771 23724 net.cpp:129] Top shape: 10 384 13 13 (648960)
I0926 10:18:46.265786 23724 layer_factory.hpp:74] Creating layer relu3
I0926 10:18:46.265794 23724 net.cpp:92] Creating Layer relu3
I0926 10:18:46.265800 23724 net.cpp:412] relu3 <- conv3
I0926 10:18:46.265805 23724 net.cpp:359] relu3 -> conv3 (in-place)
I0926 10:18:46.265812 23724 net.cpp:122] Setting up relu3
I0926 10:18:46.265818 23724 net.cpp:129] Top shape: 10 384 13 13 (648960)
I0926 10:18:46.265822 23724 layer_factory.hpp:74] Creating layer conv4
I0926 10:18:46.265830 23724 net.cpp:92] Creating Layer conv4
I0926 10:18:46.265836 23724 net.cpp:412] conv4 <- conv3
I0926 10:18:46.265842 23724 net.cpp:370] conv4 -> conv4
I0926 10:18:46.265848 23724 net.cpp:122] Setting up conv4
I0926 10:18:46.280954 23724 net.cpp:129] Top shape: 10 384 13 13 (648960)
I0926 10:18:46.280968 23724 layer_factory.hpp:74] Creating layer relu4
I0926 10:18:46.280977 23724 net.cpp:92] Creating Layer relu4
I0926 10:18:46.280982 23724 net.cpp:412] relu4 <- conv4
I0926 10:18:46.280987 23724 net.cpp:359] relu4 -> conv4 (in-place)
I0926 10:18:46.280993 23724 net.cpp:122] Setting up relu4
I0926 10:18:46.281008 23724 net.cpp:129] Top shape: 10 384 13 13 (648960)
I0926 10:18:46.281019 23724 layer_factory.hpp:74] Creating layer conv5
I0926 10:18:46.281028 23724 net.cpp:92] Creating Layer conv5
I0926 10:18:46.281033 23724 net.cpp:412] conv5 <- conv4
I0926 10:18:46.281041 23724 net.cpp:370] conv5 -> conv5
I0926 10:18:46.281049 23724 net.cpp:122] Setting up conv5
I0926 10:18:46.291282 23724 net.cpp:129] Top shape: 10 256 13 13 (432640)
I0926 10:18:46.291298 23724 layer_factory.hpp:74] Creating layer relu5
I0926 10:18:46.291306 23724 net.cpp:92] Creating Layer relu5
I0926 10:18:46.291311 23724 net.cpp:412] relu5 <- conv5
I0926 10:18:46.291318 23724 net.cpp:359] relu5 -> conv5 (in-place)
I0926 10:18:46.291326 23724 net.cpp:122] Setting up relu5
I0926 10:18:46.291332 23724 net.cpp:129] Top shape: 10 256 13 13 (432640)
I0926 10:18:46.291337 23724 layer_factory.hpp:74] Creating layer pool5
I0926 10:18:46.291344 23724 net.cpp:92] Creating Layer pool5
I0926 10:18:46.291349 23724 net.cpp:412] pool5 <- conv5
I0926 10:18:46.291355 23724 net.cpp:370] pool5 -> pool5
I0926 10:18:46.291363 23724 net.cpp:122] Setting up pool5
I0926 10:18:46.291371 23724 net.cpp:129] Top shape: 10 256 6 6 (92160)
I0926 10:18:46.291376 23724 layer_factory.hpp:74] Creating layer fc6
I0926 10:18:46.291386 23724 net.cpp:92] Creating Layer fc6
I0926 10:18:46.291391 23724 net.cpp:412] fc6 <- pool5
I0926 10:18:46.291399 23724 net.cpp:370] fc6 -> fc6
I0926 10:18:46.291407 23724 net.cpp:122] Setting up fc6
I0926 10:18:47.242269 23724 net.cpp:129] Top shape: 10 4096 (40960)
I0926 10:18:47.242308 23724 layer_factory.hpp:74] Creating layer relu6
I0926 10:18:47.242321 23724 net.cpp:92] Creating Layer relu6
I0926 10:18:47.242326 23724 net.cpp:412] relu6 <- fc6
I0926 10:18:47.242336 23724 net.cpp:359] relu6 -> fc6 (in-place)
I0926 10:18:47.242346 23724 net.cpp:122] Setting up relu6
I0926 10:18:47.242352 23724 net.cpp:129] Top shape: 10 4096 (40960)
I0926 10:18:47.242357 23724 layer_factory.hpp:74] Creating layer drop6
I0926 10:18:47.242364 23724 net.cpp:92] Creating Layer drop6
I0926 10:18:47.242369 23724 net.cpp:412] drop6 <- fc6
I0926 10:18:47.242375 23724 net.cpp:359] drop6 -> fc6 (in-place)
I0926 10:18:47.242382 23724 net.cpp:122] Setting up drop6
I0926 10:18:47.242388 23724 net.cpp:129] Top shape: 10 4096 (40960)
I0926 10:18:47.242393 23724 layer_factory.hpp:74] Creating layer fc7
I0926 10:18:47.242403 23724 net.cpp:92] Creating Layer fc7
I0926 10:18:47.242408 23724 net.cpp:412] fc7 <- fc6
I0926 10:18:47.242414 23724 net.cpp:370] fc7 -> fc7
I0926 10:18:47.242424 23724 net.cpp:122] Setting up fc7
I0926 10:18:47.627115 23724 net.cpp:129] Top shape: 10 4096 (40960)
I0926 10:18:47.627153 23724 layer_factory.hpp:74] Creating layer relu7
I0926 10:18:47.627166 23724 net.cpp:92] Creating Layer relu7
I0926 10:18:47.627173 23724 net.cpp:412] relu7 <- fc7
I0926 10:18:47.627182 23724 net.cpp:359] relu7 -> fc7 (in-place)
I0926 10:18:47.627192 23724 net.cpp:122] Setting up relu7
I0926 10:18:47.627197 23724 net.cpp:129] Top shape: 10 4096 (40960)
I0926 10:18:47.627202 23724 layer_factory.hpp:74] Creating layer drop7
I0926 10:18:47.627210 23724 net.cpp:92] Creating Layer drop7
I0926 10:18:47.627215 23724 net.cpp:412] drop7 <- fc7
I0926 10:18:47.627221 23724 net.cpp:359] drop7 -> fc7 (in-place)
I0926 10:18:47.627228 23724 net.cpp:122] Setting up drop7
I0926 10:18:47.627235 23724 net.cpp:129] Top shape: 10 4096 (40960)
I0926 10:18:47.627239 23724 layer_factory.hpp:74] Creating layer fc8
I0926 10:18:47.627249 23724 net.cpp:92] Creating Layer fc8
I0926 10:18:47.627252 23724 net.cpp:412] fc8 <- fc7
I0926 10:18:47.627260 23724 net.cpp:370] fc8 -> fc8
I0926 10:18:47.627272 23724 net.cpp:122] Setting up fc8
I0926 10:18:47.645823 23724 net.cpp:129] Top shape: 10 196 (1960)
I0926 10:18:47.645834 23724 layer_factory.hpp:74] Creating layer fc8_fc8_0_split
I0926 10:18:47.645843 23724 net.cpp:92] Creating Layer fc8_fc8_0_split
I0926 10:18:47.645846 23724 net.cpp:412] fc8_fc8_0_split <- fc8
I0926 10:18:47.645854 23724 net.cpp:370] fc8_fc8_0_split -> fc8_fc8_0_split_0
I0926 10:18:47.645871 23724 net.cpp:370] fc8_fc8_0_split -> fc8_fc8_0_split_1
I0926 10:18:47.645886 23724 net.cpp:122] Setting up fc8_fc8_0_split
I0926 10:18:47.645895 23724 net.cpp:129] Top shape: 10 196 (1960)
I0926 10:18:47.645900 23724 net.cpp:129] Top shape: 10 196 (1960)
I0926 10:18:47.645905 23724 layer_factory.hpp:74] Creating layer accuracy
I0926 10:18:47.645912 23724 net.cpp:92] Creating Layer accuracy
I0926 10:18:47.645916 23724 net.cpp:412] accuracy <- fc8_fc8_0_split_0
I0926 10:18:47.645922 23724 net.cpp:412] accuracy <- label_data_1_split_0
I0926 10:18:47.645928 23724 net.cpp:370] accuracy -> accuracy
I0926 10:18:47.645936 23724 net.cpp:122] Setting up accuracy
…
