…
I1006 10:18:34.827813 22890 net.cpp:289] The NetState phase (0) differed from the phase (1) specified by a rule in layer accuracy
I1006 10:18:34.827952 22890 net.cpp:44] Initializing net from parameters: 
name: "CaffeNet"
state {
  phase: TRAIN
}
layer {
  name: "data"
  type: "Data"
  top: "data"
  top: "label"
  include {
    phase: TRAIN
  }
  transform_param {
    mirror: true
    crop_size: 227
    mean_file: "data/acTyle/imagenet_mean.binaryproto"
  }
  data_param {
    source: "acTyle/imagenet_train_leveldb"
    batch_size: 128
    backend: LMDB
  }
}
layer {
  name: "conv1"
  type: "Convolution"
  bottom: "data"
  top: "conv1"
  param {
    lr_mult: 1
    decay_mult: 1
  }
  param {
    lr_mult: 2
    decay_mult: 0
  }
  convolution_param {
    num_output: 96
    kernel_size: 11
    stride: 4
    weight_filler {
      type: "gaussian"
      std: 0.01
    }
    bias_filler {
      type: "constant"
      value: 0
    }
  }
}
layer {
  name: "relu1"
  type: "ReLU"
  bottom: "conv1"
  top: "conv1"
}
layer {
  name: "pool1"
  type: "Pooling"
  bottom: "conv1"
  top: "pool1"
  pooling_param {
    pool: MAX
    kernel_size: 3
    stride: 2
  }
}
layer {
  name: "norm1"
  type: "LRN"
  bottom: "pool1"
  top: "norm1"
  lrn_param {
    local_size: 5
    alpha: 0.0001
    beta: 0.75
  }
}
layer {
  name: "conv2"
  type: "Convolution"
  bottom: "norm1"
  top: "conv2"
  param {
    lr_mult: 1
    decay_mult: 1
  }
  param {
    lr_mult: 2
    decay_mult: 0
  }
  convolution_param {
    num_output: 256
    pad: 2
    kernel_size: 5
    group: 2
    weight_filler {
      type: "gaussian"
      std: 0.01
    }
    bias_filler {
      type: "constant"
      value: 1
    }
  }
}
layer {
  name: "relu2"
  type: "ReLU"
  bottom: "conv2"
  top: "conv2"
}
layer {
  name: "pool2"
  type: "Pooling"
  bottom: "conv2"
  top: "pool2"
  pooling_param {
    pool: MAX
    kernel_size: 3
    stride: 2
  }
}
layer {
  name: "norm2"
  type: "LRN"
  bottom: "pool2"
  top: "norm2"
  lrn_param {
    local_size: 5
    alpha: 0.0001
    beta: 0.75
  }
}
layer {
  name: "conv3"
  type: "Convolution"
  bottom: "norm2"
  top: "conv3"
  param {
    lr_mult: 1
    decay_mult: 1
  }
  param {
    lr_mult: 2
    decay_mult: 0
  }
  convolution_param {
    num_output: 384
    pad: 1
    kernel_size: 3
    weight_filler {
      type: "gaussian"
      std: 0.01
    }
    bias_filler {
      type: "constant"
      value: 0
    }
  }
}
layer {
  name: "relu3"
  type: "ReLU"
  bottom: "conv3"
  top: "conv3"
}
layer {
  name: "conv4"
  type: "Convolution"
  bottom: "conv3"
  top: "conv4"
  param {
    lr_mult: 1
    decay_mult: 1
  }
  param {
    lr_mult: 2
    decay_mult: 0
  }
  convolution_param {
    num_output: 384
    pad: 1
    kernel_size: 3
    group: 2
    weight_filler {
      type: "gaussian"
      std: 0.01
    }
    bias_filler {
      type: "constant"
      value: 1
    }
  }
}
layer {
  name: "relu4"
  type: "ReLU"
  bottom: "conv4"
  top: "conv4"
}
layer {
  name: "conv5"
  type: "Convolution"
  bottom: "conv4"
  top: "conv5"
  param {
    lr_mult: 1
    decay_mult: 1
  }
  param {
    lr_mult: 2
    decay_mult: 0
  }
  convolution_param {
    num_output: 256
    pad: 1
    kernel_size: 3
    group: 2
    weight_filler {
      type: "gaussian"
      std: 0.01
    }
    bias_filler {
      type: "constant"
      value: 1
    }
  }
}
layer {
  name: "relu5"
  type: "ReLU"
  bottom: "conv5"
  top: "conv5"
}
layer {
  name: "pool5"
  type: "Pooling"
  bottom: "conv5"
  top: "pool5"
  pooling_param {
    pool: MAX
    kernel_size: 3
    stride: 2
  }
}
layer {
  name: "fc6"
  type: "InnerProduct"
  bottom: "pool5"
  top: "fc6"
  param {
    lr_mult: 1
    decay_mult: 1
  }
  param {
    lr_mult: 2
    decay_mult: 0
  }
  inner_product_param {
    num_output: 4096
    weight_filler {
      type: "gaussian"
      std: 0.005
    }
    bias_filler {
      type: "constant"
      value: 1
    }
  }
}
layer {
  name: "relu6"
  type: "ReLU"
  bottom: "fc6"
  top: "fc6"
}
layer {
  name: "drop6"
  type: "Dropout"
  bottom: "fc6"
  top: "fc6"
  dropout_param {
    dropout_ratio: 0.5
  }
}
layer {
  name: "fc7"
  type: "InnerProduct"
  bottom: "fc6"
  top: "fc7"
  param {
    lr_mult: 1
    decay_mult: 1
  }
  param {
    lr_mult: 2
    decay_mult: 0
  }
  inner_product_param {
    num_output: 4096
    weight_filler {
      type: "gaussian"
      std: 0.005
    }
    bias_filler {
      type: "constant"
      value: 1
    }
  }
}
layer {
  name: "relu7"
  type: "ReLU"
  bottom: "fc7"
  top: "fc7"
}
layer {
  name: "drop7"
  type: "Dropout"
  bottom: "fc7"
  top: "fc7"
  dropout_param {
    dropout_ratio: 0.5
  }
}
layer {
  name: "fc8"
  type: "InnerProduct"
  bottom: "fc7"
  top: "fc8"
  param {
    lr_mult: 1
    decay_mult: 1
  }
  param {
    lr_mult: 2
    decay_mult: 0
  }
  inner_product_param {
    num_output: 2
    weight_filler {
      type: "gaussian"
      std: 0.01
    }
    bias_filler {
      type: "constant"
      value: 0
    }
  }
}
layer {
  name: "loss"
  type: "SoftmaxWithLoss"
  bottom: "fc8"
  bottom: "label"
  top: "loss"
}
I1006 10:18:34.828055 22890 layer_factory.hpp:74] Creating layer data
I1006 10:18:34.828081 22890 net.cpp:92] Creating Layer data
I1006 10:18:34.828089 22890 net.cpp:370] data -> data
I1006 10:18:34.828110 22890 net.cpp:370] data -> label
I1006 10:18:34.828121 22890 net.cpp:122] Setting up data
I1006 10:18:34.828130 22890 data_transformer.cpp:22] Loading mean file from: data/acTyle/imagenet_mean.binaryproto
I1006 10:18:34.829663 22890 db_lmdb.cpp:22] Opened lmdb acTyle/imagenet_train_leveldb
I1006 10:18:34.829730 22890 data_layer.cpp:52] output data size: 128,3,227,227
I1006 10:18:34.838956 22890 net.cpp:129] Top shape: 128 3 227 227 (19787136)
I1006 10:18:34.838999 22890 net.cpp:129] Top shape: 128 (128)
I1006 10:18:34.839009 22890 layer_factory.hpp:74] Creating layer conv1
I1006 10:18:34.839031 22890 net.cpp:92] Creating Layer conv1
I1006 10:18:34.839040 22890 net.cpp:412] conv1 <- data
I1006 10:18:34.839052 22890 net.cpp:370] conv1 -> conv1
I1006 10:18:34.839067 22890 net.cpp:122] Setting up conv1
I1006 10:18:34.839977 22890 net.cpp:129] Top shape: 128 96 55 55 (37171200)
I1006 10:18:34.839995 22890 layer_factory.hpp:74] Creating layer relu1
I1006 10:18:34.840004 22890 net.cpp:92] Creating Layer relu1
I1006 10:18:34.840009 22890 net.cpp:412] relu1 <- conv1
I1006 10:18:34.840015 22890 net.cpp:359] relu1 -> conv1 (in-place)
I1006 10:18:34.840023 22890 net.cpp:122] Setting up relu1
I1006 10:18:34.840029 22890 net.cpp:129] Top shape: 128 96 55 55 (37171200)
I1006 10:18:34.840034 22890 layer_factory.hpp:74] Creating layer pool1
I1006 10:18:34.840041 22890 net.cpp:92] Creating Layer pool1
I1006 10:18:34.840046 22890 net.cpp:412] pool1 <- conv1
I1006 10:18:34.840052 22890 net.cpp:370] pool1 -> pool1
I1006 10:18:34.840061 22890 net.cpp:122] Setting up pool1
I1006 10:18:34.840077 22890 net.cpp:129] Top shape: 128 96 27 27 (8957952)
I1006 10:18:34.840083 22890 layer_factory.hpp:74] Creating layer norm1
I1006 10:18:34.840092 22890 net.cpp:92] Creating Layer norm1
I1006 10:18:34.840097 22890 net.cpp:412] norm1 <- pool1
I1006 10:18:34.840103 22890 net.cpp:370] norm1 -> norm1
I1006 10:18:34.840112 22890 net.cpp:122] Setting up norm1
I1006 10:18:34.840121 22890 net.cpp:129] Top shape: 128 96 27 27 (8957952)
I1006 10:18:34.840126 22890 layer_factory.hpp:74] Creating layer conv2
I1006 10:18:34.840133 22890 net.cpp:92] Creating Layer conv2
I1006 10:18:34.840147 22890 net.cpp:412] conv2 <- norm1
I1006 10:18:34.840154 22890 net.cpp:370] conv2 -> conv2
I1006 10:18:34.840169 22890 net.cpp:122] Setting up conv2
I1006 10:18:34.847971 22890 net.cpp:129] Top shape: 128 256 27 27 (23887872)
I1006 10:18:34.848011 22890 layer_factory.hpp:74] Creating layer relu2
I1006 10:18:34.848023 22890 net.cpp:92] Creating Layer relu2
I1006 10:18:34.848029 22890 net.cpp:412] relu2 <- conv2
I1006 10:18:34.848040 22890 net.cpp:359] relu2 -> conv2 (in-place)
I1006 10:18:34.848049 22890 net.cpp:122] Setting up relu2
I1006 10:18:34.848058 22890 net.cpp:129] Top shape: 128 256 27 27 (23887872)
I1006 10:18:34.848063 22890 layer_factory.hpp:74] Creating layer pool2
I1006 10:18:34.848073 22890 net.cpp:92] Creating Layer pool2
I1006 10:18:34.848078 22890 net.cpp:412] pool2 <- conv2
I1006 10:18:34.848084 22890 net.cpp:370] pool2 -> pool2
I1006 10:18:34.848093 22890 net.cpp:122] Setting up pool2
I1006 10:18:34.848101 22890 net.cpp:129] Top shape: 128 256 13 13 (5537792)
I1006 10:18:34.848108 22890 layer_factory.hpp:74] Creating layer norm2
I1006 10:18:34.848124 22890 net.cpp:92] Creating Layer norm2
I1006 10:18:34.848130 22890 net.cpp:412] norm2 <- pool2
I1006 10:18:34.848137 22890 net.cpp:370] norm2 -> norm2
I1006 10:18:34.848145 22890 net.cpp:122] Setting up norm2
I1006 10:18:34.848152 22890 net.cpp:129] Top shape: 128 256 13 13 (5537792)
I1006 10:18:34.848157 22890 layer_factory.hpp:74] Creating layer conv3
I1006 10:18:34.848166 22890 net.cpp:92] Creating Layer conv3
I1006 10:18:34.848171 22890 net.cpp:412] conv3 <- norm2
I1006 10:18:34.848179 22890 net.cpp:370] conv3 -> conv3
I1006 10:18:34.848187 22890 net.cpp:122] Setting up conv3
I1006 10:18:34.870693 22890 net.cpp:129] Top shape: 128 384 13 13 (8306688)
I1006 10:18:34.870733 22890 layer_factory.hpp:74] Creating layer relu3
I1006 10:18:34.870745 22890 net.cpp:92] Creating Layer relu3
I1006 10:18:34.870753 22890 net.cpp:412] relu3 <- conv3
I1006 10:18:34.870760 22890 net.cpp:359] relu3 -> conv3 (in-place)
I1006 10:18:34.870769 22890 net.cpp:122] Setting up relu3
I1006 10:18:34.870776 22890 net.cpp:129] Top shape: 128 384 13 13 (8306688)
I1006 10:18:34.870781 22890 layer_factory.hpp:74] Creating layer conv4
I1006 10:18:34.870791 22890 net.cpp:92] Creating Layer conv4
I1006 10:18:34.870796 22890 net.cpp:412] conv4 <- conv3
I1006 10:18:34.870802 22890 net.cpp:370] conv4 -> conv4
I1006 10:18:34.870810 22890 net.cpp:122] Setting up conv4
I1006 10:18:34.887477 22890 net.cpp:129] Top shape: 128 384 13 13 (8306688)
I1006 10:18:34.887511 22890 layer_factory.hpp:74] Creating layer relu4
I1006 10:18:34.887521 22890 net.cpp:92] Creating Layer relu4
I1006 10:18:34.887527 22890 net.cpp:412] relu4 <- conv4
I1006 10:18:34.887536 22890 net.cpp:359] relu4 -> conv4 (in-place)
I1006 10:18:34.887543 22890 net.cpp:122] Setting up relu4
I1006 10:18:34.887550 22890 net.cpp:129] Top shape: 128 384 13 13 (8306688)
I1006 10:18:34.887555 22890 layer_factory.hpp:74] Creating layer conv5
I1006 10:18:34.887572 22890 net.cpp:92] Creating Layer conv5
I1006 10:18:34.887578 22890 net.cpp:412] conv5 <- conv4
I1006 10:18:34.887586 22890 net.cpp:370] conv5 -> conv5
I1006 10:18:34.887595 22890 net.cpp:122] Setting up conv5
I1006 10:18:34.898882 22890 net.cpp:129] Top shape: 128 256 13 13 (5537792)
I1006 10:18:34.898922 22890 layer_factory.hpp:74] Creating layer relu5
I1006 10:18:34.898933 22890 net.cpp:92] Creating Layer relu5
I1006 10:18:34.898939 22890 net.cpp:412] relu5 <- conv5
I1006 10:18:34.898948 22890 net.cpp:359] relu5 -> conv5 (in-place)
I1006 10:18:34.898957 22890 net.cpp:122] Setting up relu5
I1006 10:18:34.898964 22890 net.cpp:129] Top shape: 128 256 13 13 (5537792)
I1006 10:18:34.898969 22890 layer_factory.hpp:74] Creating layer pool5
I1006 10:18:34.898977 22890 net.cpp:92] Creating Layer pool5
I1006 10:18:34.898982 22890 net.cpp:412] pool5 <- conv5
I1006 10:18:34.898988 22890 net.cpp:370] pool5 -> pool5
I1006 10:18:34.898996 22890 net.cpp:122] Setting up pool5
I1006 10:18:34.899006 22890 net.cpp:129] Top shape: 128 256 6 6 (1179648)
I1006 10:18:34.899011 22890 layer_factory.hpp:74] Creating layer fc6
I1006 10:18:34.899034 22890 net.cpp:92] Creating Layer fc6
I1006 10:18:34.899047 22890 net.cpp:412] fc6 <- pool5
I1006 10:18:34.899056 22890 net.cpp:370] fc6 -> fc6
I1006 10:18:34.899067 22890 net.cpp:122] Setting up fc6
I1006 10:18:35.756860 22890 net.cpp:129] Top shape: 128 4096 (524288)
I1006 10:18:35.756901 22890 layer_factory.hpp:74] Creating layer relu6
I1006 10:18:35.756912 22890 net.cpp:92] Creating Layer relu6
I1006 10:18:35.756918 22890 net.cpp:412] relu6 <- fc6
I1006 10:18:35.756927 22890 net.cpp:359] relu6 -> fc6 (in-place)
I1006 10:18:35.756935 22890 net.cpp:122] Setting up relu6
I1006 10:18:35.756942 22890 net.cpp:129] Top shape: 128 4096 (524288)
I1006 10:18:35.756947 22890 layer_factory.hpp:74] Creating layer drop6
I1006 10:18:35.756963 22890 net.cpp:92] Creating Layer drop6
I1006 10:18:35.756968 22890 net.cpp:412] drop6 <- fc6
I1006 10:18:35.756974 22890 net.cpp:359] drop6 -> fc6 (in-place)
I1006 10:18:35.756984 22890 net.cpp:122] Setting up drop6
I1006 10:18:35.756994 22890 net.cpp:129] Top shape: 128 4096 (524288)
I1006 10:18:35.756999 22890 layer_factory.hpp:74] Creating layer fc7
I1006 10:18:35.757007 22890 net.cpp:92] Creating Layer fc7
I1006 10:18:35.757012 22890 net.cpp:412] fc7 <- fc6
I1006 10:18:35.757020 22890 net.cpp:370] fc7 -> fc7
I1006 10:18:35.757028 22890 net.cpp:122] Setting up fc7
I1006 10:18:36.137893 22890 net.cpp:129] Top shape: 128 4096 (524288)
I1006 10:18:36.137935 22890 layer_factory.hpp:74] Creating layer relu7
I1006 10:18:36.137948 22890 net.cpp:92] Creating Layer relu7
I1006 10:18:36.137954 22890 net.cpp:412] relu7 <- fc7
I1006 10:18:36.137962 22890 net.cpp:359] relu7 -> fc7 (in-place)
I1006 10:18:36.137970 22890 net.cpp:122] Setting up relu7
I1006 10:18:36.137976 22890 net.cpp:129] Top shape: 128 4096 (524288)
I1006 10:18:36.137981 22890 layer_factory.hpp:74] Creating layer drop7
I1006 10:18:36.137989 22890 net.cpp:92] Creating Layer drop7
I1006 10:18:36.137995 22890 net.cpp:412] drop7 <- fc7
I1006 10:18:36.138000 22890 net.cpp:359] drop7 -> fc7 (in-place)
I1006 10:18:36.138006 22890 net.cpp:122] Setting up drop7
I1006 10:18:36.138015 22890 net.cpp:129] Top shape: 128 4096 (524288)
I1006 10:18:36.138020 22890 layer_factory.hpp:74] Creating layer fc8
I1006 10:18:36.138030 22890 net.cpp:92] Creating Layer fc8
I1006 10:18:36.138034 22890 net.cpp:412] fc8 <- fc7
I1006 10:18:36.138041 22890 net.cpp:370] fc8 -> fc8
I1006 10:18:36.138049 22890 net.cpp:122] Setting up fc8
I1006 10:18:36.138255 22890 net.cpp:129] Top shape: 128 2 (256)
I1006 10:18:36.138264 22890 layer_factory.hpp:74] Creating layer loss
I1006 10:18:36.138273 22890 net.cpp:92] Creating Layer loss
I1006 10:18:36.138278 22890 net.cpp:412] loss <- fc8
I1006 10:18:36.138283 22890 net.cpp:412] loss <- label
I1006 10:18:36.138293 22890 net.cpp:370] loss -> loss
I1006 10:18:36.138300 22890 net.cpp:122] Setting up loss
I1006 10:18:36.138309 22890 layer_factory.hpp:74] Creating layer loss
…
I1006 10:18:36.139153 22890 net.cpp:289] The NetState phase (1) differed from the phase (0) specified by a rule in layer data
I1006 10:18:36.139308 22890 net.cpp:44] Initializing net from parameters: 
name: "CaffeNet"
state {
  phase: TEST
}
layer {
  name: "data"
  type: "Data"
  top: "data"
  top: "label"
  include {
    phase: TEST
  }
  transform_param {
    mirror: true
    crop_size: 227
    mean_file: "data/acTyle/imagenet_mean.binaryproto"
  }
  data_param {
    source: "acTyle/imagenet_val_leveldb"
    mean_file: "data/acTyle/imagenet_mean.binartproto"
    batch_size: 10
    crop_size: 227
    mirror: false
    backend: LMDB
  }
}
layer {
  name: "conv1"
  type: "Convolution"
  bottom: "data"
  top: "conv1"
  param {
    lr_mult: 1
    decay_mult: 1
  }
  param {
    lr_mult: 2
    decay_mult: 0
  }
  convolution_param {
    num_output: 96
    kernel_size: 11
    stride: 4
    weight_filler {
      type: "gaussian"
      std: 0.01
    }
    bias_filler {
      type: "constant"
      value: 0
    }
  }
}
layer {
  name: "relu1"
  type: "ReLU"
  bottom: "conv1"
  top: "conv1"
}
layer {
  name: "pool1"
  type: "Pooling"
  bottom: "conv1"
  top: "pool1"
  pooling_param {
    pool: MAX
    kernel_size: 3
    stride: 2
  }
}
layer {
  name: "norm1"
  type: "LRN"
  bottom: "pool1"
  top: "norm1"
  lrn_param {
    local_size: 5
    alpha: 0.0001
    beta: 0.75
  }
}
layer {
  name: "conv2"
  type: "Convolution"
  bottom: "norm1"
  top: "conv2"
  param {
    lr_mult: 1
    decay_mult: 1
  }
  param {
    lr_mult: 2
    decay_mult: 0
  }
  convolution_param {
    num_output: 256
    pad: 2
    kernel_size: 5
    group: 2
    weight_filler {
      type: "gaussian"
      std: 0.01
    }
    bias_filler {
      type: "constant"
      value: 1
    }
  }
}
layer {
  name: "relu2"
  type: "ReLU"
  bottom: "conv2"
  top: "conv2"
}
layer {
  name: "pool2"
  type: "Pooling"
  bottom: "conv2"
  top: "pool2"
  pooling_param {
    pool: MAX
    kernel_size: 3
    stride: 2
  }
}
layer {
  name: "norm2"
  type: "LRN"
  bottom: "pool2"
  top: "norm2"
  lrn_param {
    local_size: 5
    alpha: 0.0001
    beta: 0.75
  }
}
layer {
  name: "conv3"
  type: "Convolution"
  bottom: "norm2"
  top: "conv3"
  param {
    lr_mult: 1
    decay_mult: 1
  }
  param {
    lr_mult: 2
    decay_mult: 0
  }
  convolution_param {
    num_output: 384
    pad: 1
    kernel_size: 3
    weight_filler {
      type: "gaussian"
      std: 0.01
    }
    bias_filler {
      type: "constant"
      value: 0
    }
  }
}
layer {
  name: "relu3"
  type: "ReLU"
  bottom: "conv3"
  top: "conv3"
}
layer {
  name: "conv4"
  type: "Convolution"
  bottom: "conv3"
  top: "conv4"
  param {
    lr_mult: 1
    decay_mult: 1
  }
  param {
    lr_mult: 2
    decay_mult: 0
  }
  convolution_param {
    num_output: 384
    pad: 1
    kernel_size: 3
    group: 2
    weight_filler {
      type: "gaussian"
      std: 0.01
    }
    bias_filler {
      type: "constant"
      value: 1
    }
  }
}
layer {
  name: "relu4"
  type: "ReLU"
  bottom: "conv4"
  top: "conv4"
}
layer {
  name: "conv5"
  type: "Convolution"
  bottom: "conv4"
  top: "conv5"
  param {
    lr_mult: 1
    decay_mult: 1
  }
  param {
    lr_mult: 2
    decay_mult: 0
  }
  convolution_param {
    num_output: 256
    pad: 1
    kernel_size: 3
    group: 2
    weight_filler {
      type: "gaussian"
      std: 0.01
    }
    bias_filler {
      type: "constant"
      value: 1
    }
  }
}
layer {
  name: "relu5"
  type: "ReLU"
  bottom: "conv5"
  top: "conv5"
}
layer {
  name: "pool5"
  type: "Pooling"
  bottom: "conv5"
  top: "pool5"
  pooling_param {
    pool: MAX
    kernel_size: 3
    stride: 2
  }
}
layer {
  name: "fc6"
  type: "InnerProduct"
  bottom: "pool5"
  top: "fc6"
  param {
    lr_mult: 1
    decay_mult: 1
  }
  param {
    lr_mult: 2
    decay_mult: 0
  }
  inner_product_param {
    num_output: 4096
    weight_filler {
      type: "gaussian"
      std: 0.005
    }
    bias_filler {
      type: "constant"
      value: 1
    }
  }
}
layer {
  name: "relu6"
  type: "ReLU"
  bottom: "fc6"
  top: "fc6"
}
layer {
  name: "drop6"
  type: "Dropout"
  bottom: "fc6"
  top: "fc6"
  dropout_param {
    dropout_ratio: 0.5
  }
}
layer {
  name: "fc7"
  type: "InnerProduct"
  bottom: "fc6"
  top: "fc7"
  param {
    lr_mult: 1
    decay_mult: 1
  }
  param {
    lr_mult: 2
    decay_mult: 0
  }
  inner_product_param {
    num_output: 4096
    weight_filler {
      type: "gaussian"
      std: 0.005
    }
    bias_filler {
      type: "constant"
      value: 1
    }
  }
}
layer {
  name: "relu7"
  type: "ReLU"
  bottom: "fc7"
  top: "fc7"
}
layer {
  name: "drop7"
  type: "Dropout"
  bottom: "fc7"
  top: "fc7"
  dropout_param {
    dropout_ratio: 0.5
  }
}
layer {
  name: "fc8"
  type: "InnerProduct"
  bottom: "fc7"
  top: "fc8"
  param {
    lr_mult: 1
    decay_mult: 1
  }
  param {
    lr_mult: 2
    decay_mult: 0
  }
  inner_product_param {
    num_output: 2
    weight_filler {
      type: "gaussian"
      std: 0.01
    }
    bias_filler {
      type: "constant"
      value: 0
    }
  }
}
layer {
  name: "accuracy"
  type: "Accuracy"
  bottom: "fc8"
  bottom: "label"
  top: "accuracy"
  include {
    phase: TEST
  }
}
layer {
  name: "loss"
  type: "SoftmaxWithLoss"
  bottom: "fc8"
  bottom: "label"
  top: "loss"
}
I1006 10:18:36.139412 22890 layer_factory.hpp:74] Creating layer data
I1006 10:18:36.139425 22890 net.cpp:92] Creating Layer data
I1006 10:18:36.139430 22890 net.cpp:370] data -> data
I1006 10:18:36.139441 22890 net.cpp:370] data -> label
I1006 10:18:36.139448 22890 net.cpp:122] Setting up data
I1006 10:18:36.139453 22890 data_transformer.cpp:22] Loading mean file from: data/acTyle/imagenet_mean.binaryproto
I1006 10:18:36.140717 22890 db_lmdb.cpp:22] Opened lmdb acTyle/imagenet_val_leveldb
I1006 10:18:36.140784 22890 data_layer.cpp:52] output data size: 10,3,227,227
I1006 10:18:36.141687 22890 net.cpp:129] Top shape: 10 3 227 227 (1545870)
I1006 10:18:36.141711 22890 net.cpp:129] Top shape: 10 (10)
I1006 10:18:36.141719 22890 layer_factory.hpp:74] Creating layer label_data_1_split
I1006 10:18:36.141732 22890 net.cpp:92] Creating Layer label_data_1_split
I1006 10:18:36.141738 22890 net.cpp:412] label_data_1_split <- label
I1006 10:18:36.141748 22890 net.cpp:370] label_data_1_split -> label_data_1_split_0
I1006 10:18:36.141762 22890 net.cpp:370] label_data_1_split -> label_data_1_split_1
I1006 10:18:36.141769 22890 net.cpp:122] Setting up label_data_1_split
I1006 10:18:36.141778 22890 net.cpp:129] Top shape: 10 (10)
I1006 10:18:36.141783 22890 net.cpp:129] Top shape: 10 (10)
I1006 10:18:36.141788 22890 layer_factory.hpp:74] Creating layer conv1
I1006 10:18:36.141799 22890 net.cpp:92] Creating Layer conv1
I1006 10:18:36.141804 22890 net.cpp:412] conv1 <- data
I1006 10:18:36.141811 22890 net.cpp:370] conv1 -> conv1
I1006 10:18:36.141820 22890 net.cpp:122] Setting up conv1
I1006 10:18:36.142669 22890 net.cpp:129] Top shape: 10 96 55 55 (2904000)
I1006 10:18:36.142684 22890 layer_factory.hpp:74] Creating layer relu1
I1006 10:18:36.142700 22890 net.cpp:92] Creating Layer relu1
I1006 10:18:36.142706 22890 net.cpp:412] relu1 <- conv1
I1006 10:18:36.142721 22890 net.cpp:359] relu1 -> conv1 (in-place)
I1006 10:18:36.142729 22890 net.cpp:122] Setting up relu1
I1006 10:18:36.142735 22890 net.cpp:129] Top shape: 10 96 55 55 (2904000)
I1006 10:18:36.142740 22890 layer_factory.hpp:74] Creating layer pool1
I1006 10:18:36.142748 22890 net.cpp:92] Creating Layer pool1
I1006 10:18:36.142752 22890 net.cpp:412] pool1 <- conv1
I1006 10:18:36.142760 22890 net.cpp:370] pool1 -> pool1
I1006 10:18:36.142766 22890 net.cpp:122] Setting up pool1
I1006 10:18:36.142776 22890 net.cpp:129] Top shape: 10 96 27 27 (699840)
I1006 10:18:36.142781 22890 layer_factory.hpp:74] Creating layer norm1
I1006 10:18:36.142788 22890 net.cpp:92] Creating Layer norm1
I1006 10:18:36.142793 22890 net.cpp:412] norm1 <- pool1
I1006 10:18:36.142799 22890 net.cpp:370] norm1 -> norm1
I1006 10:18:36.142807 22890 net.cpp:122] Setting up norm1
I1006 10:18:36.142814 22890 net.cpp:129] Top shape: 10 96 27 27 (699840)
I1006 10:18:36.142819 22890 layer_factory.hpp:74] Creating layer conv2
I1006 10:18:36.142827 22890 net.cpp:92] Creating Layer conv2
I1006 10:18:36.142832 22890 net.cpp:412] conv2 <- norm1
I1006 10:18:36.142839 22890 net.cpp:370] conv2 -> conv2
I1006 10:18:36.142846 22890 net.cpp:122] Setting up conv2
I1006 10:18:36.150013 22890 net.cpp:129] Top shape: 10 256 27 27 (1866240)
I1006 10:18:36.150043 22890 layer_factory.hpp:74] Creating layer relu2
I1006 10:18:36.150056 22890 net.cpp:92] Creating Layer relu2
I1006 10:18:36.150063 22890 net.cpp:412] relu2 <- conv2
I1006 10:18:36.150069 22890 net.cpp:359] relu2 -> conv2 (in-place)
I1006 10:18:36.150076 22890 net.cpp:122] Setting up relu2
I1006 10:18:36.150084 22890 net.cpp:129] Top shape: 10 256 27 27 (1866240)
I1006 10:18:36.150089 22890 layer_factory.hpp:74] Creating layer pool2
I1006 10:18:36.150097 22890 net.cpp:92] Creating Layer pool2
I1006 10:18:36.150102 22890 net.cpp:412] pool2 <- conv2
I1006 10:18:36.150109 22890 net.cpp:370] pool2 -> pool2
I1006 10:18:36.150117 22890 net.cpp:122] Setting up pool2
I1006 10:18:36.150135 22890 net.cpp:129] Top shape: 10 256 13 13 (432640)
I1006 10:18:36.150151 22890 layer_factory.hpp:74] Creating layer norm2
I1006 10:18:36.150159 22890 net.cpp:92] Creating Layer norm2
I1006 10:18:36.150164 22890 net.cpp:412] norm2 <- pool2
I1006 10:18:36.150171 22890 net.cpp:370] norm2 -> norm2
I1006 10:18:36.150187 22890 net.cpp:122] Setting up norm2
I1006 10:18:36.150195 22890 net.cpp:129] Top shape: 10 256 13 13 (432640)
I1006 10:18:36.150200 22890 layer_factory.hpp:74] Creating layer conv3
I1006 10:18:36.150209 22890 net.cpp:92] Creating Layer conv3
I1006 10:18:36.150213 22890 net.cpp:412] conv3 <- norm2
I1006 10:18:36.150220 22890 net.cpp:370] conv3 -> conv3
I1006 10:18:36.150228 22890 net.cpp:122] Setting up conv3
I1006 10:18:36.170486 22890 net.cpp:129] Top shape: 10 384 13 13 (648960)
I1006 10:18:36.170500 22890 layer_factory.hpp:74] Creating layer relu3
I1006 10:18:36.170507 22890 net.cpp:92] Creating Layer relu3
I1006 10:18:36.170512 22890 net.cpp:412] relu3 <- conv3
I1006 10:18:36.170518 22890 net.cpp:359] relu3 -> conv3 (in-place)
I1006 10:18:36.170526 22890 net.cpp:122] Setting up relu3
I1006 10:18:36.170531 22890 net.cpp:129] Top shape: 10 384 13 13 (648960)
I1006 10:18:36.170536 22890 layer_factory.hpp:74] Creating layer conv4
I1006 10:18:36.170544 22890 net.cpp:92] Creating Layer conv4
I1006 10:18:36.170548 22890 net.cpp:412] conv4 <- conv3
I1006 10:18:36.170557 22890 net.cpp:370] conv4 -> conv4
I1006 10:18:36.170564 22890 net.cpp:122] Setting up conv4
I1006 10:18:36.185927 22890 net.cpp:129] Top shape: 10 384 13 13 (648960)
I1006 10:18:36.185942 22890 layer_factory.hpp:74] Creating layer relu4
I1006 10:18:36.185950 22890 net.cpp:92] Creating Layer relu4
I1006 10:18:36.185956 22890 net.cpp:412] relu4 <- conv4
I1006 10:18:36.185961 22890 net.cpp:359] relu4 -> conv4 (in-place)
I1006 10:18:36.185968 22890 net.cpp:122] Setting up relu4
I1006 10:18:36.185974 22890 net.cpp:129] Top shape: 10 384 13 13 (648960)
I1006 10:18:36.185987 22890 layer_factory.hpp:74] Creating layer conv5
I1006 10:18:36.186005 22890 net.cpp:92] Creating Layer conv5
I1006 10:18:36.186012 22890 net.cpp:412] conv5 <- conv4
I1006 10:18:36.186019 22890 net.cpp:370] conv5 -> conv5
I1006 10:18:36.186027 22890 net.cpp:122] Setting up conv5
I1006 10:18:36.196234 22890 net.cpp:129] Top shape: 10 256 13 13 (432640)
I1006 10:18:36.196249 22890 layer_factory.hpp:74] Creating layer relu5
I1006 10:18:36.196259 22890 net.cpp:92] Creating Layer relu5
I1006 10:18:36.196264 22890 net.cpp:412] relu5 <- conv5
I1006 10:18:36.196269 22890 net.cpp:359] relu5 -> conv5 (in-place)
I1006 10:18:36.196276 22890 net.cpp:122] Setting up relu5
I1006 10:18:36.196282 22890 net.cpp:129] Top shape: 10 256 13 13 (432640)
I1006 10:18:36.196287 22890 layer_factory.hpp:74] Creating layer pool5
I1006 10:18:36.196297 22890 net.cpp:92] Creating Layer pool5
I1006 10:18:36.196302 22890 net.cpp:412] pool5 <- conv5
I1006 10:18:36.196308 22890 net.cpp:370] pool5 -> pool5
I1006 10:18:36.196316 22890 net.cpp:122] Setting up pool5
I1006 10:18:36.196326 22890 net.cpp:129] Top shape: 10 256 6 6 (92160)
I1006 10:18:36.196331 22890 layer_factory.hpp:74] Creating layer fc6
I1006 10:18:36.196341 22890 net.cpp:92] Creating Layer fc6
I1006 10:18:36.196346 22890 net.cpp:412] fc6 <- pool5
I1006 10:18:36.196352 22890 net.cpp:370] fc6 -> fc6
I1006 10:18:36.196359 22890 net.cpp:122] Setting up fc6
I1006 10:18:37.053261 22890 net.cpp:129] Top shape: 10 4096 (40960)
I1006 10:18:37.053303 22890 layer_factory.hpp:74] Creating layer relu6
I1006 10:18:37.053314 22890 net.cpp:92] Creating Layer relu6
I1006 10:18:37.053321 22890 net.cpp:412] relu6 <- fc6
I1006 10:18:37.053329 22890 net.cpp:359] relu6 -> fc6 (in-place)
I1006 10:18:37.053339 22890 net.cpp:122] Setting up relu6
I1006 10:18:37.053344 22890 net.cpp:129] Top shape: 10 4096 (40960)
I1006 10:18:37.053349 22890 layer_factory.hpp:74] Creating layer drop6
I1006 10:18:37.053357 22890 net.cpp:92] Creating Layer drop6
I1006 10:18:37.053362 22890 net.cpp:412] drop6 <- fc6
I1006 10:18:37.053369 22890 net.cpp:359] drop6 -> fc6 (in-place)
I1006 10:18:37.053376 22890 net.cpp:122] Setting up drop6
I1006 10:18:37.053385 22890 net.cpp:129] Top shape: 10 4096 (40960)
I1006 10:18:37.053390 22890 layer_factory.hpp:74] Creating layer fc7
I1006 10:18:37.053397 22890 net.cpp:92] Creating Layer fc7
I1006 10:18:37.053402 22890 net.cpp:412] fc7 <- fc6
I1006 10:18:37.053410 22890 net.cpp:370] fc7 -> fc7
I1006 10:18:37.053418 22890 net.cpp:122] Setting up fc7
I1006 10:18:37.434108 22890 net.cpp:129] Top shape: 10 4096 (40960)
I1006 10:18:37.434152 22890 layer_factory.hpp:74] Creating layer relu7
I1006 10:18:37.434165 22890 net.cpp:92] Creating Layer relu7
I1006 10:18:37.434171 22890 net.cpp:412] relu7 <- fc7
I1006 10:18:37.434180 22890 net.cpp:359] relu7 -> fc7 (in-place)
I1006 10:18:37.434188 22890 net.cpp:122] Setting up relu7
I1006 10:18:37.434195 22890 net.cpp:129] Top shape: 10 4096 (40960)
I1006 10:18:37.434201 22890 layer_factory.hpp:74] Creating layer drop7
I1006 10:18:37.434207 22890 net.cpp:92] Creating Layer drop7
I1006 10:18:37.434212 22890 net.cpp:412] drop7 <- fc7
I1006 10:18:37.434219 22890 net.cpp:359] drop7 -> fc7 (in-place)
I1006 10:18:37.434226 22890 net.cpp:122] Setting up drop7
I1006 10:18:37.434234 22890 net.cpp:129] Top shape: 10 4096 (40960)
I1006 10:18:37.434239 22890 layer_factory.hpp:74] Creating layer fc8
I1006 10:18:37.434248 22890 net.cpp:92] Creating Layer fc8
I1006 10:18:37.434252 22890 net.cpp:412] fc8 <- fc7
I1006 10:18:37.434260 22890 net.cpp:370] fc8 -> fc8
I1006 10:18:37.434273 22890 net.cpp:122] Setting up fc8
I1006 10:18:37.434474 22890 net.cpp:129] Top shape: 10 2 (20)
I1006 10:18:37.434483 22890 layer_factory.hpp:74] Creating layer fc8_fc8_0_split
I1006 10:18:37.434490 22890 net.cpp:92] Creating Layer fc8_fc8_0_split
I1006 10:18:37.434495 22890 net.cpp:412] fc8_fc8_0_split <- fc8
I1006 10:18:37.434502 22890 net.cpp:370] fc8_fc8_0_split -> fc8_fc8_0_split_0
I1006 10:18:37.434509 22890 net.cpp:370] fc8_fc8_0_split -> fc8_fc8_0_split_1
I1006 10:18:37.434525 22890 net.cpp:122] Setting up fc8_fc8_0_split
I1006 10:18:37.434533 22890 net.cpp:129] Top shape: 10 2 (20)
I1006 10:18:37.434546 22890 net.cpp:129] Top shape: 10 2 (20)
I1006 10:18:37.434552 22890 layer_factory.hpp:74] Creating layer accuracy
I1006 10:18:37.434559 22890 net.cpp:92] Creating Layer accuracy
I1006 10:18:37.434564 22890 net.cpp:412] accuracy <- fc8_fc8_0_split_0
I1006 10:18:37.434569 22890 net.cpp:412] accuracy <- label_data_1_split_0
I1006 10:18:37.434577 22890 net.cpp:370] accuracy -> accuracy
I1006 10:18:37.434584 22890 net.cpp:122] Setting up accuracy
…
