…
I1009 18:41:50.537109 25644 net.cpp:289] The NetState phase (0) differed from the phase (1) specified by a rule in layer accuracy
I1009 18:41:50.537248 25644 net.cpp:44] Initializing net from parameters: 
name: "CaffeNet"
state {
  phase: TRAIN
}
layer {
  name: "data"
  type: "Data"
  top: "data"
  top: "label"
  include {
    phase: TRAIN
  }
  transform_param {
    mirror: true
    crop_size: 227
    mean_file: "data/whole_bs/imagenet_mean.binaryproto"
  }
  data_param {
    source: "whole_bs/imagenet_train_leveldb"
    batch_size: 10
    backend: LMDB
  }
}
layer {
  name: "conv1"
  type: "Convolution"
  bottom: "data"
  top: "conv1"
  param {
    lr_mult: 1
    decay_mult: 1
  }
  param {
    lr_mult: 2
    decay_mult: 0
  }
  convolution_param {
    num_output: 96
    kernel_size: 11
    stride: 4
    weight_filler {
      type: "gaussian"
      std: 0.01
    }
    bias_filler {
      type: "constant"
      value: 0
    }
  }
}
layer {
  name: "relu1"
  type: "ReLU"
  bottom: "conv1"
  top: "conv1"
}
layer {
  name: "pool1"
  type: "Pooling"
  bottom: "conv1"
  top: "pool1"
  pooling_param {
    pool: MAX
    kernel_size: 3
    stride: 2
  }
}
layer {
  name: "norm1"
  type: "LRN"
  bottom: "pool1"
  top: "norm1"
  lrn_param {
    local_size: 5
    alpha: 0.0001
    beta: 0.75
  }
}
layer {
  name: "conv2"
  type: "Convolution"
  bottom: "norm1"
  top: "conv2"
  param {
    lr_mult: 1
    decay_mult: 1
  }
  param {
    lr_mult: 2
    decay_mult: 0
  }
  convolution_param {
    num_output: 256
    pad: 2
    kernel_size: 5
    group: 2
    weight_filler {
      type: "gaussian"
      std: 0.01
    }
    bias_filler {
      type: "constant"
      value: 1
    }
  }
}
layer {
  name: "relu2"
  type: "ReLU"
  bottom: "conv2"
  top: "conv2"
}
layer {
  name: "pool2"
  type: "Pooling"
  bottom: "conv2"
  top: "pool2"
  pooling_param {
    pool: MAX
    kernel_size: 3
    stride: 2
  }
}
layer {
  name: "norm2"
  type: "LRN"
  bottom: "pool2"
  top: "norm2"
  lrn_param {
    local_size: 5
    alpha: 0.0001
    beta: 0.75
  }
}
layer {
  name: "conv3"
  type: "Convolution"
  bottom: "norm2"
  top: "conv3"
  param {
    lr_mult: 1
    decay_mult: 1
  }
  param {
    lr_mult: 2
    decay_mult: 0
  }
  convolution_param {
    num_output: 384
    pad: 1
    kernel_size: 3
    weight_filler {
      type: "gaussian"
      std: 0.01
    }
    bias_filler {
      type: "constant"
      value: 0
    }
  }
}
layer {
  name: "relu3"
  type: "ReLU"
  bottom: "conv3"
  top: "conv3"
}
layer {
  name: "conv4"
  type: "Convolution"
  bottom: "conv3"
  top: "conv4"
  param {
    lr_mult: 1
    decay_mult: 1
  }
  param {
    lr_mult: 2
    decay_mult: 0
  }
  convolution_param {
    num_output: 384
    pad: 1
    kernel_size: 3
    group: 2
    weight_filler {
      type: "gaussian"
      std: 0.01
    }
    bias_filler {
      type: "constant"
      value: 1
    }
  }
}
layer {
  name: "relu4"
  type: "ReLU"
  bottom: "conv4"
  top: "conv4"
}
layer {
  name: "conv5"
  type: "Convolution"
  bottom: "conv4"
  top: "conv5"
  param {
    lr_mult: 1
    decay_mult: 1
  }
  param {
    lr_mult: 2
    decay_mult: 0
  }
  convolution_param {
    num_output: 256
    pad: 1
    kernel_size: 3
    group: 2
    weight_filler {
      type: "gaussian"
      std: 0.01
    }
    bias_filler {
      type: "constant"
      value: 1
    }
  }
}
layer {
  name: "relu5"
  type: "ReLU"
  bottom: "conv5"
  top: "conv5"
}
layer {
  name: "pool5"
  type: "Pooling"
  bottom: "conv5"
  top: "pool5"
  pooling_param {
    pool: MAX
    kernel_size: 3
    stride: 2
  }
}
layer {
  name: "fc6"
  type: "InnerProduct"
  bottom: "pool5"
  top: "fc6"
  param {
    lr_mult: 1
    decay_mult: 1
  }
  param {
    lr_mult: 2
    decay_mult: 0
  }
  inner_product_param {
    num_output: 4096
    weight_filler {
      type: "gaussian"
      std: 0.005
    }
    bias_filler {
      type: "constant"
      value: 1
    }
  }
}
layer {
  name: "relu6"
  type: "ReLU"
  bottom: "fc6"
  top: "fc6"
}
layer {
  name: "drop6"
  type: "Dropout"
  bottom: "fc6"
  top: "fc6"
  dropout_param {
    dropout_ratio: 0.5
  }
}
layer {
  name: "fc7"
  type: "InnerProduct"
  bottom: "fc6"
  top: "fc7"
  param {
    lr_mult: 1
    decay_mult: 1
  }
  param {
    lr_mult: 2
    decay_mult: 0
  }
  inner_product_param {
    num_output: 4096
    weight_filler {
      type: "gaussian"
      std: 0.005
    }
    bias_filler {
      type: "constant"
      value: 1
    }
  }
}
layer {
  name: "relu7"
  type: "ReLU"
  bottom: "fc7"
  top: "fc7"
}
layer {
  name: "drop7"
  type: "Dropout"
  bottom: "fc7"
  top: "fc7"
  dropout_param {
    dropout_ratio: 0.5
  }
}
layer {
  name: "fc8"
  type: "InnerProduct"
  bottom: "fc7"
  top: "fc8"
  param {
    lr_mult: 1
    decay_mult: 1
  }
  param {
    lr_mult: 2
    decay_mult: 0
  }
  inner_product_param {
    num_output: 2
    weight_filler {
      type: "gaussian"
      std: 0.01
    }
    bias_filler {
      type: "constant"
      value: 0
    }
  }
}
layer {
  name: "loss"
  type: "SoftmaxWithLoss"
  bottom: "fc8"
  bottom: "label"
  top: "loss"
}
I1009 18:41:50.537348 25644 layer_factory.hpp:74] Creating layer data
I1009 18:41:50.537367 25644 net.cpp:92] Creating Layer data
I1009 18:41:50.537375 25644 net.cpp:370] data -> data
I1009 18:41:50.537395 25644 net.cpp:370] data -> label
I1009 18:41:50.537406 25644 net.cpp:122] Setting up data
I1009 18:41:50.537413 25644 data_transformer.cpp:22] Loading mean file from: data/whole_bs/imagenet_mean.binaryproto
I1009 18:41:50.538926 25644 db_lmdb.cpp:22] Opened lmdb whole_bs/imagenet_train_leveldb
I1009 18:41:50.538996 25644 data_layer.cpp:52] output data size: 10,3,227,227
I1009 18:41:50.539897 25644 net.cpp:129] Top shape: 10 3 227 227 (1545870)
I1009 18:41:50.539917 25644 net.cpp:129] Top shape: 10 (10)
I1009 18:41:50.539927 25644 layer_factory.hpp:74] Creating layer conv1
I1009 18:41:50.539942 25644 net.cpp:92] Creating Layer conv1
I1009 18:41:50.539949 25644 net.cpp:412] conv1 <- data
I1009 18:41:50.539964 25644 net.cpp:370] conv1 -> conv1
I1009 18:41:50.539978 25644 net.cpp:122] Setting up conv1
I1009 18:41:50.540868 25644 net.cpp:129] Top shape: 10 96 55 55 (2904000)
I1009 18:41:50.540886 25644 layer_factory.hpp:74] Creating layer relu1
I1009 18:41:50.540895 25644 net.cpp:92] Creating Layer relu1
I1009 18:41:50.540900 25644 net.cpp:412] relu1 <- conv1
I1009 18:41:50.540907 25644 net.cpp:359] relu1 -> conv1 (in-place)
I1009 18:41:50.540913 25644 net.cpp:122] Setting up relu1
I1009 18:41:50.540920 25644 net.cpp:129] Top shape: 10 96 55 55 (2904000)
I1009 18:41:50.540925 25644 layer_factory.hpp:74] Creating layer pool1
I1009 18:41:50.540932 25644 net.cpp:92] Creating Layer pool1
I1009 18:41:50.540937 25644 net.cpp:412] pool1 <- conv1
I1009 18:41:50.540945 25644 net.cpp:370] pool1 -> pool1
I1009 18:41:50.540952 25644 net.cpp:122] Setting up pool1
I1009 18:41:50.540972 25644 net.cpp:129] Top shape: 10 96 27 27 (699840)
I1009 18:41:50.540979 25644 layer_factory.hpp:74] Creating layer norm1
I1009 18:41:50.540987 25644 net.cpp:92] Creating Layer norm1
I1009 18:41:50.540992 25644 net.cpp:412] norm1 <- pool1
I1009 18:41:50.540998 25644 net.cpp:370] norm1 -> norm1
I1009 18:41:50.541007 25644 net.cpp:122] Setting up norm1
I1009 18:41:50.541018 25644 net.cpp:129] Top shape: 10 96 27 27 (699840)
I1009 18:41:50.541023 25644 layer_factory.hpp:74] Creating layer conv2
I1009 18:41:50.541030 25644 net.cpp:92] Creating Layer conv2
I1009 18:41:50.541043 25644 net.cpp:412] conv2 <- norm1
I1009 18:41:50.541050 25644 net.cpp:370] conv2 -> conv2
I1009 18:41:50.541065 25644 net.cpp:122] Setting up conv2
I1009 18:41:50.548591 25644 net.cpp:129] Top shape: 10 256 27 27 (1866240)
I1009 18:41:50.548625 25644 layer_factory.hpp:74] Creating layer relu2
I1009 18:41:50.548636 25644 net.cpp:92] Creating Layer relu2
I1009 18:41:50.548641 25644 net.cpp:412] relu2 <- conv2
I1009 18:41:50.548650 25644 net.cpp:359] relu2 -> conv2 (in-place)
I1009 18:41:50.548657 25644 net.cpp:122] Setting up relu2
I1009 18:41:50.548665 25644 net.cpp:129] Top shape: 10 256 27 27 (1866240)
I1009 18:41:50.548668 25644 layer_factory.hpp:74] Creating layer pool2
I1009 18:41:50.548676 25644 net.cpp:92] Creating Layer pool2
I1009 18:41:50.548681 25644 net.cpp:412] pool2 <- conv2
I1009 18:41:50.548688 25644 net.cpp:370] pool2 -> pool2
I1009 18:41:50.548696 25644 net.cpp:122] Setting up pool2
I1009 18:41:50.548720 25644 net.cpp:129] Top shape: 10 256 13 13 (432640)
I1009 18:41:50.548735 25644 layer_factory.hpp:74] Creating layer norm2
I1009 18:41:50.548745 25644 net.cpp:92] Creating Layer norm2
I1009 18:41:50.548751 25644 net.cpp:412] norm2 <- pool2
I1009 18:41:50.548765 25644 net.cpp:370] norm2 -> norm2
I1009 18:41:50.548773 25644 net.cpp:122] Setting up norm2
I1009 18:41:50.548780 25644 net.cpp:129] Top shape: 10 256 13 13 (432640)
I1009 18:41:50.548785 25644 layer_factory.hpp:74] Creating layer conv3
I1009 18:41:50.548794 25644 net.cpp:92] Creating Layer conv3
I1009 18:41:50.548799 25644 net.cpp:412] conv3 <- norm2
I1009 18:41:50.548806 25644 net.cpp:370] conv3 -> conv3
I1009 18:41:50.548815 25644 net.cpp:122] Setting up conv3
I1009 18:41:50.569782 25644 net.cpp:129] Top shape: 10 384 13 13 (648960)
I1009 18:41:50.569795 25644 layer_factory.hpp:74] Creating layer relu3
I1009 18:41:50.569802 25644 net.cpp:92] Creating Layer relu3
I1009 18:41:50.569808 25644 net.cpp:412] relu3 <- conv3
I1009 18:41:50.569814 25644 net.cpp:359] relu3 -> conv3 (in-place)
I1009 18:41:50.569820 25644 net.cpp:122] Setting up relu3
I1009 18:41:50.569828 25644 net.cpp:129] Top shape: 10 384 13 13 (648960)
I1009 18:41:50.569831 25644 layer_factory.hpp:74] Creating layer conv4
I1009 18:41:50.569839 25644 net.cpp:92] Creating Layer conv4
I1009 18:41:50.569844 25644 net.cpp:412] conv4 <- conv3
I1009 18:41:50.569851 25644 net.cpp:370] conv4 -> conv4
I1009 18:41:50.569859 25644 net.cpp:122] Setting up conv4
I1009 18:41:50.585671 25644 net.cpp:129] Top shape: 10 384 13 13 (648960)
I1009 18:41:50.585686 25644 layer_factory.hpp:74] Creating layer relu4
I1009 18:41:50.585693 25644 net.cpp:92] Creating Layer relu4
I1009 18:41:50.585698 25644 net.cpp:412] relu4 <- conv4
I1009 18:41:50.585710 25644 net.cpp:359] relu4 -> conv4 (in-place)
I1009 18:41:50.585716 25644 net.cpp:122] Setting up relu4
I1009 18:41:50.585722 25644 net.cpp:129] Top shape: 10 384 13 13 (648960)
I1009 18:41:50.585726 25644 layer_factory.hpp:74] Creating layer conv5
I1009 18:41:50.585734 25644 net.cpp:92] Creating Layer conv5
I1009 18:41:50.585739 25644 net.cpp:412] conv5 <- conv4
I1009 18:41:50.585747 25644 net.cpp:370] conv5 -> conv5
I1009 18:41:50.585753 25644 net.cpp:122] Setting up conv5
I1009 18:41:50.596302 25644 net.cpp:129] Top shape: 10 256 13 13 (432640)
I1009 18:41:50.596318 25644 layer_factory.hpp:74] Creating layer relu5
I1009 18:41:50.596325 25644 net.cpp:92] Creating Layer relu5
I1009 18:41:50.596330 25644 net.cpp:412] relu5 <- conv5
I1009 18:41:50.596336 25644 net.cpp:359] relu5 -> conv5 (in-place)
I1009 18:41:50.596343 25644 net.cpp:122] Setting up relu5
I1009 18:41:50.596349 25644 net.cpp:129] Top shape: 10 256 13 13 (432640)
I1009 18:41:50.596354 25644 layer_factory.hpp:74] Creating layer pool5
I1009 18:41:50.596360 25644 net.cpp:92] Creating Layer pool5
I1009 18:41:50.596365 25644 net.cpp:412] pool5 <- conv5
I1009 18:41:50.596374 25644 net.cpp:370] pool5 -> pool5
I1009 18:41:50.596380 25644 net.cpp:122] Setting up pool5
I1009 18:41:50.596390 25644 net.cpp:129] Top shape: 10 256 6 6 (92160)
I1009 18:41:50.596395 25644 layer_factory.hpp:74] Creating layer fc6
I1009 18:41:50.596413 25644 net.cpp:92] Creating Layer fc6
I1009 18:41:50.596420 25644 net.cpp:412] fc6 <- pool5
I1009 18:41:50.596432 25644 net.cpp:370] fc6 -> fc6
I1009 18:41:50.596443 25644 net.cpp:122] Setting up fc6
I1009 18:41:51.452873 25644 net.cpp:129] Top shape: 10 4096 (40960)
I1009 18:41:51.452915 25644 layer_factory.hpp:74] Creating layer relu6
I1009 18:41:51.452927 25644 net.cpp:92] Creating Layer relu6
I1009 18:41:51.452934 25644 net.cpp:412] relu6 <- fc6
I1009 18:41:51.452942 25644 net.cpp:359] relu6 -> fc6 (in-place)
I1009 18:41:51.452951 25644 net.cpp:122] Setting up relu6
I1009 18:41:51.452958 25644 net.cpp:129] Top shape: 10 4096 (40960)
I1009 18:41:51.452962 25644 layer_factory.hpp:74] Creating layer drop6
I1009 18:41:51.452975 25644 net.cpp:92] Creating Layer drop6
I1009 18:41:51.452980 25644 net.cpp:412] drop6 <- fc6
I1009 18:41:51.452987 25644 net.cpp:359] drop6 -> fc6 (in-place)
I1009 18:41:51.452997 25644 net.cpp:122] Setting up drop6
I1009 18:41:51.453007 25644 net.cpp:129] Top shape: 10 4096 (40960)
I1009 18:41:51.453012 25644 layer_factory.hpp:74] Creating layer fc7
I1009 18:41:51.453021 25644 net.cpp:92] Creating Layer fc7
I1009 18:41:51.453025 25644 net.cpp:412] fc7 <- fc6
I1009 18:41:51.453033 25644 net.cpp:370] fc7 -> fc7
I1009 18:41:51.453042 25644 net.cpp:122] Setting up fc7
I1009 18:41:51.833722 25644 net.cpp:129] Top shape: 10 4096 (40960)
I1009 18:41:51.833765 25644 layer_factory.hpp:74] Creating layer relu7
I1009 18:41:51.833777 25644 net.cpp:92] Creating Layer relu7
I1009 18:41:51.833784 25644 net.cpp:412] relu7 <- fc7
I1009 18:41:51.833792 25644 net.cpp:359] relu7 -> fc7 (in-place)
I1009 18:41:51.833801 25644 net.cpp:122] Setting up relu7
I1009 18:41:51.833807 25644 net.cpp:129] Top shape: 10 4096 (40960)
I1009 18:41:51.833811 25644 layer_factory.hpp:74] Creating layer drop7
I1009 18:41:51.833819 25644 net.cpp:92] Creating Layer drop7
I1009 18:41:51.833823 25644 net.cpp:412] drop7 <- fc7
I1009 18:41:51.833829 25644 net.cpp:359] drop7 -> fc7 (in-place)
I1009 18:41:51.833837 25644 net.cpp:122] Setting up drop7
I1009 18:41:51.833843 25644 net.cpp:129] Top shape: 10 4096 (40960)
I1009 18:41:51.833848 25644 layer_factory.hpp:74] Creating layer fc8
I1009 18:41:51.833858 25644 net.cpp:92] Creating Layer fc8
I1009 18:41:51.833863 25644 net.cpp:412] fc8 <- fc7
I1009 18:41:51.833870 25644 net.cpp:370] fc8 -> fc8
I1009 18:41:51.833878 25644 net.cpp:122] Setting up fc8
I1009 18:41:51.834079 25644 net.cpp:129] Top shape: 10 2 (20)
I1009 18:41:51.834087 25644 layer_factory.hpp:74] Creating layer loss
I1009 18:41:51.834095 25644 net.cpp:92] Creating Layer loss
I1009 18:41:51.834100 25644 net.cpp:412] loss <- fc8
I1009 18:41:51.834105 25644 net.cpp:412] loss <- label
I1009 18:41:51.834115 25644 net.cpp:370] loss -> loss
I1009 18:41:51.834123 25644 net.cpp:122] Setting up loss
I1009 18:41:51.834131 25644 layer_factory.hpp:74] Creating layer loss
…
I1009 18:41:51.834954 25644 net.cpp:289] The NetState phase (1) differed from the phase (0) specified by a rule in layer data
I1009 18:41:51.835108 25644 net.cpp:44] Initializing net from parameters: 
name: "CaffeNet"
state {
  phase: TEST
}
layer {
  name: "data"
  type: "Data"
  top: "data"
  top: "label"
  include {
    phase: TEST
  }
  transform_param {
    mirror: true
    crop_size: 227
    mean_file: "data/whole_bs/imagenet_mean.binaryproto"
  }
  data_param {
    source: "whole_bs/imagenet_val_leveldb"
    mean_file: "data/whole_bs/imagenet_mean.binartproto"
    batch_size: 10
    crop_size: 227
    mirror: false
    backend: LMDB
  }
}
layer {
  name: "conv1"
  type: "Convolution"
  bottom: "data"
  top: "conv1"
  param {
    lr_mult: 1
    decay_mult: 1
  }
  param {
    lr_mult: 2
    decay_mult: 0
  }
  convolution_param {
    num_output: 96
    kernel_size: 11
    stride: 4
    weight_filler {
      type: "gaussian"
      std: 0.01
    }
    bias_filler {
      type: "constant"
      value: 0
    }
  }
}
layer {
  name: "relu1"
  type: "ReLU"
  bottom: "conv1"
  top: "conv1"
}
layer {
  name: "pool1"
  type: "Pooling"
  bottom: "conv1"
  top: "pool1"
  pooling_param {
    pool: MAX
    kernel_size: 3
    stride: 2
  }
}
layer {
  name: "norm1"
  type: "LRN"
  bottom: "pool1"
  top: "norm1"
  lrn_param {
    local_size: 5
    alpha: 0.0001
    beta: 0.75
  }
}
layer {
  name: "conv2"
  type: "Convolution"
  bottom: "norm1"
  top: "conv2"
  param {
    lr_mult: 1
    decay_mult: 1
  }
  param {
    lr_mult: 2
    decay_mult: 0
  }
  convolution_param {
    num_output: 256
    pad: 2
    kernel_size: 5
    group: 2
    weight_filler {
      type: "gaussian"
      std: 0.01
    }
    bias_filler {
      type: "constant"
      value: 1
    }
  }
}
layer {
  name: "relu2"
  type: "ReLU"
  bottom: "conv2"
  top: "conv2"
}
layer {
  name: "pool2"
  type: "Pooling"
  bottom: "conv2"
  top: "pool2"
  pooling_param {
    pool: MAX
    kernel_size: 3
    stride: 2
  }
}
layer {
  name: "norm2"
  type: "LRN"
  bottom: "pool2"
  top: "norm2"
  lrn_param {
    local_size: 5
    alpha: 0.0001
    beta: 0.75
  }
}
layer {
  name: "conv3"
  type: "Convolution"
  bottom: "norm2"
  top: "conv3"
  param {
    lr_mult: 1
    decay_mult: 1
  }
  param {
    lr_mult: 2
    decay_mult: 0
  }
  convolution_param {
    num_output: 384
    pad: 1
    kernel_size: 3
    weight_filler {
      type: "gaussian"
      std: 0.01
    }
    bias_filler {
      type: "constant"
      value: 0
    }
  }
}
layer {
  name: "relu3"
  type: "ReLU"
  bottom: "conv3"
  top: "conv3"
}
layer {
  name: "conv4"
  type: "Convolution"
  bottom: "conv3"
  top: "conv4"
  param {
    lr_mult: 1
    decay_mult: 1
  }
  param {
    lr_mult: 2
    decay_mult: 0
  }
  convolution_param {
    num_output: 384
    pad: 1
    kernel_size: 3
    group: 2
    weight_filler {
      type: "gaussian"
      std: 0.01
    }
    bias_filler {
      type: "constant"
      value: 1
    }
  }
}
layer {
  name: "relu4"
  type: "ReLU"
  bottom: "conv4"
  top: "conv4"
}
layer {
  name: "conv5"
  type: "Convolution"
  bottom: "conv4"
  top: "conv5"
  param {
    lr_mult: 1
    decay_mult: 1
  }
  param {
    lr_mult: 2
    decay_mult: 0
  }
  convolution_param {
    num_output: 256
    pad: 1
    kernel_size: 3
    group: 2
    weight_filler {
      type: "gaussian"
      std: 0.01
    }
    bias_filler {
      type: "constant"
      value: 1
    }
  }
}
layer {
  name: "relu5"
  type: "ReLU"
  bottom: "conv5"
  top: "conv5"
}
layer {
  name: "pool5"
  type: "Pooling"
  bottom: "conv5"
  top: "pool5"
  pooling_param {
    pool: MAX
    kernel_size: 3
    stride: 2
  }
}
layer {
  name: "fc6"
  type: "InnerProduct"
  bottom: "pool5"
  top: "fc6"
  param {
    lr_mult: 1
    decay_mult: 1
  }
  param {
    lr_mult: 2
    decay_mult: 0
  }
  inner_product_param {
    num_output: 4096
    weight_filler {
      type: "gaussian"
      std: 0.005
    }
    bias_filler {
      type: "constant"
      value: 1
    }
  }
}
layer {
  name: "relu6"
  type: "ReLU"
  bottom: "fc6"
  top: "fc6"
}
layer {
  name: "drop6"
  type: "Dropout"
  bottom: "fc6"
  top: "fc6"
  dropout_param {
    dropout_ratio: 0.5
  }
}
layer {
  name: "fc7"
  type: "InnerProduct"
  bottom: "fc6"
  top: "fc7"
  param {
    lr_mult: 1
    decay_mult: 1
  }
  param {
    lr_mult: 2
    decay_mult: 0
  }
  inner_product_param {
    num_output: 4096
    weight_filler {
      type: "gaussian"
      std: 0.005
    }
    bias_filler {
      type: "constant"
      value: 1
    }
  }
}
layer {
  name: "relu7"
  type: "ReLU"
  bottom: "fc7"
  top: "fc7"
}
layer {
  name: "drop7"
  type: "Dropout"
  bottom: "fc7"
  top: "fc7"
  dropout_param {
    dropout_ratio: 0.5
  }
}
layer {
  name: "fc8"
  type: "InnerProduct"
  bottom: "fc7"
  top: "fc8"
  param {
    lr_mult: 1
    decay_mult: 1
  }
  param {
    lr_mult: 2
    decay_mult: 0
  }
  inner_product_param {
    num_output: 2
    weight_filler {
      type: "gaussian"
      std: 0.01
    }
    bias_filler {
      type: "constant"
      value: 0
    }
  }
}
layer {
  name: "accuracy"
  type: "Accuracy"
  bottom: "fc8"
  bottom: "label"
  top: "accuracy"
  include {
    phase: TEST
  }
}
layer {
  name: "loss"
  type: "SoftmaxWithLoss"
  bottom: "fc8"
  bottom: "label"
  top: "loss"
}
I1009 18:41:51.835214 25644 layer_factory.hpp:74] Creating layer data
I1009 18:41:51.835227 25644 net.cpp:92] Creating Layer data
I1009 18:41:51.835232 25644 net.cpp:370] data -> data
I1009 18:41:51.835242 25644 net.cpp:370] data -> label
I1009 18:41:51.835249 25644 net.cpp:122] Setting up data
I1009 18:41:51.835255 25644 data_transformer.cpp:22] Loading mean file from: data/whole_bs/imagenet_mean.binaryproto
I1009 18:41:51.836500 25644 db_lmdb.cpp:22] Opened lmdb whole_bs/imagenet_val_leveldb
I1009 18:41:51.836565 25644 data_layer.cpp:52] output data size: 10,3,227,227
I1009 18:41:51.837505 25644 net.cpp:129] Top shape: 10 3 227 227 (1545870)
I1009 18:41:51.837530 25644 net.cpp:129] Top shape: 10 (10)
I1009 18:41:51.837538 25644 layer_factory.hpp:74] Creating layer label_data_1_split
I1009 18:41:51.837563 25644 net.cpp:92] Creating Layer label_data_1_split
I1009 18:41:51.837570 25644 net.cpp:412] label_data_1_split <- label
I1009 18:41:51.837579 25644 net.cpp:370] label_data_1_split -> label_data_1_split_0
I1009 18:41:51.837590 25644 net.cpp:370] label_data_1_split -> label_data_1_split_1
I1009 18:41:51.837597 25644 net.cpp:122] Setting up label_data_1_split
I1009 18:41:51.837606 25644 net.cpp:129] Top shape: 10 (10)
I1009 18:41:51.837612 25644 net.cpp:129] Top shape: 10 (10)
I1009 18:41:51.837617 25644 layer_factory.hpp:74] Creating layer conv1
I1009 18:41:51.837628 25644 net.cpp:92] Creating Layer conv1
I1009 18:41:51.837633 25644 net.cpp:412] conv1 <- data
I1009 18:41:51.837641 25644 net.cpp:370] conv1 -> conv1
I1009 18:41:51.837648 25644 net.cpp:122] Setting up conv1
I1009 18:41:51.838480 25644 net.cpp:129] Top shape: 10 96 55 55 (2904000)
I1009 18:41:51.838495 25644 layer_factory.hpp:74] Creating layer relu1
I1009 18:41:51.838502 25644 net.cpp:92] Creating Layer relu1
I1009 18:41:51.838515 25644 net.cpp:412] relu1 <- conv1
I1009 18:41:51.838529 25644 net.cpp:359] relu1 -> conv1 (in-place)
I1009 18:41:51.838536 25644 net.cpp:122] Setting up relu1
I1009 18:41:51.838542 25644 net.cpp:129] Top shape: 10 96 55 55 (2904000)
I1009 18:41:51.838548 25644 layer_factory.hpp:74] Creating layer pool1
I1009 18:41:51.838557 25644 net.cpp:92] Creating Layer pool1
I1009 18:41:51.838560 25644 net.cpp:412] pool1 <- conv1
I1009 18:41:51.838567 25644 net.cpp:370] pool1 -> pool1
I1009 18:41:51.838574 25644 net.cpp:122] Setting up pool1
I1009 18:41:51.838583 25644 net.cpp:129] Top shape: 10 96 27 27 (699840)
I1009 18:41:51.838588 25644 layer_factory.hpp:74] Creating layer norm1
I1009 18:41:51.838596 25644 net.cpp:92] Creating Layer norm1
I1009 18:41:51.838600 25644 net.cpp:412] norm1 <- pool1
I1009 18:41:51.838606 25644 net.cpp:370] norm1 -> norm1
I1009 18:41:51.838613 25644 net.cpp:122] Setting up norm1
I1009 18:41:51.838621 25644 net.cpp:129] Top shape: 10 96 27 27 (699840)
I1009 18:41:51.838626 25644 layer_factory.hpp:74] Creating layer conv2
I1009 18:41:51.838634 25644 net.cpp:92] Creating Layer conv2
I1009 18:41:51.838640 25644 net.cpp:412] conv2 <- norm1
I1009 18:41:51.838647 25644 net.cpp:370] conv2 -> conv2
I1009 18:41:51.838655 25644 net.cpp:122] Setting up conv2
I1009 18:41:51.845825 25644 net.cpp:129] Top shape: 10 256 27 27 (1866240)
I1009 18:41:51.845855 25644 layer_factory.hpp:74] Creating layer relu2
I1009 18:41:51.845865 25644 net.cpp:92] Creating Layer relu2
I1009 18:41:51.845871 25644 net.cpp:412] relu2 <- conv2
I1009 18:41:51.845878 25644 net.cpp:359] relu2 -> conv2 (in-place)
I1009 18:41:51.845885 25644 net.cpp:122] Setting up relu2
I1009 18:41:51.845892 25644 net.cpp:129] Top shape: 10 256 27 27 (1866240)
I1009 18:41:51.845897 25644 layer_factory.hpp:74] Creating layer pool2
I1009 18:41:51.845907 25644 net.cpp:92] Creating Layer pool2
I1009 18:41:51.845912 25644 net.cpp:412] pool2 <- conv2
I1009 18:41:51.845919 25644 net.cpp:370] pool2 -> pool2
I1009 18:41:51.845927 25644 net.cpp:122] Setting up pool2
I1009 18:41:51.845938 25644 net.cpp:129] Top shape: 10 256 13 13 (432640)
I1009 18:41:51.845943 25644 layer_factory.hpp:74] Creating layer norm2
I1009 18:41:51.845950 25644 net.cpp:92] Creating Layer norm2
I1009 18:41:51.845955 25644 net.cpp:412] norm2 <- pool2
I1009 18:41:51.845962 25644 net.cpp:370] norm2 -> norm2
I1009 18:41:51.845968 25644 net.cpp:122] Setting up norm2
I1009 18:41:51.845975 25644 net.cpp:129] Top shape: 10 256 13 13 (432640)
I1009 18:41:51.845980 25644 layer_factory.hpp:74] Creating layer conv3
I1009 18:41:51.845990 25644 net.cpp:92] Creating Layer conv3
I1009 18:41:51.845995 25644 net.cpp:412] conv3 <- norm2
I1009 18:41:51.846004 25644 net.cpp:370] conv3 -> conv3
I1009 18:41:51.846010 25644 net.cpp:122] Setting up conv3
I1009 18:41:51.866233 25644 net.cpp:129] Top shape: 10 384 13 13 (648960)
I1009 18:41:51.866248 25644 layer_factory.hpp:74] Creating layer relu3
I1009 18:41:51.866255 25644 net.cpp:92] Creating Layer relu3
I1009 18:41:51.866261 25644 net.cpp:412] relu3 <- conv3
I1009 18:41:51.866266 25644 net.cpp:359] relu3 -> conv3 (in-place)
I1009 18:41:51.866272 25644 net.cpp:122] Setting up relu3
I1009 18:41:51.866278 25644 net.cpp:129] Top shape: 10 384 13 13 (648960)
I1009 18:41:51.866283 25644 layer_factory.hpp:74] Creating layer conv4
I1009 18:41:51.866291 25644 net.cpp:92] Creating Layer conv4
I1009 18:41:51.866296 25644 net.cpp:412] conv4 <- conv3
I1009 18:41:51.866303 25644 net.cpp:370] conv4 -> conv4
I1009 18:41:51.866310 25644 net.cpp:122] Setting up conv4
I1009 18:41:51.881589 25644 net.cpp:129] Top shape: 10 384 13 13 (648960)
I1009 18:41:51.881603 25644 layer_factory.hpp:74] Creating layer relu4
I1009 18:41:51.881614 25644 net.cpp:92] Creating Layer relu4
I1009 18:41:51.881620 25644 net.cpp:412] relu4 <- conv4
I1009 18:41:51.881626 25644 net.cpp:359] relu4 -> conv4 (in-place)
I1009 18:41:51.881633 25644 net.cpp:122] Setting up relu4
I1009 18:41:51.881639 25644 net.cpp:129] Top shape: 10 384 13 13 (648960)
I1009 18:41:51.881644 25644 layer_factory.hpp:74] Creating layer conv5
I1009 18:41:51.881660 25644 net.cpp:92] Creating Layer conv5
I1009 18:41:51.881672 25644 net.cpp:412] conv5 <- conv4
I1009 18:41:51.881680 25644 net.cpp:370] conv5 -> conv5
I1009 18:41:51.881686 25644 net.cpp:122] Setting up conv5
I1009 18:41:51.891882 25644 net.cpp:129] Top shape: 10 256 13 13 (432640)
I1009 18:41:51.891898 25644 layer_factory.hpp:74] Creating layer relu5
I1009 18:41:51.891906 25644 net.cpp:92] Creating Layer relu5
I1009 18:41:51.891911 25644 net.cpp:412] relu5 <- conv5
I1009 18:41:51.891916 25644 net.cpp:359] relu5 -> conv5 (in-place)
I1009 18:41:51.891922 25644 net.cpp:122] Setting up relu5
I1009 18:41:51.891928 25644 net.cpp:129] Top shape: 10 256 13 13 (432640)
I1009 18:41:51.891932 25644 layer_factory.hpp:74] Creating layer pool5
I1009 18:41:51.891942 25644 net.cpp:92] Creating Layer pool5
I1009 18:41:51.891947 25644 net.cpp:412] pool5 <- conv5
I1009 18:41:51.891954 25644 net.cpp:370] pool5 -> pool5
I1009 18:41:51.891962 25644 net.cpp:122] Setting up pool5
I1009 18:41:51.891971 25644 net.cpp:129] Top shape: 10 256 6 6 (92160)
I1009 18:41:51.891976 25644 layer_factory.hpp:74] Creating layer fc6
I1009 18:41:51.891985 25644 net.cpp:92] Creating Layer fc6
I1009 18:41:51.891989 25644 net.cpp:412] fc6 <- pool5
I1009 18:41:51.891996 25644 net.cpp:370] fc6 -> fc6
I1009 18:41:51.892004 25644 net.cpp:122] Setting up fc6
I1009 18:41:52.749089 25644 net.cpp:129] Top shape: 10 4096 (40960)
I1009 18:41:52.749135 25644 layer_factory.hpp:74] Creating layer relu6
I1009 18:41:52.749145 25644 net.cpp:92] Creating Layer relu6
I1009 18:41:52.749152 25644 net.cpp:412] relu6 <- fc6
I1009 18:41:52.749162 25644 net.cpp:359] relu6 -> fc6 (in-place)
I1009 18:41:52.749171 25644 net.cpp:122] Setting up relu6
I1009 18:41:52.749178 25644 net.cpp:129] Top shape: 10 4096 (40960)
I1009 18:41:52.749183 25644 layer_factory.hpp:74] Creating layer drop6
I1009 18:41:52.749191 25644 net.cpp:92] Creating Layer drop6
I1009 18:41:52.749196 25644 net.cpp:412] drop6 <- fc6
I1009 18:41:52.749202 25644 net.cpp:359] drop6 -> fc6 (in-place)
I1009 18:41:52.749208 25644 net.cpp:122] Setting up drop6
I1009 18:41:52.749217 25644 net.cpp:129] Top shape: 10 4096 (40960)
I1009 18:41:52.749222 25644 layer_factory.hpp:74] Creating layer fc7
I1009 18:41:52.749232 25644 net.cpp:92] Creating Layer fc7
I1009 18:41:52.749236 25644 net.cpp:412] fc7 <- fc6
I1009 18:41:52.749243 25644 net.cpp:370] fc7 -> fc7
I1009 18:41:52.749251 25644 net.cpp:122] Setting up fc7
I1009 18:41:53.130048 25644 net.cpp:129] Top shape: 10 4096 (40960)
I1009 18:41:53.130089 25644 layer_factory.hpp:74] Creating layer relu7
I1009 18:41:53.130100 25644 net.cpp:92] Creating Layer relu7
I1009 18:41:53.130105 25644 net.cpp:412] relu7 <- fc7
I1009 18:41:53.130113 25644 net.cpp:359] relu7 -> fc7 (in-place)
I1009 18:41:53.130122 25644 net.cpp:122] Setting up relu7
I1009 18:41:53.130128 25644 net.cpp:129] Top shape: 10 4096 (40960)
I1009 18:41:53.130133 25644 layer_factory.hpp:74] Creating layer drop7
I1009 18:41:53.130141 25644 net.cpp:92] Creating Layer drop7
I1009 18:41:53.130146 25644 net.cpp:412] drop7 <- fc7
I1009 18:41:53.130153 25644 net.cpp:359] drop7 -> fc7 (in-place)
I1009 18:41:53.130159 25644 net.cpp:122] Setting up drop7
I1009 18:41:53.130167 25644 net.cpp:129] Top shape: 10 4096 (40960)
I1009 18:41:53.130172 25644 layer_factory.hpp:74] Creating layer fc8
I1009 18:41:53.130180 25644 net.cpp:92] Creating Layer fc8
I1009 18:41:53.130185 25644 net.cpp:412] fc8 <- fc7
I1009 18:41:53.130193 25644 net.cpp:370] fc8 -> fc8
I1009 18:41:53.130205 25644 net.cpp:122] Setting up fc8
I1009 18:41:53.130409 25644 net.cpp:129] Top shape: 10 2 (20)
I1009 18:41:53.130416 25644 layer_factory.hpp:74] Creating layer fc8_fc8_0_split
I1009 18:41:53.130424 25644 net.cpp:92] Creating Layer fc8_fc8_0_split
I1009 18:41:53.130429 25644 net.cpp:412] fc8_fc8_0_split <- fc8
I1009 18:41:53.130435 25644 net.cpp:370] fc8_fc8_0_split -> fc8_fc8_0_split_0
I1009 18:41:53.130444 25644 net.cpp:370] fc8_fc8_0_split -> fc8_fc8_0_split_1
I1009 18:41:53.130450 25644 net.cpp:122] Setting up fc8_fc8_0_split
I1009 18:41:53.130467 25644 net.cpp:129] Top shape: 10 2 (20)
I1009 18:41:53.130482 25644 net.cpp:129] Top shape: 10 2 (20)
I1009 18:41:53.130487 25644 layer_factory.hpp:74] Creating layer accuracy
I1009 18:41:53.130494 25644 net.cpp:92] Creating Layer accuracy
I1009 18:41:53.130499 25644 net.cpp:412] accuracy <- fc8_fc8_0_split_0
I1009 18:41:53.130506 25644 net.cpp:412] accuracy <- label_data_1_split_0
I1009 18:41:53.130511 25644 net.cpp:370] accuracy -> accuracy
I1009 18:41:53.130518 25644 net.cpp:122] Setting up accuracy
…
