…
I1013 21:39:27.819102 26508 net.cpp:289] The NetState phase (0) differed from the phase (1) specified by a rule in layer accuracy
I1013 21:39:27.819239 26508 net.cpp:44] Initializing net from parameters: 
name: "CaffeNet"
state {
  phase: TRAIN
}
layer {
  name: "data"
  type: "Data"
  top: "data"
  top: "label"
  include {
    phase: TRAIN
  }
  transform_param {
    mirror: true
    crop_size: 227
    mean_file: "data/part9/imagenet_mean.binaryproto"
  }
  data_param {
    source: "part9/imagenet_train_leveldb"
    batch_size: 32
    backend: LMDB
  }
}
layer {
  name: "conv1"
  type: "Convolution"
  bottom: "data"
  top: "conv1"
  param {
    lr_mult: 1
    decay_mult: 1
  }
  param {
    lr_mult: 2
    decay_mult: 0
  }
  convolution_param {
    num_output: 96
    kernel_size: 11
    stride: 4
    weight_filler {
      type: "gaussian"
      std: 0.01
    }
    bias_filler {
      type: "constant"
      value: 0
    }
  }
}
layer {
  name: "relu1"
  type: "ReLU"
  bottom: "conv1"
  top: "conv1"
}
layer {
  name: "pool1"
  type: "Pooling"
  bottom: "conv1"
  top: "pool1"
  pooling_param {
    pool: MAX
    kernel_size: 3
    stride: 2
  }
}
layer {
  name: "norm1"
  type: "LRN"
  bottom: "pool1"
  top: "norm1"
  lrn_param {
    local_size: 5
    alpha: 0.0001
    beta: 0.75
  }
}
layer {
  name: "conv2"
  type: "Convolution"
  bottom: "norm1"
  top: "conv2"
  param {
    lr_mult: 1
    decay_mult: 1
  }
  param {
    lr_mult: 2
    decay_mult: 0
  }
  convolution_param {
    num_output: 256
    pad: 2
    kernel_size: 5
    group: 2
    weight_filler {
      type: "gaussian"
      std: 0.01
    }
    bias_filler {
      type: "constant"
      value: 1
    }
  }
}
layer {
  name: "relu2"
  type: "ReLU"
  bottom: "conv2"
  top: "conv2"
}
layer {
  name: "pool2"
  type: "Pooling"
  bottom: "conv2"
  top: "pool2"
  pooling_param {
    pool: MAX
    kernel_size: 3
    stride: 2
  }
}
layer {
  name: "norm2"
  type: "LRN"
  bottom: "pool2"
  top: "norm2"
  lrn_param {
    local_size: 5
    alpha: 0.0001
    beta: 0.75
  }
}
layer {
  name: "conv3"
  type: "Convolution"
  bottom: "norm2"
  top: "conv3"
  param {
    lr_mult: 1
    decay_mult: 1
  }
  param {
    lr_mult: 2
    decay_mult: 0
  }
  convolution_param {
    num_output: 384
    pad: 1
    kernel_size: 3
    weight_filler {
      type: "gaussian"
      std: 0.01
    }
    bias_filler {
      type: "constant"
      value: 0
    }
  }
}
layer {
  name: "relu3"
  type: "ReLU"
  bottom: "conv3"
  top: "conv3"
}
layer {
  name: "conv4"
  type: "Convolution"
  bottom: "conv3"
  top: "conv4"
  param {
    lr_mult: 1
    decay_mult: 1
  }
  param {
    lr_mult: 2
    decay_mult: 0
  }
  convolution_param {
    num_output: 384
    pad: 1
    kernel_size: 3
    group: 2
    weight_filler {
      type: "gaussian"
      std: 0.01
    }
    bias_filler {
      type: "constant"
      value: 1
    }
  }
}
layer {
  name: "relu4"
  type: "ReLU"
  bottom: "conv4"
  top: "conv4"
}
layer {
  name: "conv5"
  type: "Convolution"
  bottom: "conv4"
  top: "conv5"
  param {
    lr_mult: 1
    decay_mult: 1
  }
  param {
    lr_mult: 2
    decay_mult: 0
  }
  convolution_param {
    num_output: 256
    pad: 1
    kernel_size: 3
    group: 2
    weight_filler {
      type: "gaussian"
      std: 0.01
    }
    bias_filler {
      type: "constant"
      value: 1
    }
  }
}
layer {
  name: "relu5"
  type: "ReLU"
  bottom: "conv5"
  top: "conv5"
}
layer {
  name: "pool5"
  type: "Pooling"
  bottom: "conv5"
  top: "pool5"
  pooling_param {
    pool: MAX
    kernel_size: 3
    stride: 2
  }
}
layer {
  name: "fc6"
  type: "InnerProduct"
  bottom: "pool5"
  top: "fc6"
  param {
    lr_mult: 1
    decay_mult: 1
  }
  param {
    lr_mult: 2
    decay_mult: 0
  }
  inner_product_param {
    num_output: 4096
    weight_filler {
      type: "gaussian"
      std: 0.005
    }
    bias_filler {
      type: "constant"
      value: 1
    }
  }
}
layer {
  name: "relu6"
  type: "ReLU"
  bottom: "fc6"
  top: "fc6"
}
layer {
  name: "drop6"
  type: "Dropout"
  bottom: "fc6"
  top: "fc6"
  dropout_param {
    dropout_ratio: 0.5
  }
}
layer {
  name: "fc7"
  type: "InnerProduct"
  bottom: "fc6"
  top: "fc7"
  param {
    lr_mult: 1
    decay_mult: 1
  }
  param {
    lr_mult: 2
    decay_mult: 0
  }
  inner_product_param {
    num_output: 4096
    weight_filler {
      type: "gaussian"
      std: 0.005
    }
    bias_filler {
      type: "constant"
      value: 1
    }
  }
}
layer {
  name: "relu7"
  type: "ReLU"
  bottom: "fc7"
  top: "fc7"
}
layer {
  name: "drop7"
  type: "Dropout"
  bottom: "fc7"
  top: "fc7"
  dropout_param {
    dropout_ratio: 0.5
  }
}
layer {
  name: "fc8"
  type: "InnerProduct"
  bottom: "fc7"
  top: "fc8"
  param {
    lr_mult: 1
    decay_mult: 1
  }
  param {
    lr_mult: 2
    decay_mult: 0
  }
  inner_product_param {
    num_output: 2
    weight_filler {
      type: "gaussian"
      std: 0.01
    }
    bias_filler {
      type: "constant"
      value: 0
    }
  }
}
layer {
  name: "loss"
  type: "SoftmaxWithLoss"
  bottom: "fc8"
  bottom: "label"
  top: "loss"
}
I1013 21:39:27.819342 26508 layer_factory.hpp:74] Creating layer data
I1013 21:39:27.819363 26508 net.cpp:92] Creating Layer data
I1013 21:39:27.819371 26508 net.cpp:370] data -> data
I1013 21:39:27.819391 26508 net.cpp:370] data -> label
I1013 21:39:27.819403 26508 net.cpp:122] Setting up data
I1013 21:39:27.819411 26508 data_transformer.cpp:22] Loading mean file from: data/part9/imagenet_mean.binaryproto
I1013 21:39:27.820942 26508 db_lmdb.cpp:22] Opened lmdb part9/imagenet_train_leveldb
I1013 21:39:27.821012 26508 data_layer.cpp:52] output data size: 32,3,227,227
I1013 21:39:27.823606 26508 net.cpp:129] Top shape: 32 3 227 227 (4946784)
I1013 21:39:27.823647 26508 net.cpp:129] Top shape: 32 (32)
I1013 21:39:27.823657 26508 layer_factory.hpp:74] Creating layer conv1
I1013 21:39:27.823676 26508 net.cpp:92] Creating Layer conv1
I1013 21:39:27.823683 26508 net.cpp:412] conv1 <- data
I1013 21:39:27.823698 26508 net.cpp:370] conv1 -> conv1
I1013 21:39:27.823712 26508 net.cpp:122] Setting up conv1
I1013 21:39:27.824590 26508 net.cpp:129] Top shape: 32 96 55 55 (9292800)
I1013 21:39:27.824609 26508 layer_factory.hpp:74] Creating layer relu1
I1013 21:39:27.824617 26508 net.cpp:92] Creating Layer relu1
I1013 21:39:27.824623 26508 net.cpp:412] relu1 <- conv1
I1013 21:39:27.824630 26508 net.cpp:359] relu1 -> conv1 (in-place)
I1013 21:39:27.824636 26508 net.cpp:122] Setting up relu1
I1013 21:39:27.824642 26508 net.cpp:129] Top shape: 32 96 55 55 (9292800)
I1013 21:39:27.824647 26508 layer_factory.hpp:74] Creating layer pool1
I1013 21:39:27.824656 26508 net.cpp:92] Creating Layer pool1
I1013 21:39:27.824661 26508 net.cpp:412] pool1 <- conv1
I1013 21:39:27.824666 26508 net.cpp:370] pool1 -> pool1
I1013 21:39:27.824676 26508 net.cpp:122] Setting up pool1
I1013 21:39:27.824688 26508 net.cpp:129] Top shape: 32 96 27 27 (2239488)
I1013 21:39:27.824694 26508 layer_factory.hpp:74] Creating layer norm1
I1013 21:39:27.824717 26508 net.cpp:92] Creating Layer norm1
I1013 21:39:27.824723 26508 net.cpp:412] norm1 <- pool1
I1013 21:39:27.824730 26508 net.cpp:370] norm1 -> norm1
I1013 21:39:27.824739 26508 net.cpp:122] Setting up norm1
I1013 21:39:27.824748 26508 net.cpp:129] Top shape: 32 96 27 27 (2239488)
I1013 21:39:27.824753 26508 layer_factory.hpp:74] Creating layer conv2
I1013 21:39:27.824760 26508 net.cpp:92] Creating Layer conv2
I1013 21:39:27.824765 26508 net.cpp:412] conv2 <- norm1
I1013 21:39:27.824782 26508 net.cpp:370] conv2 -> conv2
I1013 21:39:27.824797 26508 net.cpp:122] Setting up conv2
I1013 21:39:27.832083 26508 net.cpp:129] Top shape: 32 256 27 27 (5971968)
I1013 21:39:27.832121 26508 layer_factory.hpp:74] Creating layer relu2
I1013 21:39:27.832134 26508 net.cpp:92] Creating Layer relu2
I1013 21:39:27.832140 26508 net.cpp:412] relu2 <- conv2
I1013 21:39:27.832149 26508 net.cpp:359] relu2 -> conv2 (in-place)
I1013 21:39:27.832156 26508 net.cpp:122] Setting up relu2
I1013 21:39:27.832164 26508 net.cpp:129] Top shape: 32 256 27 27 (5971968)
I1013 21:39:27.832168 26508 layer_factory.hpp:74] Creating layer pool2
I1013 21:39:27.832176 26508 net.cpp:92] Creating Layer pool2
I1013 21:39:27.832181 26508 net.cpp:412] pool2 <- conv2
I1013 21:39:27.832188 26508 net.cpp:370] pool2 -> pool2
I1013 21:39:27.832196 26508 net.cpp:122] Setting up pool2
I1013 21:39:27.832206 26508 net.cpp:129] Top shape: 32 256 13 13 (1384448)
I1013 21:39:27.832211 26508 layer_factory.hpp:74] Creating layer norm2
I1013 21:39:27.832222 26508 net.cpp:92] Creating Layer norm2
I1013 21:39:27.832229 26508 net.cpp:412] norm2 <- pool2
I1013 21:39:27.832236 26508 net.cpp:370] norm2 -> norm2
I1013 21:39:27.832244 26508 net.cpp:122] Setting up norm2
I1013 21:39:27.832252 26508 net.cpp:129] Top shape: 32 256 13 13 (1384448)
I1013 21:39:27.832257 26508 layer_factory.hpp:74] Creating layer conv3
I1013 21:39:27.832265 26508 net.cpp:92] Creating Layer conv3
I1013 21:39:27.832270 26508 net.cpp:412] conv3 <- norm2
I1013 21:39:27.832278 26508 net.cpp:370] conv3 -> conv3
I1013 21:39:27.832286 26508 net.cpp:122] Setting up conv3
I1013 21:39:27.852963 26508 net.cpp:129] Top shape: 32 384 13 13 (2076672)
I1013 21:39:27.852998 26508 layer_factory.hpp:74] Creating layer relu3
I1013 21:39:27.853008 26508 net.cpp:92] Creating Layer relu3
I1013 21:39:27.853013 26508 net.cpp:412] relu3 <- conv3
I1013 21:39:27.853023 26508 net.cpp:359] relu3 -> conv3 (in-place)
I1013 21:39:27.853030 26508 net.cpp:122] Setting up relu3
I1013 21:39:27.853037 26508 net.cpp:129] Top shape: 32 384 13 13 (2076672)
I1013 21:39:27.853042 26508 layer_factory.hpp:74] Creating layer conv4
I1013 21:39:27.853050 26508 net.cpp:92] Creating Layer conv4
I1013 21:39:27.853055 26508 net.cpp:412] conv4 <- conv3
I1013 21:39:27.853063 26508 net.cpp:370] conv4 -> conv4
I1013 21:39:27.853071 26508 net.cpp:122] Setting up conv4
I1013 21:39:27.868360 26508 net.cpp:129] Top shape: 32 384 13 13 (2076672)
I1013 21:39:27.868371 26508 layer_factory.hpp:74] Creating layer relu4
I1013 21:39:27.868378 26508 net.cpp:92] Creating Layer relu4
I1013 21:39:27.868383 26508 net.cpp:412] relu4 <- conv4
I1013 21:39:27.868392 26508 net.cpp:359] relu4 -> conv4 (in-place)
I1013 21:39:27.868399 26508 net.cpp:122] Setting up relu4
I1013 21:39:27.868405 26508 net.cpp:129] Top shape: 32 384 13 13 (2076672)
I1013 21:39:27.868410 26508 layer_factory.hpp:74] Creating layer conv5
I1013 21:39:27.868418 26508 net.cpp:92] Creating Layer conv5
I1013 21:39:27.868422 26508 net.cpp:412] conv5 <- conv4
I1013 21:39:27.868430 26508 net.cpp:370] conv5 -> conv5
I1013 21:39:27.868438 26508 net.cpp:122] Setting up conv5
I1013 21:39:27.878628 26508 net.cpp:129] Top shape: 32 256 13 13 (1384448)
I1013 21:39:27.878643 26508 layer_factory.hpp:74] Creating layer relu5
I1013 21:39:27.878649 26508 net.cpp:92] Creating Layer relu5
I1013 21:39:27.878654 26508 net.cpp:412] relu5 <- conv5
I1013 21:39:27.878660 26508 net.cpp:359] relu5 -> conv5 (in-place)
I1013 21:39:27.878666 26508 net.cpp:122] Setting up relu5
I1013 21:39:27.878672 26508 net.cpp:129] Top shape: 32 256 13 13 (1384448)
I1013 21:39:27.878677 26508 layer_factory.hpp:74] Creating layer pool5
I1013 21:39:27.878684 26508 net.cpp:92] Creating Layer pool5
I1013 21:39:27.878690 26508 net.cpp:412] pool5 <- conv5
I1013 21:39:27.878697 26508 net.cpp:370] pool5 -> pool5
I1013 21:39:27.878705 26508 net.cpp:122] Setting up pool5
I1013 21:39:27.878715 26508 net.cpp:129] Top shape: 32 256 6 6 (294912)
I1013 21:39:27.878720 26508 layer_factory.hpp:74] Creating layer fc6
I1013 21:39:27.878738 26508 net.cpp:92] Creating Layer fc6
I1013 21:39:27.878744 26508 net.cpp:412] fc6 <- pool5
I1013 21:39:27.878758 26508 net.cpp:370] fc6 -> fc6
I1013 21:39:27.878769 26508 net.cpp:122] Setting up fc6
I1013 21:39:28.779402 26508 net.cpp:129] Top shape: 32 4096 (131072)
I1013 21:39:28.779446 26508 layer_factory.hpp:74] Creating layer relu6
I1013 21:39:28.779460 26508 net.cpp:92] Creating Layer relu6
I1013 21:39:28.779466 26508 net.cpp:412] relu6 <- fc6
I1013 21:39:28.779475 26508 net.cpp:359] relu6 -> fc6 (in-place)
I1013 21:39:28.779484 26508 net.cpp:122] Setting up relu6
I1013 21:39:28.779490 26508 net.cpp:129] Top shape: 32 4096 (131072)
I1013 21:39:28.779496 26508 layer_factory.hpp:74] Creating layer drop6
I1013 21:39:28.779510 26508 net.cpp:92] Creating Layer drop6
I1013 21:39:28.779515 26508 net.cpp:412] drop6 <- fc6
I1013 21:39:28.779521 26508 net.cpp:359] drop6 -> fc6 (in-place)
I1013 21:39:28.779532 26508 net.cpp:122] Setting up drop6
I1013 21:39:28.779542 26508 net.cpp:129] Top shape: 32 4096 (131072)
I1013 21:39:28.779547 26508 layer_factory.hpp:74] Creating layer fc7
I1013 21:39:28.779556 26508 net.cpp:92] Creating Layer fc7
I1013 21:39:28.779561 26508 net.cpp:412] fc7 <- fc6
I1013 21:39:28.779568 26508 net.cpp:370] fc7 -> fc7
I1013 21:39:28.779577 26508 net.cpp:122] Setting up fc7
I1013 21:39:29.160694 26508 net.cpp:129] Top shape: 32 4096 (131072)
I1013 21:39:29.160737 26508 layer_factory.hpp:74] Creating layer relu7
I1013 21:39:29.160750 26508 net.cpp:92] Creating Layer relu7
I1013 21:39:29.160756 26508 net.cpp:412] relu7 <- fc7
I1013 21:39:29.160764 26508 net.cpp:359] relu7 -> fc7 (in-place)
I1013 21:39:29.160773 26508 net.cpp:122] Setting up relu7
I1013 21:39:29.160780 26508 net.cpp:129] Top shape: 32 4096 (131072)
I1013 21:39:29.160785 26508 layer_factory.hpp:74] Creating layer drop7
I1013 21:39:29.160792 26508 net.cpp:92] Creating Layer drop7
I1013 21:39:29.160797 26508 net.cpp:412] drop7 <- fc7
I1013 21:39:29.160804 26508 net.cpp:359] drop7 -> fc7 (in-place)
I1013 21:39:29.160810 26508 net.cpp:122] Setting up drop7
I1013 21:39:29.160817 26508 net.cpp:129] Top shape: 32 4096 (131072)
I1013 21:39:29.160822 26508 layer_factory.hpp:74] Creating layer fc8
I1013 21:39:29.160832 26508 net.cpp:92] Creating Layer fc8
I1013 21:39:29.160837 26508 net.cpp:412] fc8 <- fc7
I1013 21:39:29.160845 26508 net.cpp:370] fc8 -> fc8
I1013 21:39:29.160852 26508 net.cpp:122] Setting up fc8
I1013 21:39:29.161054 26508 net.cpp:129] Top shape: 32 2 (64)
I1013 21:39:29.161063 26508 layer_factory.hpp:74] Creating layer loss
I1013 21:39:29.161072 26508 net.cpp:92] Creating Layer loss
I1013 21:39:29.161077 26508 net.cpp:412] loss <- fc8
I1013 21:39:29.161082 26508 net.cpp:412] loss <- label
I1013 21:39:29.161092 26508 net.cpp:370] loss -> loss
I1013 21:39:29.161108 26508 net.cpp:122] Setting up loss
I1013 21:39:29.161116 26508 layer_factory.hpp:74] Creating layer loss
…
I1013 21:39:29.161957 26508 net.cpp:289] The NetState phase (1) differed from the phase (0) specified by a rule in layer data
I1013 21:39:29.162111 26508 net.cpp:44] Initializing net from parameters: 
name: "CaffeNet"
state {
  phase: TEST
}
layer {
  name: "data"
  type: "Data"
  top: "data"
  top: "label"
  include {
    phase: TEST
  }
  transform_param {
    mirror: true
    crop_size: 227
    mean_file: "data/part9/imagenet_mean.binaryproto"
  }
  data_param {
    source: "part9/imagenet_val_leveldb"
    mean_file: "data/part9/imagenet_mean.binartproto"
    batch_size: 10
    crop_size: 227
    mirror: false
    backend: LMDB
  }
}
layer {
  name: "conv1"
  type: "Convolution"
  bottom: "data"
  top: "conv1"
  param {
    lr_mult: 1
    decay_mult: 1
  }
  param {
    lr_mult: 2
    decay_mult: 0
  }
  convolution_param {
    num_output: 96
    kernel_size: 11
    stride: 4
    weight_filler {
      type: "gaussian"
      std: 0.01
    }
    bias_filler {
      type: "constant"
      value: 0
    }
  }
}
layer {
  name: "relu1"
  type: "ReLU"
  bottom: "conv1"
  top: "conv1"
}
layer {
  name: "pool1"
  type: "Pooling"
  bottom: "conv1"
  top: "pool1"
  pooling_param {
    pool: MAX
    kernel_size: 3
    stride: 2
  }
}
layer {
  name: "norm1"
  type: "LRN"
  bottom: "pool1"
  top: "norm1"
  lrn_param {
    local_size: 5
    alpha: 0.0001
    beta: 0.75
  }
}
layer {
  name: "conv2"
  type: "Convolution"
  bottom: "norm1"
  top: "conv2"
  param {
    lr_mult: 1
    decay_mult: 1
  }
  param {
    lr_mult: 2
    decay_mult: 0
  }
  convolution_param {
    num_output: 256
    pad: 2
    kernel_size: 5
    group: 2
    weight_filler {
      type: "gaussian"
      std: 0.01
    }
    bias_filler {
      type: "constant"
      value: 1
    }
  }
}
layer {
  name: "relu2"
  type: "ReLU"
  bottom: "conv2"
  top: "conv2"
}
layer {
  name: "pool2"
  type: "Pooling"
  bottom: "conv2"
  top: "pool2"
  pooling_param {
    pool: MAX
    kernel_size: 3
    stride: 2
  }
}
layer {
  name: "norm2"
  type: "LRN"
  bottom: "pool2"
  top: "norm2"
  lrn_param {
    local_size: 5
    alpha: 0.0001
    beta: 0.75
  }
}
layer {
  name: "conv3"
  type: "Convolution"
  bottom: "norm2"
  top: "conv3"
  param {
    lr_mult: 1
    decay_mult: 1
  }
  param {
    lr_mult: 2
    decay_mult: 0
  }
  convolution_param {
    num_output: 384
    pad: 1
    kernel_size: 3
    weight_filler {
      type: "gaussian"
      std: 0.01
    }
    bias_filler {
      type: "constant"
      value: 0
    }
  }
}
layer {
  name: "relu3"
  type: "ReLU"
  bottom: "conv3"
  top: "conv3"
}
layer {
  name: "conv4"
  type: "Convolution"
  bottom: "conv3"
  top: "conv4"
  param {
    lr_mult: 1
    decay_mult: 1
  }
  param {
    lr_mult: 2
    decay_mult: 0
  }
  convolution_param {
    num_output: 384
    pad: 1
    kernel_size: 3
    group: 2
    weight_filler {
      type: "gaussian"
      std: 0.01
    }
    bias_filler {
      type: "constant"
      value: 1
    }
  }
}
layer {
  name: "relu4"
  type: "ReLU"
  bottom: "conv4"
  top: "conv4"
}
layer {
  name: "conv5"
  type: "Convolution"
  bottom: "conv4"
  top: "conv5"
  param {
    lr_mult: 1
    decay_mult: 1
  }
  param {
    lr_mult: 2
    decay_mult: 0
  }
  convolution_param {
    num_output: 256
    pad: 1
    kernel_size: 3
    group: 2
    weight_filler {
      type: "gaussian"
      std: 0.01
    }
    bias_filler {
      type: "constant"
      value: 1
    }
  }
}
layer {
  name: "relu5"
  type: "ReLU"
  bottom: "conv5"
  top: "conv5"
}
layer {
  name: "pool5"
  type: "Pooling"
  bottom: "conv5"
  top: "pool5"
  pooling_param {
    pool: MAX
    kernel_size: 3
    stride: 2
  }
}
layer {
  name: "fc6"
  type: "InnerProduct"
  bottom: "pool5"
  top: "fc6"
  param {
    lr_mult: 1
    decay_mult: 1
  }
  param {
    lr_mult: 2
    decay_mult: 0
  }
  inner_product_param {
    num_output: 4096
    weight_filler {
      type: "gaussian"
      std: 0.005
    }
    bias_filler {
      type: "constant"
      value: 1
    }
  }
}
layer {
  name: "relu6"
  type: "ReLU"
  bottom: "fc6"
  top: "fc6"
}
layer {
  name: "drop6"
  type: "Dropout"
  bottom: "fc6"
  top: "fc6"
  dropout_param {
    dropout_ratio: 0.5
  }
}
layer {
  name: "fc7"
  type: "InnerProduct"
  bottom: "fc6"
  top: "fc7"
  param {
    lr_mult: 1
    decay_mult: 1
  }
  param {
    lr_mult: 2
    decay_mult: 0
  }
  inner_product_param {
    num_output: 4096
    weight_filler {
      type: "gaussian"
      std: 0.005
    }
    bias_filler {
      type: "constant"
      value: 1
    }
  }
}
layer {
  name: "relu7"
  type: "ReLU"
  bottom: "fc7"
  top: "fc7"
}
layer {
  name: "drop7"
  type: "Dropout"
  bottom: "fc7"
  top: "fc7"
  dropout_param {
    dropout_ratio: 0.5
  }
}
layer {
  name: "fc8"
  type: "InnerProduct"
  bottom: "fc7"
  top: "fc8"
  param {
    lr_mult: 1
    decay_mult: 1
  }
  param {
    lr_mult: 2
    decay_mult: 0
  }
  inner_product_param {
    num_output: 2
    weight_filler {
      type: "gaussian"
      std: 0.01
    }
    bias_filler {
      type: "constant"
      value: 0
    }
  }
}
layer {
  name: "accuracy"
  type: "Accuracy"
  bottom: "fc8"
  bottom: "label"
  top: "accuracy"
  include {
    phase: TEST
  }
}
layer {
  name: "loss"
  type: "SoftmaxWithLoss"
  bottom: "fc8"
  bottom: "label"
  top: "loss"
}
I1013 21:39:29.162216 26508 layer_factory.hpp:74] Creating layer data
I1013 21:39:29.162228 26508 net.cpp:92] Creating Layer data
I1013 21:39:29.162235 26508 net.cpp:370] data -> data
I1013 21:39:29.162245 26508 net.cpp:370] data -> label
I1013 21:39:29.162252 26508 net.cpp:122] Setting up data
I1013 21:39:29.162258 26508 data_transformer.cpp:22] Loading mean file from: data/part9/imagenet_mean.binaryproto
I1013 21:39:29.163512 26508 db_lmdb.cpp:22] Opened lmdb part9/imagenet_val_leveldb
I1013 21:39:29.163579 26508 data_layer.cpp:52] output data size: 10,3,227,227
I1013 21:39:29.164521 26508 net.cpp:129] Top shape: 10 3 227 227 (1545870)
I1013 21:39:29.164549 26508 net.cpp:129] Top shape: 10 (10)
I1013 21:39:29.164557 26508 layer_factory.hpp:74] Creating layer label_data_1_split
I1013 21:39:29.164571 26508 net.cpp:92] Creating Layer label_data_1_split
I1013 21:39:29.164577 26508 net.cpp:412] label_data_1_split <- label
I1013 21:39:29.164587 26508 net.cpp:370] label_data_1_split -> label_data_1_split_0
I1013 21:39:29.164602 26508 net.cpp:370] label_data_1_split -> label_data_1_split_1
I1013 21:39:29.164609 26508 net.cpp:122] Setting up label_data_1_split
I1013 21:39:29.164618 26508 net.cpp:129] Top shape: 10 (10)
I1013 21:39:29.164624 26508 net.cpp:129] Top shape: 10 (10)
I1013 21:39:29.164629 26508 layer_factory.hpp:74] Creating layer conv1
I1013 21:39:29.164639 26508 net.cpp:92] Creating Layer conv1
I1013 21:39:29.164644 26508 net.cpp:412] conv1 <- data
I1013 21:39:29.164651 26508 net.cpp:370] conv1 -> conv1
I1013 21:39:29.164660 26508 net.cpp:122] Setting up conv1
I1013 21:39:29.165508 26508 net.cpp:129] Top shape: 10 96 55 55 (2904000)
I1013 21:39:29.165524 26508 layer_factory.hpp:74] Creating layer relu1
I1013 21:39:29.165532 26508 net.cpp:92] Creating Layer relu1
I1013 21:39:29.165547 26508 net.cpp:412] relu1 <- conv1
I1013 21:39:29.165554 26508 net.cpp:359] relu1 -> conv1 (in-place)
I1013 21:39:29.165568 26508 net.cpp:122] Setting up relu1
I1013 21:39:29.165575 26508 net.cpp:129] Top shape: 10 96 55 55 (2904000)
I1013 21:39:29.165580 26508 layer_factory.hpp:74] Creating layer pool1
I1013 21:39:29.165588 26508 net.cpp:92] Creating Layer pool1
I1013 21:39:29.165593 26508 net.cpp:412] pool1 <- conv1
I1013 21:39:29.165599 26508 net.cpp:370] pool1 -> pool1
I1013 21:39:29.165606 26508 net.cpp:122] Setting up pool1
I1013 21:39:29.165616 26508 net.cpp:129] Top shape: 10 96 27 27 (699840)
I1013 21:39:29.165621 26508 layer_factory.hpp:74] Creating layer norm1
I1013 21:39:29.165629 26508 net.cpp:92] Creating Layer norm1
I1013 21:39:29.165634 26508 net.cpp:412] norm1 <- pool1
I1013 21:39:29.165640 26508 net.cpp:370] norm1 -> norm1
I1013 21:39:29.165647 26508 net.cpp:122] Setting up norm1
I1013 21:39:29.165654 26508 net.cpp:129] Top shape: 10 96 27 27 (699840)
I1013 21:39:29.165659 26508 layer_factory.hpp:74] Creating layer conv2
I1013 21:39:29.165668 26508 net.cpp:92] Creating Layer conv2
I1013 21:39:29.165673 26508 net.cpp:412] conv2 <- norm1
I1013 21:39:29.165678 26508 net.cpp:370] conv2 -> conv2
I1013 21:39:29.165686 26508 net.cpp:122] Setting up conv2
I1013 21:39:29.172942 26508 net.cpp:129] Top shape: 10 256 27 27 (1866240)
I1013 21:39:29.172971 26508 layer_factory.hpp:74] Creating layer relu2
I1013 21:39:29.172981 26508 net.cpp:92] Creating Layer relu2
I1013 21:39:29.172986 26508 net.cpp:412] relu2 <- conv2
I1013 21:39:29.172993 26508 net.cpp:359] relu2 -> conv2 (in-place)
I1013 21:39:29.173002 26508 net.cpp:122] Setting up relu2
I1013 21:39:29.173007 26508 net.cpp:129] Top shape: 10 256 27 27 (1866240)
I1013 21:39:29.173012 26508 layer_factory.hpp:74] Creating layer pool2
I1013 21:39:29.173022 26508 net.cpp:92] Creating Layer pool2
I1013 21:39:29.173027 26508 net.cpp:412] pool2 <- conv2
I1013 21:39:29.173034 26508 net.cpp:370] pool2 -> pool2
I1013 21:39:29.173044 26508 net.cpp:122] Setting up pool2
I1013 21:39:29.173054 26508 net.cpp:129] Top shape: 10 256 13 13 (432640)
I1013 21:39:29.173059 26508 layer_factory.hpp:74] Creating layer norm2
I1013 21:39:29.173066 26508 net.cpp:92] Creating Layer norm2
I1013 21:39:29.173071 26508 net.cpp:412] norm2 <- pool2
I1013 21:39:29.173079 26508 net.cpp:370] norm2 -> norm2
I1013 21:39:29.173084 26508 net.cpp:122] Setting up norm2
I1013 21:39:29.173092 26508 net.cpp:129] Top shape: 10 256 13 13 (432640)
I1013 21:39:29.173097 26508 layer_factory.hpp:74] Creating layer conv3
I1013 21:39:29.173106 26508 net.cpp:92] Creating Layer conv3
I1013 21:39:29.173111 26508 net.cpp:412] conv3 <- norm2
I1013 21:39:29.173120 26508 net.cpp:370] conv3 -> conv3
I1013 21:39:29.173127 26508 net.cpp:122] Setting up conv3
I1013 21:39:29.193343 26508 net.cpp:129] Top shape: 10 384 13 13 (648960)
I1013 21:39:29.193357 26508 layer_factory.hpp:74] Creating layer relu3
I1013 21:39:29.193364 26508 net.cpp:92] Creating Layer relu3
I1013 21:39:29.193369 26508 net.cpp:412] relu3 <- conv3
I1013 21:39:29.193375 26508 net.cpp:359] relu3 -> conv3 (in-place)
I1013 21:39:29.193382 26508 net.cpp:122] Setting up relu3
I1013 21:39:29.193387 26508 net.cpp:129] Top shape: 10 384 13 13 (648960)
I1013 21:39:29.193392 26508 layer_factory.hpp:74] Creating layer conv4
I1013 21:39:29.193399 26508 net.cpp:92] Creating Layer conv4
I1013 21:39:29.193404 26508 net.cpp:412] conv4 <- conv3
I1013 21:39:29.193413 26508 net.cpp:370] conv4 -> conv4
I1013 21:39:29.193419 26508 net.cpp:122] Setting up conv4
I1013 21:39:29.208520 26508 net.cpp:129] Top shape: 10 384 13 13 (648960)
I1013 21:39:29.208534 26508 layer_factory.hpp:74] Creating layer relu4
I1013 21:39:29.208541 26508 net.cpp:92] Creating Layer relu4
I1013 21:39:29.208547 26508 net.cpp:412] relu4 <- conv4
I1013 21:39:29.208554 26508 net.cpp:359] relu4 -> conv4 (in-place)
I1013 21:39:29.208559 26508 net.cpp:122] Setting up relu4
I1013 21:39:29.208565 26508 net.cpp:129] Top shape: 10 384 13 13 (648960)
I1013 21:39:29.208570 26508 layer_factory.hpp:74] Creating layer conv5
I1013 21:39:29.208586 26508 net.cpp:92] Creating Layer conv5
I1013 21:39:29.208600 26508 net.cpp:412] conv5 <- conv4
I1013 21:39:29.208606 26508 net.cpp:370] conv5 -> conv5
I1013 21:39:29.208614 26508 net.cpp:122] Setting up conv5
I1013 21:39:29.218817 26508 net.cpp:129] Top shape: 10 256 13 13 (432640)
I1013 21:39:29.218832 26508 layer_factory.hpp:74] Creating layer relu5
I1013 21:39:29.218840 26508 net.cpp:92] Creating Layer relu5
I1013 21:39:29.218844 26508 net.cpp:412] relu5 <- conv5
I1013 21:39:29.218852 26508 net.cpp:359] relu5 -> conv5 (in-place)
I1013 21:39:29.218858 26508 net.cpp:122] Setting up relu5
I1013 21:39:29.218863 26508 net.cpp:129] Top shape: 10 256 13 13 (432640)
I1013 21:39:29.218868 26508 layer_factory.hpp:74] Creating layer pool5
I1013 21:39:29.218878 26508 net.cpp:92] Creating Layer pool5
I1013 21:39:29.218884 26508 net.cpp:412] pool5 <- conv5
I1013 21:39:29.218890 26508 net.cpp:370] pool5 -> pool5
I1013 21:39:29.218899 26508 net.cpp:122] Setting up pool5
I1013 21:39:29.218909 26508 net.cpp:129] Top shape: 10 256 6 6 (92160)
I1013 21:39:29.218914 26508 layer_factory.hpp:74] Creating layer fc6
I1013 21:39:29.218922 26508 net.cpp:92] Creating Layer fc6
I1013 21:39:29.218927 26508 net.cpp:412] fc6 <- pool5
I1013 21:39:29.218935 26508 net.cpp:370] fc6 -> fc6
I1013 21:39:29.218942 26508 net.cpp:122] Setting up fc6
I1013 21:39:30.120848 26508 net.cpp:129] Top shape: 10 4096 (40960)
I1013 21:39:30.120893 26508 layer_factory.hpp:74] Creating layer relu6
I1013 21:39:30.120903 26508 net.cpp:92] Creating Layer relu6
I1013 21:39:30.120910 26508 net.cpp:412] relu6 <- fc6
I1013 21:39:30.120920 26508 net.cpp:359] relu6 -> fc6 (in-place)
I1013 21:39:30.120929 26508 net.cpp:122] Setting up relu6
I1013 21:39:30.120935 26508 net.cpp:129] Top shape: 10 4096 (40960)
I1013 21:39:30.120940 26508 layer_factory.hpp:74] Creating layer drop6
I1013 21:39:30.120949 26508 net.cpp:92] Creating Layer drop6
I1013 21:39:30.120952 26508 net.cpp:412] drop6 <- fc6
I1013 21:39:30.120959 26508 net.cpp:359] drop6 -> fc6 (in-place)
I1013 21:39:30.120965 26508 net.cpp:122] Setting up drop6
I1013 21:39:30.120972 26508 net.cpp:129] Top shape: 10 4096 (40960)
I1013 21:39:30.120977 26508 layer_factory.hpp:74] Creating layer fc7
I1013 21:39:30.120987 26508 net.cpp:92] Creating Layer fc7
I1013 21:39:30.120992 26508 net.cpp:412] fc7 <- fc6
I1013 21:39:30.121000 26508 net.cpp:370] fc7 -> fc7
I1013 21:39:30.121008 26508 net.cpp:122] Setting up fc7
I1013 21:39:30.513840 26508 net.cpp:129] Top shape: 10 4096 (40960)
I1013 21:39:30.513881 26508 layer_factory.hpp:74] Creating layer relu7
I1013 21:39:30.513893 26508 net.cpp:92] Creating Layer relu7
I1013 21:39:30.513900 26508 net.cpp:412] relu7 <- fc7
I1013 21:39:30.513908 26508 net.cpp:359] relu7 -> fc7 (in-place)
I1013 21:39:30.513917 26508 net.cpp:122] Setting up relu7
I1013 21:39:30.513923 26508 net.cpp:129] Top shape: 10 4096 (40960)
I1013 21:39:30.513928 26508 layer_factory.hpp:74] Creating layer drop7
I1013 21:39:30.513936 26508 net.cpp:92] Creating Layer drop7
I1013 21:39:30.513941 26508 net.cpp:412] drop7 <- fc7
I1013 21:39:30.513948 26508 net.cpp:359] drop7 -> fc7 (in-place)
I1013 21:39:30.513955 26508 net.cpp:122] Setting up drop7
I1013 21:39:30.513963 26508 net.cpp:129] Top shape: 10 4096 (40960)
I1013 21:39:30.513968 26508 layer_factory.hpp:74] Creating layer fc8
I1013 21:39:30.513977 26508 net.cpp:92] Creating Layer fc8
I1013 21:39:30.513981 26508 net.cpp:412] fc8 <- fc7
I1013 21:39:30.513989 26508 net.cpp:370] fc8 -> fc8
I1013 21:39:30.514001 26508 net.cpp:122] Setting up fc8
I1013 21:39:30.514205 26508 net.cpp:129] Top shape: 10 2 (20)
I1013 21:39:30.514214 26508 layer_factory.hpp:74] Creating layer fc8_fc8_0_split
I1013 21:39:30.514224 26508 net.cpp:92] Creating Layer fc8_fc8_0_split
I1013 21:39:30.514228 26508 net.cpp:412] fc8_fc8_0_split <- fc8
I1013 21:39:30.514235 26508 net.cpp:370] fc8_fc8_0_split -> fc8_fc8_0_split_0
I1013 21:39:30.514242 26508 net.cpp:370] fc8_fc8_0_split -> fc8_fc8_0_split_1
I1013 21:39:30.514250 26508 net.cpp:122] Setting up fc8_fc8_0_split
I1013 21:39:30.514267 26508 net.cpp:129] Top shape: 10 2 (20)
I1013 21:39:30.514273 26508 net.cpp:129] Top shape: 10 2 (20)
I1013 21:39:30.514286 26508 layer_factory.hpp:74] Creating layer accuracy
I1013 21:39:30.514293 26508 net.cpp:92] Creating Layer accuracy
I1013 21:39:30.514298 26508 net.cpp:412] accuracy <- fc8_fc8_0_split_0
I1013 21:39:30.514303 26508 net.cpp:412] accuracy <- label_data_1_split_0
I1013 21:39:30.514310 26508 net.cpp:370] accuracy -> accuracy
I1013 21:39:30.514317 26508 net.cpp:122] Setting up accuracy
…
