…
I1013 22:15:43.038028  1897 net.cpp:289] The NetState phase (0) differed from the phase (1) specified by a rule in layer accuracy
I1013 22:15:43.038166  1897 net.cpp:44] Initializing net from parameters: 
name: "CaffeNet"
state {
  phase: TRAIN
}
layer {
  name: "data"
  type: "Data"
  top: "data"
  top: "label"
  include {
    phase: TRAIN
  }
  transform_param {
    mirror: true
    crop_size: 227
    mean_file: "data/part9/imagenet_mean.binaryproto"
  }
  data_param {
    source: "part9/imagenet_train_leveldb"
    batch_size: 32
    backend: LMDB
  }
}
layer {
  name: "conv1"
  type: "Convolution"
  bottom: "data"
  top: "conv1"
  param {
    lr_mult: 1
    decay_mult: 1
  }
  param {
    lr_mult: 2
    decay_mult: 0
  }
  convolution_param {
    num_output: 96
    kernel_size: 11
    stride: 4
    weight_filler {
      type: "gaussian"
      std: 0.01
    }
    bias_filler {
      type: "constant"
      value: 0
    }
  }
}
layer {
  name: "relu1"
  type: "ReLU"
  bottom: "conv1"
  top: "conv1"
}
layer {
  name: "pool1"
  type: "Pooling"
  bottom: "conv1"
  top: "pool1"
  pooling_param {
    pool: MAX
    kernel_size: 3
    stride: 2
  }
}
layer {
  name: "norm1"
  type: "LRN"
  bottom: "pool1"
  top: "norm1"
  lrn_param {
    local_size: 5
    alpha: 0.0001
    beta: 0.75
  }
}
layer {
  name: "conv2"
  type: "Convolution"
  bottom: "norm1"
  top: "conv2"
  param {
    lr_mult: 1
    decay_mult: 1
  }
  param {
    lr_mult: 2
    decay_mult: 0
  }
  convolution_param {
    num_output: 256
    pad: 2
    kernel_size: 5
    group: 2
    weight_filler {
      type: "gaussian"
      std: 0.01
    }
    bias_filler {
      type: "constant"
      value: 1
    }
  }
}
layer {
  name: "relu2"
  type: "ReLU"
  bottom: "conv2"
  top: "conv2"
}
layer {
  name: "pool2"
  type: "Pooling"
  bottom: "conv2"
  top: "pool2"
  pooling_param {
    pool: MAX
    kernel_size: 3
    stride: 2
  }
}
layer {
  name: "norm2"
  type: "LRN"
  bottom: "pool2"
  top: "norm2"
  lrn_param {
    local_size: 5
    alpha: 0.0001
    beta: 0.75
  }
}
layer {
  name: "conv3"
  type: "Convolution"
  bottom: "norm2"
  top: "conv3"
  param {
    lr_mult: 1
    decay_mult: 1
  }
  param {
    lr_mult: 2
    decay_mult: 0
  }
  convolution_param {
    num_output: 384
    pad: 1
    kernel_size: 3
    weight_filler {
      type: "gaussian"
      std: 0.01
    }
    bias_filler {
      type: "constant"
      value: 0
    }
  }
}
layer {
  name: "relu3"
  type: "ReLU"
  bottom: "conv3"
  top: "conv3"
}
layer {
  name: "conv4"
  type: "Convolution"
  bottom: "conv3"
  top: "conv4"
  param {
    lr_mult: 1
    decay_mult: 1
  }
  param {
    lr_mult: 2
    decay_mult: 0
  }
  convolution_param {
    num_output: 384
    pad: 1
    kernel_size: 3
    group: 2
    weight_filler {
      type: "gaussian"
      std: 0.01
    }
    bias_filler {
      type: "constant"
      value: 1
    }
  }
}
layer {
  name: "relu4"
  type: "ReLU"
  bottom: "conv4"
  top: "conv4"
}
layer {
  name: "conv5"
  type: "Convolution"
  bottom: "conv4"
  top: "conv5"
  param {
    lr_mult: 1
    decay_mult: 1
  }
  param {
    lr_mult: 2
    decay_mult: 0
  }
  convolution_param {
    num_output: 256
    pad: 1
    kernel_size: 3
    group: 2
    weight_filler {
      type: "gaussian"
      std: 0.01
    }
    bias_filler {
      type: "constant"
      value: 1
    }
  }
}
layer {
  name: "relu5"
  type: "ReLU"
  bottom: "conv5"
  top: "conv5"
}
layer {
  name: "pool5"
  type: "Pooling"
  bottom: "conv5"
  top: "pool5"
  pooling_param {
    pool: MAX
    kernel_size: 3
    stride: 2
  }
}
layer {
  name: "fc6"
  type: "InnerProduct"
  bottom: "pool5"
  top: "fc6"
  param {
    lr_mult: 1
    decay_mult: 1
  }
  param {
    lr_mult: 2
    decay_mult: 0
  }
  inner_product_param {
    num_output: 4096
    weight_filler {
      type: "gaussian"
      std: 0.005
    }
    bias_filler {
      type: "constant"
      value: 1
    }
  }
}
layer {
  name: "relu6"
  type: "ReLU"
  bottom: "fc6"
  top: "fc6"
}
layer {
  name: "drop6"
  type: "Dropout"
  bottom: "fc6"
  top: "fc6"
  dropout_param {
    dropout_ratio: 0.5
  }
}
layer {
  name: "fc7"
  type: "InnerProduct"
  bottom: "fc6"
  top: "fc7"
  param {
    lr_mult: 1
    decay_mult: 1
  }
  param {
    lr_mult: 2
    decay_mult: 0
  }
  inner_product_param {
    num_output: 4096
    weight_filler {
      type: "gaussian"
      std: 0.005
    }
    bias_filler {
      type: "constant"
      value: 1
    }
  }
}
layer {
  name: "relu7"
  type: "ReLU"
  bottom: "fc7"
  top: "fc7"
}
layer {
  name: "drop7"
  type: "Dropout"
  bottom: "fc7"
  top: "fc7"
  dropout_param {
    dropout_ratio: 0.5
  }
}
layer {
  name: "fc8"
  type: "InnerProduct"
  bottom: "fc7"
  top: "fc8"
  param {
    lr_mult: 1
    decay_mult: 1
  }
  param {
    lr_mult: 2
    decay_mult: 0
  }
  inner_product_param {
    num_output: 9
    weight_filler {
      type: "gaussian"
      std: 0.01
    }
    bias_filler {
      type: "constant"
      value: 0
    }
  }
}
layer {
  name: "loss"
  type: "SoftmaxWithLoss"
  bottom: "fc8"
  bottom: "label"
  top: "loss"
}
I1013 22:15:43.038269  1897 layer_factory.hpp:74] Creating layer data
I1013 22:15:43.038290  1897 net.cpp:92] Creating Layer data
I1013 22:15:43.038297  1897 net.cpp:370] data -> data
I1013 22:15:43.038321  1897 net.cpp:370] data -> label
I1013 22:15:43.038332  1897 net.cpp:122] Setting up data
I1013 22:15:43.038342  1897 data_transformer.cpp:22] Loading mean file from: data/part9/imagenet_mean.binaryproto
I1013 22:15:43.039849  1897 db_lmdb.cpp:22] Opened lmdb part9/imagenet_train_leveldb
I1013 22:15:43.039919  1897 data_layer.cpp:52] output data size: 32,3,227,227
I1013 22:15:43.042474  1897 net.cpp:129] Top shape: 32 3 227 227 (4946784)
I1013 22:15:43.042512  1897 net.cpp:129] Top shape: 32 (32)
I1013 22:15:43.042522  1897 layer_factory.hpp:74] Creating layer conv1
I1013 22:15:43.042541  1897 net.cpp:92] Creating Layer conv1
I1013 22:15:43.042548  1897 net.cpp:412] conv1 <- data
I1013 22:15:43.042562  1897 net.cpp:370] conv1 -> conv1
I1013 22:15:43.042577  1897 net.cpp:122] Setting up conv1
I1013 22:15:43.043432  1897 net.cpp:129] Top shape: 32 96 55 55 (9292800)
I1013 22:15:43.043450  1897 layer_factory.hpp:74] Creating layer relu1
I1013 22:15:43.043458  1897 net.cpp:92] Creating Layer relu1
I1013 22:15:43.043464  1897 net.cpp:412] relu1 <- conv1
I1013 22:15:43.043470  1897 net.cpp:359] relu1 -> conv1 (in-place)
I1013 22:15:43.043478  1897 net.cpp:122] Setting up relu1
I1013 22:15:43.043483  1897 net.cpp:129] Top shape: 32 96 55 55 (9292800)
I1013 22:15:43.043488  1897 layer_factory.hpp:74] Creating layer pool1
I1013 22:15:43.043496  1897 net.cpp:92] Creating Layer pool1
I1013 22:15:43.043501  1897 net.cpp:412] pool1 <- conv1
I1013 22:15:43.043508  1897 net.cpp:370] pool1 -> pool1
I1013 22:15:43.043515  1897 net.cpp:122] Setting up pool1
I1013 22:15:43.043531  1897 net.cpp:129] Top shape: 32 96 27 27 (2239488)
I1013 22:15:43.043537  1897 layer_factory.hpp:74] Creating layer norm1
I1013 22:15:43.043545  1897 net.cpp:92] Creating Layer norm1
I1013 22:15:43.043550  1897 net.cpp:412] norm1 <- pool1
I1013 22:15:43.043556  1897 net.cpp:370] norm1 -> norm1
I1013 22:15:43.043565  1897 net.cpp:122] Setting up norm1
I1013 22:15:43.043573  1897 net.cpp:129] Top shape: 32 96 27 27 (2239488)
I1013 22:15:43.043578  1897 layer_factory.hpp:74] Creating layer conv2
I1013 22:15:43.043586  1897 net.cpp:92] Creating Layer conv2
I1013 22:15:43.043591  1897 net.cpp:412] conv2 <- norm1
I1013 22:15:43.043606  1897 net.cpp:370] conv2 -> conv2
I1013 22:15:43.043622  1897 net.cpp:122] Setting up conv2
I1013 22:15:43.050923  1897 net.cpp:129] Top shape: 32 256 27 27 (5971968)
I1013 22:15:43.050961  1897 layer_factory.hpp:74] Creating layer relu2
I1013 22:15:43.050973  1897 net.cpp:92] Creating Layer relu2
I1013 22:15:43.050979  1897 net.cpp:412] relu2 <- conv2
I1013 22:15:43.050987  1897 net.cpp:359] relu2 -> conv2 (in-place)
I1013 22:15:43.050995  1897 net.cpp:122] Setting up relu2
I1013 22:15:43.051002  1897 net.cpp:129] Top shape: 32 256 27 27 (5971968)
I1013 22:15:43.051007  1897 layer_factory.hpp:74] Creating layer pool2
I1013 22:15:43.051014  1897 net.cpp:92] Creating Layer pool2
I1013 22:15:43.051019  1897 net.cpp:412] pool2 <- conv2
I1013 22:15:43.051028  1897 net.cpp:370] pool2 -> pool2
I1013 22:15:43.051035  1897 net.cpp:122] Setting up pool2
I1013 22:15:43.051045  1897 net.cpp:129] Top shape: 32 256 13 13 (1384448)
I1013 22:15:43.051050  1897 layer_factory.hpp:74] Creating layer norm2
I1013 22:15:43.051060  1897 net.cpp:92] Creating Layer norm2
I1013 22:15:43.051067  1897 net.cpp:412] norm2 <- pool2
I1013 22:15:43.051074  1897 net.cpp:370] norm2 -> norm2
I1013 22:15:43.051081  1897 net.cpp:122] Setting up norm2
I1013 22:15:43.051090  1897 net.cpp:129] Top shape: 32 256 13 13 (1384448)
I1013 22:15:43.051095  1897 layer_factory.hpp:74] Creating layer conv3
I1013 22:15:43.051105  1897 net.cpp:92] Creating Layer conv3
I1013 22:15:43.051110  1897 net.cpp:412] conv3 <- norm2
I1013 22:15:43.051116  1897 net.cpp:370] conv3 -> conv3
I1013 22:15:43.051125  1897 net.cpp:122] Setting up conv3
I1013 22:15:43.071769  1897 net.cpp:129] Top shape: 32 384 13 13 (2076672)
I1013 22:15:43.071805  1897 layer_factory.hpp:74] Creating layer relu3
I1013 22:15:43.071815  1897 net.cpp:92] Creating Layer relu3
I1013 22:15:43.071820  1897 net.cpp:412] relu3 <- conv3
I1013 22:15:43.071830  1897 net.cpp:359] relu3 -> conv3 (in-place)
I1013 22:15:43.071837  1897 net.cpp:122] Setting up relu3
I1013 22:15:43.071844  1897 net.cpp:129] Top shape: 32 384 13 13 (2076672)
I1013 22:15:43.071849  1897 layer_factory.hpp:74] Creating layer conv4
I1013 22:15:43.071857  1897 net.cpp:92] Creating Layer conv4
I1013 22:15:43.071862  1897 net.cpp:412] conv4 <- conv3
I1013 22:15:43.071869  1897 net.cpp:370] conv4 -> conv4
I1013 22:15:43.071877  1897 net.cpp:122] Setting up conv4
I1013 22:15:43.087172  1897 net.cpp:129] Top shape: 32 384 13 13 (2076672)
I1013 22:15:43.087182  1897 layer_factory.hpp:74] Creating layer relu4
I1013 22:15:43.087193  1897 net.cpp:92] Creating Layer relu4
I1013 22:15:43.087198  1897 net.cpp:412] relu4 <- conv4
I1013 22:15:43.087204  1897 net.cpp:359] relu4 -> conv4 (in-place)
I1013 22:15:43.087210  1897 net.cpp:122] Setting up relu4
I1013 22:15:43.087216  1897 net.cpp:129] Top shape: 32 384 13 13 (2076672)
I1013 22:15:43.087221  1897 layer_factory.hpp:74] Creating layer conv5
I1013 22:15:43.087229  1897 net.cpp:92] Creating Layer conv5
I1013 22:15:43.087234  1897 net.cpp:412] conv5 <- conv4
I1013 22:15:43.087240  1897 net.cpp:370] conv5 -> conv5
I1013 22:15:43.087247  1897 net.cpp:122] Setting up conv5
I1013 22:15:43.097437  1897 net.cpp:129] Top shape: 32 256 13 13 (1384448)
I1013 22:15:43.097450  1897 layer_factory.hpp:74] Creating layer relu5
I1013 22:15:43.097457  1897 net.cpp:92] Creating Layer relu5
I1013 22:15:43.097462  1897 net.cpp:412] relu5 <- conv5
I1013 22:15:43.097467  1897 net.cpp:359] relu5 -> conv5 (in-place)
I1013 22:15:43.097473  1897 net.cpp:122] Setting up relu5
I1013 22:15:43.097479  1897 net.cpp:129] Top shape: 32 256 13 13 (1384448)
I1013 22:15:43.097484  1897 layer_factory.hpp:74] Creating layer pool5
I1013 22:15:43.097493  1897 net.cpp:92] Creating Layer pool5
I1013 22:15:43.097498  1897 net.cpp:412] pool5 <- conv5
I1013 22:15:43.097504  1897 net.cpp:370] pool5 -> pool5
I1013 22:15:43.097512  1897 net.cpp:122] Setting up pool5
I1013 22:15:43.097520  1897 net.cpp:129] Top shape: 32 256 6 6 (294912)
I1013 22:15:43.097525  1897 layer_factory.hpp:74] Creating layer fc6
I1013 22:15:43.097545  1897 net.cpp:92] Creating Layer fc6
I1013 22:15:43.097550  1897 net.cpp:412] fc6 <- pool5
I1013 22:15:43.097564  1897 net.cpp:370] fc6 -> fc6
I1013 22:15:43.097574  1897 net.cpp:122] Setting up fc6
I1013 22:15:43.954157  1897 net.cpp:129] Top shape: 32 4096 (131072)
I1013 22:15:43.954200  1897 layer_factory.hpp:74] Creating layer relu6
I1013 22:15:43.954211  1897 net.cpp:92] Creating Layer relu6
I1013 22:15:43.954217  1897 net.cpp:412] relu6 <- fc6
I1013 22:15:43.954226  1897 net.cpp:359] relu6 -> fc6 (in-place)
I1013 22:15:43.954233  1897 net.cpp:122] Setting up relu6
I1013 22:15:43.954241  1897 net.cpp:129] Top shape: 32 4096 (131072)
I1013 22:15:43.954244  1897 layer_factory.hpp:74] Creating layer drop6
I1013 22:15:43.954253  1897 net.cpp:92] Creating Layer drop6
I1013 22:15:43.954258  1897 net.cpp:412] drop6 <- fc6
I1013 22:15:43.954264  1897 net.cpp:359] drop6 -> fc6 (in-place)
I1013 22:15:43.954273  1897 net.cpp:122] Setting up drop6
I1013 22:15:43.954282  1897 net.cpp:129] Top shape: 32 4096 (131072)
I1013 22:15:43.954288  1897 layer_factory.hpp:74] Creating layer fc7
I1013 22:15:43.954295  1897 net.cpp:92] Creating Layer fc7
I1013 22:15:43.954300  1897 net.cpp:412] fc7 <- fc6
I1013 22:15:43.954308  1897 net.cpp:370] fc7 -> fc7
I1013 22:15:43.954316  1897 net.cpp:122] Setting up fc7
I1013 22:15:44.335173  1897 net.cpp:129] Top shape: 32 4096 (131072)
I1013 22:15:44.335217  1897 layer_factory.hpp:74] Creating layer relu7
I1013 22:15:44.335228  1897 net.cpp:92] Creating Layer relu7
I1013 22:15:44.335234  1897 net.cpp:412] relu7 <- fc7
I1013 22:15:44.335242  1897 net.cpp:359] relu7 -> fc7 (in-place)
I1013 22:15:44.335252  1897 net.cpp:122] Setting up relu7
I1013 22:15:44.335258  1897 net.cpp:129] Top shape: 32 4096 (131072)
I1013 22:15:44.335263  1897 layer_factory.hpp:74] Creating layer drop7
I1013 22:15:44.335269  1897 net.cpp:92] Creating Layer drop7
I1013 22:15:44.335274  1897 net.cpp:412] drop7 <- fc7
I1013 22:15:44.335281  1897 net.cpp:359] drop7 -> fc7 (in-place)
I1013 22:15:44.335289  1897 net.cpp:122] Setting up drop7
I1013 22:15:44.335295  1897 net.cpp:129] Top shape: 32 4096 (131072)
I1013 22:15:44.335300  1897 layer_factory.hpp:74] Creating layer fc8
I1013 22:15:44.335309  1897 net.cpp:92] Creating Layer fc8
I1013 22:15:44.335314  1897 net.cpp:412] fc8 <- fc7
I1013 22:15:44.335320  1897 net.cpp:370] fc8 -> fc8
I1013 22:15:44.335330  1897 net.cpp:122] Setting up fc8
I1013 22:15:44.336199  1897 net.cpp:129] Top shape: 32 9 (288)
I1013 22:15:44.336207  1897 layer_factory.hpp:74] Creating layer loss
I1013 22:15:44.336221  1897 net.cpp:92] Creating Layer loss
I1013 22:15:44.336226  1897 net.cpp:412] loss <- fc8
I1013 22:15:44.336232  1897 net.cpp:412] loss <- label
I1013 22:15:44.336241  1897 net.cpp:370] loss -> loss
I1013 22:15:44.336251  1897 net.cpp:122] Setting up loss
I1013 22:15:44.336258  1897 layer_factory.hpp:74] Creating layer loss
…
I1013 22:15:44.337096  1897 net.cpp:289] The NetState phase (1) differed from the phase (0) specified by a rule in layer data
I1013 22:15:44.337251  1897 net.cpp:44] Initializing net from parameters: 
name: "CaffeNet"
state {
  phase: TEST
}
layer {
  name: "data"
  type: "Data"
  top: "data"
  top: "label"
  include {
    phase: TEST
  }
  transform_param {
    mirror: true
    crop_size: 227
    mean_file: "data/part9/imagenet_mean.binaryproto"
  }
  data_param {
    source: "part9/imagenet_val_leveldb"
    mean_file: "data/part9/imagenet_mean.binartproto"
    batch_size: 10
    crop_size: 227
    mirror: false
    backend: LMDB
  }
}
layer {
  name: "conv1"
  type: "Convolution"
  bottom: "data"
  top: "conv1"
  param {
    lr_mult: 1
    decay_mult: 1
  }
  param {
    lr_mult: 2
    decay_mult: 0
  }
  convolution_param {
    num_output: 96
    kernel_size: 11
    stride: 4
    weight_filler {
      type: "gaussian"
      std: 0.01
    }
    bias_filler {
      type: "constant"
      value: 0
    }
  }
}
layer {
  name: "relu1"
  type: "ReLU"
  bottom: "conv1"
  top: "conv1"
}
layer {
  name: "pool1"
  type: "Pooling"
  bottom: "conv1"
  top: "pool1"
  pooling_param {
    pool: MAX
    kernel_size: 3
    stride: 2
  }
}
layer {
  name: "norm1"
  type: "LRN"
  bottom: "pool1"
  top: "norm1"
  lrn_param {
    local_size: 5
    alpha: 0.0001
    beta: 0.75
  }
}
layer {
  name: "conv2"
  type: "Convolution"
  bottom: "norm1"
  top: "conv2"
  param {
    lr_mult: 1
    decay_mult: 1
  }
  param {
    lr_mult: 2
    decay_mult: 0
  }
  convolution_param {
    num_output: 256
    pad: 2
    kernel_size: 5
    group: 2
    weight_filler {
      type: "gaussian"
      std: 0.01
    }
    bias_filler {
      type: "constant"
      value: 1
    }
  }
}
layer {
  name: "relu2"
  type: "ReLU"
  bottom: "conv2"
  top: "conv2"
}
layer {
  name: "pool2"
  type: "Pooling"
  bottom: "conv2"
  top: "pool2"
  pooling_param {
    pool: MAX
    kernel_size: 3
    stride: 2
  }
}
layer {
  name: "norm2"
  type: "LRN"
  bottom: "pool2"
  top: "norm2"
  lrn_param {
    local_size: 5
    alpha: 0.0001
    beta: 0.75
  }
}
layer {
  name: "conv3"
  type: "Convolution"
  bottom: "norm2"
  top: "conv3"
  param {
    lr_mult: 1
    decay_mult: 1
  }
  param {
    lr_mult: 2
    decay_mult: 0
  }
  convolution_param {
    num_output: 384
    pad: 1
    kernel_size: 3
    weight_filler {
      type: "gaussian"
      std: 0.01
    }
    bias_filler {
      type: "constant"
      value: 0
    }
  }
}
layer {
  name: "relu3"
  type: "ReLU"
  bottom: "conv3"
  top: "conv3"
}
layer {
  name: "conv4"
  type: "Convolution"
  bottom: "conv3"
  top: "conv4"
  param {
    lr_mult: 1
    decay_mult: 1
  }
  param {
    lr_mult: 2
    decay_mult: 0
  }
  convolution_param {
    num_output: 384
    pad: 1
    kernel_size: 3
    group: 2
    weight_filler {
      type: "gaussian"
      std: 0.01
    }
    bias_filler {
      type: "constant"
      value: 1
    }
  }
}
layer {
  name: "relu4"
  type: "ReLU"
  bottom: "conv4"
  top: "conv4"
}
layer {
  name: "conv5"
  type: "Convolution"
  bottom: "conv4"
  top: "conv5"
  param {
    lr_mult: 1
    decay_mult: 1
  }
  param {
    lr_mult: 2
    decay_mult: 0
  }
  convolution_param {
    num_output: 256
    pad: 1
    kernel_size: 3
    group: 2
    weight_filler {
      type: "gaussian"
      std: 0.01
    }
    bias_filler {
      type: "constant"
      value: 1
    }
  }
}
layer {
  name: "relu5"
  type: "ReLU"
  bottom: "conv5"
  top: "conv5"
}
layer {
  name: "pool5"
  type: "Pooling"
  bottom: "conv5"
  top: "pool5"
  pooling_param {
    pool: MAX
    kernel_size: 3
    stride: 2
  }
}
layer {
  name: "fc6"
  type: "InnerProduct"
  bottom: "pool5"
  top: "fc6"
  param {
    lr_mult: 1
    decay_mult: 1
  }
  param {
    lr_mult: 2
    decay_mult: 0
  }
  inner_product_param {
    num_output: 4096
    weight_filler {
      type: "gaussian"
      std: 0.005
    }
    bias_filler {
      type: "constant"
      value: 1
    }
  }
}
layer {
  name: "relu6"
  type: "ReLU"
  bottom: "fc6"
  top: "fc6"
}
layer {
  name: "drop6"
  type: "Dropout"
  bottom: "fc6"
  top: "fc6"
  dropout_param {
    dropout_ratio: 0.5
  }
}
layer {
  name: "fc7"
  type: "InnerProduct"
  bottom: "fc6"
  top: "fc7"
  param {
    lr_mult: 1
    decay_mult: 1
  }
  param {
    lr_mult: 2
    decay_mult: 0
  }
  inner_product_param {
    num_output: 4096
    weight_filler {
      type: "gaussian"
      std: 0.005
    }
    bias_filler {
      type: "constant"
      value: 1
    }
  }
}
layer {
  name: "relu7"
  type: "ReLU"
  bottom: "fc7"
  top: "fc7"
}
layer {
  name: "drop7"
  type: "Dropout"
  bottom: "fc7"
  top: "fc7"
  dropout_param {
    dropout_ratio: 0.5
  }
}
layer {
  name: "fc8"
  type: "InnerProduct"
  bottom: "fc7"
  top: "fc8"
  param {
    lr_mult: 1
    decay_mult: 1
  }
  param {
    lr_mult: 2
    decay_mult: 0
  }
  inner_product_param {
    num_output: 9
    weight_filler {
      type: "gaussian"
      std: 0.01
    }
    bias_filler {
      type: "constant"
      value: 0
    }
  }
}
layer {
  name: "accuracy"
  type: "Accuracy"
  bottom: "fc8"
  bottom: "label"
  top: "accuracy"
  include {
    phase: TEST
  }
}
layer {
  name: "loss"
  type: "SoftmaxWithLoss"
  bottom: "fc8"
  bottom: "label"
  top: "loss"
}
I1013 22:15:44.337353  1897 layer_factory.hpp:74] Creating layer data
I1013 22:15:44.337364  1897 net.cpp:92] Creating Layer data
I1013 22:15:44.337370  1897 net.cpp:370] data -> data
I1013 22:15:44.337380  1897 net.cpp:370] data -> label
I1013 22:15:44.337388  1897 net.cpp:122] Setting up data
I1013 22:15:44.337393  1897 data_transformer.cpp:22] Loading mean file from: data/part9/imagenet_mean.binaryproto
I1013 22:15:44.338637  1897 db_lmdb.cpp:22] Opened lmdb part9/imagenet_val_leveldb
I1013 22:15:44.338703  1897 data_layer.cpp:52] output data size: 10,3,227,227
I1013 22:15:44.339615  1897 net.cpp:129] Top shape: 10 3 227 227 (1545870)
I1013 22:15:44.339639  1897 net.cpp:129] Top shape: 10 (10)
I1013 22:15:44.339646  1897 layer_factory.hpp:74] Creating layer label_data_1_split
I1013 22:15:44.339659  1897 net.cpp:92] Creating Layer label_data_1_split
I1013 22:15:44.339665  1897 net.cpp:412] label_data_1_split <- label
I1013 22:15:44.339675  1897 net.cpp:370] label_data_1_split -> label_data_1_split_0
I1013 22:15:44.339689  1897 net.cpp:370] label_data_1_split -> label_data_1_split_1
I1013 22:15:44.339696  1897 net.cpp:122] Setting up label_data_1_split
I1013 22:15:44.339705  1897 net.cpp:129] Top shape: 10 (10)
I1013 22:15:44.339711  1897 net.cpp:129] Top shape: 10 (10)
I1013 22:15:44.339716  1897 layer_factory.hpp:74] Creating layer conv1
I1013 22:15:44.339727  1897 net.cpp:92] Creating Layer conv1
I1013 22:15:44.339732  1897 net.cpp:412] conv1 <- data
I1013 22:15:44.339740  1897 net.cpp:370] conv1 -> conv1
I1013 22:15:44.339748  1897 net.cpp:122] Setting up conv1
I1013 22:15:44.340577  1897 net.cpp:129] Top shape: 10 96 55 55 (2904000)
I1013 22:15:44.340591  1897 layer_factory.hpp:74] Creating layer relu1
I1013 22:15:44.340600  1897 net.cpp:92] Creating Layer relu1
I1013 22:15:44.340612  1897 net.cpp:412] relu1 <- conv1
I1013 22:15:44.340620  1897 net.cpp:359] relu1 -> conv1 (in-place)
I1013 22:15:44.340632  1897 net.cpp:122] Setting up relu1
I1013 22:15:44.340639  1897 net.cpp:129] Top shape: 10 96 55 55 (2904000)
I1013 22:15:44.340644  1897 layer_factory.hpp:74] Creating layer pool1
I1013 22:15:44.340652  1897 net.cpp:92] Creating Layer pool1
I1013 22:15:44.340657  1897 net.cpp:412] pool1 <- conv1
I1013 22:15:44.340663  1897 net.cpp:370] pool1 -> pool1
I1013 22:15:44.340670  1897 net.cpp:122] Setting up pool1
I1013 22:15:44.340680  1897 net.cpp:129] Top shape: 10 96 27 27 (699840)
I1013 22:15:44.340685  1897 layer_factory.hpp:74] Creating layer norm1
I1013 22:15:44.340692  1897 net.cpp:92] Creating Layer norm1
I1013 22:15:44.340698  1897 net.cpp:412] norm1 <- pool1
I1013 22:15:44.340720  1897 net.cpp:370] norm1 -> norm1
I1013 22:15:44.340729  1897 net.cpp:122] Setting up norm1
I1013 22:15:44.340737  1897 net.cpp:129] Top shape: 10 96 27 27 (699840)
I1013 22:15:44.340742  1897 layer_factory.hpp:74] Creating layer conv2
I1013 22:15:44.340750  1897 net.cpp:92] Creating Layer conv2
I1013 22:15:44.340754  1897 net.cpp:412] conv2 <- norm1
I1013 22:15:44.340761  1897 net.cpp:370] conv2 -> conv2
I1013 22:15:44.340769  1897 net.cpp:122] Setting up conv2
I1013 22:15:44.347957  1897 net.cpp:129] Top shape: 10 256 27 27 (1866240)
I1013 22:15:44.347986  1897 layer_factory.hpp:74] Creating layer relu2
I1013 22:15:44.347997  1897 net.cpp:92] Creating Layer relu2
I1013 22:15:44.348003  1897 net.cpp:412] relu2 <- conv2
I1013 22:15:44.348011  1897 net.cpp:359] relu2 -> conv2 (in-place)
I1013 22:15:44.348018  1897 net.cpp:122] Setting up relu2
I1013 22:15:44.348024  1897 net.cpp:129] Top shape: 10 256 27 27 (1866240)
I1013 22:15:44.348029  1897 layer_factory.hpp:74] Creating layer pool2
I1013 22:15:44.348038  1897 net.cpp:92] Creating Layer pool2
I1013 22:15:44.348043  1897 net.cpp:412] pool2 <- conv2
I1013 22:15:44.348049  1897 net.cpp:370] pool2 -> pool2
I1013 22:15:44.348058  1897 net.cpp:122] Setting up pool2
I1013 22:15:44.348067  1897 net.cpp:129] Top shape: 10 256 13 13 (432640)
I1013 22:15:44.348073  1897 layer_factory.hpp:74] Creating layer norm2
I1013 22:15:44.348081  1897 net.cpp:92] Creating Layer norm2
I1013 22:15:44.348086  1897 net.cpp:412] norm2 <- pool2
I1013 22:15:44.348093  1897 net.cpp:370] norm2 -> norm2
I1013 22:15:44.348099  1897 net.cpp:122] Setting up norm2
I1013 22:15:44.348108  1897 net.cpp:129] Top shape: 10 256 13 13 (432640)
I1013 22:15:44.348112  1897 layer_factory.hpp:74] Creating layer conv3
I1013 22:15:44.348121  1897 net.cpp:92] Creating Layer conv3
I1013 22:15:44.348125  1897 net.cpp:412] conv3 <- norm2
I1013 22:15:44.348134  1897 net.cpp:370] conv3 -> conv3
I1013 22:15:44.348140  1897 net.cpp:122] Setting up conv3
I1013 22:15:44.368381  1897 net.cpp:129] Top shape: 10 384 13 13 (648960)
I1013 22:15:44.368394  1897 layer_factory.hpp:74] Creating layer relu3
I1013 22:15:44.368402  1897 net.cpp:92] Creating Layer relu3
I1013 22:15:44.368407  1897 net.cpp:412] relu3 <- conv3
I1013 22:15:44.368413  1897 net.cpp:359] relu3 -> conv3 (in-place)
I1013 22:15:44.368420  1897 net.cpp:122] Setting up relu3
I1013 22:15:44.368427  1897 net.cpp:129] Top shape: 10 384 13 13 (648960)
I1013 22:15:44.368432  1897 layer_factory.hpp:74] Creating layer conv4
I1013 22:15:44.368438  1897 net.cpp:92] Creating Layer conv4
I1013 22:15:44.368443  1897 net.cpp:412] conv4 <- conv3
I1013 22:15:44.368450  1897 net.cpp:370] conv4 -> conv4
I1013 22:15:44.368458  1897 net.cpp:122] Setting up conv4
I1013 22:15:44.383735  1897 net.cpp:129] Top shape: 10 384 13 13 (648960)
I1013 22:15:44.383750  1897 layer_factory.hpp:74] Creating layer relu4
I1013 22:15:44.383757  1897 net.cpp:92] Creating Layer relu4
I1013 22:15:44.383762  1897 net.cpp:412] relu4 <- conv4
I1013 22:15:44.383769  1897 net.cpp:359] relu4 -> conv4 (in-place)
I1013 22:15:44.383774  1897 net.cpp:122] Setting up relu4
I1013 22:15:44.383780  1897 net.cpp:129] Top shape: 10 384 13 13 (648960)
I1013 22:15:44.383785  1897 layer_factory.hpp:74] Creating layer conv5
I1013 22:15:44.383801  1897 net.cpp:92] Creating Layer conv5
I1013 22:15:44.383813  1897 net.cpp:412] conv5 <- conv4
I1013 22:15:44.383821  1897 net.cpp:370] conv5 -> conv5
I1013 22:15:44.383829  1897 net.cpp:122] Setting up conv5
I1013 22:15:44.394013  1897 net.cpp:129] Top shape: 10 256 13 13 (432640)
I1013 22:15:44.394029  1897 layer_factory.hpp:74] Creating layer relu5
I1013 22:15:44.394037  1897 net.cpp:92] Creating Layer relu5
I1013 22:15:44.394042  1897 net.cpp:412] relu5 <- conv5
I1013 22:15:44.394048  1897 net.cpp:359] relu5 -> conv5 (in-place)
I1013 22:15:44.394055  1897 net.cpp:122] Setting up relu5
I1013 22:15:44.394062  1897 net.cpp:129] Top shape: 10 256 13 13 (432640)
I1013 22:15:44.394068  1897 layer_factory.hpp:74] Creating layer pool5
I1013 22:15:44.394076  1897 net.cpp:92] Creating Layer pool5
I1013 22:15:44.394081  1897 net.cpp:412] pool5 <- conv5
I1013 22:15:44.394088  1897 net.cpp:370] pool5 -> pool5
I1013 22:15:44.394095  1897 net.cpp:122] Setting up pool5
I1013 22:15:44.394104  1897 net.cpp:129] Top shape: 10 256 6 6 (92160)
I1013 22:15:44.394109  1897 layer_factory.hpp:74] Creating layer fc6
I1013 22:15:44.394119  1897 net.cpp:92] Creating Layer fc6
I1013 22:15:44.394124  1897 net.cpp:412] fc6 <- pool5
I1013 22:15:44.394130  1897 net.cpp:370] fc6 -> fc6
I1013 22:15:44.394137  1897 net.cpp:122] Setting up fc6
I1013 22:15:45.250982  1897 net.cpp:129] Top shape: 10 4096 (40960)
I1013 22:15:45.251025  1897 layer_factory.hpp:74] Creating layer relu6
I1013 22:15:45.251036  1897 net.cpp:92] Creating Layer relu6
I1013 22:15:45.251044  1897 net.cpp:412] relu6 <- fc6
I1013 22:15:45.251051  1897 net.cpp:359] relu6 -> fc6 (in-place)
I1013 22:15:45.251060  1897 net.cpp:122] Setting up relu6
I1013 22:15:45.251066  1897 net.cpp:129] Top shape: 10 4096 (40960)
I1013 22:15:45.251071  1897 layer_factory.hpp:74] Creating layer drop6
I1013 22:15:45.251078  1897 net.cpp:92] Creating Layer drop6
I1013 22:15:45.251083  1897 net.cpp:412] drop6 <- fc6
I1013 22:15:45.251091  1897 net.cpp:359] drop6 -> fc6 (in-place)
I1013 22:15:45.251097  1897 net.cpp:122] Setting up drop6
I1013 22:15:45.251104  1897 net.cpp:129] Top shape: 10 4096 (40960)
I1013 22:15:45.251109  1897 layer_factory.hpp:74] Creating layer fc7
I1013 22:15:45.251118  1897 net.cpp:92] Creating Layer fc7
I1013 22:15:45.251123  1897 net.cpp:412] fc7 <- fc6
I1013 22:15:45.251129  1897 net.cpp:370] fc7 -> fc7
I1013 22:15:45.251138  1897 net.cpp:122] Setting up fc7
I1013 22:15:45.631855  1897 net.cpp:129] Top shape: 10 4096 (40960)
I1013 22:15:45.631893  1897 layer_factory.hpp:74] Creating layer relu7
I1013 22:15:45.631906  1897 net.cpp:92] Creating Layer relu7
I1013 22:15:45.631912  1897 net.cpp:412] relu7 <- fc7
I1013 22:15:45.631922  1897 net.cpp:359] relu7 -> fc7 (in-place)
I1013 22:15:45.631930  1897 net.cpp:122] Setting up relu7
I1013 22:15:45.631937  1897 net.cpp:129] Top shape: 10 4096 (40960)
I1013 22:15:45.631942  1897 layer_factory.hpp:74] Creating layer drop7
I1013 22:15:45.631948  1897 net.cpp:92] Creating Layer drop7
I1013 22:15:45.631953  1897 net.cpp:412] drop7 <- fc7
I1013 22:15:45.631960  1897 net.cpp:359] drop7 -> fc7 (in-place)
I1013 22:15:45.631968  1897 net.cpp:122] Setting up drop7
I1013 22:15:45.631974  1897 net.cpp:129] Top shape: 10 4096 (40960)
I1013 22:15:45.631979  1897 layer_factory.hpp:74] Creating layer fc8
I1013 22:15:45.631988  1897 net.cpp:92] Creating Layer fc8
I1013 22:15:45.631992  1897 net.cpp:412] fc8 <- fc7
I1013 22:15:45.632000  1897 net.cpp:370] fc8 -> fc8
I1013 22:15:45.632011  1897 net.cpp:122] Setting up fc8
I1013 22:15:45.632886  1897 net.cpp:129] Top shape: 10 9 (90)
I1013 22:15:45.632896  1897 layer_factory.hpp:74] Creating layer fc8_fc8_0_split
I1013 22:15:45.632905  1897 net.cpp:92] Creating Layer fc8_fc8_0_split
I1013 22:15:45.632910  1897 net.cpp:412] fc8_fc8_0_split <- fc8
I1013 22:15:45.632916  1897 net.cpp:370] fc8_fc8_0_split -> fc8_fc8_0_split_0
I1013 22:15:45.632923  1897 net.cpp:370] fc8_fc8_0_split -> fc8_fc8_0_split_1
I1013 22:15:45.632930  1897 net.cpp:122] Setting up fc8_fc8_0_split
I1013 22:15:45.632946  1897 net.cpp:129] Top shape: 10 9 (90)
I1013 22:15:45.632951  1897 net.cpp:129] Top shape: 10 9 (90)
I1013 22:15:45.632964  1897 layer_factory.hpp:74] Creating layer accuracy
I1013 22:15:45.632972  1897 net.cpp:92] Creating Layer accuracy
I1013 22:15:45.632977  1897 net.cpp:412] accuracy <- fc8_fc8_0_split_0
I1013 22:15:45.632983  1897 net.cpp:412] accuracy <- label_data_1_split_0
I1013 22:15:45.632989  1897 net.cpp:370] accuracy -> accuracy
I1013 22:15:45.632997  1897 net.cpp:122] Setting up accuracy
…
