…
I1007 22:23:05.882052 31148 net.cpp:289] The NetState phase (0) differed from the phase (1) specified by a rule in layer accuracy
I1007 22:23:05.882194 31148 net.cpp:44] Initializing net from parameters: 
name: "CaffeNet"
state {
  phase: TRAIN
}
layer {
  name: "data"
  type: "Data"
  top: "data"
  top: "label"
  include {
    phase: TRAIN
  }
  transform_param {
    mirror: true
    crop_size: 227
    mean_file: "data/acWhole_2/imagenet_mean.binaryproto"
  }
  data_param {
    source: "acWhole_2/imagenet_train_leveldb"
    batch_size: 64
    backend: LMDB
  }
}
layer {
  name: "conv1"
  type: "Convolution"
  bottom: "data"
  top: "conv1"
  param {
    lr_mult: 1
    decay_mult: 1
  }
  param {
    lr_mult: 2
    decay_mult: 0
  }
  convolution_param {
    num_output: 96
    kernel_size: 11
    stride: 4
    weight_filler {
      type: "gaussian"
      std: 0.01
    }
    bias_filler {
      type: "constant"
      value: 0
    }
  }
}
layer {
  name: "relu1"
  type: "ReLU"
  bottom: "conv1"
  top: "conv1"
}
layer {
  name: "pool1"
  type: "Pooling"
  bottom: "conv1"
  top: "pool1"
  pooling_param {
    pool: MAX
    kernel_size: 3
    stride: 2
  }
}
layer {
  name: "norm1"
  type: "LRN"
  bottom: "pool1"
  top: "norm1"
  lrn_param {
    local_size: 5
    alpha: 0.0001
    beta: 0.75
  }
}
layer {
  name: "conv2"
  type: "Convolution"
  bottom: "norm1"
  top: "conv2"
  param {
    lr_mult: 1
    decay_mult: 1
  }
  param {
    lr_mult: 2
    decay_mult: 0
  }
  convolution_param {
    num_output: 256
    pad: 2
    kernel_size: 5
    group: 2
    weight_filler {
      type: "gaussian"
      std: 0.01
    }
    bias_filler {
      type: "constant"
      value: 1
    }
  }
}
layer {
  name: "relu2"
  type: "ReLU"
  bottom: "conv2"
  top: "conv2"
}
layer {
  name: "pool2"
  type: "Pooling"
  bottom: "conv2"
  top: "pool2"
  pooling_param {
    pool: MAX
    kernel_size: 3
    stride: 2
  }
}
layer {
  name: "norm2"
  type: "LRN"
  bottom: "pool2"
  top: "norm2"
  lrn_param {
    local_size: 5
    alpha: 0.0001
    beta: 0.75
  }
}
layer {
  name: "conv3"
  type: "Convolution"
  bottom: "norm2"
  top: "conv3"
  param {
    lr_mult: 1
    decay_mult: 1
  }
  param {
    lr_mult: 2
    decay_mult: 0
  }
  convolution_param {
    num_output: 384
    pad: 1
    kernel_size: 3
    weight_filler {
      type: "gaussian"
      std: 0.01
    }
    bias_filler {
      type: "constant"
      value: 0
    }
  }
}
layer {
  name: "relu3"
  type: "ReLU"
  bottom: "conv3"
  top: "conv3"
}
layer {
  name: "conv4"
  type: "Convolution"
  bottom: "conv3"
  top: "conv4"
  param {
    lr_mult: 1
    decay_mult: 1
  }
  param {
    lr_mult: 2
    decay_mult: 0
  }
  convolution_param {
    num_output: 384
    pad: 1
    kernel_size: 3
    group: 2
    weight_filler {
      type: "gaussian"
      std: 0.01
    }
    bias_filler {
      type: "constant"
      value: 1
    }
  }
}
layer {
  name: "relu4"
  type: "ReLU"
  bottom: "conv4"
  top: "conv4"
}
layer {
  name: "conv5"
  type: "Convolution"
  bottom: "conv4"
  top: "conv5"
  param {
    lr_mult: 1
    decay_mult: 1
  }
  param {
    lr_mult: 2
    decay_mult: 0
  }
  convolution_param {
    num_output: 256
    pad: 1
    kernel_size: 3
    group: 2
    weight_filler {
      type: "gaussian"
      std: 0.01
    }
    bias_filler {
      type: "constant"
      value: 1
    }
  }
}
layer {
  name: "relu5"
  type: "ReLU"
  bottom: "conv5"
  top: "conv5"
}
layer {
  name: "pool5"
  type: "Pooling"
  bottom: "conv5"
  top: "pool5"
  pooling_param {
    pool: MAX
    kernel_size: 3
    stride: 2
  }
}
layer {
  name: "fc6"
  type: "InnerProduct"
  bottom: "pool5"
  top: "fc6"
  param {
    lr_mult: 1
    decay_mult: 1
  }
  param {
    lr_mult: 2
    decay_mult: 0
  }
  inner_product_param {
    num_output: 4096
    weight_filler {
      type: "gaussian"
      std: 0.005
    }
    bias_filler {
      type: "constant"
      value: 1
    }
  }
}
layer {
  name: "relu6"
  type: "ReLU"
  bottom: "fc6"
  top: "fc6"
}
layer {
  name: "drop6"
  type: "Dropout"
  bottom: "fc6"
  top: "fc6"
  dropout_param {
    dropout_ratio: 0.5
  }
}
layer {
  name: "fc7"
  type: "InnerProduct"
  bottom: "fc6"
  top: "fc7"
  param {
    lr_mult: 1
    decay_mult: 1
  }
  param {
    lr_mult: 2
    decay_mult: 0
  }
  inner_product_param {
    num_output: 4096
    weight_filler {
      type: "gaussian"
      std: 0.005
    }
    bias_filler {
      type: "constant"
      value: 1
    }
  }
}
layer {
  name: "relu7"
  type: "ReLU"
  bottom: "fc7"
  top: "fc7"
}
layer {
  name: "drop7"
  type: "Dropout"
  bottom: "fc7"
  top: "fc7"
  dropout_param {
    dropout_ratio: 0.5
  }
}
layer {
  name: "fc8"
  type: "InnerProduct"
  bottom: "fc7"
  top: "fc8"
  param {
    lr_mult: 1
    decay_mult: 1
  }
  param {
    lr_mult: 2
    decay_mult: 0
  }
  inner_product_param {
    num_output: 2
    weight_filler {
      type: "gaussian"
      std: 0.01
    }
    bias_filler {
      type: "constant"
      value: 0
    }
  }
}
layer {
  name: "loss"
  type: "SoftmaxWithLoss"
  bottom: "fc8"
  bottom: "label"
  top: "loss"
}
I1007 22:23:05.882293 31148 layer_factory.hpp:74] Creating layer data
I1007 22:23:05.882314 31148 net.cpp:92] Creating Layer data
I1007 22:23:05.882323 31148 net.cpp:370] data -> data
I1007 22:23:05.882344 31148 net.cpp:370] data -> label
I1007 22:23:05.882354 31148 net.cpp:122] Setting up data
I1007 22:23:05.882361 31148 data_transformer.cpp:22] Loading mean file from: data/acWhole_2/imagenet_mean.binaryproto
I1007 22:23:05.883877 31148 db_lmdb.cpp:22] Opened lmdb acWhole_2/imagenet_train_leveldb
I1007 22:23:05.883947 31148 data_layer.cpp:52] output data size: 64,3,227,227
I1007 22:23:05.888847 31148 net.cpp:129] Top shape: 64 3 227 227 (9893568)
I1007 22:23:05.888888 31148 net.cpp:129] Top shape: 64 (64)
I1007 22:23:05.888900 31148 layer_factory.hpp:74] Creating layer conv1
I1007 22:23:05.888917 31148 net.cpp:92] Creating Layer conv1
I1007 22:23:05.888924 31148 net.cpp:412] conv1 <- data
I1007 22:23:05.888937 31148 net.cpp:370] conv1 -> conv1
I1007 22:23:05.888953 31148 net.cpp:122] Setting up conv1
I1007 22:23:05.889807 31148 net.cpp:129] Top shape: 64 96 55 55 (18585600)
I1007 22:23:05.889827 31148 layer_factory.hpp:74] Creating layer relu1
I1007 22:23:05.889835 31148 net.cpp:92] Creating Layer relu1
I1007 22:23:05.889840 31148 net.cpp:412] relu1 <- conv1
I1007 22:23:05.889847 31148 net.cpp:359] relu1 -> conv1 (in-place)
I1007 22:23:05.889853 31148 net.cpp:122] Setting up relu1
I1007 22:23:05.889860 31148 net.cpp:129] Top shape: 64 96 55 55 (18585600)
I1007 22:23:05.889864 31148 layer_factory.hpp:74] Creating layer pool1
I1007 22:23:05.889873 31148 net.cpp:92] Creating Layer pool1
I1007 22:23:05.889878 31148 net.cpp:412] pool1 <- conv1
I1007 22:23:05.889883 31148 net.cpp:370] pool1 -> pool1
I1007 22:23:05.889891 31148 net.cpp:122] Setting up pool1
I1007 22:23:05.889909 31148 net.cpp:129] Top shape: 64 96 27 27 (4478976)
I1007 22:23:05.889914 31148 layer_factory.hpp:74] Creating layer norm1
I1007 22:23:05.889922 31148 net.cpp:92] Creating Layer norm1
I1007 22:23:05.889927 31148 net.cpp:412] norm1 <- pool1
I1007 22:23:05.889933 31148 net.cpp:370] norm1 -> norm1
I1007 22:23:05.889943 31148 net.cpp:122] Setting up norm1
I1007 22:23:05.889955 31148 net.cpp:129] Top shape: 64 96 27 27 (4478976)
I1007 22:23:05.889961 31148 layer_factory.hpp:74] Creating layer conv2
I1007 22:23:05.889967 31148 net.cpp:92] Creating Layer conv2
I1007 22:23:05.889982 31148 net.cpp:412] conv2 <- norm1
I1007 22:23:05.889989 31148 net.cpp:370] conv2 -> conv2
I1007 22:23:05.890004 31148 net.cpp:122] Setting up conv2
I1007 22:23:05.897352 31148 net.cpp:129] Top shape: 64 256 27 27 (11943936)
I1007 22:23:05.897392 31148 layer_factory.hpp:74] Creating layer relu2
I1007 22:23:05.897403 31148 net.cpp:92] Creating Layer relu2
I1007 22:23:05.897408 31148 net.cpp:412] relu2 <- conv2
I1007 22:23:05.897418 31148 net.cpp:359] relu2 -> conv2 (in-place)
I1007 22:23:05.897429 31148 net.cpp:122] Setting up relu2
I1007 22:23:05.897436 31148 net.cpp:129] Top shape: 64 256 27 27 (11943936)
I1007 22:23:05.897442 31148 layer_factory.hpp:74] Creating layer pool2
I1007 22:23:05.897450 31148 net.cpp:92] Creating Layer pool2
I1007 22:23:05.897454 31148 net.cpp:412] pool2 <- conv2
I1007 22:23:05.897461 31148 net.cpp:370] pool2 -> pool2
I1007 22:23:05.897469 31148 net.cpp:122] Setting up pool2
I1007 22:23:05.897478 31148 net.cpp:129] Top shape: 64 256 13 13 (2768896)
I1007 22:23:05.897483 31148 layer_factory.hpp:74] Creating layer norm2
I1007 22:23:05.897493 31148 net.cpp:92] Creating Layer norm2
I1007 22:23:05.897498 31148 net.cpp:412] norm2 <- pool2
I1007 22:23:05.897507 31148 net.cpp:370] norm2 -> norm2
I1007 22:23:05.897514 31148 net.cpp:122] Setting up norm2
I1007 22:23:05.897522 31148 net.cpp:129] Top shape: 64 256 13 13 (2768896)
I1007 22:23:05.897527 31148 layer_factory.hpp:74] Creating layer conv3
I1007 22:23:05.897536 31148 net.cpp:92] Creating Layer conv3
I1007 22:23:05.897541 31148 net.cpp:412] conv3 <- norm2
I1007 22:23:05.897548 31148 net.cpp:370] conv3 -> conv3
I1007 22:23:05.897557 31148 net.cpp:122] Setting up conv3
I1007 22:23:05.918457 31148 net.cpp:129] Top shape: 64 384 13 13 (4153344)
I1007 22:23:05.918498 31148 layer_factory.hpp:74] Creating layer relu3
I1007 22:23:05.918511 31148 net.cpp:92] Creating Layer relu3
I1007 22:23:05.918517 31148 net.cpp:412] relu3 <- conv3
I1007 22:23:05.918525 31148 net.cpp:359] relu3 -> conv3 (in-place)
I1007 22:23:05.918534 31148 net.cpp:122] Setting up relu3
I1007 22:23:05.918541 31148 net.cpp:129] Top shape: 64 384 13 13 (4153344)
I1007 22:23:05.918547 31148 layer_factory.hpp:74] Creating layer conv4
I1007 22:23:05.918560 31148 net.cpp:92] Creating Layer conv4
I1007 22:23:05.918565 31148 net.cpp:412] conv4 <- conv3
I1007 22:23:05.918572 31148 net.cpp:370] conv4 -> conv4
I1007 22:23:05.918581 31148 net.cpp:122] Setting up conv4
I1007 22:23:05.934078 31148 net.cpp:129] Top shape: 64 384 13 13 (4153344)
I1007 22:23:05.934110 31148 layer_factory.hpp:74] Creating layer relu4
I1007 22:23:05.934121 31148 net.cpp:92] Creating Layer relu4
I1007 22:23:05.934126 31148 net.cpp:412] relu4 <- conv4
I1007 22:23:05.934139 31148 net.cpp:359] relu4 -> conv4 (in-place)
I1007 22:23:05.934147 31148 net.cpp:122] Setting up relu4
I1007 22:23:05.934154 31148 net.cpp:129] Top shape: 64 384 13 13 (4153344)
I1007 22:23:05.934159 31148 layer_factory.hpp:74] Creating layer conv5
I1007 22:23:05.934168 31148 net.cpp:92] Creating Layer conv5
I1007 22:23:05.934173 31148 net.cpp:412] conv5 <- conv4
I1007 22:23:05.934181 31148 net.cpp:370] conv5 -> conv5
I1007 22:23:05.934190 31148 net.cpp:122] Setting up conv5
I1007 22:23:05.944403 31148 net.cpp:129] Top shape: 64 256 13 13 (2768896)
I1007 22:23:05.944418 31148 layer_factory.hpp:74] Creating layer relu5
I1007 22:23:05.944425 31148 net.cpp:92] Creating Layer relu5
I1007 22:23:05.944432 31148 net.cpp:412] relu5 <- conv5
I1007 22:23:05.944437 31148 net.cpp:359] relu5 -> conv5 (in-place)
I1007 22:23:05.944443 31148 net.cpp:122] Setting up relu5
I1007 22:23:05.944449 31148 net.cpp:129] Top shape: 64 256 13 13 (2768896)
I1007 22:23:05.944454 31148 layer_factory.hpp:74] Creating layer pool5
I1007 22:23:05.944461 31148 net.cpp:92] Creating Layer pool5
I1007 22:23:05.944466 31148 net.cpp:412] pool5 <- conv5
I1007 22:23:05.944473 31148 net.cpp:370] pool5 -> pool5
I1007 22:23:05.944479 31148 net.cpp:122] Setting up pool5
I1007 22:23:05.944489 31148 net.cpp:129] Top shape: 64 256 6 6 (589824)
I1007 22:23:05.944494 31148 layer_factory.hpp:74] Creating layer fc6
I1007 22:23:05.944514 31148 net.cpp:92] Creating Layer fc6
I1007 22:23:05.944526 31148 net.cpp:412] fc6 <- pool5
I1007 22:23:05.944535 31148 net.cpp:370] fc6 -> fc6
I1007 22:23:05.944545 31148 net.cpp:122] Setting up fc6
I1007 22:23:06.801622 31148 net.cpp:129] Top shape: 64 4096 (262144)
I1007 22:23:06.801664 31148 layer_factory.hpp:74] Creating layer relu6
I1007 22:23:06.801677 31148 net.cpp:92] Creating Layer relu6
I1007 22:23:06.801684 31148 net.cpp:412] relu6 <- fc6
I1007 22:23:06.801692 31148 net.cpp:359] relu6 -> fc6 (in-place)
I1007 22:23:06.801702 31148 net.cpp:122] Setting up relu6
I1007 22:23:06.801707 31148 net.cpp:129] Top shape: 64 4096 (262144)
I1007 22:23:06.801712 31148 layer_factory.hpp:74] Creating layer drop6
I1007 22:23:06.801724 31148 net.cpp:92] Creating Layer drop6
I1007 22:23:06.801729 31148 net.cpp:412] drop6 <- fc6
I1007 22:23:06.801738 31148 net.cpp:359] drop6 -> fc6 (in-place)
I1007 22:23:06.801748 31148 net.cpp:122] Setting up drop6
I1007 22:23:06.801756 31148 net.cpp:129] Top shape: 64 4096 (262144)
I1007 22:23:06.801761 31148 layer_factory.hpp:74] Creating layer fc7
I1007 22:23:06.801770 31148 net.cpp:92] Creating Layer fc7
I1007 22:23:06.801775 31148 net.cpp:412] fc7 <- fc6
I1007 22:23:06.801782 31148 net.cpp:370] fc7 -> fc7
I1007 22:23:06.801791 31148 net.cpp:122] Setting up fc7
I1007 22:23:07.182554 31148 net.cpp:129] Top shape: 64 4096 (262144)
I1007 22:23:07.182595 31148 layer_factory.hpp:74] Creating layer relu7
I1007 22:23:07.182606 31148 net.cpp:92] Creating Layer relu7
I1007 22:23:07.182612 31148 net.cpp:412] relu7 <- fc7
I1007 22:23:07.182621 31148 net.cpp:359] relu7 -> fc7 (in-place)
I1007 22:23:07.182631 31148 net.cpp:122] Setting up relu7
I1007 22:23:07.182637 31148 net.cpp:129] Top shape: 64 4096 (262144)
I1007 22:23:07.182642 31148 layer_factory.hpp:74] Creating layer drop7
I1007 22:23:07.182649 31148 net.cpp:92] Creating Layer drop7
I1007 22:23:07.182654 31148 net.cpp:412] drop7 <- fc7
I1007 22:23:07.182660 31148 net.cpp:359] drop7 -> fc7 (in-place)
I1007 22:23:07.182667 31148 net.cpp:122] Setting up drop7
I1007 22:23:07.182674 31148 net.cpp:129] Top shape: 64 4096 (262144)
I1007 22:23:07.182678 31148 layer_factory.hpp:74] Creating layer fc8
I1007 22:23:07.182690 31148 net.cpp:92] Creating Layer fc8
I1007 22:23:07.182695 31148 net.cpp:412] fc8 <- fc7
I1007 22:23:07.182703 31148 net.cpp:370] fc8 -> fc8
I1007 22:23:07.182710 31148 net.cpp:122] Setting up fc8
I1007 22:23:07.182911 31148 net.cpp:129] Top shape: 64 2 (128)
I1007 22:23:07.182919 31148 layer_factory.hpp:74] Creating layer loss
I1007 22:23:07.182927 31148 net.cpp:92] Creating Layer loss
I1007 22:23:07.182931 31148 net.cpp:412] loss <- fc8
I1007 22:23:07.182937 31148 net.cpp:412] loss <- label
I1007 22:23:07.182947 31148 net.cpp:370] loss -> loss
I1007 22:23:07.182955 31148 net.cpp:122] Setting up loss
I1007 22:23:07.182962 31148 layer_factory.hpp:74] Creating layer loss
…
I1007 22:23:07.183794 31148 net.cpp:289] The NetState phase (1) differed from the phase (0) specified by a rule in layer data
I1007 22:23:07.183949 31148 net.cpp:44] Initializing net from parameters: 
name: "CaffeNet"
state {
  phase: TEST
}
layer {
  name: "data"
  type: "Data"
  top: "data"
  top: "label"
  include {
    phase: TEST
  }
  transform_param {
    mirror: true
    crop_size: 227
    mean_file: "data/acWhole_2/imagenet_mean.binaryproto"
  }
  data_param {
    source: "acWhole_2/imagenet_val_leveldb"
    mean_file: "data/acWhole_2/imagenet_mean.binartproto"
    batch_size: 10
    crop_size: 227
    mirror: false
    backend: LMDB
  }
}
layer {
  name: "conv1"
  type: "Convolution"
  bottom: "data"
  top: "conv1"
  param {
    lr_mult: 1
    decay_mult: 1
  }
  param {
    lr_mult: 2
    decay_mult: 0
  }
  convolution_param {
    num_output: 96
    kernel_size: 11
    stride: 4
    weight_filler {
      type: "gaussian"
      std: 0.01
    }
    bias_filler {
      type: "constant"
      value: 0
    }
  }
}
layer {
  name: "relu1"
  type: "ReLU"
  bottom: "conv1"
  top: "conv1"
}
layer {
  name: "pool1"
  type: "Pooling"
  bottom: "conv1"
  top: "pool1"
  pooling_param {
    pool: MAX
    kernel_size: 3
    stride: 2
  }
}
layer {
  name: "norm1"
  type: "LRN"
  bottom: "pool1"
  top: "norm1"
  lrn_param {
    local_size: 5
    alpha: 0.0001
    beta: 0.75
  }
}
layer {
  name: "conv2"
  type: "Convolution"
  bottom: "norm1"
  top: "conv2"
  param {
    lr_mult: 1
    decay_mult: 1
  }
  param {
    lr_mult: 2
    decay_mult: 0
  }
  convolution_param {
    num_output: 256
    pad: 2
    kernel_size: 5
    group: 2
    weight_filler {
      type: "gaussian"
      std: 0.01
    }
    bias_filler {
      type: "constant"
      value: 1
    }
  }
}
layer {
  name: "relu2"
  type: "ReLU"
  bottom: "conv2"
  top: "conv2"
}
layer {
  name: "pool2"
  type: "Pooling"
  bottom: "conv2"
  top: "pool2"
  pooling_param {
    pool: MAX
    kernel_size: 3
    stride: 2
  }
}
layer {
  name: "norm2"
  type: "LRN"
  bottom: "pool2"
  top: "norm2"
  lrn_param {
    local_size: 5
    alpha: 0.0001
    beta: 0.75
  }
}
layer {
  name: "conv3"
  type: "Convolution"
  bottom: "norm2"
  top: "conv3"
  param {
    lr_mult: 1
    decay_mult: 1
  }
  param {
    lr_mult: 2
    decay_mult: 0
  }
  convolution_param {
    num_output: 384
    pad: 1
    kernel_size: 3
    weight_filler {
      type: "gaussian"
      std: 0.01
    }
    bias_filler {
      type: "constant"
      value: 0
    }
  }
}
layer {
  name: "relu3"
  type: "ReLU"
  bottom: "conv3"
  top: "conv3"
}
layer {
  name: "conv4"
  type: "Convolution"
  bottom: "conv3"
  top: "conv4"
  param {
    lr_mult: 1
    decay_mult: 1
  }
  param {
    lr_mult: 2
    decay_mult: 0
  }
  convolution_param {
    num_output: 384
    pad: 1
    kernel_size: 3
    group: 2
    weight_filler {
      type: "gaussian"
      std: 0.01
    }
    bias_filler {
      type: "constant"
      value: 1
    }
  }
}
layer {
  name: "relu4"
  type: "ReLU"
  bottom: "conv4"
  top: "conv4"
}
layer {
  name: "conv5"
  type: "Convolution"
  bottom: "conv4"
  top: "conv5"
  param {
    lr_mult: 1
    decay_mult: 1
  }
  param {
    lr_mult: 2
    decay_mult: 0
  }
  convolution_param {
    num_output: 256
    pad: 1
    kernel_size: 3
    group: 2
    weight_filler {
      type: "gaussian"
      std: 0.01
    }
    bias_filler {
      type: "constant"
      value: 1
    }
  }
}
layer {
  name: "relu5"
  type: "ReLU"
  bottom: "conv5"
  top: "conv5"
}
layer {
  name: "pool5"
  type: "Pooling"
  bottom: "conv5"
  top: "pool5"
  pooling_param {
    pool: MAX
    kernel_size: 3
    stride: 2
  }
}
layer {
  name: "fc6"
  type: "InnerProduct"
  bottom: "pool5"
  top: "fc6"
  param {
    lr_mult: 1
    decay_mult: 1
  }
  param {
    lr_mult: 2
    decay_mult: 0
  }
  inner_product_param {
    num_output: 4096
    weight_filler {
      type: "gaussian"
      std: 0.005
    }
    bias_filler {
      type: "constant"
      value: 1
    }
  }
}
layer {
  name: "relu6"
  type: "ReLU"
  bottom: "fc6"
  top: "fc6"
}
layer {
  name: "drop6"
  type: "Dropout"
  bottom: "fc6"
  top: "fc6"
  dropout_param {
    dropout_ratio: 0.5
  }
}
layer {
  name: "fc7"
  type: "InnerProduct"
  bottom: "fc6"
  top: "fc7"
  param {
    lr_mult: 1
    decay_mult: 1
  }
  param {
    lr_mult: 2
    decay_mult: 0
  }
  inner_product_param {
    num_output: 4096
    weight_filler {
      type: "gaussian"
      std: 0.005
    }
    bias_filler {
      type: "constant"
      value: 1
    }
  }
}
layer {
  name: "relu7"
  type: "ReLU"
  bottom: "fc7"
  top: "fc7"
}
layer {
  name: "drop7"
  type: "Dropout"
  bottom: "fc7"
  top: "fc7"
  dropout_param {
    dropout_ratio: 0.5
  }
}
layer {
  name: "fc8"
  type: "InnerProduct"
  bottom: "fc7"
  top: "fc8"
  param {
    lr_mult: 1
    decay_mult: 1
  }
  param {
    lr_mult: 2
    decay_mult: 0
  }
  inner_product_param {
    num_output: 2
    weight_filler {
      type: "gaussian"
      std: 0.01
    }
    bias_filler {
      type: "constant"
      value: 0
    }
  }
}
layer {
  name: "accuracy"
  type: "Accuracy"
  bottom: "fc8"
  bottom: "label"
  top: "accuracy"
  include {
    phase: TEST
  }
}
layer {
  name: "loss"
  type: "SoftmaxWithLoss"
  bottom: "fc8"
  bottom: "label"
  top: "loss"
}
I1007 22:23:07.184057 31148 layer_factory.hpp:74] Creating layer data
I1007 22:23:07.184069 31148 net.cpp:92] Creating Layer data
I1007 22:23:07.184075 31148 net.cpp:370] data -> data
I1007 22:23:07.184085 31148 net.cpp:370] data -> label
I1007 22:23:07.184093 31148 net.cpp:122] Setting up data
I1007 22:23:07.184098 31148 data_transformer.cpp:22] Loading mean file from: data/acWhole_2/imagenet_mean.binaryproto
I1007 22:23:07.185400 31148 db_lmdb.cpp:22] Opened lmdb acWhole_2/imagenet_val_leveldb
I1007 22:23:07.185468 31148 data_layer.cpp:52] output data size: 10,3,227,227
I1007 22:23:07.186383 31148 net.cpp:129] Top shape: 10 3 227 227 (1545870)
I1007 22:23:07.186406 31148 net.cpp:129] Top shape: 10 (10)
I1007 22:23:07.186414 31148 layer_factory.hpp:74] Creating layer label_data_1_split
I1007 22:23:07.186426 31148 net.cpp:92] Creating Layer label_data_1_split
I1007 22:23:07.186434 31148 net.cpp:412] label_data_1_split <- label
I1007 22:23:07.186444 31148 net.cpp:370] label_data_1_split -> label_data_1_split_0
I1007 22:23:07.186457 31148 net.cpp:370] label_data_1_split -> label_data_1_split_1
I1007 22:23:07.186465 31148 net.cpp:122] Setting up label_data_1_split
I1007 22:23:07.186473 31148 net.cpp:129] Top shape: 10 (10)
I1007 22:23:07.186480 31148 net.cpp:129] Top shape: 10 (10)
I1007 22:23:07.186483 31148 layer_factory.hpp:74] Creating layer conv1
I1007 22:23:07.186494 31148 net.cpp:92] Creating Layer conv1
I1007 22:23:07.186499 31148 net.cpp:412] conv1 <- data
I1007 22:23:07.186506 31148 net.cpp:370] conv1 -> conv1
I1007 22:23:07.186514 31148 net.cpp:122] Setting up conv1
I1007 22:23:07.187345 31148 net.cpp:129] Top shape: 10 96 55 55 (2904000)
I1007 22:23:07.187358 31148 layer_factory.hpp:74] Creating layer relu1
I1007 22:23:07.187374 31148 net.cpp:92] Creating Layer relu1
I1007 22:23:07.187379 31148 net.cpp:412] relu1 <- conv1
I1007 22:23:07.187394 31148 net.cpp:359] relu1 -> conv1 (in-place)
I1007 22:23:07.187402 31148 net.cpp:122] Setting up relu1
I1007 22:23:07.187407 31148 net.cpp:129] Top shape: 10 96 55 55 (2904000)
I1007 22:23:07.187412 31148 layer_factory.hpp:74] Creating layer pool1
I1007 22:23:07.187420 31148 net.cpp:92] Creating Layer pool1
I1007 22:23:07.187425 31148 net.cpp:412] pool1 <- conv1
I1007 22:23:07.187433 31148 net.cpp:370] pool1 -> pool1
I1007 22:23:07.187439 31148 net.cpp:122] Setting up pool1
I1007 22:23:07.187448 31148 net.cpp:129] Top shape: 10 96 27 27 (699840)
I1007 22:23:07.187453 31148 layer_factory.hpp:74] Creating layer norm1
I1007 22:23:07.187460 31148 net.cpp:92] Creating Layer norm1
I1007 22:23:07.187465 31148 net.cpp:412] norm1 <- pool1
I1007 22:23:07.187472 31148 net.cpp:370] norm1 -> norm1
I1007 22:23:07.187479 31148 net.cpp:122] Setting up norm1
I1007 22:23:07.187486 31148 net.cpp:129] Top shape: 10 96 27 27 (699840)
I1007 22:23:07.187491 31148 layer_factory.hpp:74] Creating layer conv2
I1007 22:23:07.187499 31148 net.cpp:92] Creating Layer conv2
I1007 22:23:07.187504 31148 net.cpp:412] conv2 <- norm1
I1007 22:23:07.187510 31148 net.cpp:370] conv2 -> conv2
I1007 22:23:07.187517 31148 net.cpp:122] Setting up conv2
I1007 22:23:07.194713 31148 net.cpp:129] Top shape: 10 256 27 27 (1866240)
I1007 22:23:07.194746 31148 layer_factory.hpp:74] Creating layer relu2
I1007 22:23:07.194756 31148 net.cpp:92] Creating Layer relu2
I1007 22:23:07.194761 31148 net.cpp:412] relu2 <- conv2
I1007 22:23:07.194771 31148 net.cpp:359] relu2 -> conv2 (in-place)
I1007 22:23:07.194779 31148 net.cpp:122] Setting up relu2
I1007 22:23:07.194785 31148 net.cpp:129] Top shape: 10 256 27 27 (1866240)
I1007 22:23:07.194790 31148 layer_factory.hpp:74] Creating layer pool2
I1007 22:23:07.194798 31148 net.cpp:92] Creating Layer pool2
I1007 22:23:07.194803 31148 net.cpp:412] pool2 <- conv2
I1007 22:23:07.194809 31148 net.cpp:370] pool2 -> pool2
I1007 22:23:07.194819 31148 net.cpp:122] Setting up pool2
I1007 22:23:07.194828 31148 net.cpp:129] Top shape: 10 256 13 13 (432640)
I1007 22:23:07.194834 31148 layer_factory.hpp:74] Creating layer norm2
I1007 22:23:07.194840 31148 net.cpp:92] Creating Layer norm2
I1007 22:23:07.194845 31148 net.cpp:412] norm2 <- pool2
I1007 22:23:07.194852 31148 net.cpp:370] norm2 -> norm2
I1007 22:23:07.194859 31148 net.cpp:122] Setting up norm2
I1007 22:23:07.194866 31148 net.cpp:129] Top shape: 10 256 13 13 (432640)
I1007 22:23:07.194871 31148 layer_factory.hpp:74] Creating layer conv3
I1007 22:23:07.194880 31148 net.cpp:92] Creating Layer conv3
I1007 22:23:07.194885 31148 net.cpp:412] conv3 <- norm2
I1007 22:23:07.194893 31148 net.cpp:370] conv3 -> conv3
I1007 22:23:07.194900 31148 net.cpp:122] Setting up conv3
I1007 22:23:07.215121 31148 net.cpp:129] Top shape: 10 384 13 13 (648960)
I1007 22:23:07.215136 31148 layer_factory.hpp:74] Creating layer relu3
I1007 22:23:07.215142 31148 net.cpp:92] Creating Layer relu3
I1007 22:23:07.215147 31148 net.cpp:412] relu3 <- conv3
I1007 22:23:07.215153 31148 net.cpp:359] relu3 -> conv3 (in-place)
I1007 22:23:07.215159 31148 net.cpp:122] Setting up relu3
I1007 22:23:07.215165 31148 net.cpp:129] Top shape: 10 384 13 13 (648960)
I1007 22:23:07.215170 31148 layer_factory.hpp:74] Creating layer conv4
I1007 22:23:07.215178 31148 net.cpp:92] Creating Layer conv4
I1007 22:23:07.215183 31148 net.cpp:412] conv4 <- conv3
I1007 22:23:07.215190 31148 net.cpp:370] conv4 -> conv4
I1007 22:23:07.215198 31148 net.cpp:122] Setting up conv4
I1007 22:23:07.230563 31148 net.cpp:129] Top shape: 10 384 13 13 (648960)
I1007 22:23:07.230581 31148 layer_factory.hpp:74] Creating layer relu4
I1007 22:23:07.230587 31148 net.cpp:92] Creating Layer relu4
I1007 22:23:07.230592 31148 net.cpp:412] relu4 <- conv4
I1007 22:23:07.230600 31148 net.cpp:359] relu4 -> conv4 (in-place)
I1007 22:23:07.230607 31148 net.cpp:122] Setting up relu4
I1007 22:23:07.230613 31148 net.cpp:129] Top shape: 10 384 13 13 (648960)
I1007 22:23:07.230626 31148 layer_factory.hpp:74] Creating layer conv5
I1007 22:23:07.230643 31148 net.cpp:92] Creating Layer conv5
I1007 22:23:07.230648 31148 net.cpp:412] conv5 <- conv4
I1007 22:23:07.230654 31148 net.cpp:370] conv5 -> conv5
I1007 22:23:07.230661 31148 net.cpp:122] Setting up conv5
I1007 22:23:07.240854 31148 net.cpp:129] Top shape: 10 256 13 13 (432640)
I1007 22:23:07.240869 31148 layer_factory.hpp:74] Creating layer relu5
I1007 22:23:07.240876 31148 net.cpp:92] Creating Layer relu5
I1007 22:23:07.240881 31148 net.cpp:412] relu5 <- conv5
I1007 22:23:07.240888 31148 net.cpp:359] relu5 -> conv5 (in-place)
I1007 22:23:07.240895 31148 net.cpp:122] Setting up relu5
I1007 22:23:07.240901 31148 net.cpp:129] Top shape: 10 256 13 13 (432640)
I1007 22:23:07.240906 31148 layer_factory.hpp:74] Creating layer pool5
I1007 22:23:07.240916 31148 net.cpp:92] Creating Layer pool5
I1007 22:23:07.240921 31148 net.cpp:412] pool5 <- conv5
I1007 22:23:07.240927 31148 net.cpp:370] pool5 -> pool5
I1007 22:23:07.240934 31148 net.cpp:122] Setting up pool5
I1007 22:23:07.240944 31148 net.cpp:129] Top shape: 10 256 6 6 (92160)
I1007 22:23:07.240948 31148 layer_factory.hpp:74] Creating layer fc6
I1007 22:23:07.240957 31148 net.cpp:92] Creating Layer fc6
I1007 22:23:07.240962 31148 net.cpp:412] fc6 <- pool5
I1007 22:23:07.240969 31148 net.cpp:370] fc6 -> fc6
I1007 22:23:07.240978 31148 net.cpp:122] Setting up fc6
I1007 22:23:08.098471 31148 net.cpp:129] Top shape: 10 4096 (40960)
I1007 22:23:08.098511 31148 layer_factory.hpp:74] Creating layer relu6
I1007 22:23:08.098525 31148 net.cpp:92] Creating Layer relu6
I1007 22:23:08.098531 31148 net.cpp:412] relu6 <- fc6
I1007 22:23:08.098539 31148 net.cpp:359] relu6 -> fc6 (in-place)
I1007 22:23:08.098548 31148 net.cpp:122] Setting up relu6
I1007 22:23:08.098554 31148 net.cpp:129] Top shape: 10 4096 (40960)
I1007 22:23:08.098559 31148 layer_factory.hpp:74] Creating layer drop6
I1007 22:23:08.098567 31148 net.cpp:92] Creating Layer drop6
I1007 22:23:08.098572 31148 net.cpp:412] drop6 <- fc6
I1007 22:23:08.098577 31148 net.cpp:359] drop6 -> fc6 (in-place)
I1007 22:23:08.098583 31148 net.cpp:122] Setting up drop6
I1007 22:23:08.098592 31148 net.cpp:129] Top shape: 10 4096 (40960)
I1007 22:23:08.098595 31148 layer_factory.hpp:74] Creating layer fc7
I1007 22:23:08.098605 31148 net.cpp:92] Creating Layer fc7
I1007 22:23:08.098611 31148 net.cpp:412] fc7 <- fc6
I1007 22:23:08.098618 31148 net.cpp:370] fc7 -> fc7
I1007 22:23:08.098626 31148 net.cpp:122] Setting up fc7
I1007 22:23:08.479792 31148 net.cpp:129] Top shape: 10 4096 (40960)
I1007 22:23:08.479835 31148 layer_factory.hpp:74] Creating layer relu7
I1007 22:23:08.479846 31148 net.cpp:92] Creating Layer relu7
I1007 22:23:08.479852 31148 net.cpp:412] relu7 <- fc7
I1007 22:23:08.479861 31148 net.cpp:359] relu7 -> fc7 (in-place)
I1007 22:23:08.479869 31148 net.cpp:122] Setting up relu7
I1007 22:23:08.479876 31148 net.cpp:129] Top shape: 10 4096 (40960)
I1007 22:23:08.479881 31148 layer_factory.hpp:74] Creating layer drop7
I1007 22:23:08.479888 31148 net.cpp:92] Creating Layer drop7
I1007 22:23:08.479893 31148 net.cpp:412] drop7 <- fc7
I1007 22:23:08.479899 31148 net.cpp:359] drop7 -> fc7 (in-place)
I1007 22:23:08.479907 31148 net.cpp:122] Setting up drop7
I1007 22:23:08.479913 31148 net.cpp:129] Top shape: 10 4096 (40960)
I1007 22:23:08.479918 31148 layer_factory.hpp:74] Creating layer fc8
I1007 22:23:08.479928 31148 net.cpp:92] Creating Layer fc8
I1007 22:23:08.479933 31148 net.cpp:412] fc8 <- fc7
I1007 22:23:08.479940 31148 net.cpp:370] fc8 -> fc8
I1007 22:23:08.479950 31148 net.cpp:122] Setting up fc8
I1007 22:23:08.480151 31148 net.cpp:129] Top shape: 10 2 (20)
I1007 22:23:08.480159 31148 layer_factory.hpp:74] Creating layer fc8_fc8_0_split
I1007 22:23:08.480168 31148 net.cpp:92] Creating Layer fc8_fc8_0_split
I1007 22:23:08.480173 31148 net.cpp:412] fc8_fc8_0_split <- fc8
I1007 22:23:08.480180 31148 net.cpp:370] fc8_fc8_0_split -> fc8_fc8_0_split_0
I1007 22:23:08.480190 31148 net.cpp:370] fc8_fc8_0_split -> fc8_fc8_0_split_1
I1007 22:23:08.480206 31148 net.cpp:122] Setting up fc8_fc8_0_split
I1007 22:23:08.480213 31148 net.cpp:129] Top shape: 10 2 (20)
I1007 22:23:08.480226 31148 net.cpp:129] Top shape: 10 2 (20)
I1007 22:23:08.480232 31148 layer_factory.hpp:74] Creating layer accuracy
I1007 22:23:08.480239 31148 net.cpp:92] Creating Layer accuracy
I1007 22:23:08.480244 31148 net.cpp:412] accuracy <- fc8_fc8_0_split_0
I1007 22:23:08.480250 31148 net.cpp:412] accuracy <- label_data_1_split_0
I1007 22:23:08.480257 31148 net.cpp:370] accuracy -> accuracy
I1007 22:23:08.480263 31148 net.cpp:122] Setting up accuracy
…
