…
I1007 23:11:43.358431  5959 net.cpp:289] The NetState phase (0) differed from the phase (1) specified by a rule in layer accuracy
I1007 23:11:43.358571  5959 net.cpp:44] Initializing net from parameters: 
name: "CaffeNet"
state {
  phase: TRAIN
}
layer {
  name: "data"
  type: "Data"
  top: "data"
  top: "label"
  include {
    phase: TRAIN
  }
  transform_param {
    mirror: true
    crop_size: 227
    mean_file: "data/acWhole_2/imagenet_mean.binaryproto"
  }
  data_param {
    source: "acWhole_2/imagenet_train_leveldb"
    batch_size: 64
    backend: LMDB
  }
}
layer {
  name: "conv1"
  type: "Convolution"
  bottom: "data"
  top: "conv1"
  param {
    lr_mult: 1
    decay_mult: 1
  }
  param {
    lr_mult: 2
    decay_mult: 0
  }
  convolution_param {
    num_output: 96
    kernel_size: 11
    stride: 4
    weight_filler {
      type: "gaussian"
      std: 0.01
    }
    bias_filler {
      type: "constant"
      value: 0
    }
  }
}
layer {
  name: "relu1"
  type: "ReLU"
  bottom: "conv1"
  top: "conv1"
}
layer {
  name: "pool1"
  type: "Pooling"
  bottom: "conv1"
  top: "pool1"
  pooling_param {
    pool: MAX
    kernel_size: 3
    stride: 2
  }
}
layer {
  name: "norm1"
  type: "LRN"
  bottom: "pool1"
  top: "norm1"
  lrn_param {
    local_size: 5
    alpha: 0.0001
    beta: 0.75
  }
}
layer {
  name: "conv2"
  type: "Convolution"
  bottom: "norm1"
  top: "conv2"
  param {
    lr_mult: 1
    decay_mult: 1
  }
  param {
    lr_mult: 2
    decay_mult: 0
  }
  convolution_param {
    num_output: 256
    pad: 2
    kernel_size: 5
    group: 2
    weight_filler {
      type: "gaussian"
      std: 0.01
    }
    bias_filler {
      type: "constant"
      value: 1
    }
  }
}
layer {
  name: "relu2"
  type: "ReLU"
  bottom: "conv2"
  top: "conv2"
}
layer {
  name: "pool2"
  type: "Pooling"
  bottom: "conv2"
  top: "pool2"
  pooling_param {
    pool: MAX
    kernel_size: 3
    stride: 2
  }
}
layer {
  name: "norm2"
  type: "LRN"
  bottom: "pool2"
  top: "norm2"
  lrn_param {
    local_size: 5
    alpha: 0.0001
    beta: 0.75
  }
}
layer {
  name: "conv3"
  type: "Convolution"
  bottom: "norm2"
  top: "conv3"
  param {
    lr_mult: 1
    decay_mult: 1
  }
  param {
    lr_mult: 2
    decay_mult: 0
  }
  convolution_param {
    num_output: 384
    pad: 1
    kernel_size: 3
    weight_filler {
      type: "gaussian"
      std: 0.01
    }
    bias_filler {
      type: "constant"
      value: 0
    }
  }
}
layer {
  name: "relu3"
  type: "ReLU"
  bottom: "conv3"
  top: "conv3"
}
layer {
  name: "conv4"
  type: "Convolution"
  bottom: "conv3"
  top: "conv4"
  param {
    lr_mult: 1
    decay_mult: 1
  }
  param {
    lr_mult: 2
    decay_mult: 0
  }
  convolution_param {
    num_output: 384
    pad: 1
    kernel_size: 3
    group: 2
    weight_filler {
      type: "gaussian"
      std: 0.01
    }
    bias_filler {
      type: "constant"
      value: 1
    }
  }
}
layer {
  name: "relu4"
  type: "ReLU"
  bottom: "conv4"
  top: "conv4"
}
layer {
  name: "conv5"
  type: "Convolution"
  bottom: "conv4"
  top: "conv5"
  param {
    lr_mult: 1
    decay_mult: 1
  }
  param {
    lr_mult: 2
    decay_mult: 0
  }
  convolution_param {
    num_output: 256
    pad: 1
    kernel_size: 3
    group: 2
    weight_filler {
      type: "gaussian"
      std: 0.01
    }
    bias_filler {
      type: "constant"
      value: 1
    }
  }
}
layer {
  name: "relu5"
  type: "ReLU"
  bottom: "conv5"
  top: "conv5"
}
layer {
  name: "pool5"
  type: "Pooling"
  bottom: "conv5"
  top: "pool5"
  pooling_param {
    pool: MAX
    kernel_size: 3
    stride: 2
  }
}
layer {
  name: "fc6"
  type: "InnerProduct"
  bottom: "pool5"
  top: "fc6"
  param {
    lr_mult: 1
    decay_mult: 1
  }
  param {
    lr_mult: 2
    decay_mult: 0
  }
  inner_product_param {
    num_output: 4096
    weight_filler {
      type: "gaussian"
      std: 0.005
    }
    bias_filler {
      type: "constant"
      value: 1
    }
  }
}
layer {
  name: "relu6"
  type: "ReLU"
  bottom: "fc6"
  top: "fc6"
}
layer {
  name: "drop6"
  type: "Dropout"
  bottom: "fc6"
  top: "fc6"
  dropout_param {
    dropout_ratio: 0.5
  }
}
layer {
  name: "fc7"
  type: "InnerProduct"
  bottom: "fc6"
  top: "fc7"
  param {
    lr_mult: 1
    decay_mult: 1
  }
  param {
    lr_mult: 2
    decay_mult: 0
  }
  inner_product_param {
    num_output: 4096
    weight_filler {
      type: "gaussian"
      std: 0.005
    }
    bias_filler {
      type: "constant"
      value: 1
    }
  }
}
layer {
  name: "relu7"
  type: "ReLU"
  bottom: "fc7"
  top: "fc7"
}
layer {
  name: "drop7"
  type: "Dropout"
  bottom: "fc7"
  top: "fc7"
  dropout_param {
    dropout_ratio: 0.5
  }
}
layer {
  name: "fc8"
  type: "InnerProduct"
  bottom: "fc7"
  top: "fc8"
  param {
    lr_mult: 1
    decay_mult: 1
  }
  param {
    lr_mult: 2
    decay_mult: 0
  }
  inner_product_param {
    num_output: 2
    weight_filler {
      type: "gaussian"
      std: 0.01
    }
    bias_filler {
      type: "constant"
      value: 0
    }
  }
}
layer {
  name: "loss"
  type: "SoftmaxWithLoss"
  bottom: "fc8"
  bottom: "label"
  top: "loss"
}
I1007 23:11:43.358672  5959 layer_factory.hpp:74] Creating layer data
I1007 23:11:43.358695  5959 net.cpp:92] Creating Layer data
I1007 23:11:43.358703  5959 net.cpp:370] data -> data
I1007 23:11:43.358723  5959 net.cpp:370] data -> label
I1007 23:11:43.358734  5959 net.cpp:122] Setting up data
I1007 23:11:43.358746  5959 data_transformer.cpp:22] Loading mean file from: data/acWhole_2/imagenet_mean.binaryproto
I1007 23:11:43.360270  5959 db_lmdb.cpp:22] Opened lmdb acWhole_2/imagenet_train_leveldb
I1007 23:11:43.360337  5959 data_layer.cpp:52] output data size: 64,3,227,227
I1007 23:11:43.365206  5959 net.cpp:129] Top shape: 64 3 227 227 (9893568)
I1007 23:11:43.365244  5959 net.cpp:129] Top shape: 64 (64)
I1007 23:11:43.365257  5959 layer_factory.hpp:74] Creating layer conv1
I1007 23:11:43.365274  5959 net.cpp:92] Creating Layer conv1
I1007 23:11:43.365283  5959 net.cpp:412] conv1 <- data
I1007 23:11:43.365296  5959 net.cpp:370] conv1 -> conv1
I1007 23:11:43.365311  5959 net.cpp:122] Setting up conv1
I1007 23:11:43.366168  5959 net.cpp:129] Top shape: 64 96 55 55 (18585600)
I1007 23:11:43.366186  5959 layer_factory.hpp:74] Creating layer relu1
I1007 23:11:43.366195  5959 net.cpp:92] Creating Layer relu1
I1007 23:11:43.366200  5959 net.cpp:412] relu1 <- conv1
I1007 23:11:43.366207  5959 net.cpp:359] relu1 -> conv1 (in-place)
I1007 23:11:43.366214  5959 net.cpp:122] Setting up relu1
I1007 23:11:43.366220  5959 net.cpp:129] Top shape: 64 96 55 55 (18585600)
I1007 23:11:43.366226  5959 layer_factory.hpp:74] Creating layer pool1
I1007 23:11:43.366233  5959 net.cpp:92] Creating Layer pool1
I1007 23:11:43.366238  5959 net.cpp:412] pool1 <- conv1
I1007 23:11:43.366245  5959 net.cpp:370] pool1 -> pool1
I1007 23:11:43.366255  5959 net.cpp:122] Setting up pool1
I1007 23:11:43.366268  5959 net.cpp:129] Top shape: 64 96 27 27 (4478976)
I1007 23:11:43.366274  5959 layer_factory.hpp:74] Creating layer norm1
I1007 23:11:43.366282  5959 net.cpp:92] Creating Layer norm1
I1007 23:11:43.366288  5959 net.cpp:412] norm1 <- pool1
I1007 23:11:43.366296  5959 net.cpp:370] norm1 -> norm1
I1007 23:11:43.366304  5959 net.cpp:122] Setting up norm1
I1007 23:11:43.366313  5959 net.cpp:129] Top shape: 64 96 27 27 (4478976)
I1007 23:11:43.366318  5959 layer_factory.hpp:74] Creating layer conv2
I1007 23:11:43.366327  5959 net.cpp:92] Creating Layer conv2
I1007 23:11:43.366340  5959 net.cpp:412] conv2 <- norm1
I1007 23:11:43.366348  5959 net.cpp:370] conv2 -> conv2
I1007 23:11:43.366364  5959 net.cpp:122] Setting up conv2
I1007 23:11:43.373673  5959 net.cpp:129] Top shape: 64 256 27 27 (11943936)
I1007 23:11:43.373713  5959 layer_factory.hpp:74] Creating layer relu2
I1007 23:11:43.373726  5959 net.cpp:92] Creating Layer relu2
I1007 23:11:43.373733  5959 net.cpp:412] relu2 <- conv2
I1007 23:11:43.373744  5959 net.cpp:359] relu2 -> conv2 (in-place)
I1007 23:11:43.373754  5959 net.cpp:122] Setting up relu2
I1007 23:11:43.373761  5959 net.cpp:129] Top shape: 64 256 27 27 (11943936)
I1007 23:11:43.373766  5959 layer_factory.hpp:74] Creating layer pool2
I1007 23:11:43.373775  5959 net.cpp:92] Creating Layer pool2
I1007 23:11:43.373780  5959 net.cpp:412] pool2 <- conv2
I1007 23:11:43.373786  5959 net.cpp:370] pool2 -> pool2
I1007 23:11:43.373795  5959 net.cpp:122] Setting up pool2
I1007 23:11:43.373803  5959 net.cpp:129] Top shape: 64 256 13 13 (2768896)
I1007 23:11:43.373810  5959 layer_factory.hpp:74] Creating layer norm2
I1007 23:11:43.373821  5959 net.cpp:92] Creating Layer norm2
I1007 23:11:43.373826  5959 net.cpp:412] norm2 <- pool2
I1007 23:11:43.373833  5959 net.cpp:370] norm2 -> norm2
I1007 23:11:43.373841  5959 net.cpp:122] Setting up norm2
I1007 23:11:43.373848  5959 net.cpp:129] Top shape: 64 256 13 13 (2768896)
I1007 23:11:43.373854  5959 layer_factory.hpp:74] Creating layer conv3
I1007 23:11:43.373863  5959 net.cpp:92] Creating Layer conv3
I1007 23:11:43.373868  5959 net.cpp:412] conv3 <- norm2
I1007 23:11:43.373877  5959 net.cpp:370] conv3 -> conv3
I1007 23:11:43.373885  5959 net.cpp:122] Setting up conv3
I1007 23:11:43.394772  5959 net.cpp:129] Top shape: 64 384 13 13 (4153344)
I1007 23:11:43.394809  5959 layer_factory.hpp:74] Creating layer relu3
I1007 23:11:43.394820  5959 net.cpp:92] Creating Layer relu3
I1007 23:11:43.394826  5959 net.cpp:412] relu3 <- conv3
I1007 23:11:43.394835  5959 net.cpp:359] relu3 -> conv3 (in-place)
I1007 23:11:43.394845  5959 net.cpp:122] Setting up relu3
I1007 23:11:43.394852  5959 net.cpp:129] Top shape: 64 384 13 13 (4153344)
I1007 23:11:43.394857  5959 layer_factory.hpp:74] Creating layer conv4
I1007 23:11:43.394866  5959 net.cpp:92] Creating Layer conv4
I1007 23:11:43.394871  5959 net.cpp:412] conv4 <- conv3
I1007 23:11:43.394881  5959 net.cpp:370] conv4 -> conv4
I1007 23:11:43.394891  5959 net.cpp:122] Setting up conv4
I1007 23:11:43.410406  5959 net.cpp:129] Top shape: 64 384 13 13 (4153344)
I1007 23:11:43.410437  5959 layer_factory.hpp:74] Creating layer relu4
I1007 23:11:43.410449  5959 net.cpp:92] Creating Layer relu4
I1007 23:11:43.410454  5959 net.cpp:412] relu4 <- conv4
I1007 23:11:43.410470  5959 net.cpp:359] relu4 -> conv4 (in-place)
I1007 23:11:43.410478  5959 net.cpp:122] Setting up relu4
I1007 23:11:43.410485  5959 net.cpp:129] Top shape: 64 384 13 13 (4153344)
I1007 23:11:43.410490  5959 layer_factory.hpp:74] Creating layer conv5
I1007 23:11:43.410501  5959 net.cpp:92] Creating Layer conv5
I1007 23:11:43.410506  5959 net.cpp:412] conv5 <- conv4
I1007 23:11:43.410513  5959 net.cpp:370] conv5 -> conv5
I1007 23:11:43.410522  5959 net.cpp:122] Setting up conv5
I1007 23:11:43.420720  5959 net.cpp:129] Top shape: 64 256 13 13 (2768896)
I1007 23:11:43.420737  5959 layer_factory.hpp:74] Creating layer relu5
I1007 23:11:43.420744  5959 net.cpp:92] Creating Layer relu5
I1007 23:11:43.420749  5959 net.cpp:412] relu5 <- conv5
I1007 23:11:43.420755  5959 net.cpp:359] relu5 -> conv5 (in-place)
I1007 23:11:43.420763  5959 net.cpp:122] Setting up relu5
I1007 23:11:43.420768  5959 net.cpp:129] Top shape: 64 256 13 13 (2768896)
I1007 23:11:43.420773  5959 layer_factory.hpp:74] Creating layer pool5
I1007 23:11:43.420781  5959 net.cpp:92] Creating Layer pool5
I1007 23:11:43.420786  5959 net.cpp:412] pool5 <- conv5
I1007 23:11:43.420794  5959 net.cpp:370] pool5 -> pool5
I1007 23:11:43.420802  5959 net.cpp:122] Setting up pool5
I1007 23:11:43.420812  5959 net.cpp:129] Top shape: 64 256 6 6 (589824)
I1007 23:11:43.420817  5959 layer_factory.hpp:74] Creating layer fc6
I1007 23:11:43.420838  5959 net.cpp:92] Creating Layer fc6
I1007 23:11:43.420851  5959 net.cpp:412] fc6 <- pool5
I1007 23:11:43.420858  5959 net.cpp:370] fc6 -> fc6
I1007 23:11:43.420868  5959 net.cpp:122] Setting up fc6
I1007 23:11:44.277899  5959 net.cpp:129] Top shape: 64 4096 (262144)
I1007 23:11:44.277940  5959 layer_factory.hpp:74] Creating layer relu6
I1007 23:11:44.277952  5959 net.cpp:92] Creating Layer relu6
I1007 23:11:44.277959  5959 net.cpp:412] relu6 <- fc6
I1007 23:11:44.277968  5959 net.cpp:359] relu6 -> fc6 (in-place)
I1007 23:11:44.277977  5959 net.cpp:122] Setting up relu6
I1007 23:11:44.277984  5959 net.cpp:129] Top shape: 64 4096 (262144)
I1007 23:11:44.277989  5959 layer_factory.hpp:74] Creating layer drop6
I1007 23:11:44.277997  5959 net.cpp:92] Creating Layer drop6
I1007 23:11:44.278003  5959 net.cpp:412] drop6 <- fc6
I1007 23:11:44.278009  5959 net.cpp:359] drop6 -> fc6 (in-place)
I1007 23:11:44.278019  5959 net.cpp:122] Setting up drop6
I1007 23:11:44.278029  5959 net.cpp:129] Top shape: 64 4096 (262144)
I1007 23:11:44.278034  5959 layer_factory.hpp:74] Creating layer fc7
I1007 23:11:44.278043  5959 net.cpp:92] Creating Layer fc7
I1007 23:11:44.278048  5959 net.cpp:412] fc7 <- fc6
I1007 23:11:44.278056  5959 net.cpp:370] fc7 -> fc7
I1007 23:11:44.278066  5959 net.cpp:122] Setting up fc7
I1007 23:11:44.659021  5959 net.cpp:129] Top shape: 64 4096 (262144)
I1007 23:11:44.659062  5959 layer_factory.hpp:74] Creating layer relu7
I1007 23:11:44.659075  5959 net.cpp:92] Creating Layer relu7
I1007 23:11:44.659082  5959 net.cpp:412] relu7 <- fc7
I1007 23:11:44.659090  5959 net.cpp:359] relu7 -> fc7 (in-place)
I1007 23:11:44.659099  5959 net.cpp:122] Setting up relu7
I1007 23:11:44.659106  5959 net.cpp:129] Top shape: 64 4096 (262144)
I1007 23:11:44.659111  5959 layer_factory.hpp:74] Creating layer drop7
I1007 23:11:44.659118  5959 net.cpp:92] Creating Layer drop7
I1007 23:11:44.659124  5959 net.cpp:412] drop7 <- fc7
I1007 23:11:44.659131  5959 net.cpp:359] drop7 -> fc7 (in-place)
I1007 23:11:44.659137  5959 net.cpp:122] Setting up drop7
I1007 23:11:44.659144  5959 net.cpp:129] Top shape: 64 4096 (262144)
I1007 23:11:44.659149  5959 layer_factory.hpp:74] Creating layer fc8
I1007 23:11:44.659160  5959 net.cpp:92] Creating Layer fc8
I1007 23:11:44.659167  5959 net.cpp:412] fc8 <- fc7
I1007 23:11:44.659173  5959 net.cpp:370] fc8 -> fc8
I1007 23:11:44.659183  5959 net.cpp:122] Setting up fc8
I1007 23:11:44.659384  5959 net.cpp:129] Top shape: 64 2 (128)
I1007 23:11:44.659391  5959 layer_factory.hpp:74] Creating layer loss
I1007 23:11:44.659404  5959 net.cpp:92] Creating Layer loss
I1007 23:11:44.659410  5959 net.cpp:412] loss <- fc8
I1007 23:11:44.659415  5959 net.cpp:412] loss <- label
I1007 23:11:44.659426  5959 net.cpp:370] loss -> loss
I1007 23:11:44.659436  5959 net.cpp:122] Setting up loss
I1007 23:11:44.659445  5959 layer_factory.hpp:74] Creating layer loss
…
I1007 23:11:44.660284  5959 net.cpp:289] The NetState phase (1) differed from the phase (0) specified by a rule in layer data
I1007 23:11:44.660439  5959 net.cpp:44] Initializing net from parameters: 
name: "CaffeNet"
state {
  phase: TEST
}
layer {
  name: "data"
  type: "Data"
  top: "data"
  top: "label"
  include {
    phase: TEST
  }
  transform_param {
    mirror: true
    crop_size: 227
    mean_file: "data/acWhole_2/imagenet_mean.binaryproto"
  }
  data_param {
    source: "acWhole_2/imagenet_val_leveldb"
    mean_file: "data/acWhole_2/imagenet_mean.binartproto"
    batch_size: 10
    crop_size: 227
    mirror: false
    backend: LMDB
  }
}
layer {
  name: "conv1"
  type: "Convolution"
  bottom: "data"
  top: "conv1"
  param {
    lr_mult: 1
    decay_mult: 1
  }
  param {
    lr_mult: 2
    decay_mult: 0
  }
  convolution_param {
    num_output: 96
    kernel_size: 11
    stride: 4
    weight_filler {
      type: "gaussian"
      std: 0.01
    }
    bias_filler {
      type: "constant"
      value: 0
    }
  }
}
layer {
  name: "relu1"
  type: "ReLU"
  bottom: "conv1"
  top: "conv1"
}
layer {
  name: "pool1"
  type: "Pooling"
  bottom: "conv1"
  top: "pool1"
  pooling_param {
    pool: MAX
    kernel_size: 3
    stride: 2
  }
}
layer {
  name: "norm1"
  type: "LRN"
  bottom: "pool1"
  top: "norm1"
  lrn_param {
    local_size: 5
    alpha: 0.0001
    beta: 0.75
  }
}
layer {
  name: "conv2"
  type: "Convolution"
  bottom: "norm1"
  top: "conv2"
  param {
    lr_mult: 1
    decay_mult: 1
  }
  param {
    lr_mult: 2
    decay_mult: 0
  }
  convolution_param {
    num_output: 256
    pad: 2
    kernel_size: 5
    group: 2
    weight_filler {
      type: "gaussian"
      std: 0.01
    }
    bias_filler {
      type: "constant"
      value: 1
    }
  }
}
layer {
  name: "relu2"
  type: "ReLU"
  bottom: "conv2"
  top: "conv2"
}
layer {
  name: "pool2"
  type: "Pooling"
  bottom: "conv2"
  top: "pool2"
  pooling_param {
    pool: MAX
    kernel_size: 3
    stride: 2
  }
}
layer {
  name: "norm2"
  type: "LRN"
  bottom: "pool2"
  top: "norm2"
  lrn_param {
    local_size: 5
    alpha: 0.0001
    beta: 0.75
  }
}
layer {
  name: "conv3"
  type: "Convolution"
  bottom: "norm2"
  top: "conv3"
  param {
    lr_mult: 1
    decay_mult: 1
  }
  param {
    lr_mult: 2
    decay_mult: 0
  }
  convolution_param {
    num_output: 384
    pad: 1
    kernel_size: 3
    weight_filler {
      type: "gaussian"
      std: 0.01
    }
    bias_filler {
      type: "constant"
      value: 0
    }
  }
}
layer {
  name: "relu3"
  type: "ReLU"
  bottom: "conv3"
  top: "conv3"
}
layer {
  name: "conv4"
  type: "Convolution"
  bottom: "conv3"
  top: "conv4"
  param {
    lr_mult: 1
    decay_mult: 1
  }
  param {
    lr_mult: 2
    decay_mult: 0
  }
  convolution_param {
    num_output: 384
    pad: 1
    kernel_size: 3
    group: 2
    weight_filler {
      type: "gaussian"
      std: 0.01
    }
    bias_filler {
      type: "constant"
      value: 1
    }
  }
}
layer {
  name: "relu4"
  type: "ReLU"
  bottom: "conv4"
  top: "conv4"
}
layer {
  name: "conv5"
  type: "Convolution"
  bottom: "conv4"
  top: "conv5"
  param {
    lr_mult: 1
    decay_mult: 1
  }
  param {
    lr_mult: 2
    decay_mult: 0
  }
  convolution_param {
    num_output: 256
    pad: 1
    kernel_size: 3
    group: 2
    weight_filler {
      type: "gaussian"
      std: 0.01
    }
    bias_filler {
      type: "constant"
      value: 1
    }
  }
}
layer {
  name: "relu5"
  type: "ReLU"
  bottom: "conv5"
  top: "conv5"
}
layer {
  name: "pool5"
  type: "Pooling"
  bottom: "conv5"
  top: "pool5"
  pooling_param {
    pool: MAX
    kernel_size: 3
    stride: 2
  }
}
layer {
  name: "fc6"
  type: "InnerProduct"
  bottom: "pool5"
  top: "fc6"
  param {
    lr_mult: 1
    decay_mult: 1
  }
  param {
    lr_mult: 2
    decay_mult: 0
  }
  inner_product_param {
    num_output: 4096
    weight_filler {
      type: "gaussian"
      std: 0.005
    }
    bias_filler {
      type: "constant"
      value: 1
    }
  }
}
layer {
  name: "relu6"
  type: "ReLU"
  bottom: "fc6"
  top: "fc6"
}
layer {
  name: "drop6"
  type: "Dropout"
  bottom: "fc6"
  top: "fc6"
  dropout_param {
    dropout_ratio: 0.5
  }
}
layer {
  name: "fc7"
  type: "InnerProduct"
  bottom: "fc6"
  top: "fc7"
  param {
    lr_mult: 1
    decay_mult: 1
  }
  param {
    lr_mult: 2
    decay_mult: 0
  }
  inner_product_param {
    num_output: 4096
    weight_filler {
      type: "gaussian"
      std: 0.005
    }
    bias_filler {
      type: "constant"
      value: 1
    }
  }
}
layer {
  name: "relu7"
  type: "ReLU"
  bottom: "fc7"
  top: "fc7"
}
layer {
  name: "drop7"
  type: "Dropout"
  bottom: "fc7"
  top: "fc7"
  dropout_param {
    dropout_ratio: 0.5
  }
}
layer {
  name: "fc8"
  type: "InnerProduct"
  bottom: "fc7"
  top: "fc8"
  param {
    lr_mult: 1
    decay_mult: 1
  }
  param {
    lr_mult: 2
    decay_mult: 0
  }
  inner_product_param {
    num_output: 2
    weight_filler {
      type: "gaussian"
      std: 0.01
    }
    bias_filler {
      type: "constant"
      value: 0
    }
  }
}
layer {
  name: "accuracy"
  type: "Accuracy"
  bottom: "fc8"
  bottom: "label"
  top: "accuracy"
  include {
    phase: TEST
  }
}
layer {
  name: "loss"
  type: "SoftmaxWithLoss"
  bottom: "fc8"
  bottom: "label"
  top: "loss"
}
I1007 23:11:44.660547  5959 layer_factory.hpp:74] Creating layer data
I1007 23:11:44.660558  5959 net.cpp:92] Creating Layer data
I1007 23:11:44.660565  5959 net.cpp:370] data -> data
I1007 23:11:44.660574  5959 net.cpp:370] data -> label
I1007 23:11:44.660583  5959 net.cpp:122] Setting up data
I1007 23:11:44.660589  5959 data_transformer.cpp:22] Loading mean file from: data/acWhole_2/imagenet_mean.binaryproto
I1007 23:11:44.661887  5959 db_lmdb.cpp:22] Opened lmdb acWhole_2/imagenet_val_leveldb
I1007 23:11:44.661957  5959 data_layer.cpp:52] output data size: 10,3,227,227
I1007 23:11:44.662874  5959 net.cpp:129] Top shape: 10 3 227 227 (1545870)
I1007 23:11:44.662899  5959 net.cpp:129] Top shape: 10 (10)
I1007 23:11:44.662905  5959 layer_factory.hpp:74] Creating layer label_data_1_split
I1007 23:11:44.662919  5959 net.cpp:92] Creating Layer label_data_1_split
I1007 23:11:44.662925  5959 net.cpp:412] label_data_1_split <- label
I1007 23:11:44.662935  5959 net.cpp:370] label_data_1_split -> label_data_1_split_0
I1007 23:11:44.662947  5959 net.cpp:370] label_data_1_split -> label_data_1_split_1
I1007 23:11:44.662955  5959 net.cpp:122] Setting up label_data_1_split
I1007 23:11:44.662963  5959 net.cpp:129] Top shape: 10 (10)
I1007 23:11:44.662969  5959 net.cpp:129] Top shape: 10 (10)
I1007 23:11:44.662976  5959 layer_factory.hpp:74] Creating layer conv1
I1007 23:11:44.662986  5959 net.cpp:92] Creating Layer conv1
I1007 23:11:44.662992  5959 net.cpp:412] conv1 <- data
I1007 23:11:44.662998  5959 net.cpp:370] conv1 -> conv1
I1007 23:11:44.663007  5959 net.cpp:122] Setting up conv1
I1007 23:11:44.663844  5959 net.cpp:129] Top shape: 10 96 55 55 (2904000)
I1007 23:11:44.663858  5959 layer_factory.hpp:74] Creating layer relu1
I1007 23:11:44.663875  5959 net.cpp:92] Creating Layer relu1
I1007 23:11:44.663882  5959 net.cpp:412] relu1 <- conv1
I1007 23:11:44.663895  5959 net.cpp:359] relu1 -> conv1 (in-place)
I1007 23:11:44.663902  5959 net.cpp:122] Setting up relu1
I1007 23:11:44.663909  5959 net.cpp:129] Top shape: 10 96 55 55 (2904000)
I1007 23:11:44.663914  5959 layer_factory.hpp:74] Creating layer pool1
I1007 23:11:44.663923  5959 net.cpp:92] Creating Layer pool1
I1007 23:11:44.663928  5959 net.cpp:412] pool1 <- conv1
I1007 23:11:44.663935  5959 net.cpp:370] pool1 -> pool1
I1007 23:11:44.663943  5959 net.cpp:122] Setting up pool1
I1007 23:11:44.663952  5959 net.cpp:129] Top shape: 10 96 27 27 (699840)
I1007 23:11:44.663957  5959 layer_factory.hpp:74] Creating layer norm1
I1007 23:11:44.663965  5959 net.cpp:92] Creating Layer norm1
I1007 23:11:44.663970  5959 net.cpp:412] norm1 <- pool1
I1007 23:11:44.663976  5959 net.cpp:370] norm1 -> norm1
I1007 23:11:44.663985  5959 net.cpp:122] Setting up norm1
I1007 23:11:44.663992  5959 net.cpp:129] Top shape: 10 96 27 27 (699840)
I1007 23:11:44.663997  5959 layer_factory.hpp:74] Creating layer conv2
I1007 23:11:44.664005  5959 net.cpp:92] Creating Layer conv2
I1007 23:11:44.664011  5959 net.cpp:412] conv2 <- norm1
I1007 23:11:44.664017  5959 net.cpp:370] conv2 -> conv2
I1007 23:11:44.664024  5959 net.cpp:122] Setting up conv2
I1007 23:11:44.671488  5959 net.cpp:129] Top shape: 10 256 27 27 (1866240)
I1007 23:11:44.671520  5959 layer_factory.hpp:74] Creating layer relu2
I1007 23:11:44.671530  5959 net.cpp:92] Creating Layer relu2
I1007 23:11:44.671537  5959 net.cpp:412] relu2 <- conv2
I1007 23:11:44.671547  5959 net.cpp:359] relu2 -> conv2 (in-place)
I1007 23:11:44.671556  5959 net.cpp:122] Setting up relu2
I1007 23:11:44.671563  5959 net.cpp:129] Top shape: 10 256 27 27 (1866240)
I1007 23:11:44.671568  5959 layer_factory.hpp:74] Creating layer pool2
I1007 23:11:44.671578  5959 net.cpp:92] Creating Layer pool2
I1007 23:11:44.671583  5959 net.cpp:412] pool2 <- conv2
I1007 23:11:44.671591  5959 net.cpp:370] pool2 -> pool2
I1007 23:11:44.671600  5959 net.cpp:122] Setting up pool2
I1007 23:11:44.671612  5959 net.cpp:129] Top shape: 10 256 13 13 (432640)
I1007 23:11:44.671617  5959 layer_factory.hpp:74] Creating layer norm2
I1007 23:11:44.671624  5959 net.cpp:92] Creating Layer norm2
I1007 23:11:44.671629  5959 net.cpp:412] norm2 <- pool2
I1007 23:11:44.671638  5959 net.cpp:370] norm2 -> norm2
I1007 23:11:44.671645  5959 net.cpp:122] Setting up norm2
I1007 23:11:44.671653  5959 net.cpp:129] Top shape: 10 256 13 13 (432640)
I1007 23:11:44.671658  5959 layer_factory.hpp:74] Creating layer conv3
I1007 23:11:44.671669  5959 net.cpp:92] Creating Layer conv3
I1007 23:11:44.671675  5959 net.cpp:412] conv3 <- norm2
I1007 23:11:44.671682  5959 net.cpp:370] conv3 -> conv3
I1007 23:11:44.671690  5959 net.cpp:122] Setting up conv3
I1007 23:11:44.692230  5959 net.cpp:129] Top shape: 10 384 13 13 (648960)
I1007 23:11:44.692245  5959 layer_factory.hpp:74] Creating layer relu3
I1007 23:11:44.692252  5959 net.cpp:92] Creating Layer relu3
I1007 23:11:44.692257  5959 net.cpp:412] relu3 <- conv3
I1007 23:11:44.692263  5959 net.cpp:359] relu3 -> conv3 (in-place)
I1007 23:11:44.692270  5959 net.cpp:122] Setting up relu3
I1007 23:11:44.692277  5959 net.cpp:129] Top shape: 10 384 13 13 (648960)
I1007 23:11:44.692282  5959 layer_factory.hpp:74] Creating layer conv4
I1007 23:11:44.692291  5959 net.cpp:92] Creating Layer conv4
I1007 23:11:44.692296  5959 net.cpp:412] conv4 <- conv3
I1007 23:11:44.692304  5959 net.cpp:370] conv4 -> conv4
I1007 23:11:44.692312  5959 net.cpp:122] Setting up conv4
I1007 23:11:44.707736  5959 net.cpp:129] Top shape: 10 384 13 13 (648960)
I1007 23:11:44.707751  5959 layer_factory.hpp:74] Creating layer relu4
I1007 23:11:44.707759  5959 net.cpp:92] Creating Layer relu4
I1007 23:11:44.707764  5959 net.cpp:412] relu4 <- conv4
I1007 23:11:44.707772  5959 net.cpp:359] relu4 -> conv4 (in-place)
I1007 23:11:44.707779  5959 net.cpp:122] Setting up relu4
I1007 23:11:44.707787  5959 net.cpp:129] Top shape: 10 384 13 13 (648960)
I1007 23:11:44.707798  5959 layer_factory.hpp:74] Creating layer conv5
I1007 23:11:44.707813  5959 net.cpp:92] Creating Layer conv5
I1007 23:11:44.707819  5959 net.cpp:412] conv5 <- conv4
I1007 23:11:44.707826  5959 net.cpp:370] conv5 -> conv5
I1007 23:11:44.707834  5959 net.cpp:122] Setting up conv5
I1007 23:11:44.718173  5959 net.cpp:129] Top shape: 10 256 13 13 (432640)
I1007 23:11:44.718189  5959 layer_factory.hpp:74] Creating layer relu5
I1007 23:11:44.718196  5959 net.cpp:92] Creating Layer relu5
I1007 23:11:44.718201  5959 net.cpp:412] relu5 <- conv5
I1007 23:11:44.718209  5959 net.cpp:359] relu5 -> conv5 (in-place)
I1007 23:11:44.718215  5959 net.cpp:122] Setting up relu5
I1007 23:11:44.718222  5959 net.cpp:129] Top shape: 10 256 13 13 (432640)
I1007 23:11:44.718227  5959 layer_factory.hpp:74] Creating layer pool5
I1007 23:11:44.718236  5959 net.cpp:92] Creating Layer pool5
I1007 23:11:44.718242  5959 net.cpp:412] pool5 <- conv5
I1007 23:11:44.718250  5959 net.cpp:370] pool5 -> pool5
I1007 23:11:44.718256  5959 net.cpp:122] Setting up pool5
I1007 23:11:44.718266  5959 net.cpp:129] Top shape: 10 256 6 6 (92160)
I1007 23:11:44.718271  5959 layer_factory.hpp:74] Creating layer fc6
I1007 23:11:44.718281  5959 net.cpp:92] Creating Layer fc6
I1007 23:11:44.718286  5959 net.cpp:412] fc6 <- pool5
I1007 23:11:44.718298  5959 net.cpp:370] fc6 -> fc6
I1007 23:11:44.718307  5959 net.cpp:122] Setting up fc6
I1007 23:11:45.575909  5959 net.cpp:129] Top shape: 10 4096 (40960)
I1007 23:11:45.575953  5959 layer_factory.hpp:74] Creating layer relu6
I1007 23:11:45.575966  5959 net.cpp:92] Creating Layer relu6
I1007 23:11:45.575973  5959 net.cpp:412] relu6 <- fc6
I1007 23:11:45.575981  5959 net.cpp:359] relu6 -> fc6 (in-place)
I1007 23:11:45.575990  5959 net.cpp:122] Setting up relu6
I1007 23:11:45.575997  5959 net.cpp:129] Top shape: 10 4096 (40960)
I1007 23:11:45.576002  5959 layer_factory.hpp:74] Creating layer drop6
I1007 23:11:45.576010  5959 net.cpp:92] Creating Layer drop6
I1007 23:11:45.576015  5959 net.cpp:412] drop6 <- fc6
I1007 23:11:45.576021  5959 net.cpp:359] drop6 -> fc6 (in-place)
I1007 23:11:45.576028  5959 net.cpp:122] Setting up drop6
I1007 23:11:45.576035  5959 net.cpp:129] Top shape: 10 4096 (40960)
I1007 23:11:45.576040  5959 layer_factory.hpp:74] Creating layer fc7
I1007 23:11:45.576050  5959 net.cpp:92] Creating Layer fc7
I1007 23:11:45.576056  5959 net.cpp:412] fc7 <- fc6
I1007 23:11:45.576063  5959 net.cpp:370] fc7 -> fc7
I1007 23:11:45.576072  5959 net.cpp:122] Setting up fc7
I1007 23:11:45.958466  5959 net.cpp:129] Top shape: 10 4096 (40960)
I1007 23:11:45.958498  5959 layer_factory.hpp:74] Creating layer relu7
I1007 23:11:45.958508  5959 net.cpp:92] Creating Layer relu7
I1007 23:11:45.958515  5959 net.cpp:412] relu7 <- fc7
I1007 23:11:45.958523  5959 net.cpp:359] relu7 -> fc7 (in-place)
I1007 23:11:45.958533  5959 net.cpp:122] Setting up relu7
I1007 23:11:45.958539  5959 net.cpp:129] Top shape: 10 4096 (40960)
I1007 23:11:45.958544  5959 layer_factory.hpp:74] Creating layer drop7
I1007 23:11:45.958554  5959 net.cpp:92] Creating Layer drop7
I1007 23:11:45.958559  5959 net.cpp:412] drop7 <- fc7
I1007 23:11:45.958565  5959 net.cpp:359] drop7 -> fc7 (in-place)
I1007 23:11:45.958572  5959 net.cpp:122] Setting up drop7
I1007 23:11:45.958580  5959 net.cpp:129] Top shape: 10 4096 (40960)
I1007 23:11:45.958585  5959 layer_factory.hpp:74] Creating layer fc8
I1007 23:11:45.958596  5959 net.cpp:92] Creating Layer fc8
I1007 23:11:45.958601  5959 net.cpp:412] fc8 <- fc7
I1007 23:11:45.958608  5959 net.cpp:370] fc8 -> fc8
I1007 23:11:45.958621  5959 net.cpp:122] Setting up fc8
I1007 23:11:45.958825  5959 net.cpp:129] Top shape: 10 2 (20)
I1007 23:11:45.958834  5959 layer_factory.hpp:74] Creating layer fc8_fc8_0_split
I1007 23:11:45.958842  5959 net.cpp:92] Creating Layer fc8_fc8_0_split
I1007 23:11:45.958847  5959 net.cpp:412] fc8_fc8_0_split <- fc8
I1007 23:11:45.958856  5959 net.cpp:370] fc8_fc8_0_split -> fc8_fc8_0_split_0
I1007 23:11:45.958864  5959 net.cpp:370] fc8_fc8_0_split -> fc8_fc8_0_split_1
I1007 23:11:45.958880  5959 net.cpp:122] Setting up fc8_fc8_0_split
I1007 23:11:45.958889  5959 net.cpp:129] Top shape: 10 2 (20)
I1007 23:11:45.958901  5959 net.cpp:129] Top shape: 10 2 (20)
I1007 23:11:45.958907  5959 layer_factory.hpp:74] Creating layer accuracy
I1007 23:11:45.958915  5959 net.cpp:92] Creating Layer accuracy
I1007 23:11:45.958920  5959 net.cpp:412] accuracy <- fc8_fc8_0_split_0
I1007 23:11:45.958926  5959 net.cpp:412] accuracy <- label_data_1_split_0
I1007 23:11:45.958933  5959 net.cpp:370] accuracy -> accuracy
I1007 23:11:45.958940  5959 net.cpp:122] Setting up accuracy
…
