…
I1006 16:02:17.628924 19704 net.cpp:289] The NetState phase (0) differed from the phase (1) specified by a rule in layer accuracy
I1006 16:02:17.629066 19704 net.cpp:44] Initializing net from parameters: 
name: "CaffeNet"
state {
  phase: TRAIN
}
layer {
  name: "data"
  type: "Data"
  top: "data"
  top: "label"
  include {
    phase: TRAIN
  }
  transform_param {
    mirror: true
    crop_size: 227
    mean_file: "data/acWhole/imagenet_mean.binaryproto"
  }
  data_param {
    source: "acWhole/imagenet_train_leveldb"
    batch_size: 128
    backend: LMDB
  }
}
layer {
  name: "conv1"
  type: "Convolution"
  bottom: "data"
  top: "conv1"
  param {
    lr_mult: 1
    decay_mult: 1
  }
  param {
    lr_mult: 2
    decay_mult: 0
  }
  convolution_param {
    num_output: 96
    kernel_size: 11
    stride: 4
    weight_filler {
      type: "gaussian"
      std: 0.01
    }
    bias_filler {
      type: "constant"
      value: 0
    }
  }
}
layer {
  name: "relu1"
  type: "ReLU"
  bottom: "conv1"
  top: "conv1"
}
layer {
  name: "pool1"
  type: "Pooling"
  bottom: "conv1"
  top: "pool1"
  pooling_param {
    pool: MAX
    kernel_size: 3
    stride: 2
  }
}
layer {
  name: "norm1"
  type: "LRN"
  bottom: "pool1"
  top: "norm1"
  lrn_param {
    local_size: 5
    alpha: 0.0001
    beta: 0.75
  }
}
layer {
  name: "conv2"
  type: "Convolution"
  bottom: "norm1"
  top: "conv2"
  param {
    lr_mult: 1
    decay_mult: 1
  }
  param {
    lr_mult: 2
    decay_mult: 0
  }
  convolution_param {
    num_output: 256
    pad: 2
    kernel_size: 5
    group: 2
    weight_filler {
      type: "gaussian"
      std: 0.01
    }
    bias_filler {
      type: "constant"
      value: 1
    }
  }
}
layer {
  name: "relu2"
  type: "ReLU"
  bottom: "conv2"
  top: "conv2"
}
layer {
  name: "pool2"
  type: "Pooling"
  bottom: "conv2"
  top: "pool2"
  pooling_param {
    pool: MAX
    kernel_size: 3
    stride: 2
  }
}
layer {
  name: "norm2"
  type: "LRN"
  bottom: "pool2"
  top: "norm2"
  lrn_param {
    local_size: 5
    alpha: 0.0001
    beta: 0.75
  }
}
layer {
  name: "conv3"
  type: "Convolution"
  bottom: "norm2"
  top: "conv3"
  param {
    lr_mult: 1
    decay_mult: 1
  }
  param {
    lr_mult: 2
    decay_mult: 0
  }
  convolution_param {
    num_output: 384
    pad: 1
    kernel_size: 3
    weight_filler {
      type: "gaussian"
      std: 0.01
    }
    bias_filler {
      type: "constant"
      value: 0
    }
  }
}
layer {
  name: "relu3"
  type: "ReLU"
  bottom: "conv3"
  top: "conv3"
}
layer {
  name: "conv4"
  type: "Convolution"
  bottom: "conv3"
  top: "conv4"
  param {
    lr_mult: 1
    decay_mult: 1
  }
  param {
    lr_mult: 2
    decay_mult: 0
  }
  convolution_param {
    num_output: 384
    pad: 1
    kernel_size: 3
    group: 2
    weight_filler {
      type: "gaussian"
      std: 0.01
    }
    bias_filler {
      type: "constant"
      value: 1
    }
  }
}
layer {
  name: "relu4"
  type: "ReLU"
  bottom: "conv4"
  top: "conv4"
}
layer {
  name: "conv5"
  type: "Convolution"
  bottom: "conv4"
  top: "conv5"
  param {
    lr_mult: 1
    decay_mult: 1
  }
  param {
    lr_mult: 2
    decay_mult: 0
  }
  convolution_param {
    num_output: 256
    pad: 1
    kernel_size: 3
    group: 2
    weight_filler {
      type: "gaussian"
      std: 0.01
    }
    bias_filler {
      type: "constant"
      value: 1
    }
  }
}
layer {
  name: "relu5"
  type: "ReLU"
  bottom: "conv5"
  top: "conv5"
}
layer {
  name: "pool5"
  type: "Pooling"
  bottom: "conv5"
  top: "pool5"
  pooling_param {
    pool: MAX
    kernel_size: 3
    stride: 2
  }
}
layer {
  name: "fc6"
  type: "InnerProduct"
  bottom: "pool5"
  top: "fc6"
  param {
    lr_mult: 1
    decay_mult: 1
  }
  param {
    lr_mult: 2
    decay_mult: 0
  }
  inner_product_param {
    num_output: 4096
    weight_filler {
      type: "gaussian"
      std: 0.005
    }
    bias_filler {
      type: "constant"
      value: 1
    }
  }
}
layer {
  name: "relu6"
  type: "ReLU"
  bottom: "fc6"
  top: "fc6"
}
layer {
  name: "drop6"
  type: "Dropout"
  bottom: "fc6"
  top: "fc6"
  dropout_param {
    dropout_ratio: 0.5
  }
}
layer {
  name: "fc7"
  type: "InnerProduct"
  bottom: "fc6"
  top: "fc7"
  param {
    lr_mult: 1
    decay_mult: 1
  }
  param {
    lr_mult: 2
    decay_mult: 0
  }
  inner_product_param {
    num_output: 4096
    weight_filler {
      type: "gaussian"
      std: 0.005
    }
    bias_filler {
      type: "constant"
      value: 1
    }
  }
}
layer {
  name: "relu7"
  type: "ReLU"
  bottom: "fc7"
  top: "fc7"
}
layer {
  name: "drop7"
  type: "Dropout"
  bottom: "fc7"
  top: "fc7"
  dropout_param {
    dropout_ratio: 0.5
  }
}
layer {
  name: "fc8"
  type: "InnerProduct"
  bottom: "fc7"
  top: "fc8"
  param {
    lr_mult: 1
    decay_mult: 1
  }
  param {
    lr_mult: 2
    decay_mult: 0
  }
  inner_product_param {
    num_output: 2
    weight_filler {
      type: "gaussian"
      std: 0.01
    }
    bias_filler {
      type: "constant"
      value: 0
    }
  }
}
layer {
  name: "loss"
  type: "SoftmaxWithLoss"
  bottom: "fc8"
  bottom: "label"
  top: "loss"
}
I1006 16:02:17.629166 19704 layer_factory.hpp:74] Creating layer data
I1006 16:02:17.629189 19704 net.cpp:92] Creating Layer data
I1006 16:02:17.629196 19704 net.cpp:370] data -> data
I1006 16:02:17.629217 19704 net.cpp:370] data -> label
I1006 16:02:17.629227 19704 net.cpp:122] Setting up data
I1006 16:02:17.629235 19704 data_transformer.cpp:22] Loading mean file from: data/acWhole/imagenet_mean.binaryproto
I1006 16:02:17.630797 19704 db_lmdb.cpp:22] Opened lmdb acWhole/imagenet_train_leveldb
I1006 16:02:17.630868 19704 data_layer.cpp:52] output data size: 128,3,227,227
I1006 16:02:17.640175 19704 net.cpp:129] Top shape: 128 3 227 227 (19787136)
I1006 16:02:17.640213 19704 net.cpp:129] Top shape: 128 (128)
I1006 16:02:17.640223 19704 layer_factory.hpp:74] Creating layer conv1
I1006 16:02:17.640241 19704 net.cpp:92] Creating Layer conv1
I1006 16:02:17.640249 19704 net.cpp:412] conv1 <- data
I1006 16:02:17.640262 19704 net.cpp:370] conv1 -> conv1
I1006 16:02:17.640276 19704 net.cpp:122] Setting up conv1
I1006 16:02:17.641136 19704 net.cpp:129] Top shape: 128 96 55 55 (37171200)
I1006 16:02:17.641154 19704 layer_factory.hpp:74] Creating layer relu1
I1006 16:02:17.641162 19704 net.cpp:92] Creating Layer relu1
I1006 16:02:17.641167 19704 net.cpp:412] relu1 <- conv1
I1006 16:02:17.641175 19704 net.cpp:359] relu1 -> conv1 (in-place)
I1006 16:02:17.641180 19704 net.cpp:122] Setting up relu1
I1006 16:02:17.641187 19704 net.cpp:129] Top shape: 128 96 55 55 (37171200)
I1006 16:02:17.641192 19704 layer_factory.hpp:74] Creating layer pool1
I1006 16:02:17.641199 19704 net.cpp:92] Creating Layer pool1
I1006 16:02:17.641204 19704 net.cpp:412] pool1 <- conv1
I1006 16:02:17.641211 19704 net.cpp:370] pool1 -> pool1
I1006 16:02:17.641218 19704 net.cpp:122] Setting up pool1
I1006 16:02:17.641234 19704 net.cpp:129] Top shape: 128 96 27 27 (8957952)
I1006 16:02:17.641240 19704 layer_factory.hpp:74] Creating layer norm1
I1006 16:02:17.641248 19704 net.cpp:92] Creating Layer norm1
I1006 16:02:17.641253 19704 net.cpp:412] norm1 <- pool1
I1006 16:02:17.641259 19704 net.cpp:370] norm1 -> norm1
I1006 16:02:17.641268 19704 net.cpp:122] Setting up norm1
I1006 16:02:17.641276 19704 net.cpp:129] Top shape: 128 96 27 27 (8957952)
I1006 16:02:17.641281 19704 layer_factory.hpp:74] Creating layer conv2
I1006 16:02:17.641289 19704 net.cpp:92] Creating Layer conv2
I1006 16:02:17.641302 19704 net.cpp:412] conv2 <- norm1
I1006 16:02:17.641310 19704 net.cpp:370] conv2 -> conv2
I1006 16:02:17.641325 19704 net.cpp:122] Setting up conv2
I1006 16:02:17.648639 19704 net.cpp:129] Top shape: 128 256 27 27 (23887872)
I1006 16:02:17.648679 19704 layer_factory.hpp:74] Creating layer relu2
I1006 16:02:17.648689 19704 net.cpp:92] Creating Layer relu2
I1006 16:02:17.648695 19704 net.cpp:412] relu2 <- conv2
I1006 16:02:17.648705 19704 net.cpp:359] relu2 -> conv2 (in-place)
I1006 16:02:17.648715 19704 net.cpp:122] Setting up relu2
I1006 16:02:17.648720 19704 net.cpp:129] Top shape: 128 256 27 27 (23887872)
I1006 16:02:17.648725 19704 layer_factory.hpp:74] Creating layer pool2
I1006 16:02:17.648733 19704 net.cpp:92] Creating Layer pool2
I1006 16:02:17.648738 19704 net.cpp:412] pool2 <- conv2
I1006 16:02:17.648746 19704 net.cpp:370] pool2 -> pool2
I1006 16:02:17.648752 19704 net.cpp:122] Setting up pool2
I1006 16:02:17.648761 19704 net.cpp:129] Top shape: 128 256 13 13 (5537792)
I1006 16:02:17.648766 19704 layer_factory.hpp:74] Creating layer norm2
I1006 16:02:17.648777 19704 net.cpp:92] Creating Layer norm2
I1006 16:02:17.648782 19704 net.cpp:412] norm2 <- pool2
I1006 16:02:17.648789 19704 net.cpp:370] norm2 -> norm2
I1006 16:02:17.648797 19704 net.cpp:122] Setting up norm2
I1006 16:02:17.648807 19704 net.cpp:129] Top shape: 128 256 13 13 (5537792)
I1006 16:02:17.648811 19704 layer_factory.hpp:74] Creating layer conv3
I1006 16:02:17.648823 19704 net.cpp:92] Creating Layer conv3
I1006 16:02:17.648828 19704 net.cpp:412] conv3 <- norm2
I1006 16:02:17.648835 19704 net.cpp:370] conv3 -> conv3
I1006 16:02:17.648844 19704 net.cpp:122] Setting up conv3
I1006 16:02:17.669937 19704 net.cpp:129] Top shape: 128 384 13 13 (8306688)
I1006 16:02:17.669986 19704 layer_factory.hpp:74] Creating layer relu3
I1006 16:02:17.669998 19704 net.cpp:92] Creating Layer relu3
I1006 16:02:17.670004 19704 net.cpp:412] relu3 <- conv3
I1006 16:02:17.670028 19704 net.cpp:359] relu3 -> conv3 (in-place)
I1006 16:02:17.670037 19704 net.cpp:122] Setting up relu3
I1006 16:02:17.670043 19704 net.cpp:129] Top shape: 128 384 13 13 (8306688)
I1006 16:02:17.670048 19704 layer_factory.hpp:74] Creating layer conv4
I1006 16:02:17.670059 19704 net.cpp:92] Creating Layer conv4
I1006 16:02:17.670064 19704 net.cpp:412] conv4 <- conv3
I1006 16:02:17.670071 19704 net.cpp:370] conv4 -> conv4
I1006 16:02:17.670079 19704 net.cpp:122] Setting up conv4
I1006 16:02:17.685869 19704 net.cpp:129] Top shape: 128 384 13 13 (8306688)
I1006 16:02:17.685904 19704 layer_factory.hpp:74] Creating layer relu4
I1006 16:02:17.685915 19704 net.cpp:92] Creating Layer relu4
I1006 16:02:17.685921 19704 net.cpp:412] relu4 <- conv4
I1006 16:02:17.685935 19704 net.cpp:359] relu4 -> conv4 (in-place)
I1006 16:02:17.685943 19704 net.cpp:122] Setting up relu4
I1006 16:02:17.685950 19704 net.cpp:129] Top shape: 128 384 13 13 (8306688)
I1006 16:02:17.685956 19704 layer_factory.hpp:74] Creating layer conv5
I1006 16:02:17.685966 19704 net.cpp:92] Creating Layer conv5
I1006 16:02:17.685971 19704 net.cpp:412] conv5 <- conv4
I1006 16:02:17.685978 19704 net.cpp:370] conv5 -> conv5
I1006 16:02:17.685986 19704 net.cpp:122] Setting up conv5
I1006 16:02:17.696537 19704 net.cpp:129] Top shape: 128 256 13 13 (5537792)
I1006 16:02:17.696575 19704 layer_factory.hpp:74] Creating layer relu5
I1006 16:02:17.696585 19704 net.cpp:92] Creating Layer relu5
I1006 16:02:17.696593 19704 net.cpp:412] relu5 <- conv5
I1006 16:02:17.696600 19704 net.cpp:359] relu5 -> conv5 (in-place)
I1006 16:02:17.696609 19704 net.cpp:122] Setting up relu5
I1006 16:02:17.696615 19704 net.cpp:129] Top shape: 128 256 13 13 (5537792)
I1006 16:02:17.696619 19704 layer_factory.hpp:74] Creating layer pool5
I1006 16:02:17.696627 19704 net.cpp:92] Creating Layer pool5
I1006 16:02:17.696632 19704 net.cpp:412] pool5 <- conv5
I1006 16:02:17.696638 19704 net.cpp:370] pool5 -> pool5
I1006 16:02:17.696646 19704 net.cpp:122] Setting up pool5
I1006 16:02:17.696655 19704 net.cpp:129] Top shape: 128 256 6 6 (1179648)
I1006 16:02:17.696660 19704 layer_factory.hpp:74] Creating layer fc6
I1006 16:02:17.696682 19704 net.cpp:92] Creating Layer fc6
I1006 16:02:17.696696 19704 net.cpp:412] fc6 <- pool5
I1006 16:02:17.696703 19704 net.cpp:370] fc6 -> fc6
I1006 16:02:17.696715 19704 net.cpp:122] Setting up fc6
I1006 16:02:18.554476 19704 net.cpp:129] Top shape: 128 4096 (524288)
I1006 16:02:18.554517 19704 layer_factory.hpp:74] Creating layer relu6
I1006 16:02:18.554529 19704 net.cpp:92] Creating Layer relu6
I1006 16:02:18.554536 19704 net.cpp:412] relu6 <- fc6
I1006 16:02:18.554544 19704 net.cpp:359] relu6 -> fc6 (in-place)
I1006 16:02:18.554553 19704 net.cpp:122] Setting up relu6
I1006 16:02:18.554559 19704 net.cpp:129] Top shape: 128 4096 (524288)
I1006 16:02:18.554564 19704 layer_factory.hpp:74] Creating layer drop6
I1006 16:02:18.554579 19704 net.cpp:92] Creating Layer drop6
I1006 16:02:18.554584 19704 net.cpp:412] drop6 <- fc6
I1006 16:02:18.554590 19704 net.cpp:359] drop6 -> fc6 (in-place)
I1006 16:02:18.554600 19704 net.cpp:122] Setting up drop6
I1006 16:02:18.554610 19704 net.cpp:129] Top shape: 128 4096 (524288)
I1006 16:02:18.554615 19704 layer_factory.hpp:74] Creating layer fc7
I1006 16:02:18.554623 19704 net.cpp:92] Creating Layer fc7
I1006 16:02:18.554628 19704 net.cpp:412] fc7 <- fc6
I1006 16:02:18.554636 19704 net.cpp:370] fc7 -> fc7
I1006 16:02:18.554646 19704 net.cpp:122] Setting up fc7
I1006 16:02:18.935629 19704 net.cpp:129] Top shape: 128 4096 (524288)
I1006 16:02:18.935667 19704 layer_factory.hpp:74] Creating layer relu7
I1006 16:02:18.935678 19704 net.cpp:92] Creating Layer relu7
I1006 16:02:18.935683 19704 net.cpp:412] relu7 <- fc7
I1006 16:02:18.935691 19704 net.cpp:359] relu7 -> fc7 (in-place)
I1006 16:02:18.935700 19704 net.cpp:122] Setting up relu7
I1006 16:02:18.935706 19704 net.cpp:129] Top shape: 128 4096 (524288)
I1006 16:02:18.935711 19704 layer_factory.hpp:74] Creating layer drop7
I1006 16:02:18.935719 19704 net.cpp:92] Creating Layer drop7
I1006 16:02:18.935724 19704 net.cpp:412] drop7 <- fc7
I1006 16:02:18.935730 19704 net.cpp:359] drop7 -> fc7 (in-place)
I1006 16:02:18.935737 19704 net.cpp:122] Setting up drop7
I1006 16:02:18.935745 19704 net.cpp:129] Top shape: 128 4096 (524288)
I1006 16:02:18.935750 19704 layer_factory.hpp:74] Creating layer fc8
I1006 16:02:18.935758 19704 net.cpp:92] Creating Layer fc8
I1006 16:02:18.935763 19704 net.cpp:412] fc8 <- fc7
I1006 16:02:18.935770 19704 net.cpp:370] fc8 -> fc8
I1006 16:02:18.935778 19704 net.cpp:122] Setting up fc8
I1006 16:02:18.935981 19704 net.cpp:129] Top shape: 128 2 (256)
I1006 16:02:18.935988 19704 layer_factory.hpp:74] Creating layer loss
I1006 16:02:18.935997 19704 net.cpp:92] Creating Layer loss
I1006 16:02:18.936002 19704 net.cpp:412] loss <- fc8
I1006 16:02:18.936007 19704 net.cpp:412] loss <- label
I1006 16:02:18.936017 19704 net.cpp:370] loss -> loss
I1006 16:02:18.936023 19704 net.cpp:122] Setting up loss
I1006 16:02:18.936031 19704 layer_factory.hpp:74] Creating layer loss
…
I1006 16:02:18.936856 19704 net.cpp:289] The NetState phase (1) differed from the phase (0) specified by a rule in layer data
I1006 16:02:18.937011 19704 net.cpp:44] Initializing net from parameters: 
name: "CaffeNet"
state {
  phase: TEST
}
layer {
  name: "data"
  type: "Data"
  top: "data"
  top: "label"
  include {
    phase: TEST
  }
  transform_param {
    mirror: true
    crop_size: 227
    mean_file: "data/acWhole/imagenet_mean.binaryproto"
  }
  data_param {
    source: "acWhole/imagenet_val_leveldb"
    mean_file: "data/acWhole/imagenet_mean.binartproto"
    batch_size: 10
    crop_size: 227
    mirror: false
    backend: LMDB
  }
}
layer {
  name: "conv1"
  type: "Convolution"
  bottom: "data"
  top: "conv1"
  param {
    lr_mult: 1
    decay_mult: 1
  }
  param {
    lr_mult: 2
    decay_mult: 0
  }
  convolution_param {
    num_output: 96
    kernel_size: 11
    stride: 4
    weight_filler {
      type: "gaussian"
      std: 0.01
    }
    bias_filler {
      type: "constant"
      value: 0
    }
  }
}
layer {
  name: "relu1"
  type: "ReLU"
  bottom: "conv1"
  top: "conv1"
}
layer {
  name: "pool1"
  type: "Pooling"
  bottom: "conv1"
  top: "pool1"
  pooling_param {
    pool: MAX
    kernel_size: 3
    stride: 2
  }
}
layer {
  name: "norm1"
  type: "LRN"
  bottom: "pool1"
  top: "norm1"
  lrn_param {
    local_size: 5
    alpha: 0.0001
    beta: 0.75
  }
}
layer {
  name: "conv2"
  type: "Convolution"
  bottom: "norm1"
  top: "conv2"
  param {
    lr_mult: 1
    decay_mult: 1
  }
  param {
    lr_mult: 2
    decay_mult: 0
  }
  convolution_param {
    num_output: 256
    pad: 2
    kernel_size: 5
    group: 2
    weight_filler {
      type: "gaussian"
      std: 0.01
    }
    bias_filler {
      type: "constant"
      value: 1
    }
  }
}
layer {
  name: "relu2"
  type: "ReLU"
  bottom: "conv2"
  top: "conv2"
}
layer {
  name: "pool2"
  type: "Pooling"
  bottom: "conv2"
  top: "pool2"
  pooling_param {
    pool: MAX
    kernel_size: 3
    stride: 2
  }
}
layer {
  name: "norm2"
  type: "LRN"
  bottom: "pool2"
  top: "norm2"
  lrn_param {
    local_size: 5
    alpha: 0.0001
    beta: 0.75
  }
}
layer {
  name: "conv3"
  type: "Convolution"
  bottom: "norm2"
  top: "conv3"
  param {
    lr_mult: 1
    decay_mult: 1
  }
  param {
    lr_mult: 2
    decay_mult: 0
  }
  convolution_param {
    num_output: 384
    pad: 1
    kernel_size: 3
    weight_filler {
      type: "gaussian"
      std: 0.01
    }
    bias_filler {
      type: "constant"
      value: 0
    }
  }
}
layer {
  name: "relu3"
  type: "ReLU"
  bottom: "conv3"
  top: "conv3"
}
layer {
  name: "conv4"
  type: "Convolution"
  bottom: "conv3"
  top: "conv4"
  param {
    lr_mult: 1
    decay_mult: 1
  }
  param {
    lr_mult: 2
    decay_mult: 0
  }
  convolution_param {
    num_output: 384
    pad: 1
    kernel_size: 3
    group: 2
    weight_filler {
      type: "gaussian"
      std: 0.01
    }
    bias_filler {
      type: "constant"
      value: 1
    }
  }
}
layer {
  name: "relu4"
  type: "ReLU"
  bottom: "conv4"
  top: "conv4"
}
layer {
  name: "conv5"
  type: "Convolution"
  bottom: "conv4"
  top: "conv5"
  param {
    lr_mult: 1
    decay_mult: 1
  }
  param {
    lr_mult: 2
    decay_mult: 0
  }
  convolution_param {
    num_output: 256
    pad: 1
    kernel_size: 3
    group: 2
    weight_filler {
      type: "gaussian"
      std: 0.01
    }
    bias_filler {
      type: "constant"
      value: 1
    }
  }
}
layer {
  name: "relu5"
  type: "ReLU"
  bottom: "conv5"
  top: "conv5"
}
layer {
  name: "pool5"
  type: "Pooling"
  bottom: "conv5"
  top: "pool5"
  pooling_param {
    pool: MAX
    kernel_size: 3
    stride: 2
  }
}
layer {
  name: "fc6"
  type: "InnerProduct"
  bottom: "pool5"
  top: "fc6"
  param {
    lr_mult: 1
    decay_mult: 1
  }
  param {
    lr_mult: 2
    decay_mult: 0
  }
  inner_product_param {
    num_output: 4096
    weight_filler {
      type: "gaussian"
      std: 0.005
    }
    bias_filler {
      type: "constant"
      value: 1
    }
  }
}
layer {
  name: "relu6"
  type: "ReLU"
  bottom: "fc6"
  top: "fc6"
}
layer {
  name: "drop6"
  type: "Dropout"
  bottom: "fc6"
  top: "fc6"
  dropout_param {
    dropout_ratio: 0.5
  }
}
layer {
  name: "fc7"
  type: "InnerProduct"
  bottom: "fc6"
  top: "fc7"
  param {
    lr_mult: 1
    decay_mult: 1
  }
  param {
    lr_mult: 2
    decay_mult: 0
  }
  inner_product_param {
    num_output: 4096
    weight_filler {
      type: "gaussian"
      std: 0.005
    }
    bias_filler {
      type: "constant"
      value: 1
    }
  }
}
layer {
  name: "relu7"
  type: "ReLU"
  bottom: "fc7"
  top: "fc7"
}
layer {
  name: "drop7"
  type: "Dropout"
  bottom: "fc7"
  top: "fc7"
  dropout_param {
    dropout_ratio: 0.5
  }
}
layer {
  name: "fc8"
  type: "InnerProduct"
  bottom: "fc7"
  top: "fc8"
  param {
    lr_mult: 1
    decay_mult: 1
  }
  param {
    lr_mult: 2
    decay_mult: 0
  }
  inner_product_param {
    num_output: 2
    weight_filler {
      type: "gaussian"
      std: 0.01
    }
    bias_filler {
      type: "constant"
      value: 0
    }
  }
}
layer {
  name: "accuracy"
  type: "Accuracy"
  bottom: "fc8"
  bottom: "label"
  top: "accuracy"
  include {
    phase: TEST
  }
}
layer {
  name: "loss"
  type: "SoftmaxWithLoss"
  bottom: "fc8"
  bottom: "label"
  top: "loss"
}
I1006 16:02:18.937114 19704 layer_factory.hpp:74] Creating layer data
I1006 16:02:18.937126 19704 net.cpp:92] Creating Layer data
I1006 16:02:18.937132 19704 net.cpp:370] data -> data
I1006 16:02:18.937142 19704 net.cpp:370] data -> label
I1006 16:02:18.937150 19704 net.cpp:122] Setting up data
I1006 16:02:18.937155 19704 data_transformer.cpp:22] Loading mean file from: data/acWhole/imagenet_mean.binaryproto
I1006 16:02:18.938455 19704 db_lmdb.cpp:22] Opened lmdb acWhole/imagenet_val_leveldb
I1006 16:02:18.938522 19704 data_layer.cpp:52] output data size: 10,3,227,227
I1006 16:02:18.939436 19704 net.cpp:129] Top shape: 10 3 227 227 (1545870)
I1006 16:02:18.939461 19704 net.cpp:129] Top shape: 10 (10)
I1006 16:02:18.939471 19704 layer_factory.hpp:74] Creating layer label_data_1_split
I1006 16:02:18.939483 19704 net.cpp:92] Creating Layer label_data_1_split
I1006 16:02:18.939491 19704 net.cpp:412] label_data_1_split <- label
I1006 16:02:18.939501 19704 net.cpp:370] label_data_1_split -> label_data_1_split_0
I1006 16:02:18.939512 19704 net.cpp:370] label_data_1_split -> label_data_1_split_1
I1006 16:02:18.939519 19704 net.cpp:122] Setting up label_data_1_split
I1006 16:02:18.939527 19704 net.cpp:129] Top shape: 10 (10)
I1006 16:02:18.939533 19704 net.cpp:129] Top shape: 10 (10)
I1006 16:02:18.939538 19704 layer_factory.hpp:74] Creating layer conv1
I1006 16:02:18.939549 19704 net.cpp:92] Creating Layer conv1
I1006 16:02:18.939554 19704 net.cpp:412] conv1 <- data
I1006 16:02:18.939561 19704 net.cpp:370] conv1 -> conv1
I1006 16:02:18.939569 19704 net.cpp:122] Setting up conv1
I1006 16:02:18.940404 19704 net.cpp:129] Top shape: 10 96 55 55 (2904000)
I1006 16:02:18.940418 19704 layer_factory.hpp:74] Creating layer relu1
I1006 16:02:18.940434 19704 net.cpp:92] Creating Layer relu1
I1006 16:02:18.940440 19704 net.cpp:412] relu1 <- conv1
I1006 16:02:18.940454 19704 net.cpp:359] relu1 -> conv1 (in-place)
I1006 16:02:18.940461 19704 net.cpp:122] Setting up relu1
I1006 16:02:18.940467 19704 net.cpp:129] Top shape: 10 96 55 55 (2904000)
I1006 16:02:18.940472 19704 layer_factory.hpp:74] Creating layer pool1
I1006 16:02:18.940480 19704 net.cpp:92] Creating Layer pool1
I1006 16:02:18.940485 19704 net.cpp:412] pool1 <- conv1
I1006 16:02:18.940491 19704 net.cpp:370] pool1 -> pool1
I1006 16:02:18.940498 19704 net.cpp:122] Setting up pool1
I1006 16:02:18.940508 19704 net.cpp:129] Top shape: 10 96 27 27 (699840)
I1006 16:02:18.940513 19704 layer_factory.hpp:74] Creating layer norm1
I1006 16:02:18.940521 19704 net.cpp:92] Creating Layer norm1
I1006 16:02:18.940526 19704 net.cpp:412] norm1 <- pool1
I1006 16:02:18.940531 19704 net.cpp:370] norm1 -> norm1
I1006 16:02:18.940538 19704 net.cpp:122] Setting up norm1
I1006 16:02:18.940546 19704 net.cpp:129] Top shape: 10 96 27 27 (699840)
I1006 16:02:18.940551 19704 layer_factory.hpp:74] Creating layer conv2
I1006 16:02:18.940558 19704 net.cpp:92] Creating Layer conv2
I1006 16:02:18.940563 19704 net.cpp:412] conv2 <- norm1
I1006 16:02:18.940569 19704 net.cpp:370] conv2 -> conv2
I1006 16:02:18.940577 19704 net.cpp:122] Setting up conv2
I1006 16:02:18.947759 19704 net.cpp:129] Top shape: 10 256 27 27 (1866240)
I1006 16:02:18.947789 19704 layer_factory.hpp:74] Creating layer relu2
I1006 16:02:18.947800 19704 net.cpp:92] Creating Layer relu2
I1006 16:02:18.947806 19704 net.cpp:412] relu2 <- conv2
I1006 16:02:18.947814 19704 net.cpp:359] relu2 -> conv2 (in-place)
I1006 16:02:18.947821 19704 net.cpp:122] Setting up relu2
I1006 16:02:18.947827 19704 net.cpp:129] Top shape: 10 256 27 27 (1866240)
I1006 16:02:18.947832 19704 layer_factory.hpp:74] Creating layer pool2
I1006 16:02:18.947841 19704 net.cpp:92] Creating Layer pool2
I1006 16:02:18.947846 19704 net.cpp:412] pool2 <- conv2
I1006 16:02:18.947852 19704 net.cpp:370] pool2 -> pool2
I1006 16:02:18.947860 19704 net.cpp:122] Setting up pool2
I1006 16:02:18.947870 19704 net.cpp:129] Top shape: 10 256 13 13 (432640)
I1006 16:02:18.947875 19704 layer_factory.hpp:74] Creating layer norm2
I1006 16:02:18.947883 19704 net.cpp:92] Creating Layer norm2
I1006 16:02:18.947888 19704 net.cpp:412] norm2 <- pool2
I1006 16:02:18.947895 19704 net.cpp:370] norm2 -> norm2
I1006 16:02:18.947901 19704 net.cpp:122] Setting up norm2
I1006 16:02:18.947909 19704 net.cpp:129] Top shape: 10 256 13 13 (432640)
I1006 16:02:18.947914 19704 layer_factory.hpp:74] Creating layer conv3
I1006 16:02:18.947922 19704 net.cpp:92] Creating Layer conv3
I1006 16:02:18.947927 19704 net.cpp:412] conv3 <- norm2
I1006 16:02:18.947934 19704 net.cpp:370] conv3 -> conv3
I1006 16:02:18.947942 19704 net.cpp:122] Setting up conv3
I1006 16:02:18.968183 19704 net.cpp:129] Top shape: 10 384 13 13 (648960)
I1006 16:02:18.968197 19704 layer_factory.hpp:74] Creating layer relu3
I1006 16:02:18.968204 19704 net.cpp:92] Creating Layer relu3
I1006 16:02:18.968209 19704 net.cpp:412] relu3 <- conv3
I1006 16:02:18.968216 19704 net.cpp:359] relu3 -> conv3 (in-place)
I1006 16:02:18.968224 19704 net.cpp:122] Setting up relu3
I1006 16:02:18.968230 19704 net.cpp:129] Top shape: 10 384 13 13 (648960)
I1006 16:02:18.968233 19704 layer_factory.hpp:74] Creating layer conv4
I1006 16:02:18.968241 19704 net.cpp:92] Creating Layer conv4
I1006 16:02:18.968245 19704 net.cpp:412] conv4 <- conv3
I1006 16:02:18.968253 19704 net.cpp:370] conv4 -> conv4
I1006 16:02:18.968261 19704 net.cpp:122] Setting up conv4
I1006 16:02:18.983610 19704 net.cpp:129] Top shape: 10 384 13 13 (648960)
I1006 16:02:18.983626 19704 layer_factory.hpp:74] Creating layer relu4
I1006 16:02:18.983633 19704 net.cpp:92] Creating Layer relu4
I1006 16:02:18.983639 19704 net.cpp:412] relu4 <- conv4
I1006 16:02:18.983645 19704 net.cpp:359] relu4 -> conv4 (in-place)
I1006 16:02:18.983651 19704 net.cpp:122] Setting up relu4
I1006 16:02:18.983657 19704 net.cpp:129] Top shape: 10 384 13 13 (648960)
I1006 16:02:18.983670 19704 layer_factory.hpp:74] Creating layer conv5
I1006 16:02:18.983685 19704 net.cpp:92] Creating Layer conv5
I1006 16:02:18.983690 19704 net.cpp:412] conv5 <- conv4
I1006 16:02:18.983698 19704 net.cpp:370] conv5 -> conv5
I1006 16:02:18.983706 19704 net.cpp:122] Setting up conv5
I1006 16:02:18.993904 19704 net.cpp:129] Top shape: 10 256 13 13 (432640)
I1006 16:02:18.993921 19704 layer_factory.hpp:74] Creating layer relu5
I1006 16:02:18.993927 19704 net.cpp:92] Creating Layer relu5
I1006 16:02:18.993932 19704 net.cpp:412] relu5 <- conv5
I1006 16:02:18.993938 19704 net.cpp:359] relu5 -> conv5 (in-place)
I1006 16:02:18.993944 19704 net.cpp:122] Setting up relu5
I1006 16:02:18.993950 19704 net.cpp:129] Top shape: 10 256 13 13 (432640)
I1006 16:02:18.993955 19704 layer_factory.hpp:74] Creating layer pool5
I1006 16:02:18.993965 19704 net.cpp:92] Creating Layer pool5
I1006 16:02:18.993970 19704 net.cpp:412] pool5 <- conv5
I1006 16:02:18.993976 19704 net.cpp:370] pool5 -> pool5
I1006 16:02:18.993983 19704 net.cpp:122] Setting up pool5
I1006 16:02:18.993993 19704 net.cpp:129] Top shape: 10 256 6 6 (92160)
I1006 16:02:18.993998 19704 layer_factory.hpp:74] Creating layer fc6
I1006 16:02:18.994006 19704 net.cpp:92] Creating Layer fc6
I1006 16:02:18.994012 19704 net.cpp:412] fc6 <- pool5
I1006 16:02:18.994019 19704 net.cpp:370] fc6 -> fc6
I1006 16:02:18.994027 19704 net.cpp:122] Setting up fc6
I1006 16:02:19.850987 19704 net.cpp:129] Top shape: 10 4096 (40960)
I1006 16:02:19.851030 19704 layer_factory.hpp:74] Creating layer relu6
I1006 16:02:19.851042 19704 net.cpp:92] Creating Layer relu6
I1006 16:02:19.851048 19704 net.cpp:412] relu6 <- fc6
I1006 16:02:19.851057 19704 net.cpp:359] relu6 -> fc6 (in-place)
I1006 16:02:19.851065 19704 net.cpp:122] Setting up relu6
I1006 16:02:19.851071 19704 net.cpp:129] Top shape: 10 4096 (40960)
I1006 16:02:19.851076 19704 layer_factory.hpp:74] Creating layer drop6
I1006 16:02:19.851084 19704 net.cpp:92] Creating Layer drop6
I1006 16:02:19.851089 19704 net.cpp:412] drop6 <- fc6
I1006 16:02:19.851095 19704 net.cpp:359] drop6 -> fc6 (in-place)
I1006 16:02:19.851102 19704 net.cpp:122] Setting up drop6
I1006 16:02:19.851109 19704 net.cpp:129] Top shape: 10 4096 (40960)
I1006 16:02:19.851114 19704 layer_factory.hpp:74] Creating layer fc7
I1006 16:02:19.851124 19704 net.cpp:92] Creating Layer fc7
I1006 16:02:19.851128 19704 net.cpp:412] fc7 <- fc6
I1006 16:02:19.851135 19704 net.cpp:370] fc7 -> fc7
I1006 16:02:19.851143 19704 net.cpp:122] Setting up fc7
I1006 16:02:20.232033 19704 net.cpp:129] Top shape: 10 4096 (40960)
I1006 16:02:20.232075 19704 layer_factory.hpp:74] Creating layer relu7
I1006 16:02:20.232089 19704 net.cpp:92] Creating Layer relu7
I1006 16:02:20.232095 19704 net.cpp:412] relu7 <- fc7
I1006 16:02:20.232102 19704 net.cpp:359] relu7 -> fc7 (in-place)
I1006 16:02:20.232111 19704 net.cpp:122] Setting up relu7
I1006 16:02:20.232117 19704 net.cpp:129] Top shape: 10 4096 (40960)
I1006 16:02:20.232121 19704 layer_factory.hpp:74] Creating layer drop7
I1006 16:02:20.232130 19704 net.cpp:92] Creating Layer drop7
I1006 16:02:20.232133 19704 net.cpp:412] drop7 <- fc7
I1006 16:02:20.232141 19704 net.cpp:359] drop7 -> fc7 (in-place)
I1006 16:02:20.232147 19704 net.cpp:122] Setting up drop7
I1006 16:02:20.232156 19704 net.cpp:129] Top shape: 10 4096 (40960)
I1006 16:02:20.232159 19704 layer_factory.hpp:74] Creating layer fc8
I1006 16:02:20.232168 19704 net.cpp:92] Creating Layer fc8
I1006 16:02:20.232173 19704 net.cpp:412] fc8 <- fc7
I1006 16:02:20.232180 19704 net.cpp:370] fc8 -> fc8
I1006 16:02:20.232192 19704 net.cpp:122] Setting up fc8
I1006 16:02:20.232393 19704 net.cpp:129] Top shape: 10 2 (20)
I1006 16:02:20.232400 19704 layer_factory.hpp:74] Creating layer fc8_fc8_0_split
I1006 16:02:20.232409 19704 net.cpp:92] Creating Layer fc8_fc8_0_split
I1006 16:02:20.232413 19704 net.cpp:412] fc8_fc8_0_split <- fc8
I1006 16:02:20.232419 19704 net.cpp:370] fc8_fc8_0_split -> fc8_fc8_0_split_0
I1006 16:02:20.232426 19704 net.cpp:370] fc8_fc8_0_split -> fc8_fc8_0_split_1
I1006 16:02:20.232442 19704 net.cpp:122] Setting up fc8_fc8_0_split
I1006 16:02:20.232450 19704 net.cpp:129] Top shape: 10 2 (20)
I1006 16:02:20.232465 19704 net.cpp:129] Top shape: 10 2 (20)
I1006 16:02:20.232470 19704 layer_factory.hpp:74] Creating layer accuracy
I1006 16:02:20.232477 19704 net.cpp:92] Creating Layer accuracy
I1006 16:02:20.232482 19704 net.cpp:412] accuracy <- fc8_fc8_0_split_0
I1006 16:02:20.232488 19704 net.cpp:412] accuracy <- label_data_1_split_0
I1006 16:02:20.232494 19704 net.cpp:370] accuracy -> accuracy
I1006 16:02:20.232501 19704 net.cpp:122] Setting up accuracy
…
