…
I1007 19:27:55.205117  5032 net.cpp:289] The NetState phase (0) differed from the phase (1) specified by a rule in layer accuracy
I1007 19:27:55.205257  5032 net.cpp:44] Initializing net from parameters: 
name: "CaffeNet"
state {
  phase: TRAIN
}
layer {
  name: "data"
  type: "Data"
  top: "data"
  top: "label"
  include {
    phase: TRAIN
  }
  transform_param {
    mirror: true
    crop_size: 227
    mean_file: "data/acWhole/imagenet_mean.binaryproto"
  }
  data_param {
    source: "acWhole/imagenet_train_leveldb"
    batch_size: 64
    backend: LMDB
  }
}
layer {
  name: "conv1"
  type: "Convolution"
  bottom: "data"
  top: "conv1"
  param {
    lr_mult: 1
    decay_mult: 1
  }
  param {
    lr_mult: 2
    decay_mult: 0
  }
  convolution_param {
    num_output: 96
    kernel_size: 11
    stride: 4
    weight_filler {
      type: "gaussian"
      std: 0.01
    }
    bias_filler {
      type: "constant"
      value: 0
    }
  }
}
layer {
  name: "relu1"
  type: "ReLU"
  bottom: "conv1"
  top: "conv1"
}
layer {
  name: "pool1"
  type: "Pooling"
  bottom: "conv1"
  top: "pool1"
  pooling_param {
    pool: MAX
    kernel_size: 3
    stride: 2
  }
}
layer {
  name: "norm1"
  type: "LRN"
  bottom: "pool1"
  top: "norm1"
  lrn_param {
    local_size: 5
    alpha: 0.0001
    beta: 0.75
  }
}
layer {
  name: "conv2"
  type: "Convolution"
  bottom: "norm1"
  top: "conv2"
  param {
    lr_mult: 1
    decay_mult: 1
  }
  param {
    lr_mult: 2
    decay_mult: 0
  }
  convolution_param {
    num_output: 256
    pad: 2
    kernel_size: 5
    group: 2
    weight_filler {
      type: "gaussian"
      std: 0.01
    }
    bias_filler {
      type: "constant"
      value: 1
    }
  }
}
layer {
  name: "relu2"
  type: "ReLU"
  bottom: "conv2"
  top: "conv2"
}
layer {
  name: "pool2"
  type: "Pooling"
  bottom: "conv2"
  top: "pool2"
  pooling_param {
    pool: MAX
    kernel_size: 3
    stride: 2
  }
}
layer {
  name: "norm2"
  type: "LRN"
  bottom: "pool2"
  top: "norm2"
  lrn_param {
    local_size: 5
    alpha: 0.0001
    beta: 0.75
  }
}
layer {
  name: "conv3"
  type: "Convolution"
  bottom: "norm2"
  top: "conv3"
  param {
    lr_mult: 1
    decay_mult: 1
  }
  param {
    lr_mult: 2
    decay_mult: 0
  }
  convolution_param {
    num_output: 384
    pad: 1
    kernel_size: 3
    weight_filler {
      type: "gaussian"
      std: 0.01
    }
    bias_filler {
      type: "constant"
      value: 0
    }
  }
}
layer {
  name: "relu3"
  type: "ReLU"
  bottom: "conv3"
  top: "conv3"
}
layer {
  name: "conv4"
  type: "Convolution"
  bottom: "conv3"
  top: "conv4"
  param {
    lr_mult: 1
    decay_mult: 1
  }
  param {
    lr_mult: 2
    decay_mult: 0
  }
  convolution_param {
    num_output: 384
    pad: 1
    kernel_size: 3
    group: 2
    weight_filler {
      type: "gaussian"
      std: 0.01
    }
    bias_filler {
      type: "constant"
      value: 1
    }
  }
}
layer {
  name: "relu4"
  type: "ReLU"
  bottom: "conv4"
  top: "conv4"
}
layer {
  name: "conv5"
  type: "Convolution"
  bottom: "conv4"
  top: "conv5"
  param {
    lr_mult: 1
    decay_mult: 1
  }
  param {
    lr_mult: 2
    decay_mult: 0
  }
  convolution_param {
    num_output: 256
    pad: 1
    kernel_size: 3
    group: 2
    weight_filler {
      type: "gaussian"
      std: 0.01
    }
    bias_filler {
      type: "constant"
      value: 1
    }
  }
}
layer {
  name: "relu5"
  type: "ReLU"
  bottom: "conv5"
  top: "conv5"
}
layer {
  name: "pool5"
  type: "Pooling"
  bottom: "conv5"
  top: "pool5"
  pooling_param {
    pool: MAX
    kernel_size: 3
    stride: 2
  }
}
layer {
  name: "fc6"
  type: "InnerProduct"
  bottom: "pool5"
  top: "fc6"
  param {
    lr_mult: 1
    decay_mult: 1
  }
  param {
    lr_mult: 2
    decay_mult: 0
  }
  inner_product_param {
    num_output: 4096
    weight_filler {
      type: "gaussian"
      std: 0.005
    }
    bias_filler {
      type: "constant"
      value: 1
    }
  }
}
layer {
  name: "relu6"
  type: "ReLU"
  bottom: "fc6"
  top: "fc6"
}
layer {
  name: "drop6"
  type: "Dropout"
  bottom: "fc6"
  top: "fc6"
  dropout_param {
    dropout_ratio: 0.5
  }
}
layer {
  name: "fc7"
  type: "InnerProduct"
  bottom: "fc6"
  top: "fc7"
  param {
    lr_mult: 1
    decay_mult: 1
  }
  param {
    lr_mult: 2
    decay_mult: 0
  }
  inner_product_param {
    num_output: 4096
    weight_filler {
      type: "gaussian"
      std: 0.005
    }
    bias_filler {
      type: "constant"
      value: 1
    }
  }
}
layer {
  name: "relu7"
  type: "ReLU"
  bottom: "fc7"
  top: "fc7"
}
layer {
  name: "drop7"
  type: "Dropout"
  bottom: "fc7"
  top: "fc7"
  dropout_param {
    dropout_ratio: 0.5
  }
}
layer {
  name: "fc8"
  type: "InnerProduct"
  bottom: "fc7"
  top: "fc8"
  param {
    lr_mult: 1
    decay_mult: 1
  }
  param {
    lr_mult: 2
    decay_mult: 0
  }
  inner_product_param {
    num_output: 2
    weight_filler {
      type: "gaussian"
      std: 0.01
    }
    bias_filler {
      type: "constant"
      value: 0
    }
  }
}
layer {
  name: "loss"
  type: "SoftmaxWithLoss"
  bottom: "fc8"
  bottom: "label"
  top: "loss"
}
I1007 19:27:55.205356  5032 layer_factory.hpp:74] Creating layer data
I1007 19:27:55.205377  5032 net.cpp:92] Creating Layer data
I1007 19:27:55.205384  5032 net.cpp:370] data -> data
I1007 19:27:55.205405  5032 net.cpp:370] data -> label
I1007 19:27:55.205416  5032 net.cpp:122] Setting up data
I1007 19:27:55.205425  5032 data_transformer.cpp:22] Loading mean file from: data/acWhole/imagenet_mean.binaryproto
I1007 19:27:55.206933  5032 db_lmdb.cpp:22] Opened lmdb acWhole/imagenet_train_leveldb
I1007 19:27:55.207001  5032 data_layer.cpp:52] output data size: 64,3,227,227
I1007 19:27:55.211709  5032 net.cpp:129] Top shape: 64 3 227 227 (9893568)
I1007 19:27:55.211747  5032 net.cpp:129] Top shape: 64 (64)
I1007 19:27:55.211757  5032 layer_factory.hpp:74] Creating layer conv1
I1007 19:27:55.211778  5032 net.cpp:92] Creating Layer conv1
I1007 19:27:55.211786  5032 net.cpp:412] conv1 <- data
I1007 19:27:55.211798  5032 net.cpp:370] conv1 -> conv1
I1007 19:27:55.211813  5032 net.cpp:122] Setting up conv1
I1007 19:27:55.212669  5032 net.cpp:129] Top shape: 64 96 55 55 (18585600)
I1007 19:27:55.212688  5032 layer_factory.hpp:74] Creating layer relu1
I1007 19:27:55.212697  5032 net.cpp:92] Creating Layer relu1
I1007 19:27:55.212719  5032 net.cpp:412] relu1 <- conv1
I1007 19:27:55.212728  5032 net.cpp:359] relu1 -> conv1 (in-place)
I1007 19:27:55.212734  5032 net.cpp:122] Setting up relu1
I1007 19:27:55.212741  5032 net.cpp:129] Top shape: 64 96 55 55 (18585600)
I1007 19:27:55.212746  5032 layer_factory.hpp:74] Creating layer pool1
I1007 19:27:55.212754  5032 net.cpp:92] Creating Layer pool1
I1007 19:27:55.212759  5032 net.cpp:412] pool1 <- conv1
I1007 19:27:55.212765  5032 net.cpp:370] pool1 -> pool1
I1007 19:27:55.212774  5032 net.cpp:122] Setting up pool1
I1007 19:27:55.212786  5032 net.cpp:129] Top shape: 64 96 27 27 (4478976)
I1007 19:27:55.212792  5032 layer_factory.hpp:74] Creating layer norm1
I1007 19:27:55.212800  5032 net.cpp:92] Creating Layer norm1
I1007 19:27:55.212805  5032 net.cpp:412] norm1 <- pool1
I1007 19:27:55.212811  5032 net.cpp:370] norm1 -> norm1
I1007 19:27:55.212821  5032 net.cpp:122] Setting up norm1
I1007 19:27:55.212828  5032 net.cpp:129] Top shape: 64 96 27 27 (4478976)
I1007 19:27:55.212833  5032 layer_factory.hpp:74] Creating layer conv2
I1007 19:27:55.212841  5032 net.cpp:92] Creating Layer conv2
I1007 19:27:55.212855  5032 net.cpp:412] conv2 <- norm1
I1007 19:27:55.212863  5032 net.cpp:370] conv2 -> conv2
I1007 19:27:55.212877  5032 net.cpp:122] Setting up conv2
I1007 19:27:55.220156  5032 net.cpp:129] Top shape: 64 256 27 27 (11943936)
I1007 19:27:55.220194  5032 layer_factory.hpp:74] Creating layer relu2
I1007 19:27:55.220204  5032 net.cpp:92] Creating Layer relu2
I1007 19:27:55.220211  5032 net.cpp:412] relu2 <- conv2
I1007 19:27:55.220219  5032 net.cpp:359] relu2 -> conv2 (in-place)
I1007 19:27:55.220228  5032 net.cpp:122] Setting up relu2
I1007 19:27:55.220235  5032 net.cpp:129] Top shape: 64 256 27 27 (11943936)
I1007 19:27:55.220240  5032 layer_factory.hpp:74] Creating layer pool2
I1007 19:27:55.220247  5032 net.cpp:92] Creating Layer pool2
I1007 19:27:55.220252  5032 net.cpp:412] pool2 <- conv2
I1007 19:27:55.220259  5032 net.cpp:370] pool2 -> pool2
I1007 19:27:55.220268  5032 net.cpp:122] Setting up pool2
I1007 19:27:55.220279  5032 net.cpp:129] Top shape: 64 256 13 13 (2768896)
I1007 19:27:55.220285  5032 layer_factory.hpp:74] Creating layer norm2
I1007 19:27:55.220298  5032 net.cpp:92] Creating Layer norm2
I1007 19:27:55.220302  5032 net.cpp:412] norm2 <- pool2
I1007 19:27:55.220309  5032 net.cpp:370] norm2 -> norm2
I1007 19:27:55.220316  5032 net.cpp:122] Setting up norm2
I1007 19:27:55.220324  5032 net.cpp:129] Top shape: 64 256 13 13 (2768896)
I1007 19:27:55.220329  5032 layer_factory.hpp:74] Creating layer conv3
I1007 19:27:55.220337  5032 net.cpp:92] Creating Layer conv3
I1007 19:27:55.220342  5032 net.cpp:412] conv3 <- norm2
I1007 19:27:55.220350  5032 net.cpp:370] conv3 -> conv3
I1007 19:27:55.220358  5032 net.cpp:122] Setting up conv3
I1007 19:27:55.241310  5032 net.cpp:129] Top shape: 64 384 13 13 (4153344)
I1007 19:27:55.241350  5032 layer_factory.hpp:74] Creating layer relu3
I1007 19:27:55.241363  5032 net.cpp:92] Creating Layer relu3
I1007 19:27:55.241369  5032 net.cpp:412] relu3 <- conv3
I1007 19:27:55.241376  5032 net.cpp:359] relu3 -> conv3 (in-place)
I1007 19:27:55.241386  5032 net.cpp:122] Setting up relu3
I1007 19:27:55.241394  5032 net.cpp:129] Top shape: 64 384 13 13 (4153344)
I1007 19:27:55.241399  5032 layer_factory.hpp:74] Creating layer conv4
I1007 19:27:55.241410  5032 net.cpp:92] Creating Layer conv4
I1007 19:27:55.241415  5032 net.cpp:412] conv4 <- conv3
I1007 19:27:55.241423  5032 net.cpp:370] conv4 -> conv4
I1007 19:27:55.241431  5032 net.cpp:122] Setting up conv4
I1007 19:27:55.256984  5032 net.cpp:129] Top shape: 64 384 13 13 (4153344)
I1007 19:27:55.257015  5032 layer_factory.hpp:74] Creating layer relu4
I1007 19:27:55.257025  5032 net.cpp:92] Creating Layer relu4
I1007 19:27:55.257031  5032 net.cpp:412] relu4 <- conv4
I1007 19:27:55.257045  5032 net.cpp:359] relu4 -> conv4 (in-place)
I1007 19:27:55.257053  5032 net.cpp:122] Setting up relu4
I1007 19:27:55.257060  5032 net.cpp:129] Top shape: 64 384 13 13 (4153344)
I1007 19:27:55.257064  5032 layer_factory.hpp:74] Creating layer conv5
I1007 19:27:55.257073  5032 net.cpp:92] Creating Layer conv5
I1007 19:27:55.257077  5032 net.cpp:412] conv5 <- conv4
I1007 19:27:55.257086  5032 net.cpp:370] conv5 -> conv5
I1007 19:27:55.257093  5032 net.cpp:122] Setting up conv5
I1007 19:27:55.267323  5032 net.cpp:129] Top shape: 64 256 13 13 (2768896)
I1007 19:27:55.267338  5032 layer_factory.hpp:74] Creating layer relu5
I1007 19:27:55.267346  5032 net.cpp:92] Creating Layer relu5
I1007 19:27:55.267351  5032 net.cpp:412] relu5 <- conv5
I1007 19:27:55.267357  5032 net.cpp:359] relu5 -> conv5 (in-place)
I1007 19:27:55.267364  5032 net.cpp:122] Setting up relu5
I1007 19:27:55.267369  5032 net.cpp:129] Top shape: 64 256 13 13 (2768896)
I1007 19:27:55.267374  5032 layer_factory.hpp:74] Creating layer pool5
I1007 19:27:55.267381  5032 net.cpp:92] Creating Layer pool5
I1007 19:27:55.267386  5032 net.cpp:412] pool5 <- conv5
I1007 19:27:55.267392  5032 net.cpp:370] pool5 -> pool5
I1007 19:27:55.267400  5032 net.cpp:122] Setting up pool5
I1007 19:27:55.267408  5032 net.cpp:129] Top shape: 64 256 6 6 (589824)
I1007 19:27:55.267413  5032 layer_factory.hpp:74] Creating layer fc6
I1007 19:27:55.267432  5032 net.cpp:92] Creating Layer fc6
I1007 19:27:55.267446  5032 net.cpp:412] fc6 <- pool5
I1007 19:27:55.267452  5032 net.cpp:370] fc6 -> fc6
I1007 19:27:55.267462  5032 net.cpp:122] Setting up fc6
I1007 19:27:56.125025  5032 net.cpp:129] Top shape: 64 4096 (262144)
I1007 19:27:56.125067  5032 layer_factory.hpp:74] Creating layer relu6
I1007 19:27:56.125079  5032 net.cpp:92] Creating Layer relu6
I1007 19:27:56.125087  5032 net.cpp:412] relu6 <- fc6
I1007 19:27:56.125094  5032 net.cpp:359] relu6 -> fc6 (in-place)
I1007 19:27:56.125103  5032 net.cpp:122] Setting up relu6
I1007 19:27:56.125110  5032 net.cpp:129] Top shape: 64 4096 (262144)
I1007 19:27:56.125114  5032 layer_factory.hpp:74] Creating layer drop6
I1007 19:27:56.125123  5032 net.cpp:92] Creating Layer drop6
I1007 19:27:56.125128  5032 net.cpp:412] drop6 <- fc6
I1007 19:27:56.125134  5032 net.cpp:359] drop6 -> fc6 (in-place)
I1007 19:27:56.125144  5032 net.cpp:122] Setting up drop6
I1007 19:27:56.125154  5032 net.cpp:129] Top shape: 64 4096 (262144)
I1007 19:27:56.125159  5032 layer_factory.hpp:74] Creating layer fc7
I1007 19:27:56.125166  5032 net.cpp:92] Creating Layer fc7
I1007 19:27:56.125171  5032 net.cpp:412] fc7 <- fc6
I1007 19:27:56.125180  5032 net.cpp:370] fc7 -> fc7
I1007 19:27:56.125188  5032 net.cpp:122] Setting up fc7
I1007 19:27:56.506412  5032 net.cpp:129] Top shape: 64 4096 (262144)
I1007 19:27:56.506451  5032 layer_factory.hpp:74] Creating layer relu7
I1007 19:27:56.506463  5032 net.cpp:92] Creating Layer relu7
I1007 19:27:56.506471  5032 net.cpp:412] relu7 <- fc7
I1007 19:27:56.506479  5032 net.cpp:359] relu7 -> fc7 (in-place)
I1007 19:27:56.506489  5032 net.cpp:122] Setting up relu7
I1007 19:27:56.506494  5032 net.cpp:129] Top shape: 64 4096 (262144)
I1007 19:27:56.506500  5032 layer_factory.hpp:74] Creating layer drop7
I1007 19:27:56.506507  5032 net.cpp:92] Creating Layer drop7
I1007 19:27:56.506511  5032 net.cpp:412] drop7 <- fc7
I1007 19:27:56.506518  5032 net.cpp:359] drop7 -> fc7 (in-place)
I1007 19:27:56.506525  5032 net.cpp:122] Setting up drop7
I1007 19:27:56.506531  5032 net.cpp:129] Top shape: 64 4096 (262144)
I1007 19:27:56.506536  5032 layer_factory.hpp:74] Creating layer fc8
I1007 19:27:56.506546  5032 net.cpp:92] Creating Layer fc8
I1007 19:27:56.506551  5032 net.cpp:412] fc8 <- fc7
I1007 19:27:56.506558  5032 net.cpp:370] fc8 -> fc8
I1007 19:27:56.506567  5032 net.cpp:122] Setting up fc8
I1007 19:27:56.506769  5032 net.cpp:129] Top shape: 64 2 (128)
I1007 19:27:56.506778  5032 layer_factory.hpp:74] Creating layer loss
I1007 19:27:56.506791  5032 net.cpp:92] Creating Layer loss
I1007 19:27:56.506796  5032 net.cpp:412] loss <- fc8
I1007 19:27:56.506801  5032 net.cpp:412] loss <- label
I1007 19:27:56.506811  5032 net.cpp:370] loss -> loss
I1007 19:27:56.506821  5032 net.cpp:122] Setting up loss
I1007 19:27:56.506829  5032 layer_factory.hpp:74] Creating layer loss
…
I1007 19:27:56.507654  5032 net.cpp:289] The NetState phase (1) differed from the phase (0) specified by a rule in layer data
I1007 19:27:56.507808  5032 net.cpp:44] Initializing net from parameters: 
name: "CaffeNet"
state {
  phase: TEST
}
layer {
  name: "data"
  type: "Data"
  top: "data"
  top: "label"
  include {
    phase: TEST
  }
  transform_param {
    mirror: true
    crop_size: 227
    mean_file: "data/acWhole/imagenet_mean.binaryproto"
  }
  data_param {
    source: "acWhole/imagenet_val_leveldb"
    mean_file: "data/acWhole/imagenet_mean.binartproto"
    batch_size: 10
    crop_size: 227
    mirror: false
    backend: LMDB
  }
}
layer {
  name: "conv1"
  type: "Convolution"
  bottom: "data"
  top: "conv1"
  param {
    lr_mult: 1
    decay_mult: 1
  }
  param {
    lr_mult: 2
    decay_mult: 0
  }
  convolution_param {
    num_output: 96
    kernel_size: 11
    stride: 4
    weight_filler {
      type: "gaussian"
      std: 0.01
    }
    bias_filler {
      type: "constant"
      value: 0
    }
  }
}
layer {
  name: "relu1"
  type: "ReLU"
  bottom: "conv1"
  top: "conv1"
}
layer {
  name: "pool1"
  type: "Pooling"
  bottom: "conv1"
  top: "pool1"
  pooling_param {
    pool: MAX
    kernel_size: 3
    stride: 2
  }
}
layer {
  name: "norm1"
  type: "LRN"
  bottom: "pool1"
  top: "norm1"
  lrn_param {
    local_size: 5
    alpha: 0.0001
    beta: 0.75
  }
}
layer {
  name: "conv2"
  type: "Convolution"
  bottom: "norm1"
  top: "conv2"
  param {
    lr_mult: 1
    decay_mult: 1
  }
  param {
    lr_mult: 2
    decay_mult: 0
  }
  convolution_param {
    num_output: 256
    pad: 2
    kernel_size: 5
    group: 2
    weight_filler {
      type: "gaussian"
      std: 0.01
    }
    bias_filler {
      type: "constant"
      value: 1
    }
  }
}
layer {
  name: "relu2"
  type: "ReLU"
  bottom: "conv2"
  top: "conv2"
}
layer {
  name: "pool2"
  type: "Pooling"
  bottom: "conv2"
  top: "pool2"
  pooling_param {
    pool: MAX
    kernel_size: 3
    stride: 2
  }
}
layer {
  name: "norm2"
  type: "LRN"
  bottom: "pool2"
  top: "norm2"
  lrn_param {
    local_size: 5
    alpha: 0.0001
    beta: 0.75
  }
}
layer {
  name: "conv3"
  type: "Convolution"
  bottom: "norm2"
  top: "conv3"
  param {
    lr_mult: 1
    decay_mult: 1
  }
  param {
    lr_mult: 2
    decay_mult: 0
  }
  convolution_param {
    num_output: 384
    pad: 1
    kernel_size: 3
    weight_filler {
      type: "gaussian"
      std: 0.01
    }
    bias_filler {
      type: "constant"
      value: 0
    }
  }
}
layer {
  name: "relu3"
  type: "ReLU"
  bottom: "conv3"
  top: "conv3"
}
layer {
  name: "conv4"
  type: "Convolution"
  bottom: "conv3"
  top: "conv4"
  param {
    lr_mult: 1
    decay_mult: 1
  }
  param {
    lr_mult: 2
    decay_mult: 0
  }
  convolution_param {
    num_output: 384
    pad: 1
    kernel_size: 3
    group: 2
    weight_filler {
      type: "gaussian"
      std: 0.01
    }
    bias_filler {
      type: "constant"
      value: 1
    }
  }
}
layer {
  name: "relu4"
  type: "ReLU"
  bottom: "conv4"
  top: "conv4"
}
layer {
  name: "conv5"
  type: "Convolution"
  bottom: "conv4"
  top: "conv5"
  param {
    lr_mult: 1
    decay_mult: 1
  }
  param {
    lr_mult: 2
    decay_mult: 0
  }
  convolution_param {
    num_output: 256
    pad: 1
    kernel_size: 3
    group: 2
    weight_filler {
      type: "gaussian"
      std: 0.01
    }
    bias_filler {
      type: "constant"
      value: 1
    }
  }
}
layer {
  name: "relu5"
  type: "ReLU"
  bottom: "conv5"
  top: "conv5"
}
layer {
  name: "pool5"
  type: "Pooling"
  bottom: "conv5"
  top: "pool5"
  pooling_param {
    pool: MAX
    kernel_size: 3
    stride: 2
  }
}
layer {
  name: "fc6"
  type: "InnerProduct"
  bottom: "pool5"
  top: "fc6"
  param {
    lr_mult: 1
    decay_mult: 1
  }
  param {
    lr_mult: 2
    decay_mult: 0
  }
  inner_product_param {
    num_output: 4096
    weight_filler {
      type: "gaussian"
      std: 0.005
    }
    bias_filler {
      type: "constant"
      value: 1
    }
  }
}
layer {
  name: "relu6"
  type: "ReLU"
  bottom: "fc6"
  top: "fc6"
}
layer {
  name: "drop6"
  type: "Dropout"
  bottom: "fc6"
  top: "fc6"
  dropout_param {
    dropout_ratio: 0.5
  }
}
layer {
  name: "fc7"
  type: "InnerProduct"
  bottom: "fc6"
  top: "fc7"
  param {
    lr_mult: 1
    decay_mult: 1
  }
  param {
    lr_mult: 2
    decay_mult: 0
  }
  inner_product_param {
    num_output: 4096
    weight_filler {
      type: "gaussian"
      std: 0.005
    }
    bias_filler {
      type: "constant"
      value: 1
    }
  }
}
layer {
  name: "relu7"
  type: "ReLU"
  bottom: "fc7"
  top: "fc7"
}
layer {
  name: "drop7"
  type: "Dropout"
  bottom: "fc7"
  top: "fc7"
  dropout_param {
    dropout_ratio: 0.5
  }
}
layer {
  name: "fc8"
  type: "InnerProduct"
  bottom: "fc7"
  top: "fc8"
  param {
    lr_mult: 1
    decay_mult: 1
  }
  param {
    lr_mult: 2
    decay_mult: 0
  }
  inner_product_param {
    num_output: 2
    weight_filler {
      type: "gaussian"
      std: 0.01
    }
    bias_filler {
      type: "constant"
      value: 0
    }
  }
}
layer {
  name: "accuracy"
  type: "Accuracy"
  bottom: "fc8"
  bottom: "label"
  top: "accuracy"
  include {
    phase: TEST
  }
}
layer {
  name: "loss"
  type: "SoftmaxWithLoss"
  bottom: "fc8"
  bottom: "label"
  top: "loss"
}
I1007 19:27:56.507913  5032 layer_factory.hpp:74] Creating layer data
I1007 19:27:56.507925  5032 net.cpp:92] Creating Layer data
I1007 19:27:56.507931  5032 net.cpp:370] data -> data
I1007 19:27:56.507941  5032 net.cpp:370] data -> label
I1007 19:27:56.507949  5032 net.cpp:122] Setting up data
I1007 19:27:56.507956  5032 data_transformer.cpp:22] Loading mean file from: data/acWhole/imagenet_mean.binaryproto
I1007 19:27:56.509234  5032 db_lmdb.cpp:22] Opened lmdb acWhole/imagenet_val_leveldb
I1007 19:27:56.509300  5032 data_layer.cpp:52] output data size: 10,3,227,227
I1007 19:27:56.510399  5032 net.cpp:129] Top shape: 10 3 227 227 (1545870)
I1007 19:27:56.510424  5032 net.cpp:129] Top shape: 10 (10)
I1007 19:27:56.510432  5032 layer_factory.hpp:74] Creating layer label_data_1_split
I1007 19:27:56.510443  5032 net.cpp:92] Creating Layer label_data_1_split
I1007 19:27:56.510450  5032 net.cpp:412] label_data_1_split <- label
I1007 19:27:56.510462  5032 net.cpp:370] label_data_1_split -> label_data_1_split_0
I1007 19:27:56.510473  5032 net.cpp:370] label_data_1_split -> label_data_1_split_1
I1007 19:27:56.510480  5032 net.cpp:122] Setting up label_data_1_split
I1007 19:27:56.510489  5032 net.cpp:129] Top shape: 10 (10)
I1007 19:27:56.510495  5032 net.cpp:129] Top shape: 10 (10)
I1007 19:27:56.510499  5032 layer_factory.hpp:74] Creating layer conv1
I1007 19:27:56.510510  5032 net.cpp:92] Creating Layer conv1
I1007 19:27:56.510515  5032 net.cpp:412] conv1 <- data
I1007 19:27:56.510522  5032 net.cpp:370] conv1 -> conv1
I1007 19:27:56.510531  5032 net.cpp:122] Setting up conv1
I1007 19:27:56.511363  5032 net.cpp:129] Top shape: 10 96 55 55 (2904000)
I1007 19:27:56.511378  5032 layer_factory.hpp:74] Creating layer relu1
I1007 19:27:56.511385  5032 net.cpp:92] Creating Layer relu1
I1007 19:27:56.511399  5032 net.cpp:412] relu1 <- conv1
I1007 19:27:56.511414  5032 net.cpp:359] relu1 -> conv1 (in-place)
I1007 19:27:56.511420  5032 net.cpp:122] Setting up relu1
I1007 19:27:56.511426  5032 net.cpp:129] Top shape: 10 96 55 55 (2904000)
I1007 19:27:56.511431  5032 layer_factory.hpp:74] Creating layer pool1
I1007 19:27:56.511440  5032 net.cpp:92] Creating Layer pool1
I1007 19:27:56.511445  5032 net.cpp:412] pool1 <- conv1
I1007 19:27:56.511451  5032 net.cpp:370] pool1 -> pool1
I1007 19:27:56.511457  5032 net.cpp:122] Setting up pool1
I1007 19:27:56.511467  5032 net.cpp:129] Top shape: 10 96 27 27 (699840)
I1007 19:27:56.511472  5032 layer_factory.hpp:74] Creating layer norm1
I1007 19:27:56.511481  5032 net.cpp:92] Creating Layer norm1
I1007 19:27:56.511486  5032 net.cpp:412] norm1 <- pool1
I1007 19:27:56.511492  5032 net.cpp:370] norm1 -> norm1
I1007 19:27:56.511497  5032 net.cpp:122] Setting up norm1
I1007 19:27:56.511505  5032 net.cpp:129] Top shape: 10 96 27 27 (699840)
I1007 19:27:56.511510  5032 layer_factory.hpp:74] Creating layer conv2
I1007 19:27:56.511518  5032 net.cpp:92] Creating Layer conv2
I1007 19:27:56.511523  5032 net.cpp:412] conv2 <- norm1
I1007 19:27:56.511529  5032 net.cpp:370] conv2 -> conv2
I1007 19:27:56.511536  5032 net.cpp:122] Setting up conv2
I1007 19:27:56.518751  5032 net.cpp:129] Top shape: 10 256 27 27 (1866240)
I1007 19:27:56.518779  5032 layer_factory.hpp:74] Creating layer relu2
I1007 19:27:56.518789  5032 net.cpp:92] Creating Layer relu2
I1007 19:27:56.518793  5032 net.cpp:412] relu2 <- conv2
I1007 19:27:56.518802  5032 net.cpp:359] relu2 -> conv2 (in-place)
I1007 19:27:56.518810  5032 net.cpp:122] Setting up relu2
I1007 19:27:56.518817  5032 net.cpp:129] Top shape: 10 256 27 27 (1866240)
I1007 19:27:56.518821  5032 layer_factory.hpp:74] Creating layer pool2
I1007 19:27:56.518831  5032 net.cpp:92] Creating Layer pool2
I1007 19:27:56.518834  5032 net.cpp:412] pool2 <- conv2
I1007 19:27:56.518842  5032 net.cpp:370] pool2 -> pool2
I1007 19:27:56.518851  5032 net.cpp:122] Setting up pool2
I1007 19:27:56.518860  5032 net.cpp:129] Top shape: 10 256 13 13 (432640)
I1007 19:27:56.518865  5032 layer_factory.hpp:74] Creating layer norm2
I1007 19:27:56.518872  5032 net.cpp:92] Creating Layer norm2
I1007 19:27:56.518877  5032 net.cpp:412] norm2 <- pool2
I1007 19:27:56.518883  5032 net.cpp:370] norm2 -> norm2
I1007 19:27:56.518892  5032 net.cpp:122] Setting up norm2
I1007 19:27:56.518898  5032 net.cpp:129] Top shape: 10 256 13 13 (432640)
I1007 19:27:56.518903  5032 layer_factory.hpp:74] Creating layer conv3
I1007 19:27:56.518911  5032 net.cpp:92] Creating Layer conv3
I1007 19:27:56.518916  5032 net.cpp:412] conv3 <- norm2
I1007 19:27:56.518924  5032 net.cpp:370] conv3 -> conv3
I1007 19:27:56.518931  5032 net.cpp:122] Setting up conv3
I1007 19:27:56.539216  5032 net.cpp:129] Top shape: 10 384 13 13 (648960)
I1007 19:27:56.539230  5032 layer_factory.hpp:74] Creating layer relu3
I1007 19:27:56.539237  5032 net.cpp:92] Creating Layer relu3
I1007 19:27:56.539242  5032 net.cpp:412] relu3 <- conv3
I1007 19:27:56.539247  5032 net.cpp:359] relu3 -> conv3 (in-place)
I1007 19:27:56.539254  5032 net.cpp:122] Setting up relu3
I1007 19:27:56.539260  5032 net.cpp:129] Top shape: 10 384 13 13 (648960)
I1007 19:27:56.539265  5032 layer_factory.hpp:74] Creating layer conv4
I1007 19:27:56.539273  5032 net.cpp:92] Creating Layer conv4
I1007 19:27:56.539278  5032 net.cpp:412] conv4 <- conv3
I1007 19:27:56.539284  5032 net.cpp:370] conv4 -> conv4
I1007 19:27:56.539291  5032 net.cpp:122] Setting up conv4
I1007 19:27:56.554627  5032 net.cpp:129] Top shape: 10 384 13 13 (648960)
I1007 19:27:56.554641  5032 layer_factory.hpp:74] Creating layer relu4
I1007 19:27:56.554648  5032 net.cpp:92] Creating Layer relu4
I1007 19:27:56.554653  5032 net.cpp:412] relu4 <- conv4
I1007 19:27:56.554661  5032 net.cpp:359] relu4 -> conv4 (in-place)
I1007 19:27:56.554667  5032 net.cpp:122] Setting up relu4
I1007 19:27:56.554673  5032 net.cpp:129] Top shape: 10 384 13 13 (648960)
I1007 19:27:56.554687  5032 layer_factory.hpp:74] Creating layer conv5
I1007 19:27:56.554694  5032 net.cpp:92] Creating Layer conv5
I1007 19:27:56.554705  5032 net.cpp:412] conv5 <- conv4
I1007 19:27:56.554713  5032 net.cpp:370] conv5 -> conv5
I1007 19:27:56.554721  5032 net.cpp:122] Setting up conv5
I1007 19:27:56.565006  5032 net.cpp:129] Top shape: 10 256 13 13 (432640)
I1007 19:27:56.565022  5032 layer_factory.hpp:74] Creating layer relu5
I1007 19:27:56.565029  5032 net.cpp:92] Creating Layer relu5
I1007 19:27:56.565034  5032 net.cpp:412] relu5 <- conv5
I1007 19:27:56.565042  5032 net.cpp:359] relu5 -> conv5 (in-place)
I1007 19:27:56.565048  5032 net.cpp:122] Setting up relu5
I1007 19:27:56.565054  5032 net.cpp:129] Top shape: 10 256 13 13 (432640)
I1007 19:27:56.565059  5032 layer_factory.hpp:74] Creating layer pool5
I1007 19:27:56.565068  5032 net.cpp:92] Creating Layer pool5
I1007 19:27:56.565073  5032 net.cpp:412] pool5 <- conv5
I1007 19:27:56.565080  5032 net.cpp:370] pool5 -> pool5
I1007 19:27:56.565088  5032 net.cpp:122] Setting up pool5
I1007 19:27:56.565096  5032 net.cpp:129] Top shape: 10 256 6 6 (92160)
I1007 19:27:56.565101  5032 layer_factory.hpp:74] Creating layer fc6
I1007 19:27:56.565110  5032 net.cpp:92] Creating Layer fc6
I1007 19:27:56.565115  5032 net.cpp:412] fc6 <- pool5
I1007 19:27:56.565122  5032 net.cpp:370] fc6 -> fc6
I1007 19:27:56.565130  5032 net.cpp:122] Setting up fc6
I1007 19:27:57.422845  5032 net.cpp:129] Top shape: 10 4096 (40960)
I1007 19:27:57.422886  5032 layer_factory.hpp:74] Creating layer relu6
I1007 19:27:57.422899  5032 net.cpp:92] Creating Layer relu6
I1007 19:27:57.422905  5032 net.cpp:412] relu6 <- fc6
I1007 19:27:57.422914  5032 net.cpp:359] relu6 -> fc6 (in-place)
I1007 19:27:57.422924  5032 net.cpp:122] Setting up relu6
I1007 19:27:57.422930  5032 net.cpp:129] Top shape: 10 4096 (40960)
I1007 19:27:57.422935  5032 layer_factory.hpp:74] Creating layer drop6
I1007 19:27:57.422941  5032 net.cpp:92] Creating Layer drop6
I1007 19:27:57.422946  5032 net.cpp:412] drop6 <- fc6
I1007 19:27:57.422951  5032 net.cpp:359] drop6 -> fc6 (in-place)
I1007 19:27:57.422958  5032 net.cpp:122] Setting up drop6
I1007 19:27:57.422966  5032 net.cpp:129] Top shape: 10 4096 (40960)
I1007 19:27:57.422971  5032 layer_factory.hpp:74] Creating layer fc7
I1007 19:27:57.422981  5032 net.cpp:92] Creating Layer fc7
I1007 19:27:57.422986  5032 net.cpp:412] fc7 <- fc6
I1007 19:27:57.422992  5032 net.cpp:370] fc7 -> fc7
I1007 19:27:57.423002  5032 net.cpp:122] Setting up fc7
I1007 19:27:57.804210  5032 net.cpp:129] Top shape: 10 4096 (40960)
I1007 19:27:57.804250  5032 layer_factory.hpp:74] Creating layer relu7
I1007 19:27:57.804260  5032 net.cpp:92] Creating Layer relu7
I1007 19:27:57.804266  5032 net.cpp:412] relu7 <- fc7
I1007 19:27:57.804275  5032 net.cpp:359] relu7 -> fc7 (in-place)
I1007 19:27:57.804283  5032 net.cpp:122] Setting up relu7
I1007 19:27:57.804291  5032 net.cpp:129] Top shape: 10 4096 (40960)
I1007 19:27:57.804294  5032 layer_factory.hpp:74] Creating layer drop7
I1007 19:27:57.804304  5032 net.cpp:92] Creating Layer drop7
I1007 19:27:57.804309  5032 net.cpp:412] drop7 <- fc7
I1007 19:27:57.804316  5032 net.cpp:359] drop7 -> fc7 (in-place)
I1007 19:27:57.804322  5032 net.cpp:122] Setting up drop7
I1007 19:27:57.804329  5032 net.cpp:129] Top shape: 10 4096 (40960)
I1007 19:27:57.804334  5032 layer_factory.hpp:74] Creating layer fc8
I1007 19:27:57.804343  5032 net.cpp:92] Creating Layer fc8
I1007 19:27:57.804348  5032 net.cpp:412] fc8 <- fc7
I1007 19:27:57.804355  5032 net.cpp:370] fc8 -> fc8
I1007 19:27:57.804366  5032 net.cpp:122] Setting up fc8
I1007 19:27:57.804566  5032 net.cpp:129] Top shape: 10 2 (20)
I1007 19:27:57.804574  5032 layer_factory.hpp:74] Creating layer fc8_fc8_0_split
I1007 19:27:57.804582  5032 net.cpp:92] Creating Layer fc8_fc8_0_split
I1007 19:27:57.804586  5032 net.cpp:412] fc8_fc8_0_split <- fc8
I1007 19:27:57.804592  5032 net.cpp:370] fc8_fc8_0_split -> fc8_fc8_0_split_0
I1007 19:27:57.804601  5032 net.cpp:370] fc8_fc8_0_split -> fc8_fc8_0_split_1
I1007 19:27:57.804608  5032 net.cpp:122] Setting up fc8_fc8_0_split
I1007 19:27:57.804625  5032 net.cpp:129] Top shape: 10 2 (20)
I1007 19:27:57.804636  5032 net.cpp:129] Top shape: 10 2 (20)
I1007 19:27:57.804641  5032 layer_factory.hpp:74] Creating layer accuracy
I1007 19:27:57.804649  5032 net.cpp:92] Creating Layer accuracy
I1007 19:27:57.804654  5032 net.cpp:412] accuracy <- fc8_fc8_0_split_0
I1007 19:27:57.804659  5032 net.cpp:412] accuracy <- label_data_1_split_0
I1007 19:27:57.804666  5032 net.cpp:370] accuracy -> accuracy
I1007 19:27:57.804672  5032 net.cpp:122] Setting up accuracy
…
