…
I1009 17:05:32.758816  4783 net.cpp:289] The NetState phase (0) differed from the phase (1) specified by a rule in layer accuracy
I1009 17:05:32.758965  4783 net.cpp:44] Initializing net from parameters: 
name: "CaffeNet"
state {
  phase: TRAIN
}
layer {
  name: "data"
  type: "Data"
  top: "data"
  top: "label"
  include {
    phase: TRAIN
  }
  transform_param {
    mirror: true
    crop_size: 227
    mean_file: "data/whole_b/imagenet_mean.binaryproto"
  }
  data_param {
    source: "whole_b/imagenet_train_leveldb"
    batch_size: 10
    backend: LMDB
  }
}
layer {
  name: "conv1"
  type: "Convolution"
  bottom: "data"
  top: "conv1"
  param {
    lr_mult: 1
    decay_mult: 1
  }
  param {
    lr_mult: 2
    decay_mult: 0
  }
  convolution_param {
    num_output: 96
    kernel_size: 11
    stride: 4
    weight_filler {
      type: "gaussian"
      std: 0.01
    }
    bias_filler {
      type: "constant"
      value: 0
    }
  }
}
layer {
  name: "relu1"
  type: "ReLU"
  bottom: "conv1"
  top: "conv1"
}
layer {
  name: "pool1"
  type: "Pooling"
  bottom: "conv1"
  top: "pool1"
  pooling_param {
    pool: MAX
    kernel_size: 3
    stride: 2
  }
}
layer {
  name: "norm1"
  type: "LRN"
  bottom: "pool1"
  top: "norm1"
  lrn_param {
    local_size: 5
    alpha: 0.0001
    beta: 0.75
  }
}
layer {
  name: "conv2"
  type: "Convolution"
  bottom: "norm1"
  top: "conv2"
  param {
    lr_mult: 1
    decay_mult: 1
  }
  param {
    lr_mult: 2
    decay_mult: 0
  }
  convolution_param {
    num_output: 256
    pad: 2
    kernel_size: 5
    group: 2
    weight_filler {
      type: "gaussian"
      std: 0.01
    }
    bias_filler {
      type: "constant"
      value: 1
    }
  }
}
layer {
  name: "relu2"
  type: "ReLU"
  bottom: "conv2"
  top: "conv2"
}
layer {
  name: "pool2"
  type: "Pooling"
  bottom: "conv2"
  top: "pool2"
  pooling_param {
    pool: MAX
    kernel_size: 3
    stride: 2
  }
}
layer {
  name: "norm2"
  type: "LRN"
  bottom: "pool2"
  top: "norm2"
  lrn_param {
    local_size: 5
    alpha: 0.0001
    beta: 0.75
  }
}
layer {
  name: "conv3"
  type: "Convolution"
  bottom: "norm2"
  top: "conv3"
  param {
    lr_mult: 1
    decay_mult: 1
  }
  param {
    lr_mult: 2
    decay_mult: 0
  }
  convolution_param {
    num_output: 384
    pad: 1
    kernel_size: 3
    weight_filler {
      type: "gaussian"
      std: 0.01
    }
    bias_filler {
      type: "constant"
      value: 0
    }
  }
}
layer {
  name: "relu3"
  type: "ReLU"
  bottom: "conv3"
  top: "conv3"
}
layer {
  name: "conv4"
  type: "Convolution"
  bottom: "conv3"
  top: "conv4"
  param {
    lr_mult: 1
    decay_mult: 1
  }
  param {
    lr_mult: 2
    decay_mult: 0
  }
  convolution_param {
    num_output: 384
    pad: 1
    kernel_size: 3
    group: 2
    weight_filler {
      type: "gaussian"
      std: 0.01
    }
    bias_filler {
      type: "constant"
      value: 1
    }
  }
}
layer {
  name: "relu4"
  type: "ReLU"
  bottom: "conv4"
  top: "conv4"
}
layer {
  name: "conv5"
  type: "Convolution"
  bottom: "conv4"
  top: "conv5"
  param {
    lr_mult: 1
    decay_mult: 1
  }
  param {
    lr_mult: 2
    decay_mult: 0
  }
  convolution_param {
    num_output: 256
    pad: 1
    kernel_size: 3
    group: 2
    weight_filler {
      type: "gaussian"
      std: 0.01
    }
    bias_filler {
      type: "constant"
      value: 1
    }
  }
}
layer {
  name: "relu5"
  type: "ReLU"
  bottom: "conv5"
  top: "conv5"
}
layer {
  name: "pool5"
  type: "Pooling"
  bottom: "conv5"
  top: "pool5"
  pooling_param {
    pool: MAX
    kernel_size: 3
    stride: 2
  }
}
layer {
  name: "fc6"
  type: "InnerProduct"
  bottom: "pool5"
  top: "fc6"
  param {
    lr_mult: 1
    decay_mult: 1
  }
  param {
    lr_mult: 2
    decay_mult: 0
  }
  inner_product_param {
    num_output: 4096
    weight_filler {
      type: "gaussian"
      std: 0.005
    }
    bias_filler {
      type: "constant"
      value: 1
    }
  }
}
layer {
  name: "relu6"
  type: "ReLU"
  bottom: "fc6"
  top: "fc6"
}
layer {
  name: "drop6"
  type: "Dropout"
  bottom: "fc6"
  top: "fc6"
  dropout_param {
    dropout_ratio: 0.5
  }
}
layer {
  name: "fc7"
  type: "InnerProduct"
  bottom: "fc6"
  top: "fc7"
  param {
    lr_mult: 1
    decay_mult: 1
  }
  param {
    lr_mult: 2
    decay_mult: 0
  }
  inner_product_param {
    num_output: 4096
    weight_filler {
      type: "gaussian"
      std: 0.005
    }
    bias_filler {
      type: "constant"
      value: 1
    }
  }
}
layer {
  name: "relu7"
  type: "ReLU"
  bottom: "fc7"
  top: "fc7"
}
layer {
  name: "drop7"
  type: "Dropout"
  bottom: "fc7"
  top: "fc7"
  dropout_param {
    dropout_ratio: 0.5
  }
}
layer {
  name: "fc8"
  type: "InnerProduct"
  bottom: "fc7"
  top: "fc8"
  param {
    lr_mult: 1
    decay_mult: 1
  }
  param {
    lr_mult: 2
    decay_mult: 0
  }
  inner_product_param {
    num_output: 2
    weight_filler {
      type: "gaussian"
      std: 0.01
    }
    bias_filler {
      type: "constant"
      value: 0
    }
  }
}
layer {
  name: "loss"
  type: "SoftmaxWithLoss"
  bottom: "fc8"
  bottom: "label"
  top: "loss"
}
I1009 17:05:32.759066  4783 layer_factory.hpp:74] Creating layer data
I1009 17:05:32.760434  4783 net.cpp:92] Creating Layer data
I1009 17:05:32.760452  4783 net.cpp:370] data -> data
I1009 17:05:32.760476  4783 net.cpp:370] data -> label
I1009 17:05:32.760488  4783 net.cpp:122] Setting up data
I1009 17:05:32.760496  4783 data_transformer.cpp:22] Loading mean file from: data/whole_b/imagenet_mean.binaryproto
I1009 17:05:32.762534  4783 db_lmdb.cpp:22] Opened lmdb whole_b/imagenet_train_leveldb
I1009 17:05:32.762603  4783 data_layer.cpp:52] output data size: 10,3,227,227
I1009 17:05:32.763517  4783 net.cpp:129] Top shape: 10 3 227 227 (1545870)
I1009 17:05:32.763538  4783 net.cpp:129] Top shape: 10 (10)
I1009 17:05:32.763548  4783 layer_factory.hpp:74] Creating layer conv1
I1009 17:05:32.763567  4783 net.cpp:92] Creating Layer conv1
I1009 17:05:32.763574  4783 net.cpp:412] conv1 <- data
I1009 17:05:32.763588  4783 net.cpp:370] conv1 -> conv1
I1009 17:05:32.763602  4783 net.cpp:122] Setting up conv1
I1009 17:05:32.764664  4783 net.cpp:129] Top shape: 10 96 55 55 (2904000)
I1009 17:05:32.764691  4783 layer_factory.hpp:74] Creating layer relu1
I1009 17:05:32.764700  4783 net.cpp:92] Creating Layer relu1
I1009 17:05:32.764714  4783 net.cpp:412] relu1 <- conv1
I1009 17:05:32.764721  4783 net.cpp:359] relu1 -> conv1 (in-place)
I1009 17:05:32.764744  4783 net.cpp:122] Setting up relu1
I1009 17:05:32.764750  4783 net.cpp:129] Top shape: 10 96 55 55 (2904000)
I1009 17:05:32.764755  4783 layer_factory.hpp:74] Creating layer pool1
I1009 17:05:32.764770  4783 net.cpp:92] Creating Layer pool1
I1009 17:05:32.764785  4783 net.cpp:412] pool1 <- conv1
I1009 17:05:32.764791  4783 net.cpp:370] pool1 -> pool1
I1009 17:05:32.764802  4783 net.cpp:122] Setting up pool1
I1009 17:05:32.764825  4783 net.cpp:129] Top shape: 10 96 27 27 (699840)
I1009 17:05:32.764832  4783 layer_factory.hpp:74] Creating layer norm1
I1009 17:05:32.764839  4783 net.cpp:92] Creating Layer norm1
I1009 17:05:32.764844  4783 net.cpp:412] norm1 <- pool1
I1009 17:05:32.764850  4783 net.cpp:370] norm1 -> norm1
I1009 17:05:32.764858  4783 net.cpp:122] Setting up norm1
I1009 17:05:32.764866  4783 net.cpp:129] Top shape: 10 96 27 27 (699840)
I1009 17:05:32.764871  4783 layer_factory.hpp:74] Creating layer conv2
I1009 17:05:32.764878  4783 net.cpp:92] Creating Layer conv2
I1009 17:05:32.764883  4783 net.cpp:412] conv2 <- norm1
I1009 17:05:32.764895  4783 net.cpp:370] conv2 -> conv2
I1009 17:05:32.764909  4783 net.cpp:122] Setting up conv2
I1009 17:05:32.772011  4783 net.cpp:129] Top shape: 10 256 27 27 (1866240)
I1009 17:05:32.772023  4783 layer_factory.hpp:74] Creating layer relu2
I1009 17:05:32.772030  4783 net.cpp:92] Creating Layer relu2
I1009 17:05:32.772035  4783 net.cpp:412] relu2 <- conv2
I1009 17:05:32.772042  4783 net.cpp:359] relu2 -> conv2 (in-place)
I1009 17:05:32.772048  4783 net.cpp:122] Setting up relu2
I1009 17:05:32.772054  4783 net.cpp:129] Top shape: 10 256 27 27 (1866240)
I1009 17:05:32.772059  4783 layer_factory.hpp:74] Creating layer pool2
I1009 17:05:32.772065  4783 net.cpp:92] Creating Layer pool2
I1009 17:05:32.772070  4783 net.cpp:412] pool2 <- conv2
I1009 17:05:32.772076  4783 net.cpp:370] pool2 -> pool2
I1009 17:05:32.772083  4783 net.cpp:122] Setting up pool2
I1009 17:05:32.772090  4783 net.cpp:129] Top shape: 10 256 13 13 (432640)
I1009 17:05:32.772095  4783 layer_factory.hpp:74] Creating layer norm2
I1009 17:05:32.772104  4783 net.cpp:92] Creating Layer norm2
I1009 17:05:32.772109  4783 net.cpp:412] norm2 <- pool2
I1009 17:05:32.772115  4783 net.cpp:370] norm2 -> norm2
I1009 17:05:32.772122  4783 net.cpp:122] Setting up norm2
I1009 17:05:32.772128  4783 net.cpp:129] Top shape: 10 256 13 13 (432640)
I1009 17:05:32.772133  4783 layer_factory.hpp:74] Creating layer conv3
I1009 17:05:32.772140  4783 net.cpp:92] Creating Layer conv3
I1009 17:05:32.772145  4783 net.cpp:412] conv3 <- norm2
I1009 17:05:32.772152  4783 net.cpp:370] conv3 -> conv3
I1009 17:05:32.772161  4783 net.cpp:122] Setting up conv3
I1009 17:05:32.792532  4783 net.cpp:129] Top shape: 10 384 13 13 (648960)
I1009 17:05:32.792551  4783 layer_factory.hpp:74] Creating layer relu3
I1009 17:05:32.792560  4783 net.cpp:92] Creating Layer relu3
I1009 17:05:32.792567  4783 net.cpp:412] relu3 <- conv3
I1009 17:05:32.792572  4783 net.cpp:359] relu3 -> conv3 (in-place)
I1009 17:05:32.792578  4783 net.cpp:122] Setting up relu3
I1009 17:05:32.792584  4783 net.cpp:129] Top shape: 10 384 13 13 (648960)
I1009 17:05:32.792589  4783 layer_factory.hpp:74] Creating layer conv4
I1009 17:05:32.792598  4783 net.cpp:92] Creating Layer conv4
I1009 17:05:32.792603  4783 net.cpp:412] conv4 <- conv3
I1009 17:05:32.792609  4783 net.cpp:370] conv4 -> conv4
I1009 17:05:32.792616  4783 net.cpp:122] Setting up conv4
I1009 17:05:32.808301  4783 net.cpp:129] Top shape: 10 384 13 13 (648960)
I1009 17:05:32.808317  4783 layer_factory.hpp:74] Creating layer relu4
I1009 17:05:32.808326  4783 net.cpp:92] Creating Layer relu4
I1009 17:05:32.808331  4783 net.cpp:412] relu4 <- conv4
I1009 17:05:32.808337  4783 net.cpp:359] relu4 -> conv4 (in-place)
I1009 17:05:32.808343  4783 net.cpp:122] Setting up relu4
I1009 17:05:32.808349  4783 net.cpp:129] Top shape: 10 384 13 13 (648960)
I1009 17:05:32.808354  4783 layer_factory.hpp:74] Creating layer conv5
I1009 17:05:32.808367  4783 net.cpp:92] Creating Layer conv5
I1009 17:05:32.808372  4783 net.cpp:412] conv5 <- conv4
I1009 17:05:32.808379  4783 net.cpp:370] conv5 -> conv5
I1009 17:05:32.808387  4783 net.cpp:122] Setting up conv5
I1009 17:05:32.818706  4783 net.cpp:129] Top shape: 10 256 13 13 (432640)
I1009 17:05:32.818728  4783 layer_factory.hpp:74] Creating layer relu5
I1009 17:05:32.818737  4783 net.cpp:92] Creating Layer relu5
I1009 17:05:32.818742  4783 net.cpp:412] relu5 <- conv5
I1009 17:05:32.818749  4783 net.cpp:359] relu5 -> conv5 (in-place)
I1009 17:05:32.818756  4783 net.cpp:122] Setting up relu5
I1009 17:05:32.818763  4783 net.cpp:129] Top shape: 10 256 13 13 (432640)
I1009 17:05:32.818768  4783 layer_factory.hpp:74] Creating layer pool5
I1009 17:05:32.818776  4783 net.cpp:92] Creating Layer pool5
I1009 17:05:32.818781  4783 net.cpp:412] pool5 <- conv5
I1009 17:05:32.818788  4783 net.cpp:370] pool5 -> pool5
I1009 17:05:32.818794  4783 net.cpp:122] Setting up pool5
I1009 17:05:32.818804  4783 net.cpp:129] Top shape: 10 256 6 6 (92160)
I1009 17:05:32.818809  4783 layer_factory.hpp:74] Creating layer fc6
I1009 17:05:32.818827  4783 net.cpp:92] Creating Layer fc6
I1009 17:05:32.818832  4783 net.cpp:412] fc6 <- pool5
I1009 17:05:32.818848  4783 net.cpp:370] fc6 -> fc6
I1009 17:05:32.818859  4783 net.cpp:122] Setting up fc6
I1009 17:05:33.675729  4783 net.cpp:129] Top shape: 10 4096 (40960)
I1009 17:05:33.675766  4783 layer_factory.hpp:74] Creating layer relu6
I1009 17:05:33.675777  4783 net.cpp:92] Creating Layer relu6
I1009 17:05:33.675783  4783 net.cpp:412] relu6 <- fc6
I1009 17:05:33.675793  4783 net.cpp:359] relu6 -> fc6 (in-place)
I1009 17:05:33.675802  4783 net.cpp:122] Setting up relu6
I1009 17:05:33.675808  4783 net.cpp:129] Top shape: 10 4096 (40960)
I1009 17:05:33.675813  4783 layer_factory.hpp:74] Creating layer drop6
I1009 17:05:33.675827  4783 net.cpp:92] Creating Layer drop6
I1009 17:05:33.675830  4783 net.cpp:412] drop6 <- fc6
I1009 17:05:33.675837  4783 net.cpp:359] drop6 -> fc6 (in-place)
I1009 17:05:33.675848  4783 net.cpp:122] Setting up drop6
I1009 17:05:33.675858  4783 net.cpp:129] Top shape: 10 4096 (40960)
I1009 17:05:33.675863  4783 layer_factory.hpp:74] Creating layer fc7
I1009 17:05:33.675871  4783 net.cpp:92] Creating Layer fc7
I1009 17:05:33.675875  4783 net.cpp:412] fc7 <- fc6
I1009 17:05:33.675882  4783 net.cpp:370] fc7 -> fc7
I1009 17:05:33.675890  4783 net.cpp:122] Setting up fc7
I1009 17:05:34.057011  4783 net.cpp:129] Top shape: 10 4096 (40960)
I1009 17:05:34.057052  4783 layer_factory.hpp:74] Creating layer relu7
I1009 17:05:34.057063  4783 net.cpp:92] Creating Layer relu7
I1009 17:05:34.057070  4783 net.cpp:412] relu7 <- fc7
I1009 17:05:34.057078  4783 net.cpp:359] relu7 -> fc7 (in-place)
I1009 17:05:34.057087  4783 net.cpp:122] Setting up relu7
I1009 17:05:34.057093  4783 net.cpp:129] Top shape: 10 4096 (40960)
I1009 17:05:34.057098  4783 layer_factory.hpp:74] Creating layer drop7
I1009 17:05:34.057106  4783 net.cpp:92] Creating Layer drop7
I1009 17:05:34.057109  4783 net.cpp:412] drop7 <- fc7
I1009 17:05:34.057116  4783 net.cpp:359] drop7 -> fc7 (in-place)
I1009 17:05:34.057122  4783 net.cpp:122] Setting up drop7
I1009 17:05:34.057129  4783 net.cpp:129] Top shape: 10 4096 (40960)
I1009 17:05:34.057134  4783 layer_factory.hpp:74] Creating layer fc8
I1009 17:05:34.057142  4783 net.cpp:92] Creating Layer fc8
I1009 17:05:34.057147  4783 net.cpp:412] fc8 <- fc7
I1009 17:05:34.057155  4783 net.cpp:370] fc8 -> fc8
I1009 17:05:34.057164  4783 net.cpp:122] Setting up fc8
I1009 17:05:34.057365  4783 net.cpp:129] Top shape: 10 2 (20)
I1009 17:05:34.057374  4783 layer_factory.hpp:74] Creating layer loss
I1009 17:05:34.058068  4783 net.cpp:92] Creating Layer loss
I1009 17:05:34.058076  4783 net.cpp:412] loss <- fc8
I1009 17:05:34.058081  4783 net.cpp:412] loss <- label
I1009 17:05:34.058090  4783 net.cpp:370] loss -> loss
I1009 17:05:34.058562  4783 net.cpp:122] Setting up loss
I1009 17:05:34.058573  4783 layer_factory.hpp:74] Creating layer loss
…
I1009 17:05:34.059401  4783 net.cpp:289] The NetState phase (1) differed from the phase (0) specified by a rule in layer data
I1009 17:05:34.059556  4783 net.cpp:44] Initializing net from parameters: 
name: "CaffeNet"
state {
  phase: TEST
}
layer {
  name: "data"
  type: "Data"
  top: "data"
  top: "label"
  include {
    phase: TEST
  }
  transform_param {
    mirror: true
    crop_size: 227
    mean_file: "data/whole_b/imagenet_mean.binaryproto"
  }
  data_param {
    source: "whole_b/imagenet_val_leveldb"
    mean_file: "data/whole_b/imagenet_mean.binartproto"
    batch_size: 10
    crop_size: 227
    mirror: false
    backend: LMDB
  }
}
layer {
  name: "conv1"
  type: "Convolution"
  bottom: "data"
  top: "conv1"
  param {
    lr_mult: 1
    decay_mult: 1
  }
  param {
    lr_mult: 2
    decay_mult: 0
  }
  convolution_param {
    num_output: 96
    kernel_size: 11
    stride: 4
    weight_filler {
      type: "gaussian"
      std: 0.01
    }
    bias_filler {
      type: "constant"
      value: 0
    }
  }
}
layer {
  name: "relu1"
  type: "ReLU"
  bottom: "conv1"
  top: "conv1"
}
layer {
  name: "pool1"
  type: "Pooling"
  bottom: "conv1"
  top: "pool1"
  pooling_param {
    pool: MAX
    kernel_size: 3
    stride: 2
  }
}
layer {
  name: "norm1"
  type: "LRN"
  bottom: "pool1"
  top: "norm1"
  lrn_param {
    local_size: 5
    alpha: 0.0001
    beta: 0.75
  }
}
layer {
  name: "conv2"
  type: "Convolution"
  bottom: "norm1"
  top: "conv2"
  param {
    lr_mult: 1
    decay_mult: 1
  }
  param {
    lr_mult: 2
    decay_mult: 0
  }
  convolution_param {
    num_output: 256
    pad: 2
    kernel_size: 5
    group: 2
    weight_filler {
      type: "gaussian"
      std: 0.01
    }
    bias_filler {
      type: "constant"
      value: 1
    }
  }
}
layer {
  name: "relu2"
  type: "ReLU"
  bottom: "conv2"
  top: "conv2"
}
layer {
  name: "pool2"
  type: "Pooling"
  bottom: "conv2"
  top: "pool2"
  pooling_param {
    pool: MAX
    kernel_size: 3
    stride: 2
  }
}
layer {
  name: "norm2"
  type: "LRN"
  bottom: "pool2"
  top: "norm2"
  lrn_param {
    local_size: 5
    alpha: 0.0001
    beta: 0.75
  }
}
layer {
  name: "conv3"
  type: "Convolution"
  bottom: "norm2"
  top: "conv3"
  param {
    lr_mult: 1
    decay_mult: 1
  }
  param {
    lr_mult: 2
    decay_mult: 0
  }
  convolution_param {
    num_output: 384
    pad: 1
    kernel_size: 3
    weight_filler {
      type: "gaussian"
      std: 0.01
    }
    bias_filler {
      type: "constant"
      value: 0
    }
  }
}
layer {
  name: "relu3"
  type: "ReLU"
  bottom: "conv3"
  top: "conv3"
}
layer {
  name: "conv4"
  type: "Convolution"
  bottom: "conv3"
  top: "conv4"
  param {
    lr_mult: 1
    decay_mult: 1
  }
  param {
    lr_mult: 2
    decay_mult: 0
  }
  convolution_param {
    num_output: 384
    pad: 1
    kernel_size: 3
    group: 2
    weight_filler {
      type: "gaussian"
      std: 0.01
    }
    bias_filler {
      type: "constant"
      value: 1
    }
  }
}
layer {
  name: "relu4"
  type: "ReLU"
  bottom: "conv4"
  top: "conv4"
}
layer {
  name: "conv5"
  type: "Convolution"
  bottom: "conv4"
  top: "conv5"
  param {
    lr_mult: 1
    decay_mult: 1
  }
  param {
    lr_mult: 2
    decay_mult: 0
  }
  convolution_param {
    num_output: 256
    pad: 1
    kernel_size: 3
    group: 2
    weight_filler {
      type: "gaussian"
      std: 0.01
    }
    bias_filler {
      type: "constant"
      value: 1
    }
  }
}
layer {
  name: "relu5"
  type: "ReLU"
  bottom: "conv5"
  top: "conv5"
}
layer {
  name: "pool5"
  type: "Pooling"
  bottom: "conv5"
  top: "pool5"
  pooling_param {
    pool: MAX
    kernel_size: 3
    stride: 2
  }
}
layer {
  name: "fc6"
  type: "InnerProduct"
  bottom: "pool5"
  top: "fc6"
  param {
    lr_mult: 1
    decay_mult: 1
  }
  param {
    lr_mult: 2
    decay_mult: 0
  }
  inner_product_param {
    num_output: 4096
    weight_filler {
      type: "gaussian"
      std: 0.005
    }
    bias_filler {
      type: "constant"
      value: 1
    }
  }
}
layer {
  name: "relu6"
  type: "ReLU"
  bottom: "fc6"
  top: "fc6"
}
layer {
  name: "drop6"
  type: "Dropout"
  bottom: "fc6"
  top: "fc6"
  dropout_param {
    dropout_ratio: 0.5
  }
}
layer {
  name: "fc7"
  type: "InnerProduct"
  bottom: "fc6"
  top: "fc7"
  param {
    lr_mult: 1
    decay_mult: 1
  }
  param {
    lr_mult: 2
    decay_mult: 0
  }
  inner_product_param {
    num_output: 4096
    weight_filler {
      type: "gaussian"
      std: 0.005
    }
    bias_filler {
      type: "constant"
      value: 1
    }
  }
}
layer {
  name: "relu7"
  type: "ReLU"
  bottom: "fc7"
  top: "fc7"
}
layer {
  name: "drop7"
  type: "Dropout"
  bottom: "fc7"
  top: "fc7"
  dropout_param {
    dropout_ratio: 0.5
  }
}
layer {
  name: "fc8"
  type: "InnerProduct"
  bottom: "fc7"
  top: "fc8"
  param {
    lr_mult: 1
    decay_mult: 1
  }
  param {
    lr_mult: 2
    decay_mult: 0
  }
  inner_product_param {
    num_output: 2
    weight_filler {
      type: "gaussian"
      std: 0.01
    }
    bias_filler {
      type: "constant"
      value: 0
    }
  }
}
layer {
  name: "accuracy"
  type: "Accuracy"
  bottom: "fc8"
  bottom: "label"
  top: "accuracy"
  include {
    phase: TEST
  }
}
layer {
  name: "loss"
  type: "SoftmaxWithLoss"
  bottom: "fc8"
  bottom: "label"
  top: "loss"
}
I1009 17:05:34.059662  4783 layer_factory.hpp:74] Creating layer data
I1009 17:05:34.059674  4783 net.cpp:92] Creating Layer data
I1009 17:05:34.059680  4783 net.cpp:370] data -> data
I1009 17:05:34.059690  4783 net.cpp:370] data -> label
I1009 17:05:34.059697  4783 net.cpp:122] Setting up data
I1009 17:05:34.059703  4783 data_transformer.cpp:22] Loading mean file from: data/whole_b/imagenet_mean.binaryproto
I1009 17:05:34.060974  4783 db_lmdb.cpp:22] Opened lmdb whole_b/imagenet_val_leveldb
I1009 17:05:34.061039  4783 data_layer.cpp:52] output data size: 10,3,227,227
I1009 17:05:34.061949  4783 net.cpp:129] Top shape: 10 3 227 227 (1545870)
I1009 17:05:34.061975  4783 net.cpp:129] Top shape: 10 (10)
I1009 17:05:34.061981  4783 layer_factory.hpp:74] Creating layer label_data_1_split
I1009 17:05:34.061993  4783 net.cpp:92] Creating Layer label_data_1_split
I1009 17:05:34.062000  4783 net.cpp:412] label_data_1_split <- label
I1009 17:05:34.062011  4783 net.cpp:370] label_data_1_split -> label_data_1_split_0
I1009 17:05:34.062023  4783 net.cpp:370] label_data_1_split -> label_data_1_split_1
I1009 17:05:34.062031  4783 net.cpp:122] Setting up label_data_1_split
I1009 17:05:34.062038  4783 net.cpp:129] Top shape: 10 (10)
I1009 17:05:34.062044  4783 net.cpp:129] Top shape: 10 (10)
I1009 17:05:34.062049  4783 layer_factory.hpp:74] Creating layer conv1
I1009 17:05:34.062059  4783 net.cpp:92] Creating Layer conv1
I1009 17:05:34.062064  4783 net.cpp:412] conv1 <- data
I1009 17:05:34.062072  4783 net.cpp:370] conv1 -> conv1
I1009 17:05:34.062079  4783 net.cpp:122] Setting up conv1
I1009 17:05:34.062908  4783 net.cpp:129] Top shape: 10 96 55 55 (2904000)
I1009 17:05:34.062922  4783 layer_factory.hpp:74] Creating layer relu1
I1009 17:05:34.062930  4783 net.cpp:92] Creating Layer relu1
I1009 17:05:34.062947  4783 net.cpp:412] relu1 <- conv1
I1009 17:05:34.062953  4783 net.cpp:359] relu1 -> conv1 (in-place)
I1009 17:05:34.062968  4783 net.cpp:122] Setting up relu1
I1009 17:05:34.062974  4783 net.cpp:129] Top shape: 10 96 55 55 (2904000)
I1009 17:05:34.062979  4783 layer_factory.hpp:74] Creating layer pool1
I1009 17:05:34.062986  4783 net.cpp:92] Creating Layer pool1
I1009 17:05:34.062991  4783 net.cpp:412] pool1 <- conv1
I1009 17:05:34.062999  4783 net.cpp:370] pool1 -> pool1
I1009 17:05:34.063005  4783 net.cpp:122] Setting up pool1
I1009 17:05:34.063014  4783 net.cpp:129] Top shape: 10 96 27 27 (699840)
I1009 17:05:34.063019  4783 layer_factory.hpp:74] Creating layer norm1
I1009 17:05:34.063027  4783 net.cpp:92] Creating Layer norm1
I1009 17:05:34.063031  4783 net.cpp:412] norm1 <- pool1
I1009 17:05:34.063037  4783 net.cpp:370] norm1 -> norm1
I1009 17:05:34.063045  4783 net.cpp:122] Setting up norm1
I1009 17:05:34.063052  4783 net.cpp:129] Top shape: 10 96 27 27 (699840)
I1009 17:05:34.063057  4783 layer_factory.hpp:74] Creating layer conv2
I1009 17:05:34.063065  4783 net.cpp:92] Creating Layer conv2
I1009 17:05:34.063069  4783 net.cpp:412] conv2 <- norm1
I1009 17:05:34.063076  4783 net.cpp:370] conv2 -> conv2
I1009 17:05:34.063082  4783 net.cpp:122] Setting up conv2
I1009 17:05:34.070471  4783 net.cpp:129] Top shape: 10 256 27 27 (1866240)
I1009 17:05:34.070503  4783 layer_factory.hpp:74] Creating layer relu2
I1009 17:05:34.070513  4783 net.cpp:92] Creating Layer relu2
I1009 17:05:34.070519  4783 net.cpp:412] relu2 <- conv2
I1009 17:05:34.070528  4783 net.cpp:359] relu2 -> conv2 (in-place)
I1009 17:05:34.070536  4783 net.cpp:122] Setting up relu2
I1009 17:05:34.070544  4783 net.cpp:129] Top shape: 10 256 27 27 (1866240)
I1009 17:05:34.070549  4783 layer_factory.hpp:74] Creating layer pool2
I1009 17:05:34.070556  4783 net.cpp:92] Creating Layer pool2
I1009 17:05:34.070561  4783 net.cpp:412] pool2 <- conv2
I1009 17:05:34.070569  4783 net.cpp:370] pool2 -> pool2
I1009 17:05:34.070580  4783 net.cpp:122] Setting up pool2
I1009 17:05:34.070590  4783 net.cpp:129] Top shape: 10 256 13 13 (432640)
I1009 17:05:34.070595  4783 layer_factory.hpp:74] Creating layer norm2
I1009 17:05:34.070603  4783 net.cpp:92] Creating Layer norm2
I1009 17:05:34.070608  4783 net.cpp:412] norm2 <- pool2
I1009 17:05:34.070615  4783 net.cpp:370] norm2 -> norm2
I1009 17:05:34.070621  4783 net.cpp:122] Setting up norm2
I1009 17:05:34.070629  4783 net.cpp:129] Top shape: 10 256 13 13 (432640)
I1009 17:05:34.070634  4783 layer_factory.hpp:74] Creating layer conv3
I1009 17:05:34.070644  4783 net.cpp:92] Creating Layer conv3
I1009 17:05:34.070649  4783 net.cpp:412] conv3 <- norm2
I1009 17:05:34.070657  4783 net.cpp:370] conv3 -> conv3
I1009 17:05:34.070664  4783 net.cpp:122] Setting up conv3
I1009 17:05:34.091344  4783 net.cpp:129] Top shape: 10 384 13 13 (648960)
I1009 17:05:34.091367  4783 layer_factory.hpp:74] Creating layer relu3
I1009 17:05:34.091375  4783 net.cpp:92] Creating Layer relu3
I1009 17:05:34.091380  4783 net.cpp:412] relu3 <- conv3
I1009 17:05:34.091388  4783 net.cpp:359] relu3 -> conv3 (in-place)
I1009 17:05:34.091395  4783 net.cpp:122] Setting up relu3
I1009 17:05:34.091402  4783 net.cpp:129] Top shape: 10 384 13 13 (648960)
I1009 17:05:34.091406  4783 layer_factory.hpp:74] Creating layer conv4
I1009 17:05:34.091414  4783 net.cpp:92] Creating Layer conv4
I1009 17:05:34.091418  4783 net.cpp:412] conv4 <- conv3
I1009 17:05:34.091426  4783 net.cpp:370] conv4 -> conv4
I1009 17:05:34.091434  4783 net.cpp:122] Setting up conv4
I1009 17:05:34.106534  4783 net.cpp:129] Top shape: 10 384 13 13 (648960)
I1009 17:05:34.106547  4783 layer_factory.hpp:74] Creating layer relu4
I1009 17:05:34.106554  4783 net.cpp:92] Creating Layer relu4
I1009 17:05:34.106559  4783 net.cpp:412] relu4 <- conv4
I1009 17:05:34.106570  4783 net.cpp:359] relu4 -> conv4 (in-place)
I1009 17:05:34.106575  4783 net.cpp:122] Setting up relu4
I1009 17:05:34.106581  4783 net.cpp:129] Top shape: 10 384 13 13 (648960)
I1009 17:05:34.106586  4783 layer_factory.hpp:74] Creating layer conv5
I1009 17:05:34.106601  4783 net.cpp:92] Creating Layer conv5
I1009 17:05:34.106612  4783 net.cpp:412] conv5 <- conv4
I1009 17:05:34.106621  4783 net.cpp:370] conv5 -> conv5
I1009 17:05:34.106628  4783 net.cpp:122] Setting up conv5
I1009 17:05:34.116832  4783 net.cpp:129] Top shape: 10 256 13 13 (432640)
I1009 17:05:34.116847  4783 layer_factory.hpp:74] Creating layer relu5
I1009 17:05:34.116854  4783 net.cpp:92] Creating Layer relu5
I1009 17:05:34.116859  4783 net.cpp:412] relu5 <- conv5
I1009 17:05:34.116865  4783 net.cpp:359] relu5 -> conv5 (in-place)
I1009 17:05:34.116871  4783 net.cpp:122] Setting up relu5
I1009 17:05:34.116878  4783 net.cpp:129] Top shape: 10 256 13 13 (432640)
I1009 17:05:34.116883  4783 layer_factory.hpp:74] Creating layer pool5
I1009 17:05:34.116891  4783 net.cpp:92] Creating Layer pool5
I1009 17:05:34.116896  4783 net.cpp:412] pool5 <- conv5
I1009 17:05:34.116904  4783 net.cpp:370] pool5 -> pool5
I1009 17:05:34.116910  4783 net.cpp:122] Setting up pool5
I1009 17:05:34.116919  4783 net.cpp:129] Top shape: 10 256 6 6 (92160)
I1009 17:05:34.116925  4783 layer_factory.hpp:74] Creating layer fc6
I1009 17:05:34.116933  4783 net.cpp:92] Creating Layer fc6
I1009 17:05:34.116938  4783 net.cpp:412] fc6 <- pool5
I1009 17:05:34.116945  4783 net.cpp:370] fc6 -> fc6
I1009 17:05:34.116952  4783 net.cpp:122] Setting up fc6
I1009 17:05:34.973968  4783 net.cpp:129] Top shape: 10 4096 (40960)
I1009 17:05:34.974004  4783 layer_factory.hpp:74] Creating layer relu6
I1009 17:05:34.974015  4783 net.cpp:92] Creating Layer relu6
I1009 17:05:34.974021  4783 net.cpp:412] relu6 <- fc6
I1009 17:05:34.974028  4783 net.cpp:359] relu6 -> fc6 (in-place)
I1009 17:05:34.974037  4783 net.cpp:122] Setting up relu6
I1009 17:05:34.974043  4783 net.cpp:129] Top shape: 10 4096 (40960)
I1009 17:05:34.974048  4783 layer_factory.hpp:74] Creating layer drop6
I1009 17:05:34.974056  4783 net.cpp:92] Creating Layer drop6
I1009 17:05:34.974061  4783 net.cpp:412] drop6 <- fc6
I1009 17:05:34.974067  4783 net.cpp:359] drop6 -> fc6 (in-place)
I1009 17:05:34.974074  4783 net.cpp:122] Setting up drop6
I1009 17:05:34.974082  4783 net.cpp:129] Top shape: 10 4096 (40960)
I1009 17:05:34.974086  4783 layer_factory.hpp:74] Creating layer fc7
I1009 17:05:34.974095  4783 net.cpp:92] Creating Layer fc7
I1009 17:05:34.974099  4783 net.cpp:412] fc7 <- fc6
I1009 17:05:34.974108  4783 net.cpp:370] fc7 -> fc7
I1009 17:05:34.974117  4783 net.cpp:122] Setting up fc7
I1009 17:05:35.354892  4783 net.cpp:129] Top shape: 10 4096 (40960)
I1009 17:05:35.354931  4783 layer_factory.hpp:74] Creating layer relu7
I1009 17:05:35.354943  4783 net.cpp:92] Creating Layer relu7
I1009 17:05:35.354950  4783 net.cpp:412] relu7 <- fc7
I1009 17:05:35.354959  4783 net.cpp:359] relu7 -> fc7 (in-place)
I1009 17:05:35.354967  4783 net.cpp:122] Setting up relu7
I1009 17:05:35.354974  4783 net.cpp:129] Top shape: 10 4096 (40960)
I1009 17:05:35.354977  4783 layer_factory.hpp:74] Creating layer drop7
I1009 17:05:35.354985  4783 net.cpp:92] Creating Layer drop7
I1009 17:05:35.354990  4783 net.cpp:412] drop7 <- fc7
I1009 17:05:35.354995  4783 net.cpp:359] drop7 -> fc7 (in-place)
I1009 17:05:35.355001  4783 net.cpp:122] Setting up drop7
I1009 17:05:35.355008  4783 net.cpp:129] Top shape: 10 4096 (40960)
I1009 17:05:35.355013  4783 layer_factory.hpp:74] Creating layer fc8
I1009 17:05:35.355023  4783 net.cpp:92] Creating Layer fc8
I1009 17:05:35.355028  4783 net.cpp:412] fc8 <- fc7
I1009 17:05:35.355034  4783 net.cpp:370] fc8 -> fc8
I1009 17:05:35.355046  4783 net.cpp:122] Setting up fc8
I1009 17:05:35.355252  4783 net.cpp:129] Top shape: 10 2 (20)
I1009 17:05:35.355262  4783 layer_factory.hpp:74] Creating layer fc8_fc8_0_split
I1009 17:05:35.355268  4783 net.cpp:92] Creating Layer fc8_fc8_0_split
I1009 17:05:35.355273  4783 net.cpp:412] fc8_fc8_0_split <- fc8
I1009 17:05:35.355280  4783 net.cpp:370] fc8_fc8_0_split -> fc8_fc8_0_split_0
I1009 17:05:35.355288  4783 net.cpp:370] fc8_fc8_0_split -> fc8_fc8_0_split_1
I1009 17:05:35.355295  4783 net.cpp:122] Setting up fc8_fc8_0_split
I1009 17:05:35.355311  4783 net.cpp:129] Top shape: 10 2 (20)
I1009 17:05:35.355324  4783 net.cpp:129] Top shape: 10 2 (20)
I1009 17:05:35.355329  4783 layer_factory.hpp:74] Creating layer accuracy
I1009 17:05:35.355336  4783 net.cpp:92] Creating Layer accuracy
I1009 17:05:35.355341  4783 net.cpp:412] accuracy <- fc8_fc8_0_split_0
I1009 17:05:35.355346  4783 net.cpp:412] accuracy <- label_data_1_split_0
I1009 17:05:35.355355  4783 net.cpp:370] accuracy -> accuracy
I1009 17:05:35.355361  4783 net.cpp:122] Setting up accuracy
…
