…
I1009 20:14:01.247984 12938 net.cpp:289] The NetState phase (0) differed from the phase (1) specified by a rule in layer accuracy
I1009 20:14:01.248124 12938 net.cpp:44] Initializing net from parameters: 
name: "CaffeNet"
state {
  phase: TRAIN
}
layer {
  name: "data"
  type: "Data"
  top: "data"
  top: "label"
  include {
    phase: TRAIN
  }
  transform_param {
    mirror: true
    crop_size: 227
    mean_file: "data/whole_f/imagenet_mean.binaryproto"
  }
  data_param {
    source: "whole_f/imagenet_train_leveldb"
    batch_size: 10
    backend: LMDB
  }
}
layer {
  name: "conv1"
  type: "Convolution"
  bottom: "data"
  top: "conv1"
  param {
    lr_mult: 1
    decay_mult: 1
  }
  param {
    lr_mult: 2
    decay_mult: 0
  }
  convolution_param {
    num_output: 96
    kernel_size: 11
    stride: 4
    weight_filler {
      type: "gaussian"
      std: 0.01
    }
    bias_filler {
      type: "constant"
      value: 0
    }
  }
}
layer {
  name: "relu1"
  type: "ReLU"
  bottom: "conv1"
  top: "conv1"
}
layer {
  name: "pool1"
  type: "Pooling"
  bottom: "conv1"
  top: "pool1"
  pooling_param {
    pool: MAX
    kernel_size: 3
    stride: 2
  }
}
layer {
  name: "norm1"
  type: "LRN"
  bottom: "pool1"
  top: "norm1"
  lrn_param {
    local_size: 5
    alpha: 0.0001
    beta: 0.75
  }
}
layer {
  name: "conv2"
  type: "Convolution"
  bottom: "norm1"
  top: "conv2"
  param {
    lr_mult: 1
    decay_mult: 1
  }
  param {
    lr_mult: 2
    decay_mult: 0
  }
  convolution_param {
    num_output: 256
    pad: 2
    kernel_size: 5
    group: 2
    weight_filler {
      type: "gaussian"
      std: 0.01
    }
    bias_filler {
      type: "constant"
      value: 1
    }
  }
}
layer {
  name: "relu2"
  type: "ReLU"
  bottom: "conv2"
  top: "conv2"
}
layer {
  name: "pool2"
  type: "Pooling"
  bottom: "conv2"
  top: "pool2"
  pooling_param {
    pool: MAX
    kernel_size: 3
    stride: 2
  }
}
layer {
  name: "norm2"
  type: "LRN"
  bottom: "pool2"
  top: "norm2"
  lrn_param {
    local_size: 5
    alpha: 0.0001
    beta: 0.75
  }
}
layer {
  name: "conv3"
  type: "Convolution"
  bottom: "norm2"
  top: "conv3"
  param {
    lr_mult: 1
    decay_mult: 1
  }
  param {
    lr_mult: 2
    decay_mult: 0
  }
  convolution_param {
    num_output: 384
    pad: 1
    kernel_size: 3
    weight_filler {
      type: "gaussian"
      std: 0.01
    }
    bias_filler {
      type: "constant"
      value: 0
    }
  }
}
layer {
  name: "relu3"
  type: "ReLU"
  bottom: "conv3"
  top: "conv3"
}
layer {
  name: "conv4"
  type: "Convolution"
  bottom: "conv3"
  top: "conv4"
  param {
    lr_mult: 1
    decay_mult: 1
  }
  param {
    lr_mult: 2
    decay_mult: 0
  }
  convolution_param {
    num_output: 384
    pad: 1
    kernel_size: 3
    group: 2
    weight_filler {
      type: "gaussian"
      std: 0.01
    }
    bias_filler {
      type: "constant"
      value: 1
    }
  }
}
layer {
  name: "relu4"
  type: "ReLU"
  bottom: "conv4"
  top: "conv4"
}
layer {
  name: "conv5"
  type: "Convolution"
  bottom: "conv4"
  top: "conv5"
  param {
    lr_mult: 1
    decay_mult: 1
  }
  param {
    lr_mult: 2
    decay_mult: 0
  }
  convolution_param {
    num_output: 256
    pad: 1
    kernel_size: 3
    group: 2
    weight_filler {
      type: "gaussian"
      std: 0.01
    }
    bias_filler {
      type: "constant"
      value: 1
    }
  }
}
layer {
  name: "relu5"
  type: "ReLU"
  bottom: "conv5"
  top: "conv5"
}
layer {
  name: "pool5"
  type: "Pooling"
  bottom: "conv5"
  top: "pool5"
  pooling_param {
    pool: MAX
    kernel_size: 3
    stride: 2
  }
}
layer {
  name: "fc6"
  type: "InnerProduct"
  bottom: "pool5"
  top: "fc6"
  param {
    lr_mult: 1
    decay_mult: 1
  }
  param {
    lr_mult: 2
    decay_mult: 0
  }
  inner_product_param {
    num_output: 4096
    weight_filler {
      type: "gaussian"
      std: 0.005
    }
    bias_filler {
      type: "constant"
      value: 1
    }
  }
}
layer {
  name: "relu6"
  type: "ReLU"
  bottom: "fc6"
  top: "fc6"
}
layer {
  name: "drop6"
  type: "Dropout"
  bottom: "fc6"
  top: "fc6"
  dropout_param {
    dropout_ratio: 0.5
  }
}
layer {
  name: "fc7"
  type: "InnerProduct"
  bottom: "fc6"
  top: "fc7"
  param {
    lr_mult: 1
    decay_mult: 1
  }
  param {
    lr_mult: 2
    decay_mult: 0
  }
  inner_product_param {
    num_output: 4096
    weight_filler {
      type: "gaussian"
      std: 0.005
    }
    bias_filler {
      type: "constant"
      value: 1
    }
  }
}
layer {
  name: "relu7"
  type: "ReLU"
  bottom: "fc7"
  top: "fc7"
}
layer {
  name: "drop7"
  type: "Dropout"
  bottom: "fc7"
  top: "fc7"
  dropout_param {
    dropout_ratio: 0.5
  }
}
layer {
  name: "fc8"
  type: "InnerProduct"
  bottom: "fc7"
  top: "fc8"
  param {
    lr_mult: 1
    decay_mult: 1
  }
  param {
    lr_mult: 2
    decay_mult: 0
  }
  inner_product_param {
    num_output: 2
    weight_filler {
      type: "gaussian"
      std: 0.01
    }
    bias_filler {
      type: "constant"
      value: 0
    }
  }
}
layer {
  name: "loss"
  type: "SoftmaxWithLoss"
  bottom: "fc8"
  bottom: "label"
  top: "loss"
}
I1009 20:14:01.248225 12938 layer_factory.hpp:74] Creating layer data
I1009 20:14:01.248246 12938 net.cpp:92] Creating Layer data
I1009 20:14:01.248255 12938 net.cpp:370] data -> data
I1009 20:14:01.248275 12938 net.cpp:370] data -> label
I1009 20:14:01.248286 12938 net.cpp:122] Setting up data
I1009 20:14:01.248293 12938 data_transformer.cpp:22] Loading mean file from: data/whole_f/imagenet_mean.binaryproto
I1009 20:14:01.249825 12938 db_lmdb.cpp:22] Opened lmdb whole_f/imagenet_train_leveldb
I1009 20:14:01.249892 12938 data_layer.cpp:52] output data size: 10,3,227,227
I1009 20:14:01.250804 12938 net.cpp:129] Top shape: 10 3 227 227 (1545870)
I1009 20:14:01.250826 12938 net.cpp:129] Top shape: 10 (10)
I1009 20:14:01.250835 12938 layer_factory.hpp:74] Creating layer conv1
I1009 20:14:01.250852 12938 net.cpp:92] Creating Layer conv1
I1009 20:14:01.250859 12938 net.cpp:412] conv1 <- data
I1009 20:14:01.250871 12938 net.cpp:370] conv1 -> conv1
I1009 20:14:01.250885 12938 net.cpp:122] Setting up conv1
I1009 20:14:01.251790 12938 net.cpp:129] Top shape: 10 96 55 55 (2904000)
I1009 20:14:01.251807 12938 layer_factory.hpp:74] Creating layer relu1
I1009 20:14:01.251816 12938 net.cpp:92] Creating Layer relu1
I1009 20:14:01.251821 12938 net.cpp:412] relu1 <- conv1
I1009 20:14:01.251828 12938 net.cpp:359] relu1 -> conv1 (in-place)
I1009 20:14:01.251834 12938 net.cpp:122] Setting up relu1
I1009 20:14:01.251842 12938 net.cpp:129] Top shape: 10 96 55 55 (2904000)
I1009 20:14:01.251845 12938 layer_factory.hpp:74] Creating layer pool1
I1009 20:14:01.251853 12938 net.cpp:92] Creating Layer pool1
I1009 20:14:01.251858 12938 net.cpp:412] pool1 <- conv1
I1009 20:14:01.251864 12938 net.cpp:370] pool1 -> pool1
I1009 20:14:01.251873 12938 net.cpp:122] Setting up pool1
I1009 20:14:01.251886 12938 net.cpp:129] Top shape: 10 96 27 27 (699840)
I1009 20:14:01.251891 12938 layer_factory.hpp:74] Creating layer norm1
I1009 20:14:01.251900 12938 net.cpp:92] Creating Layer norm1
I1009 20:14:01.251905 12938 net.cpp:412] norm1 <- pool1
I1009 20:14:01.251911 12938 net.cpp:370] norm1 -> norm1
I1009 20:14:01.251920 12938 net.cpp:122] Setting up norm1
I1009 20:14:01.251929 12938 net.cpp:129] Top shape: 10 96 27 27 (699840)
I1009 20:14:01.251934 12938 layer_factory.hpp:74] Creating layer conv2
I1009 20:14:01.251940 12938 net.cpp:92] Creating Layer conv2
I1009 20:14:01.251945 12938 net.cpp:412] conv2 <- norm1
I1009 20:14:01.251960 12938 net.cpp:370] conv2 -> conv2
I1009 20:14:01.251976 12938 net.cpp:122] Setting up conv2
I1009 20:14:01.259762 12938 net.cpp:129] Top shape: 10 256 27 27 (1866240)
I1009 20:14:01.259798 12938 layer_factory.hpp:74] Creating layer relu2
I1009 20:14:01.259807 12938 net.cpp:92] Creating Layer relu2
I1009 20:14:01.259814 12938 net.cpp:412] relu2 <- conv2
I1009 20:14:01.259821 12938 net.cpp:359] relu2 -> conv2 (in-place)
I1009 20:14:01.259829 12938 net.cpp:122] Setting up relu2
I1009 20:14:01.259836 12938 net.cpp:129] Top shape: 10 256 27 27 (1866240)
I1009 20:14:01.259841 12938 layer_factory.hpp:74] Creating layer pool2
I1009 20:14:01.259848 12938 net.cpp:92] Creating Layer pool2
I1009 20:14:01.259853 12938 net.cpp:412] pool2 <- conv2
I1009 20:14:01.259860 12938 net.cpp:370] pool2 -> pool2
I1009 20:14:01.259867 12938 net.cpp:122] Setting up pool2
I1009 20:14:01.259876 12938 net.cpp:129] Top shape: 10 256 13 13 (432640)
I1009 20:14:01.259881 12938 layer_factory.hpp:74] Creating layer norm2
I1009 20:14:01.259891 12938 net.cpp:92] Creating Layer norm2
I1009 20:14:01.259896 12938 net.cpp:412] norm2 <- pool2
I1009 20:14:01.259902 12938 net.cpp:370] norm2 -> norm2
I1009 20:14:01.259910 12938 net.cpp:122] Setting up norm2
I1009 20:14:01.259917 12938 net.cpp:129] Top shape: 10 256 13 13 (432640)
I1009 20:14:01.259922 12938 layer_factory.hpp:74] Creating layer conv3
I1009 20:14:01.259932 12938 net.cpp:92] Creating Layer conv3
I1009 20:14:01.259937 12938 net.cpp:412] conv3 <- norm2
I1009 20:14:01.259943 12938 net.cpp:370] conv3 -> conv3
I1009 20:14:01.259953 12938 net.cpp:122] Setting up conv3
I1009 20:14:01.281615 12938 net.cpp:129] Top shape: 10 384 13 13 (648960)
I1009 20:14:01.281628 12938 layer_factory.hpp:74] Creating layer relu3
I1009 20:14:01.281636 12938 net.cpp:92] Creating Layer relu3
I1009 20:14:01.281641 12938 net.cpp:412] relu3 <- conv3
I1009 20:14:01.281647 12938 net.cpp:359] relu3 -> conv3 (in-place)
I1009 20:14:01.281653 12938 net.cpp:122] Setting up relu3
I1009 20:14:01.281659 12938 net.cpp:129] Top shape: 10 384 13 13 (648960)
I1009 20:14:01.281664 12938 layer_factory.hpp:74] Creating layer conv4
I1009 20:14:01.281672 12938 net.cpp:92] Creating Layer conv4
I1009 20:14:01.281677 12938 net.cpp:412] conv4 <- conv3
I1009 20:14:01.281683 12938 net.cpp:370] conv4 -> conv4
I1009 20:14:01.281690 12938 net.cpp:122] Setting up conv4
I1009 20:14:01.298069 12938 net.cpp:129] Top shape: 10 384 13 13 (648960)
I1009 20:14:01.298086 12938 layer_factory.hpp:74] Creating layer relu4
I1009 20:14:01.298094 12938 net.cpp:92] Creating Layer relu4
I1009 20:14:01.298099 12938 net.cpp:412] relu4 <- conv4
I1009 20:14:01.298105 12938 net.cpp:359] relu4 -> conv4 (in-place)
I1009 20:14:01.298112 12938 net.cpp:122] Setting up relu4
I1009 20:14:01.298118 12938 net.cpp:129] Top shape: 10 384 13 13 (648960)
I1009 20:14:01.298123 12938 layer_factory.hpp:74] Creating layer conv5
I1009 20:14:01.298135 12938 net.cpp:92] Creating Layer conv5
I1009 20:14:01.298141 12938 net.cpp:412] conv5 <- conv4
I1009 20:14:01.298147 12938 net.cpp:370] conv5 -> conv5
I1009 20:14:01.298156 12938 net.cpp:122] Setting up conv5
I1009 20:14:01.309054 12938 net.cpp:129] Top shape: 10 256 13 13 (432640)
I1009 20:14:01.309069 12938 layer_factory.hpp:74] Creating layer relu5
I1009 20:14:01.309077 12938 net.cpp:92] Creating Layer relu5
I1009 20:14:01.309082 12938 net.cpp:412] relu5 <- conv5
I1009 20:14:01.309088 12938 net.cpp:359] relu5 -> conv5 (in-place)
I1009 20:14:01.309095 12938 net.cpp:122] Setting up relu5
I1009 20:14:01.309101 12938 net.cpp:129] Top shape: 10 256 13 13 (432640)
I1009 20:14:01.309106 12938 layer_factory.hpp:74] Creating layer pool5
I1009 20:14:01.309113 12938 net.cpp:92] Creating Layer pool5
I1009 20:14:01.309118 12938 net.cpp:412] pool5 <- conv5
I1009 20:14:01.309124 12938 net.cpp:370] pool5 -> pool5
I1009 20:14:01.309131 12938 net.cpp:122] Setting up pool5
I1009 20:14:01.309141 12938 net.cpp:129] Top shape: 10 256 6 6 (92160)
I1009 20:14:01.309146 12938 layer_factory.hpp:74] Creating layer fc6
I1009 20:14:01.309165 12938 net.cpp:92] Creating Layer fc6
I1009 20:14:01.309171 12938 net.cpp:412] fc6 <- pool5
I1009 20:14:01.309186 12938 net.cpp:370] fc6 -> fc6
I1009 20:14:01.309196 12938 net.cpp:122] Setting up fc6
I1009 20:14:02.166640 12938 net.cpp:129] Top shape: 10 4096 (40960)
I1009 20:14:02.166681 12938 layer_factory.hpp:74] Creating layer relu6
I1009 20:14:02.166692 12938 net.cpp:92] Creating Layer relu6
I1009 20:14:02.166697 12938 net.cpp:412] relu6 <- fc6
I1009 20:14:02.166707 12938 net.cpp:359] relu6 -> fc6 (in-place)
I1009 20:14:02.166717 12938 net.cpp:122] Setting up relu6
I1009 20:14:02.166723 12938 net.cpp:129] Top shape: 10 4096 (40960)
I1009 20:14:02.166728 12938 layer_factory.hpp:74] Creating layer drop6
I1009 20:14:02.166741 12938 net.cpp:92] Creating Layer drop6
I1009 20:14:02.166745 12938 net.cpp:412] drop6 <- fc6
I1009 20:14:02.166751 12938 net.cpp:359] drop6 -> fc6 (in-place)
I1009 20:14:02.166761 12938 net.cpp:122] Setting up drop6
I1009 20:14:02.166770 12938 net.cpp:129] Top shape: 10 4096 (40960)
I1009 20:14:02.166776 12938 layer_factory.hpp:74] Creating layer fc7
I1009 20:14:02.166787 12938 net.cpp:92] Creating Layer fc7
I1009 20:14:02.166792 12938 net.cpp:412] fc7 <- fc6
I1009 20:14:02.166798 12938 net.cpp:370] fc7 -> fc7
I1009 20:14:02.166807 12938 net.cpp:122] Setting up fc7
I1009 20:14:02.547847 12938 net.cpp:129] Top shape: 10 4096 (40960)
I1009 20:14:02.547886 12938 layer_factory.hpp:74] Creating layer relu7
I1009 20:14:02.547897 12938 net.cpp:92] Creating Layer relu7
I1009 20:14:02.547904 12938 net.cpp:412] relu7 <- fc7
I1009 20:14:02.547912 12938 net.cpp:359] relu7 -> fc7 (in-place)
I1009 20:14:02.547921 12938 net.cpp:122] Setting up relu7
I1009 20:14:02.547929 12938 net.cpp:129] Top shape: 10 4096 (40960)
I1009 20:14:02.547933 12938 layer_factory.hpp:74] Creating layer drop7
I1009 20:14:02.547940 12938 net.cpp:92] Creating Layer drop7
I1009 20:14:02.547945 12938 net.cpp:412] drop7 <- fc7
I1009 20:14:02.547950 12938 net.cpp:359] drop7 -> fc7 (in-place)
I1009 20:14:02.547957 12938 net.cpp:122] Setting up drop7
I1009 20:14:02.547965 12938 net.cpp:129] Top shape: 10 4096 (40960)
I1009 20:14:02.547969 12938 layer_factory.hpp:74] Creating layer fc8
I1009 20:14:02.547978 12938 net.cpp:92] Creating Layer fc8
I1009 20:14:02.547982 12938 net.cpp:412] fc8 <- fc7
I1009 20:14:02.547991 12938 net.cpp:370] fc8 -> fc8
I1009 20:14:02.547999 12938 net.cpp:122] Setting up fc8
I1009 20:14:02.548202 12938 net.cpp:129] Top shape: 10 2 (20)
I1009 20:14:02.548209 12938 layer_factory.hpp:74] Creating layer loss
I1009 20:14:02.548218 12938 net.cpp:92] Creating Layer loss
I1009 20:14:02.548221 12938 net.cpp:412] loss <- fc8
I1009 20:14:02.548228 12938 net.cpp:412] loss <- label
I1009 20:14:02.548235 12938 net.cpp:370] loss -> loss
I1009 20:14:02.548250 12938 net.cpp:122] Setting up loss
I1009 20:14:02.548259 12938 layer_factory.hpp:74] Creating layer loss
…
I1009 20:14:02.549135 12938 net.cpp:289] The NetState phase (1) differed from the phase (0) specified by a rule in layer data
I1009 20:14:02.549290 12938 net.cpp:44] Initializing net from parameters: 
name: "CaffeNet"
state {
  phase: TEST
}
layer {
  name: "data"
  type: "Data"
  top: "data"
  top: "label"
  include {
    phase: TEST
  }
  transform_param {
    mirror: true
    crop_size: 227
    mean_file: "data/whole_f/imagenet_mean.binaryproto"
  }
  data_param {
    source: "whole_f/imagenet_val_leveldb"
    mean_file: "data/whole_f/imagenet_mean.binartproto"
    batch_size: 10
    crop_size: 227
    mirror: false
    backend: LMDB
  }
}
layer {
  name: "conv1"
  type: "Convolution"
  bottom: "data"
  top: "conv1"
  param {
    lr_mult: 1
    decay_mult: 1
  }
  param {
    lr_mult: 2
    decay_mult: 0
  }
  convolution_param {
    num_output: 96
    kernel_size: 11
    stride: 4
    weight_filler {
      type: "gaussian"
      std: 0.01
    }
    bias_filler {
      type: "constant"
      value: 0
    }
  }
}
layer {
  name: "relu1"
  type: "ReLU"
  bottom: "conv1"
  top: "conv1"
}
layer {
  name: "pool1"
  type: "Pooling"
  bottom: "conv1"
  top: "pool1"
  pooling_param {
    pool: MAX
    kernel_size: 3
    stride: 2
  }
}
layer {
  name: "norm1"
  type: "LRN"
  bottom: "pool1"
  top: "norm1"
  lrn_param {
    local_size: 5
    alpha: 0.0001
    beta: 0.75
  }
}
layer {
  name: "conv2"
  type: "Convolution"
  bottom: "norm1"
  top: "conv2"
  param {
    lr_mult: 1
    decay_mult: 1
  }
  param {
    lr_mult: 2
    decay_mult: 0
  }
  convolution_param {
    num_output: 256
    pad: 2
    kernel_size: 5
    group: 2
    weight_filler {
      type: "gaussian"
      std: 0.01
    }
    bias_filler {
      type: "constant"
      value: 1
    }
  }
}
layer {
  name: "relu2"
  type: "ReLU"
  bottom: "conv2"
  top: "conv2"
}
layer {
  name: "pool2"
  type: "Pooling"
  bottom: "conv2"
  top: "pool2"
  pooling_param {
    pool: MAX
    kernel_size: 3
    stride: 2
  }
}
layer {
  name: "norm2"
  type: "LRN"
  bottom: "pool2"
  top: "norm2"
  lrn_param {
    local_size: 5
    alpha: 0.0001
    beta: 0.75
  }
}
layer {
  name: "conv3"
  type: "Convolution"
  bottom: "norm2"
  top: "conv3"
  param {
    lr_mult: 1
    decay_mult: 1
  }
  param {
    lr_mult: 2
    decay_mult: 0
  }
  convolution_param {
    num_output: 384
    pad: 1
    kernel_size: 3
    weight_filler {
      type: "gaussian"
      std: 0.01
    }
    bias_filler {
      type: "constant"
      value: 0
    }
  }
}
layer {
  name: "relu3"
  type: "ReLU"
  bottom: "conv3"
  top: "conv3"
}
layer {
  name: "conv4"
  type: "Convolution"
  bottom: "conv3"
  top: "conv4"
  param {
    lr_mult: 1
    decay_mult: 1
  }
  param {
    lr_mult: 2
    decay_mult: 0
  }
  convolution_param {
    num_output: 384
    pad: 1
    kernel_size: 3
    group: 2
    weight_filler {
      type: "gaussian"
      std: 0.01
    }
    bias_filler {
      type: "constant"
      value: 1
    }
  }
}
layer {
  name: "relu4"
  type: "ReLU"
  bottom: "conv4"
  top: "conv4"
}
layer {
  name: "conv5"
  type: "Convolution"
  bottom: "conv4"
  top: "conv5"
  param {
    lr_mult: 1
    decay_mult: 1
  }
  param {
    lr_mult: 2
    decay_mult: 0
  }
  convolution_param {
    num_output: 256
    pad: 1
    kernel_size: 3
    group: 2
    weight_filler {
      type: "gaussian"
      std: 0.01
    }
    bias_filler {
      type: "constant"
      value: 1
    }
  }
}
layer {
  name: "relu5"
  type: "ReLU"
  bottom: "conv5"
  top: "conv5"
}
layer {
  name: "pool5"
  type: "Pooling"
  bottom: "conv5"
  top: "pool5"
  pooling_param {
    pool: MAX
    kernel_size: 3
    stride: 2
  }
}
layer {
  name: "fc6"
  type: "InnerProduct"
  bottom: "pool5"
  top: "fc6"
  param {
    lr_mult: 1
    decay_mult: 1
  }
  param {
    lr_mult: 2
    decay_mult: 0
  }
  inner_product_param {
    num_output: 4096
    weight_filler {
      type: "gaussian"
      std: 0.005
    }
    bias_filler {
      type: "constant"
      value: 1
    }
  }
}
layer {
  name: "relu6"
  type: "ReLU"
  bottom: "fc6"
  top: "fc6"
}
layer {
  name: "drop6"
  type: "Dropout"
  bottom: "fc6"
  top: "fc6"
  dropout_param {
    dropout_ratio: 0.5
  }
}
layer {
  name: "fc7"
  type: "InnerProduct"
  bottom: "fc6"
  top: "fc7"
  param {
    lr_mult: 1
    decay_mult: 1
  }
  param {
    lr_mult: 2
    decay_mult: 0
  }
  inner_product_param {
    num_output: 4096
    weight_filler {
      type: "gaussian"
      std: 0.005
    }
    bias_filler {
      type: "constant"
      value: 1
    }
  }
}
layer {
  name: "relu7"
  type: "ReLU"
  bottom: "fc7"
  top: "fc7"
}
layer {
  name: "drop7"
  type: "Dropout"
  bottom: "fc7"
  top: "fc7"
  dropout_param {
    dropout_ratio: 0.5
  }
}
layer {
  name: "fc8"
  type: "InnerProduct"
  bottom: "fc7"
  top: "fc8"
  param {
    lr_mult: 1
    decay_mult: 1
  }
  param {
    lr_mult: 2
    decay_mult: 0
  }
  inner_product_param {
    num_output: 2
    weight_filler {
      type: "gaussian"
      std: 0.01
    }
    bias_filler {
      type: "constant"
      value: 0
    }
  }
}
layer {
  name: "accuracy"
  type: "Accuracy"
  bottom: "fc8"
  bottom: "label"
  top: "accuracy"
  include {
    phase: TEST
  }
}
layer {
  name: "loss"
  type: "SoftmaxWithLoss"
  bottom: "fc8"
  bottom: "label"
  top: "loss"
}
I1009 20:14:02.549398 12938 layer_factory.hpp:74] Creating layer data
I1009 20:14:02.549410 12938 net.cpp:92] Creating Layer data
I1009 20:14:02.549417 12938 net.cpp:370] data -> data
I1009 20:14:02.549427 12938 net.cpp:370] data -> label
I1009 20:14:02.549434 12938 net.cpp:122] Setting up data
I1009 20:14:02.549440 12938 data_transformer.cpp:22] Loading mean file from: data/whole_f/imagenet_mean.binaryproto
I1009 20:14:02.550688 12938 db_lmdb.cpp:22] Opened lmdb whole_f/imagenet_val_leveldb
I1009 20:14:02.550746 12938 data_layer.cpp:52] output data size: 10,3,227,227
I1009 20:14:02.551654 12938 net.cpp:129] Top shape: 10 3 227 227 (1545870)
I1009 20:14:02.551677 12938 net.cpp:129] Top shape: 10 (10)
I1009 20:14:02.551686 12938 layer_factory.hpp:74] Creating layer label_data_1_split
I1009 20:14:02.551697 12938 net.cpp:92] Creating Layer label_data_1_split
I1009 20:14:02.551703 12938 net.cpp:412] label_data_1_split <- label
I1009 20:14:02.551713 12938 net.cpp:370] label_data_1_split -> label_data_1_split_0
I1009 20:14:02.551728 12938 net.cpp:370] label_data_1_split -> label_data_1_split_1
I1009 20:14:02.551734 12938 net.cpp:122] Setting up label_data_1_split
I1009 20:14:02.551743 12938 net.cpp:129] Top shape: 10 (10)
I1009 20:14:02.551748 12938 net.cpp:129] Top shape: 10 (10)
I1009 20:14:02.551753 12938 layer_factory.hpp:74] Creating layer conv1
I1009 20:14:02.551764 12938 net.cpp:92] Creating Layer conv1
I1009 20:14:02.551769 12938 net.cpp:412] conv1 <- data
I1009 20:14:02.551776 12938 net.cpp:370] conv1 -> conv1
I1009 20:14:02.551785 12938 net.cpp:122] Setting up conv1
I1009 20:14:02.552615 12938 net.cpp:129] Top shape: 10 96 55 55 (2904000)
I1009 20:14:02.552629 12938 layer_factory.hpp:74] Creating layer relu1
I1009 20:14:02.552637 12938 net.cpp:92] Creating Layer relu1
I1009 20:14:02.552650 12938 net.cpp:412] relu1 <- conv1
I1009 20:14:02.552657 12938 net.cpp:359] relu1 -> conv1 (in-place)
I1009 20:14:02.552670 12938 net.cpp:122] Setting up relu1
I1009 20:14:02.552677 12938 net.cpp:129] Top shape: 10 96 55 55 (2904000)
I1009 20:14:02.552682 12938 layer_factory.hpp:74] Creating layer pool1
I1009 20:14:02.552690 12938 net.cpp:92] Creating Layer pool1
I1009 20:14:02.552695 12938 net.cpp:412] pool1 <- conv1
I1009 20:14:02.552716 12938 net.cpp:370] pool1 -> pool1
I1009 20:14:02.552726 12938 net.cpp:122] Setting up pool1
I1009 20:14:02.552736 12938 net.cpp:129] Top shape: 10 96 27 27 (699840)
I1009 20:14:02.552741 12938 layer_factory.hpp:74] Creating layer norm1
I1009 20:14:02.552747 12938 net.cpp:92] Creating Layer norm1
I1009 20:14:02.552752 12938 net.cpp:412] norm1 <- pool1
I1009 20:14:02.552759 12938 net.cpp:370] norm1 -> norm1
I1009 20:14:02.552765 12938 net.cpp:122] Setting up norm1
I1009 20:14:02.552773 12938 net.cpp:129] Top shape: 10 96 27 27 (699840)
I1009 20:14:02.552778 12938 layer_factory.hpp:74] Creating layer conv2
I1009 20:14:02.552786 12938 net.cpp:92] Creating Layer conv2
I1009 20:14:02.552790 12938 net.cpp:412] conv2 <- norm1
I1009 20:14:02.552798 12938 net.cpp:370] conv2 -> conv2
I1009 20:14:02.552804 12938 net.cpp:122] Setting up conv2
I1009 20:14:02.559981 12938 net.cpp:129] Top shape: 10 256 27 27 (1866240)
I1009 20:14:02.560010 12938 layer_factory.hpp:74] Creating layer relu2
I1009 20:14:02.560021 12938 net.cpp:92] Creating Layer relu2
I1009 20:14:02.560026 12938 net.cpp:412] relu2 <- conv2
I1009 20:14:02.560034 12938 net.cpp:359] relu2 -> conv2 (in-place)
I1009 20:14:02.560041 12938 net.cpp:122] Setting up relu2
I1009 20:14:02.560048 12938 net.cpp:129] Top shape: 10 256 27 27 (1866240)
I1009 20:14:02.560053 12938 layer_factory.hpp:74] Creating layer pool2
I1009 20:14:02.560061 12938 net.cpp:92] Creating Layer pool2
I1009 20:14:02.560065 12938 net.cpp:412] pool2 <- conv2
I1009 20:14:02.560073 12938 net.cpp:370] pool2 -> pool2
I1009 20:14:02.560081 12938 net.cpp:122] Setting up pool2
I1009 20:14:02.560091 12938 net.cpp:129] Top shape: 10 256 13 13 (432640)
I1009 20:14:02.560096 12938 layer_factory.hpp:74] Creating layer norm2
I1009 20:14:02.560106 12938 net.cpp:92] Creating Layer norm2
I1009 20:14:02.560111 12938 net.cpp:412] norm2 <- pool2
I1009 20:14:02.560117 12938 net.cpp:370] norm2 -> norm2
I1009 20:14:02.560123 12938 net.cpp:122] Setting up norm2
I1009 20:14:02.560130 12938 net.cpp:129] Top shape: 10 256 13 13 (432640)
I1009 20:14:02.560135 12938 layer_factory.hpp:74] Creating layer conv3
I1009 20:14:02.560144 12938 net.cpp:92] Creating Layer conv3
I1009 20:14:02.560149 12938 net.cpp:412] conv3 <- norm2
I1009 20:14:02.560156 12938 net.cpp:370] conv3 -> conv3
I1009 20:14:02.560163 12938 net.cpp:122] Setting up conv3
I1009 20:14:02.580435 12938 net.cpp:129] Top shape: 10 384 13 13 (648960)
I1009 20:14:02.580449 12938 layer_factory.hpp:74] Creating layer relu3
I1009 20:14:02.580456 12938 net.cpp:92] Creating Layer relu3
I1009 20:14:02.580461 12938 net.cpp:412] relu3 <- conv3
I1009 20:14:02.580468 12938 net.cpp:359] relu3 -> conv3 (in-place)
I1009 20:14:02.580476 12938 net.cpp:122] Setting up relu3
I1009 20:14:02.580481 12938 net.cpp:129] Top shape: 10 384 13 13 (648960)
I1009 20:14:02.580485 12938 layer_factory.hpp:74] Creating layer conv4
I1009 20:14:02.580493 12938 net.cpp:92] Creating Layer conv4
I1009 20:14:02.580497 12938 net.cpp:412] conv4 <- conv3
I1009 20:14:02.580505 12938 net.cpp:370] conv4 -> conv4
I1009 20:14:02.580513 12938 net.cpp:122] Setting up conv4
I1009 20:14:02.595852 12938 net.cpp:129] Top shape: 10 384 13 13 (648960)
I1009 20:14:02.595867 12938 layer_factory.hpp:74] Creating layer relu4
I1009 20:14:02.595875 12938 net.cpp:92] Creating Layer relu4
I1009 20:14:02.595880 12938 net.cpp:412] relu4 <- conv4
I1009 20:14:02.595890 12938 net.cpp:359] relu4 -> conv4 (in-place)
I1009 20:14:02.595898 12938 net.cpp:122] Setting up relu4
I1009 20:14:02.595904 12938 net.cpp:129] Top shape: 10 384 13 13 (648960)
I1009 20:14:02.595909 12938 layer_factory.hpp:74] Creating layer conv5
I1009 20:14:02.595924 12938 net.cpp:92] Creating Layer conv5
I1009 20:14:02.595937 12938 net.cpp:412] conv5 <- conv4
I1009 20:14:02.595944 12938 net.cpp:370] conv5 -> conv5
I1009 20:14:02.595952 12938 net.cpp:122] Setting up conv5
I1009 20:14:02.606211 12938 net.cpp:129] Top shape: 10 256 13 13 (432640)
I1009 20:14:02.606230 12938 layer_factory.hpp:74] Creating layer relu5
I1009 20:14:02.606237 12938 net.cpp:92] Creating Layer relu5
I1009 20:14:02.606242 12938 net.cpp:412] relu5 <- conv5
I1009 20:14:02.606250 12938 net.cpp:359] relu5 -> conv5 (in-place)
I1009 20:14:02.606256 12938 net.cpp:122] Setting up relu5
I1009 20:14:02.606261 12938 net.cpp:129] Top shape: 10 256 13 13 (432640)
I1009 20:14:02.606266 12938 layer_factory.hpp:74] Creating layer pool5
I1009 20:14:02.606276 12938 net.cpp:92] Creating Layer pool5
I1009 20:14:02.606281 12938 net.cpp:412] pool5 <- conv5
I1009 20:14:02.606288 12938 net.cpp:370] pool5 -> pool5
I1009 20:14:02.606295 12938 net.cpp:122] Setting up pool5
I1009 20:14:02.606305 12938 net.cpp:129] Top shape: 10 256 6 6 (92160)
I1009 20:14:02.606310 12938 layer_factory.hpp:74] Creating layer fc6
I1009 20:14:02.606318 12938 net.cpp:92] Creating Layer fc6
I1009 20:14:02.606324 12938 net.cpp:412] fc6 <- pool5
I1009 20:14:02.606331 12938 net.cpp:370] fc6 -> fc6
I1009 20:14:02.606339 12938 net.cpp:122] Setting up fc6
I1009 20:14:03.463795 12938 net.cpp:129] Top shape: 10 4096 (40960)
I1009 20:14:03.463835 12938 layer_factory.hpp:74] Creating layer relu6
I1009 20:14:03.463850 12938 net.cpp:92] Creating Layer relu6
I1009 20:14:03.463856 12938 net.cpp:412] relu6 <- fc6
I1009 20:14:03.463865 12938 net.cpp:359] relu6 -> fc6 (in-place)
I1009 20:14:03.463873 12938 net.cpp:122] Setting up relu6
I1009 20:14:03.463879 12938 net.cpp:129] Top shape: 10 4096 (40960)
I1009 20:14:03.463884 12938 layer_factory.hpp:74] Creating layer drop6
I1009 20:14:03.463892 12938 net.cpp:92] Creating Layer drop6
I1009 20:14:03.463896 12938 net.cpp:412] drop6 <- fc6
I1009 20:14:03.463903 12938 net.cpp:359] drop6 -> fc6 (in-place)
I1009 20:14:03.463910 12938 net.cpp:122] Setting up drop6
I1009 20:14:03.463918 12938 net.cpp:129] Top shape: 10 4096 (40960)
I1009 20:14:03.463923 12938 layer_factory.hpp:74] Creating layer fc7
I1009 20:14:03.463932 12938 net.cpp:92] Creating Layer fc7
I1009 20:14:03.463937 12938 net.cpp:412] fc7 <- fc6
I1009 20:14:03.463944 12938 net.cpp:370] fc7 -> fc7
I1009 20:14:03.463953 12938 net.cpp:122] Setting up fc7
I1009 20:14:03.852095 12938 net.cpp:129] Top shape: 10 4096 (40960)
I1009 20:14:03.852138 12938 layer_factory.hpp:74] Creating layer relu7
I1009 20:14:03.852149 12938 net.cpp:92] Creating Layer relu7
I1009 20:14:03.852156 12938 net.cpp:412] relu7 <- fc7
I1009 20:14:03.852165 12938 net.cpp:359] relu7 -> fc7 (in-place)
I1009 20:14:03.852174 12938 net.cpp:122] Setting up relu7
I1009 20:14:03.852180 12938 net.cpp:129] Top shape: 10 4096 (40960)
I1009 20:14:03.852185 12938 layer_factory.hpp:74] Creating layer drop7
I1009 20:14:03.852193 12938 net.cpp:92] Creating Layer drop7
I1009 20:14:03.852198 12938 net.cpp:412] drop7 <- fc7
I1009 20:14:03.852205 12938 net.cpp:359] drop7 -> fc7 (in-place)
I1009 20:14:03.852210 12938 net.cpp:122] Setting up drop7
I1009 20:14:03.852218 12938 net.cpp:129] Top shape: 10 4096 (40960)
I1009 20:14:03.852223 12938 layer_factory.hpp:74] Creating layer fc8
I1009 20:14:03.852233 12938 net.cpp:92] Creating Layer fc8
I1009 20:14:03.852238 12938 net.cpp:412] fc8 <- fc7
I1009 20:14:03.852246 12938 net.cpp:370] fc8 -> fc8
I1009 20:14:03.852257 12938 net.cpp:122] Setting up fc8
I1009 20:14:03.852463 12938 net.cpp:129] Top shape: 10 2 (20)
I1009 20:14:03.852470 12938 layer_factory.hpp:74] Creating layer fc8_fc8_0_split
I1009 20:14:03.852478 12938 net.cpp:92] Creating Layer fc8_fc8_0_split
I1009 20:14:03.852483 12938 net.cpp:412] fc8_fc8_0_split <- fc8
I1009 20:14:03.852491 12938 net.cpp:370] fc8_fc8_0_split -> fc8_fc8_0_split_0
I1009 20:14:03.852499 12938 net.cpp:370] fc8_fc8_0_split -> fc8_fc8_0_split_1
I1009 20:14:03.852506 12938 net.cpp:122] Setting up fc8_fc8_0_split
I1009 20:14:03.852524 12938 net.cpp:129] Top shape: 10 2 (20)
I1009 20:14:03.852536 12938 net.cpp:129] Top shape: 10 2 (20)
I1009 20:14:03.852541 12938 layer_factory.hpp:74] Creating layer accuracy
I1009 20:14:03.852550 12938 net.cpp:92] Creating Layer accuracy
I1009 20:14:03.852555 12938 net.cpp:412] accuracy <- fc8_fc8_0_split_0
I1009 20:14:03.852560 12938 net.cpp:412] accuracy <- label_data_1_split_0
I1009 20:14:03.852567 12938 net.cpp:370] accuracy -> accuracy
I1009 20:14:03.852574 12938 net.cpp:122] Setting up accuracy
…
